aa2_models/model4.pt (torch_old, 30105 bytes, 138 tensors)

lin1.weight f4 [3, 7]
00000000: 3e79 1fbe 7542 90be d162 f13d a466 8fbd
00000010: d8a6 803d 7c19 cabd d709 fdbd 0533 aebe
00000020: 4a29 b8be 6fe2 7e3e 0168 b2be 3233 15be
00000030: 1687 003e 2ab0 1bbe 8dc8 bb3e 4501 d63d
00000040: 8e06 9fbe c617 b1bd 9027 693e aee0 703e
00000050: 8bbe a73e
-0.15573594 -0.28175703 0.11786426 -0.07001999 0.06281823 -0.09868142 -0.123553924 -0.340233
-0.35969 0.24891065 -0.34844974 -0.1457031 0.12551531 -0.1520392 0.36676446 0.10449461
-0.31059688 -0.086471125 0.22768998 0.23523208 0.3276256

lin1.bias f4 [3]
00000000: 1674 b83c 9b0a 733e 04a1 14be
0.022516292 0.23734514 -0.14514548

lin2.weight f4 [3, 3]
00000000: aa6e ef3e 0711 ad3e e1a1 153f c27a 2ebe
00000010: bf95 c7be 5682 06bf 74ed 5fbd 06d8 1a3f
00000020: fcff bebe
0.46764117 0.33802053 0.5845013 -0.17039016 -0.38981435 -0.52542627 -0.054669812 0.60485876
-0.37304676

lin2.bias f4 [3]
00000000: ef8b 05bf b64b aa3e 6ed9 e63d
-0.52166647 0.33260888 0.1127194

GRU.weight_ih_l0 f4 [9, 3]
00000000: 290e 9abc 195c 823e 2212 a53e 7a4a c9be
00000010: 9ea9 753e 99ec 7b3e 2fa9 d3be 138d d5be
00000020: 8297 f0bd e2a5 cf3d 13ac dc3e 7dd4 31be
00000030: 74c8 19be 14a5 0b3f 36e8 953e 7063 6dbb
00000040: eee7 0d3e 3e16 e83e 6992 12bf 958d fb3d
00000050: dafd fe3e e6ee c23e 446f 443e 1c53 81be
00000060: b244 a33e 67e0 3fbe ba6e 273e
-0.01880558 0.2546089 0.32240397 -0.39314634 0.23990485 0.24601974 -0.41340014 -0.41709194
-0.11747648 0.101390615 0.43100032 -0.17366214 -0.15017873 0.54548764 0.29278725 -0.00362226
0.13858005 0.4532947 -0.57254654 0.12282864 0.49803048 0.3807289 0.1918307 -0.2525872
0.31888348 -0.18737946 0.16350833

GRU.weight_hh_l0 f4 [9, 3]
00000000: 45ad e7be 6109 343e 2ae5 7dbe 12cf 573e
00000010: bf13 15be c941 633d 3644 e7bd ae33 01bf
00000020: 1a9f 3cbe 7f4d 0a3f 19ee 67bd d32f 1c3e
00000030: 78fd 82be a5b5 02be 328f c3be 538c 93be
00000040: 50e4 a0be fe99 d2be 40c3 063f 1ab8 a5bd
00000050: 7771 a2be a949 92be ffee b7be 6ae8 c83d
00000060: 24d1 763e ef1e 55be b1e8 04be
-0.45249382 0.17581703 -0.2479445 0.21075085 -0.14558314 0.05548266 -0.11292307 -0.5046948
-0.18420067 0.540245 -0.056623552 0.15252618 -0.25584006 -0.12764604 -0.38195187 -0.28817996
-0.3142419 -0.41133112 0.5264168 -0.08091755 -0.31727192 -0.28571823 -0.35924527 0.098099545
0.24103218 -0.20812581 -0.1297939

GRU.bias_ih_l0 f4 [9]
00000000: 0e92 c8be d9ee a23e 9b71 39be cb3d acbd
00000010: 3242 a63d 959a e73e 82e6 703d 43ca 0ebc
00000020: 4081 1abf
-0.3917393 0.3182285 -0.18109743 -0.084102236 0.081180945 0.45235124 0.05881358 -0.008715215
-0.6035347

GRU.bias_hh_l0 f4 [9]
00000000: b129 6c3d ddbd ec3e e735 543e 4ee9 afbd
00000010: f643 cbbe 7922 ad3d d4b9 81be 8a25 d2bd
00000020: 6abd 8b3e
0.057656948 0.46238604 0.20723687 -0.08589421 -0.39700288 0.08453841 -0.25337088 -0.10261066
0.2729295

GRU.weight_ih_l1 f4 [9, 3]
00000000: f10f 023f 34e7 893e ffad de3e 5a16 40bd
00000010: 26dc dcbe 596c 39bd 1fec d43e 4e15 a6be
00000020: e67d d13e db9c f43e 2132 e1be 3231 623e
00000030: 0f75 e7be 5b38 11bf e8e8 8abe 0abc e53e
00000040: c6f7 9dbe 4c20 863e 7de3 5f3e e327 c13a
00000050: ada3 04bf e1ae 06bf 7ff2 553e d7e4 db3c
00000060: bdaf ea3e 82f9 51be cbae d5be
0.50805575 0.26934206 0.43492123 -0.046896316 -0.4313671 -0.045269344 0.41586396 -0.3243813
0.40916365 0.4777592 -0.43983558 0.22089079 -0.45206496 -0.56726617 -0.27130818 0.44870025
-0.308531 0.26196516 0.21864124 0.0014736619 -0.5181225 -0.52610594 0.20893286 0.026842518
0.45837203 -0.20505336 -0.4173492

GRU.weight_hh_l1 f4 [9, 3]
00000000: 581b 9c3e df3f c03e f7ed f33e 9e7a 05bc
00000010: d942 933d 608e 06bf a3c2 00bf 8780 c03e
00000020: 2b04 ff3e 0329 773d d662 803e 4f91 103f
00000030: 50b7 88be 90cf 033f 1b6f fdbe bba9 91bd
00000040: a149 313e 1d45 853e 35d4 3abe ead9 903e
00000050: 5f8d cc3e b9fd ae3c 7e6c 59be c234 023f
00000060: bd59 1b3f 1f79 0ebe 50cc 07bf
0.30489612 0.3754873 0.4764249 -0.00814691 0.071904846 -0.52560997 -0.5029699 0.3759806
0.49807867 0.060341846 0.25075406 0.56471723 -0.26702356 0.5148859 -0.4949883 -0.07112452
0.17313243 0.26029292 -0.18245013 0.28291255 0.39951608 0.021361219 -0.21232793 0.5086175
0.60683805 -0.13913392 -0.5304613

GRU.bias_ih_l1 f4 [9]
00000000: 30f0 ff3e c1cb 693e b338 f8be 085b 9b3e
00000010: 01a9 4e3e c389 bbbe a26c d03e 6031 b3be
00000020: 5d89 f2be
0.49987936 0.22831632 -0.48480758 0.3034289 0.20181657 -0.3662854 0.4070788 -0.34998608
-0.47370425

GRU.bias_hh_l1 f4 [9]
00000000: 99c8 263e 7ee3 6bbe ba50 d6bd 3ce7 663e
00000010: c4f5 013f 69b3 a63d 13cf 2dbe f53e f43d
00000020: ba78 f7be
0.1628746 -0.23036 -0.10464616 0.22549146 0.50765634 0.081396885 -0.16973524 0.119260706
-0.48334295

GRU.weight_ih_l2 f4 [9, 3]
00000000: 36ed 013f 2a9c 7f3d 80e7 b13e 5cff 8f3e
00000010: c93b 48be 4ca0 b3bc 9b5b f93e 5c7b f8be
00000020: 6bf6 bc3e 73af 0abf ffff cb3c 88de 9b3a
00000030: ad54 c73e 6b99 96be 1db5 b53d c8b8 59be
00000040: e078 023d bbbb 3fbe 1046 103f da17 83be
00000050: 96c2 c63e 5d63 083f c6be 043e 6697 023e
00000060: 5b55 963d 09e7 653e 9200 05bf
0.5075258 0.06240479 0.34746933 0.2812451 -0.19554056 -0.021927021 0.48702702 -0.48531616
0.36906752 -0.54173964 0.024902342 0.0011891881 0.3893179 -0.29413924 0.08872435 -0.21261895
0.031853557 -0.18723957 0.56356907 -0.25604135 0.38820332 0.53276616 0.129634 0.12753066
0.07340499 0.22451414 -0.51953995

GRU.weight_hh_l2 f4 [9, 3]
00000000: 07d8 933e 240f 973e 5b84 3a3e dcb5 37be
00000010: 9d4d 223e be09 babe 4884 6abe 2583 18bf
00000020: 4479 363e d51b 00bf e365 b83e 7bb6 b13d
00000030: af49 e8be 4c47 f03d f928 503c 303d 01bd
00000040: 2d29 a6bd c640 b43d 6f3a e83e 24f3 f8bd
00000050: d2d0 503e 5a36 cfbd 290a 053f bd27 243e
00000060: 1d69 6cbe c54a 5b3e 5416 1abf
0.28875753 0.2950374 0.18214552 -0.17940468 0.1584992 -0.36335558 -0.22902024 -0.5957511
0.17819697 -0.5004247 0.36015233 0.086773835 -0.45368716 0.11732349 0.012705081 -0.031552494
-0.081133224 0.08801417 0.4535708 -0.121557504 0.20392159 -0.101177886 0.5196863 0.16030784
-0.23086973 0.21415241 -0.6019032

GRU.bias_ih_l2 f4 [9]
00000000: cefa 63be 1e3a 0f3e 2d7c 653e 2e9a 9f3e
00000010: 375c 9d3e eec6 f4bd 821f f33d afc3 42be
00000020: c8cd e73e
-0.22263643 0.13987014 0.2241065 0.31172317 0.30734417 -0.11952005 0.11871244 -0.1901996
0.45274186

GRU.bias_hh_l2 f4 [9]
00000000: 63a4 1fbe d6c4 e93e 4b83 4bbe ee45 a33e
00000010: 3260 5a3e a4f0 193f ba92 a43e 2890 583d
00000020: 6c0d 70be
-0.15590052 0.45657986 -0.19874303 0.3188929 0.21325758 0.60132813 0.32143193 0.052871853
-0.2344262

GRU.weight_ih_l3 f4 [9, 3]
00000000: c1ef 67bc 0ea1 d4bc 7932 093f 914a 1dbd
00000010: 39d5 6abe 001c d93e 50eb 173f 837b 36be
00000020: 811d 9dbd 8cd2 793e 28c5 053f 7783 03be
00000030: 745e 07bf 7639 7abd 30e8 b53e a238 edbe
00000040: 2737 bcbe b0a3 063e 3904 76be ed6a 41bd
00000050: e1f3 a63e 19e2 1a3f cf24 c1be 9661 4abc
00000060: 7a92 143e 795a d33e 9c30 9d3b
-0.014156283 -0.025955703 0.5359264 -0.03840119 -0.229329 0.42404175 0.59343433 -0.17820553
-0.07671643 0.24396724 0.5225396 -0.12843119 -0.528785 -0.061089955 0.35528708 -0.4633227
-0.36760828 0.1314838 -0.24025048 -0.047221113 0.3260794 0.6050125 -0.37723395 -0.012352368
0.14509001 0.41279963 0.0047970545

GRU.weight_hh_l3 f4 [9, 3]
00000000: 3eaf 9fbd 07c0 0e3f f172 383e 0637 ed3e
00000010: fb72 073f 54b6 493e b605 05be 3f20 a9be
00000020: c6d3 133f bd23 fcbe 1e1d d4be 03da 05bf
00000030: fbc9 ce3e 33d2 973d fdf6 ca3e 5777 7a3e
00000040: f626 d63d dfa5 efbe e660 edbe 5605 41bc
00000050: db1a 5a3e e1ba fcbe bc06 6abe 3081 53be
00000060: 228c 02bf 565a 043f 1df1 bebe
-0.07797097 0.5576176 0.18012597 0.46331042 0.5290982 0.19698459 -0.1299046 -0.33032414
0.57745016 -0.49246016 -0.41428465 -0.52285784 0.40388474 0.07413139 0.39641562 0.24459587
0.1045665 -0.46806237 -0.4636299 -0.011781057 0.21299307 -0.49361327 -0.22854131 -0.2065475
-0.50995076 0.5170034 -0.3729333

GRU.bias_ih_l3 f4 [9]
00000000: 80ef 9cbe 9127 ad3e d5c4 83be 59d0 d33e
00000010: b41b 953e 3246 a6be ac0e c4bd a048 0e3f
00000020: 1799 c63d
-0.30651474 0.3381925 -0.25736108 0.41369894 0.29122698 -0.3247543 -0.09573111 0.55579567
0.09697168

GRU.bias_hh_l3 f4 [9]
00000000: b7c5 e4be 291a 883e 0bf5 04bf 4985 d3bd
00000010: 491d c13d 69d1 1bbf d7e9 b8be 96ae a33d
00000020: 423d d73e
-0.44682094 0.2658246 -0.51936406 -0.103281565 0.09429414 -0.6086641 -0.36115906 0.07992284
0.42038924

GRU.weight_ih_l4 f4 [9, 3]
00000000: 212f 46be 22c6 35be 9498 f3be 5b04 b2be
00000010: e2b8 0dbe bc6b 6cbd b30f bb3d c5aa c9be
00000020: 3d28 2cbe 0065 ef3e d859 6a3e 6282 95be
00000030: 1373 303e f035 7d3e 2315 a23a 9c74 373e
00000040: 076a fd3c 2201 be3e fc49 143f 12a9 75be
00000050: b7b7 9bbe 18f4 babe 7247 a5bc 7d28 f33d
00000060: b591 b43e 47da 89be 353e 65bd
-0.19353916 -0.17751363 -0.47577345 -0.34768948 -0.13840058 -0.05771993 0.09133854 -0.393881
-0.16812225 0.46756744 0.22885835 -0.29201037 0.17231397 0.24727607 0.0012365918 0.17915577
0.030934347 0.3711024 0.5792539 -0.23990276 -0.304136 -0.36514354 -0.02017567 0.11872957
0.35267416 -0.26924345 -0.05596753

GRU.weight_hh_l4 f4 [9, 3]
00000000: 4f20 fbbd 6038 ecbe 7117 193f 1842 29be
00000010: 9171 34be dc7e 96be edea debe e385 a0be
00000020: 3bc8 f93e 5cc6 953d 09b7 ddbe ad90 313e
00000030: fddd fa3e ace5 f8be 2eb6 45bc e911 2bbc
00000040: 7850 d33e 33a1 b5be 3a27 6abd c273 95be
00000050: 641c 32be d79f f9bd 59de fdbe e0b8 483d
00000060: 0688 eabe e66c de3e 54b7 07bf
-0.12262022 -0.4613676 0.59801394 -0.16529119 -0.17621447 -0.2939366 -0.4353861 -0.31352147
0.48785576 0.07313225 -0.43303707 0.17340346 0.4899749 -0.48612726 -0.012067361 -0.010441282
0.4127233 -0.35474548 -0.057166316 -0.2918988 -0.17393643 -0.1218869 -0.495837 0.049004436
-0.45806903 0.43442458 -0.5301411

GRU.bias_ih_l4 f4 [9]
00000000: 8458 23bd 5abe b83e b6e4 bdbe 278d 3e3e
00000010: 78af 073f 7f62 063f a9c5 d23d 98ab 1bbf
00000020: d557 eabb
-0.039879337 0.36082727 -0.37088555 0.18608533 0.5300212 0.52494043 0.10291607 -0.60808706
-0.0071515837

GRU.bias_hh_l4 f4 [9]
00000000: 4c5c 293e a41c 28bc a8fc 073f 69e7 c03e
00000010: 0ff3 bc3e 948f e1bd adbb 28be 131b 91be
00000020: 2ab3 713d
0.16539115 -0.010260735 0.531199 0.37676552 0.3690419 -0.110137135 -0.16477843 -0.28340968
0.059008755

GRU.weight_ih_l5 f4 [9, 3]
00000000: 28f4 00bf cc8f 123e 1ce8 5dbe e429 ac3e
00000010: a3f5 d4be 37f9 e43d 2a59 12bf 0050 4abe
00000020: a843 133e b550 193f 4f05 cebd 7fa8 6e3d
00000030: 9009 98be 81d9 723e b5a4 debe ebab 733e
00000040: 80c6 673e a79e 0d3d 614c 3d3e c5c7 043f
00000050: 5c05 053f af61 bd3e 4591 a63e 3e48 05be
00000060: 5b5a 853e 5839 e03e f4a7 d3be
-0.5037255 0.14312667 -0.21670574 0.3362571 -0.41593656 0.111803465 -0.57167304 -0.1975708
0.14381278 0.59888774 -0.10059606 0.05826616 -0.29694796 0.23715784 -0.43485036 0.2379605
0.22634315 0.03457513 0.18486167 0.51867324 0.519613 0.3698859 0.32532707 -0.1301584
0.26045498 0.4379375 -0.41339076

GRU.weight_hh_l5 f4 [9, 3]
00000000: 5fc3 443e 0cc1 86bd 8792 f13e bb6e d33d
00000010: 6f28 e6be 4956 45be dc6d c8be 231a cd3d
00000020: 56b2 803d fbd9 8abd 58af 91be bfe7 403e
00000030: 3247 b63e 6851 dfbe 6fbf fcbe b4e7 bbbd
00000040: 4ce7 bdbe fc5b d9be 5104 0abe af7c 353e
00000050: 9cd2 193f cc06 063f e85d dfbe 804f cc3e
00000060: a3c6 4a3d 6a92 aebc 71ca 413e
0.19215153 -0.065797895 0.47182104 0.103238545 -0.44952723 -0.19271196 -0.39146316 0.10014751
0.06284015 -0.06779858 -0.2845409 0.18838404 0.35601193 -0.43616796 -0.49364802 -0.09175053
-0.37090528 -0.4245299 -0.13478209 0.17723344 0.6008699 0.5235412 -0.43626332 0.39904404
0.04950584 -0.02131005 0.18924882

GRU.bias_ih_l5 f4 [9]
00000000: 4ac6 efbd c674 adbe be09 9abe 93e3 873e
00000010: 9038 3c3e cacc bcbe 183c 2abe 3202 713e
00000020: d9f5 2bbe
-0.117077425 -0.33878154 -0.30085558 0.26540813 0.18380952 -0.36874992 -0.16624486 0.23535994
-0.16793002

GRU.bias_hh_l5 f4 [9]
00000000: 7ec5 f3bd 36fb 1d3f c136 fe3e bf91 ce3e
00000010: b5e6 9e3d a5c2 3e3e d56e a63e 69cd b43e
00000020: 7b39 0abf
-0.11902903 0.6171144 0.4965115 0.4034557 0.077588476 0.18628938 0.32506433 0.35312966
-0.5399396

GRU.weight_ih_l6 f4 [9, 3]
00000000: e27d a6be 3c7b 663e 425d 1c3e ec2d bb3e
00000010: 7b80 f8be cab8 063e 8547 b0be 49d2 dbbe
00000020: 755b 20be 5d68 d03e 570e cabe 33af 263e
00000030: 69b1 d4be 9709 d03e 2702 1a3e c17c 893b
00000040: cbb3 a5be d131 b73e 2687 a9be 39a4 09be
00000050: 43b9 3dbd d83f 89bd 9c52 263e d015 b1bd
00000060: d150 6e3d 0e7f 303c 4f71 343e
-0.32517916 0.22507948 0.1526995 0.36558473 -0.48535523 0.13156429 -0.34429565 -0.42933872
-0.15659888 0.40704623 -0.39464065 0.1627777 -0.41541603 0.40632316 0.15039884 0.00419578
-0.32363734 0.35780194 -0.33110923 -0.13441552 -0.046319257 -0.0670163 0.1624245 -0.086467385
0.05818254 0.01077248 0.17621349

GRU.weight_hh_l6 f4 [9, 3]
00000000: 80ff 49bd fbee 0cbf 3f19 d53e ee7f e83e
00000010: c432 773d 0e47 b03e c3aa b8bd 047b e8be
00000020: 92b6 5a3e 2d9b c5be 7bde a4be d4c9 223e
00000030: c212 a63d 419e 063f 0202 a4be e5af 39bd
00000040: 6997 523e d500 933e 979d 33be 4f83 0dbe
00000050: 1df9 7ebc f004 233d 785b b43e c02e fcbe
00000060: 7872 ba3e b648 ff3e 8532 003f
-0.04931593 -0.55052155 0.41620824 0.45410103 0.06035115 0.3442921 -0.09016945 -0.45406353
0.21358708 -0.38594952 -0.3220099 0.15897304 0.081090465 0.52585226 -0.32032782 -0.04533376
0.20565571 0.28711572 -0.17540585 -0.13819622 -0.015562323 0.03979963 0.35226035 -0.49254417
0.36415458 0.49860162 0.50077087

GRU.bias_ih_l6 f4 [9]
00000000: 502a 203e 5ddb ba3e f289 813d 4d5e f8be
00000010: 0735 853e 29f0 b0be 4221 8cbe 72ab c83e
00000020: 96b0 8ebe
0.15641141 0.36495486 0.06325139 -0.48509446 0.2601702 -0.34558228 -0.27369124 0.39193302
-0.278691

GRU.bias_hh_l6 f4 [9]
00000000: 8f8b ccbe b503 a33e ea80 d2be b495 00bf
00000010: a238 a1be 4f88 0cbf 4c0d f0be 74fc e43c
00000020: f074 673e
-0.39950225 0.31838766 -0.4111398 -0.5022843 -0.3148852 -0.5489549 -0.46885145 0.02795241
0.22603202

GRU.weight_ih_l7 f4 [9, 3]
00000000: c29e 333e f482 383e 6f7f ee3c 1be9 11bf
00000010: a720 833d 4a29 d6bd 683c 02bf b465 f83e
00000020: fc1a fabe 4621 7ebe 3647 ffbe b68c 1f3f
00000030: 461b 9b3e 1b0e 4ebe 6a5c a03d c55e 153f
00000040: c205 cebe e188 a8be 6f88 ef3d 24cd a2bc
00000050: ef05 f7bd 3311 88bd 8bd5 1cbd 9b5d 7f3d
00000060: 2b8a f13e 8026 34be da87 79be
0.1754103 0.18018705 0.0291135 -0.56996316 0.06402712 -0.10457094 -0.5087342 0.48515093
-0.48848712 -0.2481738 -0.49859017 0.6232408 0.30294245 -0.20122568 0.078301266 0.5834773
-0.40238768 -0.3291693 0.116959445 -0.01987321 -0.120616786 -0.066439055 -0.038289588 0.06234513
0.47175726 -0.17592812 -0.2436823

GRU.weight_hh_l7 f4 [9, 3]
00000000: 887b a33e 30ec 143f f2a2 9e3e 34e8 32be
00000010: 4f38 a5be 2f72 33be 9c01 d83d e75e 98bd
00000020: 1c12 253e 97a3 393e 3832 113f 038e e8be
00000030: 4d1f acbe 09cd f93e 24de a3be ec28 cbbe
00000040: e2a5 fdba d649 13bf 567d 00bd eda7 183f
00000050: fa5f dd3e 3478 a23e ff82 c0bd 5437 5dbe
00000060: 3c3d 783e c5b9 adbe 9be4 053f
0.31930184 0.58172894 0.30983692 -0.17471391 -0.32269523 -0.17524026 0.10547182 -0.07439976
0.1612019 0.18128811 0.5671725 -0.45420846 -0.3361763 0.48789242 -0.32005417 -0.39679658
-0.0019351805 -0.5753454 -0.03136953 0.59631234 0.43237287 0.31732333 -0.093999855 -0.21603137
0.24242109 -0.33930793 0.5230195

GRU.bias_ih_l7 f4 [9]
00000000: bc41 9e3e 5ce6 0abe 3e73 013f c886 8c3e
00000010: d36a 7abe a114 09bf 3dcd 0ebf 559a b1be
00000020: e428 3a3e
0.30909526 -0.13564438 0.5056647 0.2744658 -0.24454813 -0.535471 -0.5578192 -0.34688058
0.18179661

GRU.bias_hh_l7 f4 [9]
00000000: 24c6 0bbe 9505 a23e cf05 a53e e83a e23e
00000010: c494 22bf b50d 993e 6e2b 053e d255 79be
00000020: 6745 f33e
-0.13649803 0.31644884 0.32230994 0.44185567 -0.6350825 0.2989327 0.13004848 -0.24349144
0.47513887

GRU.weight_ih_l8 f4 [9, 3]
00000000: 12e2 00bf 6ed1 b4bd 442e fc3e 1326 f6bd
00000010: 811c e33e c5f6 d23e 424c 5e3e 570c d0be
00000020: d27a 6fbd d2d2 243e 7cd7 2abe e386 06be
00000030: a2bd dbbe 0a69 393e 3fe3 74be dde1 1f3e
00000040: adb6 9f3e 597e 0b3f 57f6 d0be be3b 57be
00000050: e5da b2be a5d9 003f 87f9 8d3d 96e4 0bbf
00000060: 3d6f 75be 70fe 103d da35 fb3e
-0.50344956 -0.08829008 0.49254048 -0.12018981 0.44357684 0.41203895 0.21708778 -0.40634415
-0.05846674 0.16096047 -0.16683763 -0.13137393 -0.42918116 0.18106475 -0.23914813 0.15613504
0.31194058 0.54489666 -0.40812942 -0.21018884 -0.34932628 0.503321 0.06932359 -0.5464567
-0.23968215 0.0353989 0.49064523

GRU.weight_hh_l8 f4 [9, 3]
00000000: b88e fdbe 79c5 f13e eb60 3fbe 63b5 c5bd
00000010: 9069 b1be e5df 023f ac8f 283e 5015 7abd
00000020: 09ef 56be 8413 acbe 7df1 0fbd e0c1 abbd
00000030: 10cc 823d 7528 ccbe ba96 a3be 02dc e93e
00000040: 0593 053e b8e6 9dbe a6b7 a13e 522b a7be
00000050: fed9 113f 6eed 4ebe 8a9d dd3e bf59 d7bd
00000060: 86c6 e8be d8b7 9d3e c763 babe
-0.49522948 0.47220972 -0.18689315 -0.096537374 -0.3465085 0.51122886 0.16461056 -0.06105548
-0.20989622 -0.3360864 -0.03514241 -0.08386588 0.06386578 -0.39874616 -0.31950933 0.45675665
0.13044365 -0.30840087 0.31585425 -0.32650238 0.56973255 -0.2020776 0.43284255 -0.105151646
-0.4546396 0.30804324 -0.3640425

GRU.bias_ih_l8 f4 [9]
00000000: f486 fbbe a755 093f 7434 0abf 5bb4 07bf
00000010: 7b33 eb3e e8fa 06bf 4f7d d53e 863b ebbe
00000020: c48e 86be
-0.491264 0.5364632 -0.5398629 -0.53009576 0.45937714 -0.527266 0.41697165 -0.4594385
-0.26280797

GRU.bias_hh_l8 f4 [9]
00000000: ed4d 113f 8082 9a3e 246a b43c f7df bd3e
00000010: 6177 06bf e3d8 d6be 172f 5ebd b19d ba3e
00000020: 0141 1c3f
0.5675953 0.3017769 0.022023268 0.37084934 -0.5252591 -0.41962346 -0.054244127 0.36448434
0.6103669

GRU.weight_ih_l9 f4 [9, 3]
00000000: 5b00 103f dc69 04be 5a83 e8be f4e9 113e
00000010: ca31 fbbe fa95 1e3e bda0 c53e beac 16bf
00000020: 6694 6d3e fabe 113e fa1d 0d3d 2d96 623d
00000030: b90c bbbe 7f48 993e 159e 8d3e 0854 17be
00000040: ff45 e63e d5e5 fbbe 9566 5fbe 7a21 973e
00000050: bd35 6ebe 3227 ee3e 854b 92be 7fa1 963e
00000060: 00de 683e 21f5 84be 8a34 18be
0.5625054 -0.12931007 -0.45412713 0.14249402 -0.49061424 0.15486899 0.38599196 -0.58857334
0.23201141 0.14233008 0.034452416 0.055319 -0.36533144 0.29938123 0.2765967 -0.14778149
0.44975278 -0.49198785 -0.21816476 0.29517728 -0.23262687 0.4651428 -0.28573242 0.29420087
0.22740936 -0.2596827 -0.14863792

GRU.weight_hh_l9 f4 [9, 3]
00000000: 2461 d83e d9b5 a43e b34d 96be c616 b7be
00000010: 160f 063e 4da8 b13e 6412 d03e 2f94 d9be
00000020: 7ed1 a53e 7ea3 5a3e a40a 913d c341 0c3e
00000030: 9120 0a3f a661 9c3e 113c 3c3e d8b9 f43e
00000040: 1225 473e 7133 bbbe ab87 a9be b58b 9b3e
00000050: 8f30 ebbd 7fbc 22bf e7b0 8e3d 77dc f43e
00000060: 8b72 943e e782 083f bbdf 78be
0.42261612 0.3216999 -0.29356155 -0.35759562 0.13091692 0.34698716 0.4063903 -0.42495868
0.32386392 0.2135143 0.07082108 0.13696961 0.5395594 0.3054325 0.18382289 0.47798038
0.19447735 -0.36562684 -0.3311132 0.30380026 -0.11483871 -0.6356887 0.06967335 0.4782445
0.2899364 0.5332474 -0.24304096

GRU.bias_ih_l9 f4 [9]
00000000: c1e4 8d3e dfa9 be3d 31ac 193f 6b2e 5bbe
00000010: 4f31 14bf f5be ddbe ca3d 203d 659b e83e
00000020: e742 a23e
0.27713588 0.09309744 0.6002837 -0.21404426 -0.5788774 -0.4330975 0.039121427 0.45431057
0.31691667

GRU.bias_hh_l9 f4 [9]
00000000: 467c 943d fdba a63e 3d61 e2be db25 a9bd
00000010: 44ab be3d 3485 9c3d 6943 cebe 7c32 d93c
00000020: 33e8 ccbd
0.07250266 0.32564536 -0.44214812 -0.082591735 0.0931001 0.07642594 -0.40285805 0.02651333
-0.10005226

lin3.weight f4 [5, 3]
00000000: 43a1 1bbf 661c 963e 114f 86be 626f aabe
00000010: 2e1a a73e a3db d7be ea39 dd3d 28aa 96be
00000020: fddd eebe 1c7c b2be 2e4e e4be 26bd d23e
00000030: b1f6 743c d055 c73d 2e2f 1cbf
-0.6079294 0.2931854 -0.26232198 -0.33288103 0.3263716 -0.42159757 0.10802062 -0.29426694
-0.4665374 -0.34860313 -0.44590896 0.41159934 0.014951394 0.09733164 -0.6100949

lin3.bias f4 [5]
00000000: 2ca4 fd3e af55 efbd f54f 1ebf d768 19bf
00000010: ff95 3dbd
0.49539316 -0.11686265 -0.61840755 -0.599256 -0.046285626

exp_avg f4 [3, 7]
00000000: ae5b 90a2 5a83 9799 3bd1 8d32 0ddd d9b2
00000010: 6c0b 9d33 0000 0000 1547 c733 0e74 82a4
00000020: bce7 681a 2a65 0034 6a60 f334 10b4 4632
00000030: 0000 0000 f530 c532 2120 e0a3 23e4 959a
00000040: d096 30b4 38f2 d8b4 8e2e f733 0000 0000
00000050: b146 1e34
-3.9128348e-18 -1.5666087e-23 1.6509707e-08 -2.5362647e-08 7.31296e-08 0.0 9.2795894e-08 -5.657512e-17
4.816367e-23 1.1957732e-07 4.5332428e-07 1.1566058e-08 0.0 2.2956081e-08 -2.4299736e-17 -6.199353e-23
-1.6446143e-07 -4.0409373e-07 1.1510302e-07 0.0 1.4740614e-07

exp_avg_sq f4 [3, 7]
00000000: a9e4 e319 57b6 791a 92ef ed27 37b9 0a29
00000010: 069b 8227 0000 0000 c7dd c927 6289 dd1d
00000020: 9acc cc1b 11b8 772b daa2 d12a 51db b825
00000030: 0000 0000 f07c 7926 b1eb c11c 0710 491c
00000040: 42f9 862a abda 142b e73f 1428 0000 0000
00000050: 5224 6d28
2.3563605e-23 5.1639286e-23 6.6040457e-15 3.0802804e-14 3.6250325e-15 0.0 5.602916e-15 5.8640263e-21
3.388119e-22 8.800747e-13 3.723886e-13 3.2067527e-16 0.0 8.655855e-16 1.2832593e-21 6.6526036e-22
2.397614e-13 5.2883625e-13 8.229507e-15 0.0 1.31640186e-14

exp_avg f4 [3]
00000000: 4aab 6d36 ca4e d535 ef48 c936
3.5415455e-06 1.5892667e-06 5.9987574e-06

exp_avg_sq f4 [3]
00000000: b279 092d b7fb e12b dae2 a72d
7.81457e-12 1.6057076e-12 1.9086444e-11

exp_avg f4 [3, 3]
00000000: ebd2 1a34 90ec c135 fd95 6fb5 ecc3 41b3
00000010: 68a8 2db5 7a83 7b34 f27b aeb3 eab5 5cb5
00000020: c1cc 2e34
1.4419099e-07 1.4448469e-06 -8.92527e-07 -4.5114504e-08 -6.4692586e-07 2.3424028e-07 -8.125052e-08 -8.2221106e-07
1.6279502e-07

exp_avg_sq f4 [3, 3]
00000000: 24cf 8b29 22d2 e02b 755d d22a 853e 0329
00000010: 28af 962a a7a4 c02a 535a f128 49e1 2c2b
00000020: bff0 042a
6.208773e-14 1.5974481e-12 3.7368342e-13 2.914207e-14 2.6766892e-13 3.4220302e-13 2.6795547e-14 6.141932e-13
1.1807481e-13

exp_avg f4 [3]
00000000: 9679 d436 b7c2 2bb6 3ac3 2cb6
6.332247e-06 -2.5594325e-06 -2.5743634e-06

exp_avg_sq f4 [3]
00000000: 5fee d32d 6492 4a2c ef14 922c
2.409378e-11 2.878719e-12 4.1518937e-12

exp_avg f4 [9, 3]
00000000: c4fb 3a34 a6b4 e2b3 b090 dcb3 97e8 d432
00000010: 3749 87b2 568c dfb1 b3c1 10b5 471c af34
00000020: 5261 ac34 01a6 b330 72f3 4132 7182 bc33
00000030: 86fe e2b1 f095 ae31 fb5f b032 b4d7 d8b4
00000040: 58de e034 5a81 4ab4 6c5d 5f36 d239 07b6
00000050: 90cb 04b6 a86d 4ab5 261e fc34 8430 b934
00000060: 56bf 87b6 5f34 2436 5fbc 2136
1.7414192e-07 -1.0556805e-07 -1.0270867e-07 2.4785818e-08 -1.5749363e-08 -6.5061085e-09 -5.392605e-07 3.2616865e-07
3.2108306e-07 1.3071145e-09 1.1289432e-08 8.778159e-08 -6.6064016e-09 5.0811124e-09 2.0532744e-08 -4.039008e-07
4.1885028e-07 -1.8859774e-07 3.3283968e-06 -2.0150223e-06 -1.9788022e-06 -7.5410435e-07 4.6960594e-07 3.4494235e-07
-4.045588e-06 2.4468388e-06 2.4100516e-06

exp_avg_sq f4 [9, 3]
00000000: a4cc b727 2c6f ff26 c3e4 0427 854b 1825
00000010: 182d 6e24 5f4b 3623 233e 0b2a ef07 3529
00000020: 13d1 5829 5ed1 c529 ba2d 1a2a 87a3 302b
00000030: 053c 8323 777c 5223 94f8 ba25 f5db eb2a
00000040: 1535 e62a 1d7a 9929 eb38 f12c 06b2 172c
00000050: 257a 412c 92bc 472a fcd6 8c29 a2f6 2a29
00000060: a13c fc2c 548d 232c 843a 452c
5.1014575e-15 1.7724313e-15 1.8442692e-15 1.3209485e-16 5.164622e-17 9.8822e-18 1.2367238e-13 4.0196955e-14
4.8142978e-14 8.784877e-14 1.3693812e-13 6.27547e-13 1.4228468e-17 1.1410479e-17 3.24343e-16 4.1897012e-13
4.089304e-13 6.815748e-14 6.855951e-12 2.1557213e-12 2.7494753e-12 1.7740174e-13 6.254543e-14 3.7961503e-14
7.169002e-12 2.3242146e-12 2.8027866e-12

exp_avg f4 [9, 3]
00000000: 55a2 53b4 9f1e f433 8d1d 2b34 d812 f5b2
00000010: 2661 7c32 d307 ca32 dc9c 2135 10c2 bfb4
00000020: 8c6f 01b5 59d9 74b3 6db4 4d32 f01c 6433
00000030: c449 2c32 8018 35ae 6289 28b2 7ab0 ecb3
00000040: 44b7 0b33 ca1e eb33 4289 cbb5 4888 7435
00000050: c85a a235 6e69 2d35 08a1 c7b4 8162 0bb5
00000060: ff18 2b36 f67a ccb5 a3b5 08b6
-1.9709962e-07 1.1367705e-07 1.5936367e-07 -2.8530323e-08 1.46904195e-08 2.3519453e-08 6.0205434e-07 -3.571772e-07
-4.8218567e-07 -5.7008354e-08 1.1973595e-08 5.3111705e-08 1.002849e-08 -4.1176396e-11 -9.810124e-09 -1.1021707e-07
3.253014e-08 1.0948641e-07 -1.5164626e-06 9.10954e-07 1.2096361e-06 6.460094e-07 -3.7183804e-07 -5.192488e-07
2.5495535e-06 -1.5234971e-06 -2.0371306e-06

exp_avg_sq f4 [9, 3]
00000000: 7dd2 e227 2450 0027 80b6 9c27 ff1f 4b25
00000010: 1861 1e24 592e 1425 ab87 162a 6f23 2d29
00000020: 923a d429 8dd5 2d27 fe08 7d24 9cd0 1127
00000030: 9686 cd23 be9d 9520 7f4c d223 ad0e a327
00000040: 8c4e 8c25 edd7 a327 b19e 962b fa25 ac2a
00000050: 4425 5a2b 9195 fa29 f786 0429 b6a3 b129
00000060: 07e7 312c c2d6 4f2b d1ba fa2b
6.2955813e-15 1.7807013e-15 4.3496565e-15 1.7618284e-16 3.434303e-17 1.2852657e-16 1.3369746e-13 3.844445e-14
9.4248516e-14 2.412434e-15 5.4868247e-17 2.023588e-15 2.2283144e-17 2.5345967e-19 2.2800643e-17 4.52575e-15
2.4339354e-16 4.5475695e-15 1.0702187e-12 3.057969e-13 7.7500875e-13 1.1128176e-13 2.942695e-14 7.888778e-14
2.5281459e-12 7.383921e-13 1.781542e-12

exp_avg f4 [9]
00000000: 09c6 b5b4 c54a 4ab3 8509 8d35 803b 8fb3
00000010: d22e 3132 335e 14b4 b451 d9b6 48c1 bf35
00000020: a140 0437
-3.3857967e-07 -4.7099793e-08 1.0508089e-06 -6.6697794e-08 1.0313402e-08 -1.3817844e-07 -6.4766155e-06 1.4286861e-06
7.882861e-06

exp_avg_sq f4 [9]
00000000: 0e91 c328 8083 2626 9528 262b b8f6 8227
00000010: b85c d423 ba14 0728 3e35 192e 7c8a 642b
00000020: 111a 172e
2.1712256e-14 5.7771035e-16 5.9031366e-13 3.634974e-15 2.3024354e-17 7.4985e-15 3.483546e-11 8.119406e-13
3.4356577e-11

exp_avg f4 [9]
00000000: 09c6 b5b4 c54a 4ab3 8509 8d35 803b 8fb3
00000010: d22e 3132 335e 14b4 aed6 32b6 9a82 9535
00000020: 62ea 9536
-3.3857967e-07 -4.7099793e-08 1.0508089e-06 -6.6697794e-08 1.0313402e-08 -1.3817844e-07 -2.6649027e-06 1.1139375e-06
4.467832e-06

exp_avg_sq f4 [9]
00000000: 0e91 c328 8083 2626 9528 262b b8f6 8227
00000010: b85c d423 ba14 0728 2f9a bb2c bac7 022b
00000020: 5ad8 492d
2.1712256e-14 5.7771035e-16 5.9031366e-13 3.634974e-15 2.3024354e-17 7.4985e-15 5.3319775e-12 4.6462454e-13
1.1473567e-11

exp_avg f4 [9, 3]
00000000: 0b37 0a35 82c5 91b4 a265 d2b4 ecb6 7e34
00000010: 715e d1b3 c0c8 53b4 b847 9d34 7f08 e5b3
00000020: 2113 4fb4 e769 8d34 8f21 be32 8228 e9b3
00000030: 8e32 1a34 8114 0931 722e b3b2 2830 a4b0
00000040: 9e9e 5e32 5b39 35b3 55eb c6b6 0537 4436
00000050: ebbc 9136 466c 6c36 a4c2 d1b5 38ae 38b6
00000060: 0554 0fb7 cb96 8236 9115 db36
5.1489104e-07 -2.715206e-07 -3.9189496e-07 2.372214e-07 -9.7495e-08 -1.9723939e-07 2.929571e-07 -1.0665189e-07
-1.9285336e-07 2.634035e-07 2.2134172e-08 -1.0857276e-07 1.436076e-07 1.994778e-09 -2.0859463e-08 -1.1946257e-09
1.2958166e-08 -4.219451e-08 -5.928256e-06 2.9238302e-06 4.3433297e-06 3.5229764e-06 -1.5628361e-06 -2.7519545e-06
-8.5430265e-06 3.8918565e-06 6.5292193e-06

exp_avg_sq f4 [9, 3]
00000000: efb6 f229 ddc9 f628 7049 9b29 4abf 0329
00000010: 3b73 4027 4643 ce28 dc00 8029 2e30 f027
00000020: 64e4 0d29 f439 5028 1f6b 1a25 9ee1 2727
00000030: a79b f427 0863 da22 bc3c 0c25 9293 4b25
00000040: 805b 9824 0ac4 0126 da07 422d ff85 312c
00000050: 15b7 e52c 3e3e 1f2d fe09 ac2b 6ce5 e62c
00000060: c6a2 042e fbc7 b12c 82e6 ac2d
1.0778693e-13 2.739903e-14 6.896122e-14 2.925376e-14 2.670782e-15 2.289977e-14 5.684491e-14 6.666562e-15
3.1506387e-14 1.1558886e-14 1.3393665e-16 2.3298213e-15 6.7892363e-15 5.919387e-18 1.2163642e-16 1.7657442e-16
6.60745e-17 4.502155e-16 1.1029367e-11 2.5227596e-12 6.5288976e-12 9.051924e-12 1.2224108e-12 6.562464e-12
3.0157897e-11 5.052845e-12 1.9656502e-11

exp_avg f4 [9, 3]
00000000: 5f32 d234 9f7b f4b4 3726 b231 85c5 4034
00000010: cff4 51b4 dac9 d432 64b1 3d34 e495 5bb4
00000020: ff44 2632 bb42 6132 0175 43b3 e0e4 7cb2
00000030: cd2c f531 1bdf 92b2 0526 33b2 1ce7 9ab1
00000040: 1b0e 1ab2 e525 30b2 0a74 3cb6 fda4 5a36
00000050: 9f22 84b3 c072 b135 2f80 c8b5 22e0 c533
00000060: ab84 f5b5 d38c 0c36 fe2d cbb3
3.9152198e-07 -4.5538488e-07 5.1848263e-09 1.795325e-07 -1.9553703e-07 2.477184e-08 1.7666531e-07 -2.0450494e-07
9.67816e-09 1.31118965e-08 -4.550839e-08 -1.4720371e-08 7.1355317e-09 -1.7098094e-08 -1.0427816e-08 -4.508264e-09
-8.967187e-09 -1.02531645e-08 -2.8081727e-06 3.2580567e-06 -6.1530265e-08 1.3220924e-06 -1.4938468e-06 9.214297e-08
-1.8292534e-06 2.0943596e-06 -9.46129e-08

exp_avg_sq f4 [9, 3]
00000000: 1cbc 6e29 215b e629 7e9b 7128 0c53 6328
00000010: 111c ad28 ae74 2e26 5f6c a128 ced9 2829
00000020: 1f09 d027 51ee 1024 39fb a125 5a66 4f24
00000030: 36fa 2823 f8e2 a024 77ec b524 4a6a 7f24
00000040: 67b0 3323 e1c5 0124 d436 192c 6602 8c2c
00000050: 0b89 f12a de68 962b 2ee6 1a2c 8553 c52a
00000060: 6304 a62b 60b0 1c2c 0c61 932a
5.3009775e-14 1.022986e-13 1.34119044e-14 1.2619039e-14 1.921903e-14 6.052651e-16 1.792159e-14 3.749241e-14
5.7741486e-15 3.1426884e-17 2.8099283e-16 4.4972665e-17 9.1602825e-18 6.977344e-17 7.8896824e-17 5.538434e-17
9.740964e-18 2.8140026e-17 2.1773043e-12 3.9793056e-12 4.2905292e-13 1.0687248e-12 2.2012492e-12 3.5052183e-13
1.1796227e-12 2.2266841e-12 2.6179785e-13

exp_avg f4 [9]
00000000: 897a 6935 10d6 c134 94ea ea34 ae69 8f34
00000010: 3968 2334 3be7 27b3 597a 24b7 72c6 ba36
00000020: 0053 64b7
8.6977576e-07 3.6104802e-07 4.3756575e-07 2.6712718e-07 1.5218474e-07 -3.909302e-08 -9.803648e-06 5.566334e-06
-1.3609184e-05

exp_avg_sq f4 [9]
00000000: 56fc 012b 4f57 b629 09c1 602a 51c3 3c28
00000010: 8c47 f827 79f8 cb26 ecdc 3c2e 6237 1a2e
00000020: 0c6d f32e
4.6180193e-13 8.097569e-14 1.9962169e-13 1.0478449e-14 6.89114e-15 1.4153303e-15 4.294247e-11 3.5064736e-11
1.1069731e-10

exp_avg f4 [9]
00000000: 897a 6935 10d6 c134 94ea ea34 ae69 8f34
00000010: 3968 2334 3be7 27b3 94b9 d7b6 46dd 3f36
00000020: eb0e 8ab6
8.6977576e-07 3.6104802e-07 4.3756575e-07 2.6712718e-07 1.5218474e-07 -3.909302e-08 -6.4291035e-06 2.8590016e-06
-4.114457e-06

exp_avg_sq f4 [9]
00000000: 56fc 012b 4f57 b629 09c1 602a 51c3 3c28
00000010: 8c47 f827 79f8 cb26 de12 a12d 28b2 3d2d
00000020: bdd3 3a2d
4.6180193e-13 8.097569e-14 1.9962169e-13 1.0478449e-14 6.89114e-15 1.4153303e-15 1.831196e-11 1.0782965e-11
1.0619891e-11

exp_avg f4 [9, 3]
00000000: 682a f2b5 50b4 0a36 2791 d2b3 73ab f631
00000010: 1870 98b1 60eb a931 b9b7 04b5 2684 1735
00000020: 4390 23b3 e4f6 4934 4d8f a2b4 ef58 deb0
00000030: 4f46 8db1 6f59 ad31 b41e 90b1 88d7 03b2
00000040: d9af af32 da68 e632 c4b6 3cb7 239c 5a37
00000050: 86b1 04b5 17df 5336 2751 60b6 732b 0335
00000060: 1ec0 a036 9420 b7b6 ae6b e034
-1.8042747e-06 2.0668558e-06 -9.80529e-08 7.179034e-09 -4.436526e-09 4.9453064e-09 -4.9441184e-07 5.6444185e-07
-3.80826e-08 1.8809402e-07 -3.0279116e-07 -1.6177902e-09 -4.1116333e-09 5.04513e-09 -4.194442e-09 -7.67421e-09
2.0452648e-08 2.6823205e-08 -1.1248227e-05 1.3030166e-05 -4.943216e-07 3.1571305e-06 -3.3425838e-06 4.886453e-07
4.790737e-06 -5.4576176e-06 4.18016e-07

exp_avg_sq f4 [9, 3]
00000000: fac7 c92b c4f5 442c 171d cc2a e880 5e28
00000010: c896 ec28 4e6e ac27 f997 9a29 c98f 012a
00000020: 3241 d427 abba 0128 7a57 b928 9ee0 2a26
00000030: fe3d 3525 a790 7623 5c47 eb26 eecd a524
00000040: d480 0826 6ec4 0726 4d58 972e b75c 212f
00000050: be2d da2d 926b 012e e7cb 912e f54d 5f2d
00000060: fe04 d82c cfda 312d 70a2 fe2a
1.4337414e-12 2.7989703e-12 3.6257865e-13 1.2351428e-14 2.6266654e-14 4.7859183e-15 6.865337e-14 1.1507387e-13
5.8912505e-15 7.201416e-15 2.0577063e-14 5.928501e-16 1.5720251e-16 1.3366318e-17 1.6325743e-15 7.19062e-17
4.7359073e-16 4.7103746e-16 6.8823704e-11 1.4675804e-10 2.4804044e-11 2.9426746e-11 6.630057e-11 1.2693392e-11
6.1396435e-12 1.010987e-11 4.5232177e-13

exp_avg f4 [9, 3]
00000000: cc5d 2cb6 11ba a431 f1b7 b3b4 722d 0732
00000010: 643f 7431 ebc2 a4b0 92cb 38b5 64dc b6b0
00000020: b6a4 bdb3 94b1 ea33 8c10 17b3 c480 8033
00000030: 3d8a da30 5ba3 8d30 c4c9 0231 dfd6 1b31
00000040: b3d4 81b1 e2f3 b430 ce98 08b7 2347 96b1
00000050: debb 8db5 ff58 4736 6c72 0534 dc14 9334
00000060: be93 8336 dbfc 0c33 d291 0135
-2.5684594e-06 4.7941815e-09 -3.3475183e-07 7.868367e-09 3.5542707e-09 -1.198797e-09 -6.8841575e-07 -1.3304882e-09
-8.830959e-08 1.09287754e-07 -3.5172476e-08 5.983887e-08 1.5900877e-09 1.0305529e-09 1.903218e-09 2.2677609e-09
-3.7785752e-09 1.3166039e-09 -8.141809e-06 -4.373662e-09 -1.0559995e-06 2.9705113e-06 1.2428217e-07 2.739606e-07
3.9213037e-06 3.282626e-08 4.826844e-07

exp_avg_sq f4 [9, 3]
00000000: e398 6a2c e5fc a128 2ab6 7c2b 9c89 ec28
00000010: 08e4 b324 cd41 8d28 dd13 252a d0e1 3126
00000020: 17d4 b228 1b87 0327 be99 4526 b83a 9726
00000030: 7a48 7624 90f6 a622 f365 aa25 9b0e 7723
00000040: b78a 9b22 15da 4023 7ab0 172e 20dc 4b2a
00000050: b2ac 2c2d 72be f92d c633 a429 c512 782d
00000060: ed32 912c e872 5c28 99e7 072b
3.333827e-12 1.7984266e-14 8.978119e-13 2.6260942e-14 7.8015176e-17 1.5682681e-14 1.4661835e-13 6.1715244e-16
1.9853949e-14 1.8253143e-15 6.8556464e-16 1.0493646e-15 5.3404137e-17 4.525545e-18 2.9559383e-16 1.339299e-17
4.2159704e-18 1.04545215e-17 3.4490168e-11 1.8106393e-13 9.815414e-12 2.8392597e-11 7.292044e-14 1.41013356e-11
4.1268018e-12 1.223737e-14 4.828304e-13

exp_avg f4 [9]
00000000: 1faa 81b6 3416 c631 b96c 8db5 5201 3c35
00000010: 66b5 69b2 a0b9 e4b3 af5a cfb7 4275 c836
00000020: dc58 2c37
-3.8643043e-06 5.7650826e-09 -1.0536961e-06 7.003738e-07 -1.360363e-08 -1.0650842e-07 -2.471855e-05 5.974115e-06
1.0272688e-05

exp_avg_sq f4 [9]
00000000: 2fc3 612d 4181 1d2a ad77 062b 3a41 ec29
00000010: 78ab 8c26 69cd 1928 1c21 4230 c475 b92f
00000020: b04e 3a2e
1.2833109e-11 1.3989245e-13 4.7772447e-13 1.04918204e-13 9.760928e-16 8.537747e-15 7.062384e-10 3.3734981e-10
4.2361392e-11

exp_avg f4 [9]
00000000: 1faa 81b6 3416 c631 b96c 8db5 5201 3c35
00000010: 66b5 69b2 a0b9 e4b3 37c2 51b7 3cde 8536
00000020: f332 cd36
-3.8643043e-06 5.7650826e-09 -1.0536961e-06 7.003738e-07 -1.360363e-08 -1.0650842e-07 -1.250259e-05 3.9895804e-06
6.1154074e-06

exp_avg_sq f4 [9]
00000000: 2fc3 612d 4181 1d2a ad77 062b 3a41 ec29
00000010: 78ab 8c26 69cd 1928 4962 182f 8e91 1b2f
00000020: 5078 6e2d
1.2833109e-11 1.3989245e-13 4.7772447e-13 1.04918204e-13 9.760928e-16 8.537747e-15 1.3859237e-10 1.4148879e-10
1.3555448e-11

exp_avg f4 [9, 3]
00000000: 18e8 9bb5 8311 0e33 43dc 54b4 474f 7734
00000010: 6a1c 8c31 7b3e d232 1e3c 55b6 6a3b edb0
00000020: 9ffd d9b4 9004 2d34 bf99 21b3 bec5 af33
00000030: e711 8a34 28b9 54b3 8db2 ef33 a26a 2433
00000040: f3cd 24b2 39a9 c032 7450 0f38 6e77 01b4
00000050: 486e 9d36 94e8 d3b7 f9db a5b4 3120 49b6
00000060: 6a64 91b7 8e27 b533 ce2f 20b6
-1.1615948e-06 3.3077878e-08 -1.982417e-07 2.3032509e-07 4.0777666e-09 2.447563e-08 -3.1774466e-06 -1.7260906e-09
-4.0603933e-07 1.611354e-07 -3.7625565e-08 8.1850416e-08 2.571753e-07 -4.9528495e-08 1.1161783e-07 3.8281208e-08
-9.592884e-09 2.2428695e-08 3.4168785e-05 -1.205751e-07 4.691803e-06 -2.5261463e-05 -3.0893696e-07 -2.9970072e-06
-1.7332106e-05 8.435664e-08 -2.3869684e-06

exp_avg_sq f4 [9, 3]
00000000: 5868 c82a 8d3b 4927 bf1b 7829 0e96 342a
00000010: 92bc 2926 b353 aa29 1893 d32b da92 1a27
00000020: 90e5 f329 75a9 6727 289e 7125 b5d4 b426
00000030: 7636 ae28 9530 8226 719e 2228 978a 2b25
00000040: 18af 3c23 57de 9d24 6ef4 972f 3b7d 902b
00000050: e1b4 072e 8cf5 eb2f d98b ee2b b150 202f
00000060: c662 702e 119c 062a 4e17 b92c
3.559954e-13 2.7926636e-15 5.5091128e-14 1.6039272e-13 5.8889214e-16 7.564036e-14 1.5033278e-12 2.1451402e-15
1.08311905e-13 3.2149553e-15 2.0957003e-16 1.2547663e-15 1.93415e-14 9.03373e-16 9.027163e-15 1.4878842e-16
1.0228578e-17 6.8464555e-17 2.7640418e-10 1.0266574e-12 3.08561e-11 4.2920723e-10 1.6949733e-12 1.4580583e-10
5.465741e-11 1.1955737e-13 5.2606036e-12

exp_avg f4 [9, 3]
00000000: f3a1 f334 e9a8 9eb5 b97c 4db5 a82d cab3
00000010: f32f 8134 0054 2934 3b30 ab35 0101 5cb6
00000020: 1aa0 0fb6 eff4 2cb3 a36c f733 0cbd 9933
00000030: ddf1 a2b3 7786 6534 366c 1034 213a 15b2
00000040: 037a d332 d94b 8532 d8e6 cbb6 b230 8337
00000050: f044 2b37 3101 f736 7ddd 9db7 c522 4fb7
00000060: f290 4436 8588 fcb6 a901 a5b6
4.538011e-07 -1.1821077e-06 -7.6549946e-07 -9.414663e-08 2.406301e-07 1.576991e-07 1.275453e-06 -3.278314e-06
-2.1401852e-06 -4.0269637e-08 1.1521595e-07 7.159005e-08 -7.5877075e-08 2.1376205e-07 1.3450412e-07 -8.6861585e-09
2.4619117e-08 1.551773e-08 -6.076745e-06 1.5639092e-05 1.0208445e-05 7.3613123e-06 -1.8818997e-05 -1.2346257e-05
2.9290645e-06 -7.526078e-06 -4.9175765e-06

exp_avg_sq f4 [9, 3]
00000000: b303 2e29 e110 002b 5afb 0f2a 15ef 1828
00000010: 8401 982a d92d 6b29 997b 5b2a e205 fb2b
00000020: f86d 282b 660c 4425 464d 0227 e2c0 2026
00000030: a4e1 aa26 30fd 9d28 940c 9f27 e0e7 fe22
00000040: 1527 9b24 94ce d023 69e4 d42c 25cc 8a2e
00000050: 72fa a92d 5c2e 9b2d 60c2 c92f 9de3 b02e
00000060: 385a 942b 42c7 2b2d 1f41 652c
3.863897e-14 4.549816e-13 1.2788156e-13 8.489538e-15 2.7001676e-13 5.222025e-14 1.9493989e-13 1.7836255e-12
5.98382e-13 1.7004491e-16 1.8083014e-15 5.5772556e-16 1.185728e-15 1.7540304e-14 4.4145002e-15 6.9092345e-18
6.728674e-17 2.2638894e-17 6.050761e-12 6.311777e-11 1.9324296e-11 1.7642048e-11 3.66998e-10 8.0439856e-11
1.0541073e-12 9.764469e-12 3.2579007e-12

exp_avg f4 [9]
00000000: b246 07b6 d613 a834 4858 a0b6 8e83 3535
00000010: f988 7335 f38f 4134 a494 5f38 907f 1ab8
00000020: 1b77 e3b7
-2.0157718e-06 3.130687e-07 -4.778649e-06 6.761919e-07 9.0723876e-07 1.8026894e-07 5.3305776e-05 -3.6835263e-05
-2.7115972e-05

exp_avg_sq f4 [9]
00000000: d967 c12b ad34 542b 380b 8f2c fc57 9229
00000010: 26df a62a d8d8 8227 8220 7030 442c f330
00000020: 513e 342f
1.3742298e-12 7.539063e-13 4.06555e-12 6.498965e-14 2.9642364e-13 3.631735e-15 8.735769e-10 1.7693158e-09
1.6393044e-10

exp_avg f4 [9]
00000000: b246 07b6 d613 a834 4858 a0b6 8e83 3535
00000010: f988 7335 f38f 4134 834f c337 93b6 deb7
00000020: fda1 3cb7
-2.0157718e-06 3.130687e-07 -4.778649e-06 6.761919e-07 9.0723876e-07 1.8026894e-07 2.3282837e-05 -2.654948e-05
-1.1243389e-05

exp_avg_sq f4 [9]
00000000: d967 c12b ad34 542b 380b 8f2c fc57 9229
00000010: 26df a62a d8d8 8227 5f78 2a2f ed7f 8830
00000020: daf0 cc2d
1.3742298e-12 7.539063e-13 4.06555e-12 6.498965e-14 2.9642364e-13 3.631735e-15 1.5504174e-10 9.931661e-10
2.3299074e-11

exp_avg f4 [9, 3]
00000000: f71d efb4 951c 9535 0d7b 4435 3544 5c35
00000010: 4221 0eb6 fd81 bab5 78a1 04b5 8c61 a835
00000020: f12b 5e35 9c0a 0db5 5ba7 bb35 92cc 7035
00000030: de04 adb5 3dbc 7436 5069 1c36 0cab 2fb3
00000040: f10d ed33 118a 9333 9283 9fb8 037d 4c39
00000050: e1f1 0539 a38f cbb8 16f6 8139 9bb2 2a39
00000060: 5f59 52b7 8c8d 0638 c239 b037
-4.453902e-07 1.1109684e-06 7.319475e-07 8.205564e-07 -2.1179007e-06 -1.3895911e-06 -4.94088e-07 1.2545365e-06
8.276539e-07 -5.254203e-07 1.3981293e-06 8.9704656e-07 -1.2890921e-06 3.6468402e-06 2.3307111e-06 -4.090093e-08
1.10387084e-07 6.870335e-08 -7.606218e-05 0.00019501527 0.00012773975 -9.706549e-05 0.00024788146 0.00016278999
-1.2537784e-05 3.2079915e-05 2.100773e-05

exp_avg_sq f4 [9, 3]
00000000: 893b f129 93a4 4f2c 6f5a 232b bc89 d729
00000010: 4669 822b a035 ac2a f2e1 9729 2726 402b
00000020: d860 742a ec1e 1a29 6798 a32a f1cb e229
00000030: df11 042b a9af 422d 7ee7 2f2c fda2 7626
00000040: 43a2 9428 c99b 7e27 4d20 cc30 5627 f632
00000050: d8ee df31 ac47 4331 736b 8433 6fe4 6732
00000060: 4112 052f c9e8 5531 fb81 2d30
1.07128777e-13 2.9507826e-12 5.8034735e-13 9.571811e-14 9.266275e-13 3.0590547e-13 6.744942e-14 6.826505e-13
2.1705153e-13 3.422169e-14 2.9060367e-13 1.0071794e-13 4.692062e-13 1.1066628e-11 2.49975e-12 8.5569285e-16
1.650167e-14 3.5334032e-15 1.4852134e-09 2.8656057e-08 6.5173076e-09 2.8416975e-09 6.166274e-08 1.34979095e-08
1.2102765e-10 3.1127902e-09 6.3121747e-10

exp_avg f4 [9, 3]
00000000: 7bf4 27b5 41b7 48b5 bbc7 ebb4 d470 6e35
00000010: d3c5 9d35 63c9 2835 b4a1 21b5 5407 4ab5
00000020: f6df e2b4 d25c 9ab4 0cc6 27b5 9bd2 80b4
00000030: 11fe 0eb5 f924 a4b5 2b30 dab4 f129 e1b2
00000040: 6f4d 81b3 858d bcb2 f121 35b8 f313 68b8
00000050: 59fa ffb7 9df6 98b8 7cd7 c1b8 1999 57b8
00000060: 9a0b f5b6 ac6b 1cb7 1924 adb6
-6.2568114e-07 -7.4772476e-07 -4.3917484e-07 8.8826096e-07 1.1754986e-06 6.2877933e-07 -6.021248e-07 -7.526153e-07
-4.2258733e-07 -2.875227e-07 -6.2500544e-07 -2.3995094e-07 -5.326884e-07 -1.2229713e-06 -4.064071e-07 -2.621252e-08
-6.021116e-08 -2.1950436e-08 -4.3185373e-05 -5.533169e-05 -3.0514946e-05 -7.29386e-05 -9.243094e-05 -5.1402578e-05
-7.3029196e-06 -9.323394e-06 -5.160004e-06

exp_avg_sq f4 [9, 3]
00000000: 4075 2d2a d805 022c 51a3 802a de40 e229
00000010: c3cf ae2a df55 9229 98f9 ce29 adfe a12a
00000020: 6852 8e29 c18e 1528 5aa0 9a29 ec3f 0f28
00000030: 413c d629 220f 442c e526 0a2a 5c33 8725
00000040: b527 e427 b4f6 cc25 aa12 fb2f 879f 9031
00000050: db7f 1530 2b53 ac30 9fe5 3932 b37e c530
00000060: 9297 242e 391e 0830 6a49 7e2e
1.5406166e-13 1.8477355e-12 2.285069e-13 1.0047669e-13 3.1052773e-13 6.498599e-14 9.191535e-14 2.8776062e-13
6.320362e-14 8.302116e-15 6.8667904e-14 7.9519555e-15 9.5139615e-14 2.7861676e-12 1.2270356e-13 2.345357e-16
6.3325763e-15 3.5555531e-16 4.5669896e-10 4.2090877e-09 5.438758e-10 1.2538285e-09 1.0820627e-08 1.4369647e-09
3.7423904e-11 4.951946e-10 5.781812e-11

exp_avg f4 [9]
00000000: ec13 9535 0f3e 62b6 7c13 e535 b963 4c36
00000010: 8016 2637 e040 5534 3b58 9139 cb47 b539
00000020: 2e27 3938
1.1107163e-06 -3.3712747e-06 1.70675e-06 3.0456415e-06 9.89961e-06 1.9860772e-07 0.00027722292 0.000345765
4.4143926e-05

exp_avg_sq f4 [9]
00000000: a13d fb2c 4873 472c 808e cc2b be8d c62b
00000010: a35e ae2e 6eac 9c29 ade3 a633 0ee9 3434
00000020: 671d 1532
7.1406913e-12 2.8343595e-12 1.4534624e-12 1.4108088e-12 7.929415e-11 6.9577035e-14 7.771391e-08 1.6848591e-07
8.679627e-09

exp_avg f4 [9]
00000000: ec13 9535 0f3e 62b6 7c13 e535 b963 4c36
00000010: 8016 2637 e040 5534 684f 0c39 aeff 6239
00000020: 99a3 b337
1.1107163e-06 -3.3712747e-06 1.70675e-06 3.0456415e-06 9.89961e-06 1.9860772e-07 0.00013381022 0.00021648288
2.1414644e-05

exp_avg_sq f4 [9]
00000000: a13d fb2c 4873 472c 808e cc2b be8d c62b
00000010: a35e ae2e 6eac 9c29 739e b832 36eb 6733
00000020: 2d4a 2931
7.1406913e-12 2.8343595e-12 1.4534624e-12 1.4108088e-12 7.929415e-11 6.9577035e-14 2.1492474e-08 5.3997802e-08
2.46349e-09

exp_avg f4 [9, 3]
00000000: 1dd1 d334 9c0a 2c34 9c21 8a34 6f11 7636
00000010: e204 9736 ca36 2d36 dd22 b437 79ae e937
00000020: d4f8 7e37 925e ceb5 283d 48b6 d815 a6b5
00000030: 0450 8bb4 d199 6bb4 8811 67b4 568e 7fb5
00000040: 7a78 27b6 e6f4 3fb5 69d5 45b9 0b49 7fb9
00000050: 680e 0cb9 bda4 e3b8 5599 11b9 13f1 a0b8
00000060: a4d3 0fb9 5625 3bb9 8b91 cbb8
3.9453963e-07 1.6022608e-07 2.5728957e-07 3.6667004e-06 4.500719e-06 2.58109e-06 2.1473907e-05 2.785701e-05
1.5197515e-05 -1.537572e-06 -2.983792e-06 -1.2374321e-06 -2.5948987e-07 -2.1942039e-07 -2.151993e-07 -9.520203e-07
-2.4955066e-06 -7.150942e-07 -0.00018866886 -0.00024345906 -0.00013356807 -0.000108548884 -0.00013885398 -7.674298e-05
-0.00013716385 -0.00017847618 -9.706904e-05

exp_avg_sq f4 [9, 3]
00000000: 2f03 032c 583f d02e 9f10 082d 44f7 5d2c
00000010: 3f38 8e2d 9e41 4e2c 5088 952e e30f bf2f
00000020: 6505 7d2e 2156 0a2b 3a13 df2c 9816 212b
00000030: d0fa 9528 72e0 ac28 0ee6 d428 3104 d229
00000040: 76a5 9e2b 807f 8c29 f462 3632 a3dc 0234
00000050: 241b 7a32 e059 a831 399f aa33 e763 1232
00000060: 32ea 4631 cd92 8832 ee37 2e31
1.8617987e-12 9.469997e-11 7.734396e-12 3.1543249e-12 1.616851e-11 2.9310786e-12 6.7999495e-11 3.4753986e-10
5.753033e-11 4.9146977e-13 6.3401758e-12 5.7230045e-13 1.6651096e-14 1.9193174e-14 2.3636498e-14 9.3266005e-14
1.12725e-12 6.239367e-14 1.0616294e-08 1.218746e-07 1.4558086e-08 4.899661e-09 7.945204e-08 8.521034e-09
2.8945917e-09 1.5899241e-08 2.5352125e-09

exp_avg f4 [9, 3]
00000000: 9582 5935 4e76 bd34 bd77 4435 3750 ba36
00000010: 512b 8435 d538 e636 dcfe 0338 fcfc 9936
00000020: 078f 2838 6c78 d0b5 1c4d 7a35 cca2 67b6
00000030: 7f30 eab4 5c2c 8333 2aef 3ab5 0ad6 0db5
00000040: 11d3 1f35 6eca d0b5 b97c dfb8 2200 83b7
00000050: 2491 0eb9 0198 cbb8 f954 7cb7 32c2 00b9
00000060: fdbd 07b9 a9cf 9fb7 cf1d 2db9
8.102882e-07 3.529007e-07 7.318993e-07 5.55257e-06 9.847373e-07 6.8611503e-06 3.147019e-05 4.5892066e-06
4.0187526e-05 -1.5532255e-06 9.3244466e-07 -3.4516443e-06 -4.3621182e-07 6.108232e-08 -6.963843e-07 -5.283806e-07
5.953926e-07 -1.5556122e-06 -0.000106567 -1.5616479e-05 -0.00013596244 -9.708107e-05 -1.5040155e-05 -0.00012279375
-0.0001294538 -1.9050976e-05 -0.0001650967

exp_avg_sq f4 [9, 3]
00000000: 5718 6a2e df3f d02c 8d04 022f 8a78 8f2d
00000010: ac78 992a 56de f12d b256 a42f 7aff 202d
00000020: e890 1630 dbf8 d12b c694 a92b 80c8 0e2d
00000030: 0895 de29 cd5b 3528 f46e 952a 06b4 4929
00000040: 4dda e229 6bb1 022b 4574 5132 6c24 4630
00000050: 33c1 cf32 f834 9b32 4c3c a830 a3d0 1b33
00000060: 4e25 a731 e7db 202f e092 1832
5.3227058e-11 5.9188067e-12 1.1825048e-10 1.6310748e-11 2.7261993e-13 2.7497265e-11 2.9893027e-10 9.151674e-12
5.4775606e-10 1.4919414e-12 1.2049465e-12 8.116285e-12 9.884633e-14 1.00674245e-14 2.6544706e-13 4.478711e-14
1.0074285e-13 4.6431495e-13 1.2191838e-08 7.208374e-10 2.4185828e-08 1.8068462e-08 1.2240746e-09 3.6278504e-08
4.8645807e-09 1.463004e-10 8.88096e-09

exp_avg f4 [9]
00000000: a084 6235 be3c 23b7 1f1c 8ab8 af55 1b37
00000010: 86b3 c6b4 3e88 3637 7e30 153a b03e a839
00000020: fe84 de39
8.4384556e-07 -9.7297e-06 -6.585591e-05 9.25867e-06 -3.7010994e-07 1.0879767e-05 0.0005691125 0.00032090163
0.00042442227

exp_avg_sq f4 [9]
00000000: 3eab 0230 618d 962e 5391 f430 d46e 682e
00000010: 4987 772b dafb bb2d bfb8 1f35 7786 cc34
00000020: d753 af33
4.7537074e-10 6.846324e-11 1.779464e-09 5.2849128e-11 8.7939774e-13 2.1371283e-11 5.9500957e-07 3.8095797e-07
8.164323e-08

exp_avg f4 [9]
00000000: a084 6235 be3c 23b7 1f1c 8ab8 af55 1b37
00000010: 86b3 c6b4 3e88 3637 a9b5 6639 c500 4b39
00000020: ede3 8d39
8.4384556e-07 -9.7297e-06 -6.585591e-05 9.25867e-06 -3.7010994e-07 1.0879767e-05 0.00022002183 0.00019359875
0.00027063434

exp_avg_sq f4 [9]
00000000: 3eab 0230 618d 962e 5391 f430 d46e 682e
00000010: 4987 772b dafb bb2d 7237 b533 9f91 0834
00000020: 56b0 f732
4.7537074e-10 6.846324e-11 1.779464e-09 5.2849128e-11 8.7939774e-13 2.1371283e-11 8.438555e-08 1.2718964e-07
2.8834773e-08

exp_avg f4 [9, 3]
00000000: f32b 04b9 afa8 91b7 4a19 2ab9 fa94 15b8
00000010: bcf4 cab6 5f4f 3ab8 4971 b5b8 b5da 51b7
00000020: 3f1b e8b8 9120 9a34 72fa fcb5 b51c 4836
00000030: 2f30 3c35 090e 1335 6373 7434 ea30 83b5
00000040: 7dff 0e36 49d4 8fb6 c0e1 8f3a fa67 1c39
00000050: b981 b93a dd66 cdb9 0208 90b8 8937 feb9
00000060: 66c7 a0ba 4344 20b9 73ca d1ba
-0.00012604873 -1.7363896e-05 -0.00016221884 -3.5663114e-05 -6.04856e-06 -4.4419776e-05 -8.6518536e-05 -1.25082925e-05
-0.00011067697 2.870843e-07 -1.8848352e-06 2.9819032e-06 7.0105574e-07 5.478219e-07 2.2766248e-07 -9.774496e-07
2.1308363e-06 -4.2864453e-06 0.0010977313 0.00014916054 0.001415304 -0.00039177286 -6.867947e-05 -0.00048488032
-0.0012266457 -0.00015284219 -0.0016005769

exp_avg_sq f4 [9, 3]
00000000: 5988 e832 86ac f430 141f 6a33 8be5 0831
00000010: fddd 022f b9c4 8531 8abb c230 eeec f12d
00000020: 56b2 2c31 e8a5 8628 bd2e 292c 3d5c 912c
00000030: afee 092c 1a12 9a2c 90ca 922d 64a3 d529
00000040: 7e76 472b e549 212c 6da1 e835 0961 e633
00000050: c1ca 6836 13e4 aa34 5d1d af32 d664 2935
00000060: 1a62 5a34 8372 5031 162e c634
2.7070358e-08 1.7802371e-09 5.4510636e-08 1.9921085e-09 1.1902297e-10 3.8931742e-09 1.416866e-09 2.7503746e-11
2.5130666e-09 1.4948939e-14 2.404229e-12 4.1313884e-12 1.9601367e-12 4.378953e-12 1.6688234e-11 9.487444e-14
7.0863443e-13 2.2920496e-12 1.7332328e-06 1.072786e-07 3.4688712e-06 3.1830913e-07 2.0386034e-08 6.310414e-07
2.0338521e-07 3.0333076e-09 3.6913906e-07

exp_avg f4 [9, 3]
00000000: 4aa0 74b8 3417 1439 5b34 94b8 261f 83b7
00000010: 0ff9 2638 bceb a4b7 0ae9 22b8 8838 ca38
00000020: 671b 49b8 0212 20b3 7af8 9e34 af7a 27b4
00000030: 23ee 4c35 f26d a0b5 7e37 4735 91ea adb5
00000040: 6624 6f35 4303 3cb5 9da6 3c39 92c2 e1b9
00000050: 73a1 6239 caaa cdb8 97dc 8239 6448 01b9
00000060: 46df 7bb9 ada4 163a ec60 97b9
-5.8323414e-05 0.00014123024 -7.066942e-05 -1.5630922e-05 3.9809438e-05 -1.9660096e-05 -3.8840844e-05 9.64264e-05
-4.7947655e-05 -3.726928e-08 2.9610584e-07 -1.5597719e-07 7.6342457e-07 -1.1952927e-06 7.421403e-07 -1.2957772e-06
8.9087405e-07 -7.0040204e-07 0.00017991145 -0.0004306031 0.00021613184 -9.806974e-05 0.00024959884 -0.00012329366
-0.00024020401 0.00057465845 -0.00028873177

exp_avg_sq f4 [9, 3]
00000000: 8f27 d632 e5e2 8d33 e0be 3531 3f67 f130
00000010: b0f3 a331 5a73 592f 405b 2430 fedf 1c31
00000020: f2fa a12f b73d c528 9a29 fd28 67f4 8027
00000030: 5016 412d 48e3 372d 92bb a32b 3ead 872a
00000040: f60c e029 0fc9 5c29 d035 7e34 00b9 2735
00000050: f6ca d832 aaf3 d833 2464 9034 d618 3032
00000060: 8070 7732 e558 7333 d217 1432
2.4930868e-08 6.607096e-08 2.6447466e-09 1.7564402e-09 4.7716284e-09 1.9777016e-10 5.9792526e-10 2.2828313e-09
2.9464037e-10 2.1898158e-14 2.8106684e-14 3.579212e-15 1.0975734e-11 1.0452812e-11 1.1633908e-12 2.4101028e-13
9.949847e-14 4.9024204e-14 2.367517e-07 6.248156e-07 2.5238005e-08 1.0102606e-07 2.6894952e-07 1.0250195e-08
1.4402872e-08 5.6658696e-08 8.62015e-09

exp_avg f4 [9]
00000000: 2109 8639 db7b 8d38 76bc 3639 2941 3fb7
00000010: 26a2 0236 97ad 5d37 ba54 12bb 3ccb 3e3a
00000020: 6904 283b
0.00025565273 6.746474e-05 0.0001742708 -1.1399658e-05 1.9465892e-06 1.32130435e-05 -0.0022328333 0.0007278209
0.0025637394

exp_avg_sq f4 [9]
00000000: 9f3d 4934 816f 5f32 6745 fd31 a6aa a22e
00000010: 1520 f82e ff84 d72d e192 4637 f7ae 0f36
00000020: 3dc2 9135
1.8742001e-07 1.3005661e-08 7.3711592e-09 7.39722e-11 1.1283433e-10 2.4501732e-11 1.1835918e-05 2.1410503e-06
1.0859873e-06

exp_avg f4 [9]
00000000: 2109 8639 db7b 8d38 76bc 3639 2941 3fb7
00000010: 26a2 0236 97ad 5d37 9a77 4fba d3b3 d839
00000020: 4d24 8c3a
0.00025565273 6.746474e-05 0.0001742708 -1.1399658e-05 1.9465892e-06 1.32130435e-05 -0.00079142454 0.0004133271
0.0010691971

exp_avg_sq f4 [9]
00000000: 9f3d 4934 816f 5f32 6745 fd31 a6aa a22e
00000010: 1520 f82e ff84 d72d ef90 f035 1c62 4735
00000020: 8b78 5334
1.8742001e-07 1.3005661e-08 7.3711592e-09 7.39722e-11 1.1283433e-10 2.4501732e-11 1.7923575e-06 7.4276045e-07
1.969476e-07

exp_avg f4 [9, 3]
00000000: d6e4 dcb8 eeb4 8939 7788 08b9 d5f6 9539
00000010: df40 39ba 1da2 b839 b9de eb39 92eb 8fba
00000020: ade3 0f3a 2528 9eb8 aa6f 8938 b18b 49b8
00000030: bf8a adb7 84e4 8737 c6a4 4ab7 9649 4eb8
00000040: 03eb 3e38 7e18 08b8 0b2c b7bb a7a0 633c
00000050: f66e e2bb 7edf 2ebb 3736 d33b f0b0 53bb
00000060: bf4f 5f3b cdca 05bc e45f 863b
-0.000105330415 0.0002626548 -0.00013020808 0.000286034 -0.00070668565 0.00035216 0.00044988634 -0.001098024
0.00054889434 -7.5415046e-05 6.553468e-05 -4.8052232e-05 -2.0687816e-05 1.6199665e-05 -1.2078503e-05 -4.918276e-05
4.55184e-05 -3.2447737e-05 -0.005589967 0.013893283 -0.0069102 -0.0026683505 0.006445672 -0.0032301508
0.0034074632 -0.008166027 0.0041007865

exp_avg_sq f4 [9, 3]
00000000: 8c2a 9c32 a33a 7b33 9116 a031 1cba 5733
00000010: fefb 3f34 1a84 a432 9845 7434 e91b 4035
00000020: b657 7933 c808 4631 0fc4 1a31 0f2a 1330
00000030: 85fb 0f2f 46c6 a92e 8381 d82d 5088 1930
00000040: c659 ee2f 7068 1d2f 17a1 e237 52ff bd38
00000050: b974 0c37 d521 ed36 ef88 bd37 c141 0636
00000060: 4574 a037 867e 6a38 0a31 7c36
1.8180138e-08 5.849382e-08 4.6591784e-09 5.0227854e-08 1.7879935e-07 1.9152186e-08 2.2749589e-07 7.156619e-07
5.8054603e-08 2.8817784e-09 2.2521396e-09 5.353806e-10 1.3095132e-10 7.720451e-11 2.4613872e-11 5.585479e-10
4.3355736e-10 1.431617e-10 2.7016313e-05 9.0597794e-05 8.371827e-06 7.067089e-06 2.259432e-05 2.000583e-06
1.9127629e-05 5.590778e-05 3.757947e-06

exp_avg f4 [9, 3]
00000000: dfe9 5cb9 f223 87b9 69ba 9339 4ec2 143a
00000010: 9070 363a e5b1 46ba da5a 663a 5870 8d3a
00000020: c5d0 99ba 2948 ceb7 917f 27b8 d6ff 0238
00000030: 3a0f 85b6 1a2b d6b6 b182 a936 779a a2b7
00000040: 2a98 f7b7 fc43 cd37 a774 b1bb bc86 d9bb
00000050: b41c ed3b 988b 54bb 7190 82bb f4e1 8d3b
00000060: d3f9 ac3b f9a3 d43b 26ed e6bb
-0.00021067959 -0.00025775988 0.0002817691 0.00056747056 0.0006959522 -0.0007579609 0.00087873416 0.0010790927
-0.0011735192 -2.4590716e-05 -3.993471e-05 3.123268e-05 -3.9654815e-06 -6.3827147e-06 5.051807e-06 -1.9383833e-05
-2.9515551e-05 2.4469562e-05 -0.0054155174 -0.006638376 0.0072360877 -0.0032431837 -0.003984504 0.004329914
0.005278805 0.0064892736 -0.0070473133
