aa2_models/model2.pt (torch_old, 6809 bytes, 24 tensors)

lin1.weight f4 [4, 7]
0.122962266 0.16597995 -0.11268059 0.24149366 0.072946 -0.26127774 -0.24912606 -0.33720404
-0.23124635 0.109525554 -0.18326497 0.13677138 -0.32439622 0.10831116 -0.04549998 0.20538679
0.35305202 -0.27873337 0.25381574 0.086990684 -0.19462998 0.027793888 -0.2641909 0.2959322
0.30918932 0.3355634 -0.16644767 0.2007246
00000000: a4d3 fb3d a6f6 293e 15c5 e6bd 1d4a 773e
00000010: b664 953d 32c6 85be e71a 7fbe 02a6 acbe
00000020: d8cb 6cbe ef4e e03d d0a9 3bbe cc0d 0c3e
00000030: 4317 a6be 3ed2 dd3d 305e 3abd ea50 523e
00000040: 3cc3 b43e 24b6 8ebe 23f4 813e 2c28 b23d
00000050: 154d 47be 02b0 e33c 0844 87be 6d84 973e
00000060: 104e 9e3e f7ce ab3e 4271 2abe c08a 4d3e

lin1.bias f4 [4]
-0.15491724 -0.25637734 0.35150003 -0.2785202
00000000: a0a2 1ebe e443 83be d0f7 b33e 339a 8ebe

GRU.weight_ih_l0 f4 [12, 4]
0.22096345 -0.29222587 0.3529619 0.25670144 0.1140269 0.062194865 -0.3225782 -0.29848534
-0.1278004 -0.24208955 0.14242147 -0.20590298 -0.4703371 0.46499068 -0.25333324 -0.12738898
-0.4798521 -0.3418543 -0.045437865 -0.22235022 -0.4742889 -0.20925272 -0.38066432 0.18506418
0.17343052 0.30107057 0.44181415 0.1411483 0.23910032 0.04353444 0.15639453 0.47931397
0.077391 -0.15443644 0.33134705 0.20674206 -0.3043199 -0.052361064 0.45136356 -0.4062595
-0.057123505 -0.44080788 0.27218896 0.42034063 0.3262764 0.06753716 0.07285232 0.46061113
00000000: 3e44 623e a19e 95be 6cb7 b43e 5f6e 833e
00000010: ef86 e93d 0bc0 7e3d f828 a5be 12d3 98be
00000020: 1cde 02be 53e6 77be efd6 113e 3bd8 52be
00000030: 06d0 f0be 4213 ee3e e5b4 81be 4272 02be
00000040: 2daf f5be 8707 afbe 0e1d 3abd c7af 63be
00000050: ffd5 f2be 5846 56be 6fe6 c2be 7781 3d3e
00000060: c597 313e ec25 9a3e 7735 e23e 2e89 103e
00000070: b7d6 743e 2b51 323d e325 203e a468 f53e
00000080: 2c7f 9e3d 9624 1ebe 52a6 a93e 31b4 533e
00000090: d1cf 9bbe 8e78 56bd 2019 e73e 3f01 d0be
000000a0: 56fa 69bd 92b1 e1be 5a5c 8b3e e336 d73e
000000b0: b30d a73e ec50 8a3d 9933 953d 39d5 eb3e

GRU.weight_hh_l0 f4 [12, 4]
0.16739534 -0.07695383 0.17027763 0.20805904 0.28006095 0.21478693 -0.10146158 -0.15431182
-0.40109354 -0.4077924 0.19048141 -0.47305968 -0.24962613 0.061076213 -0.25082433 -0.22071101
-0.23168874 -0.14963968 0.27259472 -0.22613958 0.2717272 -0.14839761 -0.16738929 -0.42774886
-0.12128053 -0.06738615 0.18625614 0.46278402 -0.2771934 -0.2917134 -0.2763193 -0.15691227
-0.26856154 0.50441605 0.023582684 -0.11812329 0.11663101 -0.47757253 0.08943678 0.10798293
0.39504987 0.32312107 0.012827363 0.09016161 0.26459008 -0.42940718 0.46034172 -0.11384104
00000000: af69 2b3e f899 9dbd 425d 2e3e 6e0d 553e
00000010: 2664 8f3e 1bf1 5b3e 17cb cfbd eb03 1ebe
00000020: 225c cdbe 2aca d0be 8f0d 433e e134 f2be
00000030: fe9d 7fbe 0d2b 7a3d 0c6c 80be 1102 62be
00000040: d03f 6dbe 253b 19be 8991 8b3e 2291 67be
00000050: d41f 8b3e 8bf5 17be 1968 2bbe e601 dbbe
00000060: ed61 f8bd c001 8abd eeb9 3e3e 07f2 ec3e
00000070: 4bec 8dbe 755b 95be b979 8dbe 9cad 20be
00000080: e680 89be 6921 013f 7930 c13c a0ea f1bd
00000090: 3ddc ee3d 6384 f4be a12a b73d 2826 dd3d
000000a0: fa43 ca3e 2070 a53e dc29 523c a6a6 b83d
000000b0: 5a78 873e 42db dbbe e9b1 eb3e 7e25 e9bd

GRU.bias_ih_l0 f4 [12]
0.40230316 0.13845181 -0.37255383 -0.2494881 -0.46336183 -0.28279507 0.03810551 0.16298437
-0.20711777 0.43480614 -0.34798294 -0.27190256
00000000: aefa cd3e 50c6 0d3e 60bf bebe cf79 7fbe
00000010: c33d edbe 84ca 90be 8614 1c3d 60e5 263e
00000020: ae16 54be e99e de3e d22a b2be d036 8bbe

GRU.bias_hh_l0 f4 [12]
0.4291501 0.011546196 -0.33296353 0.21919133 0.18514676 0.19657063 0.37931597 0.49379236
0.42603594 0.3923703 -0.18780778 -0.1420631
00000000: 90b9 db3e 422c 3d3c 327a aabe b173 603e
00000010: 1d97 3d3e d049 493e b435 c23e 5ad2 fc3e
00000020: 6221 da3e c3e4 c83e af50 40be fd78 11be

GRU.weight_ih_l1 f4 [12, 4]
-0.19623642 -0.41476822 -0.46992925 0.49558702 -0.43095797 -0.31122437 -0.15179631 0.20387132
0.04894004 0.085174605 0.028660545 0.43373144 0.04997191 -0.17060168 -0.26117343 -0.27314582
-0.15903652 -0.36015135 -0.050094668 0.28300092 -0.023307066 -0.4171122 0.41288444 0.21492977
-0.4954495 -0.11002248 0.23808983 0.032910015 -0.29687864 0.08557012 -0.10135944 -0.19335692
0.19248456 -0.15643132 0.0035529397 -0.29853734 -0.44379207 -0.37307245 -0.27563202 -0.40207994
0.04865382 0.017637728 0.18072382 -0.2180259 0.42439315 -0.43083805 -0.31650624 0.24678773
00000000: 33f2 48be 805c d4be 919a f0be 95bd fd3e
00000010: 86a6 dcbe cd58 9fbe 7e70 1bbe a5c3 503e
00000020: 5a75 483d 0670 ae3d 85c9 ea3c 0c12 de3e
00000030: 58af 4c3d 35b2 2ebe 86b8 85be c5d9 8bbe
00000040: 78da 22be c265 b8be 1130 4dbd 7fe5 903e
00000050: 76ee bebc bb8f d5be 9765 d33e 8d16 5c3e
00000060: 8fab fdbe 7753 e1bd d2cd 733e a7cc 063d
00000070: 7a00 98be 633f af3d 8a95 cfbd 5bff 45be
00000080: ac1a 453e 882f 20be 70d8 683b e3d9 98be
00000090: b738 e3be 5a03 bfbe a41f 8dbe 6cdd cdbe
000000a0: 3a49 473d ff7c 903c aa0f 393e 2e42 5fbe
000000b0: 0f4a d93e ce96 dcbe 1b0d a2be ecb5 7c3e

GRU.weight_hh_l1 f4 [12, 4]
0.39242017 0.31065172 -0.2918676 -0.2833252 0.30032817 -0.2929543 -0.07131095 -0.14422749
0.17393747 0.38720843 -0.14081421 0.2988998 -0.44274545 -0.043293756 0.117405675 0.36291197
-0.059265763 -0.3844525 0.26728857 0.029250592 -0.406869 0.38938168 0.369495 0.040979158
0.011912493 -0.20706244 0.29006168 -0.38960016 0.398368 0.19421728 -0.31364715 0.28224367
-0.20656617 0.3933901 0.09060386 -0.24470802 0.32445222 -0.14394204 0.29028237 -0.2334585
0.38472617 -0.50122 0.07282251 -0.3154928 0.3693457 -0.17920615 0.38975498 0.25419137
00000000: 4ceb c83e be0d 9f3e ac6f 95be 0010 91be
00000010: 9dc4 993e 1bfe 95be 7a0b 92bd 5fb0 13be
00000020: aa1c 323e 2f40 c63e 9a31 10be 6509 993e
00000030: 88af e2be cb54 31bd 6372 f03d 99cf b93e
00000040: a8c0 72bd f5d6 c4be 0cda 883e f09e ef3c
00000050: 2251 d0be 095d c73e 732e bd3e c3d9 273d
00000060: 9e2c 433c 2d08 54be f782 943e ac79 c7be
00000070: e4f6 cb3e e5e0 463e 5c96 a0be 3e82 903e
00000080: 1586 53be 6d6a c93e 848e b93d bd94 7abe
00000090: 9a1e a63e 8b65 13be e49f 943e bf0f 6fbe
000000a0: d4fa c43e f44f 00bf f823 953d 4688 a1be
000000b0: e11a bd3e d181 37be f78d c73e 5f25 823e

GRU.bias_ih_l1 f4 [12]
0.070650645 -0.3700466 0.2782296 0.0046473937 -0.21243885 0.06957848 -0.18622985 -0.31014565
-0.1380528 0.45944846 -0.28021184 0.51488113
00000000: 49b1 903d bf76 bdbe 1c74 8e3e 2a49 983b
00000010: 9289 59be 2a7f 8e3d 0ab3 3ebe 69cb 9ebe
00000020: b75d 0dbe d43c eb3e ed77 8fbe 40cf 033f

GRU.bias_hh_l1 f4 [12]
-0.35813332 0.17459275 0.28475863 0.09071564 0.4736428 -0.3724274 0.45685607 -0.4633517
-0.22732449 0.295191 0.32766658 0.49670723
00000000: 405d b7be 71c8 323e e2cb 913e 1fc9 b93d
00000010: 4f81 f23e ceae bebe 0ae9 e93e 6f3c edbe
00000020: c0c7 68be 4623 973e eac3 a73e 6950 fe3e

GRU.weight_ih_l2 f4 [12, 4]
0.23618202 -0.046866413 -0.059166633 -0.37043127 -0.2031127 0.06289522 0.47877544 0.054251887
0.3654508 0.14474507 0.25767013 0.07367833 -0.2676181 -0.12132168 0.024130894 0.13465276
-0.43270102 0.48142847 0.412616 0.3511068 -0.14398433 -0.20167376 -0.4075823 -0.37621877
-0.47241744 0.3225218 -0.12573133 0.24739821 0.045271005 0.20294115 0.0032612516 -0.28409246
0.47471556 0.43227097 -0.17215973 0.47216552 0.49988285 0.45392722 0.014546621 0.3122225
-0.21393658 0.03551014 0.38309878 -0.103355035 0.39285094 0.21838984 0.39909196 -0.39293727
00000000: b3d9 713e fff6 3fbd b658 72bd 2ba9 bdbe
00000010: c7fc 4fbe 36cf 803d 0e22 f53e 3a37 5e3d
00000020: 5e1c bb3e 0d38 143e 57ed 833e aae4 963d
00000030: 3d05 89be 8077 f8bd 27ae c53c 6ae2 093e
00000040: fd8a ddbe cb7d f63e 6842 d33e 45c4 b33e
00000050: a170 13be 9183 4ebe a1ae d0be bf9f c0be
00000060: b3e0 f1be 9421 a53e b7bf 00be f555 7d3e
00000070: 176e 393d cecf 4f3e b9ba 553b 9174 91be
00000080: eb0d f33e 9f52 dd3e a44a 30be aebf f13e
00000090: a5f0 ff3e 2669 e83e f354 6e3c a1db 9f3e
000000a0: 3112 5bbe 1573 113d 8625 c43e ceab d3bd
000000b0: c223 c93e 96a1 5f3e c855 cc3e 132f c9be

GRU.weight_hh_l2 f4 [12, 4]
0.49805123 -0.06106446 -0.43306333 0.43810478 0.071750276 -0.27550742 0.03439561 -0.28110486
0.37573895 0.17903936 0.35331166 0.48016456 0.2024198 -0.25160813 -0.4003157 -0.020192083
-0.30587235 -0.043476455 0.11328015 -0.35525447 0.10422938 0.085608974 0.16575202 0.4909567
-0.4831201 -0.09043958 -0.06696979 0.1562852 -0.33503667 0.35844767 0.046890166 0.4177622
-0.3105071 -0.41255784 0.40015692 -0.3819824 0.37064767 -0.24470934 -0.42362168 -0.15671685
0.2740094 0.026417725 0.36076072 -0.40591332 0.33102533 0.48975512 0.4023055 0.30051854
00000000: 9200 ff3e ba1e 7abd 7aba ddbe 454f e03e
00000010: cff1 923d 4f0f 8dbe 69e2 0c3d faec 8fbe
00000020: db60 c03e 1856 373e 44e5 b43e 21d8 f53e
00000030: 2347 4f3e c8d2 80be 2ef6 ccbe de69 a5bc
00000040: 4d9b 9cbe 5e14 32bd 6cff e73d eae3 b5be
00000050: 3776 d53d c253 af3d e6ba 293e ad5e fb3e
00000060: 855b f7be 6338 b9bd 7527 89bd 3a09 203e
00000070: ed89 abbe 7486 b73e e70f 403d ede4 d53e
00000080: c9fa 9ebe c83a d3be 5ee1 cc3e 3293 c3be
00000090: 88c5 bd3e 1695 7abe f1e4 d8be 627a 20be
000000a0: f64a 8c3e fc69 d83c a1b5 b83e dfd3 cfbe
000000b0: 277c a93e 2fc1 fa3e fdfa cd3e 91dd 993e

GRU.bias_ih_l2 f4 [12]
-0.20561013 -0.0031056346 -0.441496 -0.17059936 0.10593301 -0.42399147 -0.37357178 0.07160735
0.09100142 -0.26124954 0.48919308 -0.35355887
00000000: 768b 52be e787 4bbb c40b e2be 99b1 2ebe
00000010: 68f3 d83d 6915 d9be cd44 bfbe e0a6 923d
00000020: f45e ba3d 80c2 85be 8477 fa3e ab05 b5be

GRU.bias_hh_l2 f4 [12]
0.14079288 -0.4723908 -0.24481991 -0.26539925 0.045543056 0.11264628 -0.10384344 -0.08140659
0.25080758 -0.14857017 0.4284292 -0.51433814
00000000: 022c 103e 35dd f1be 12b2 7abe 69e2 87be
00000010: 5b8b 3a3d 18b3 e63d dfab d4bd 80b8 a6bd
00000020: da69 803e c722 18be 125b db3e aaab 03bf

GRU.weight_ih_l3 f4 [12, 4]
0.25335327 0.014424571 -0.38234037 -0.090564676 0.4226383 0.4426915 -0.21392265 0.17810158
0.4742782 0.12135577 0.24394546 0.23942998 0.22755925 0.41227397 0.004004774 -0.49589512
0.09633404 0.265171 -0.044531155 0.12493856 0.2799101 -0.02812894 -0.21630569 0.19528382
0.27141628 -0.20666258 0.09503592 0.09236503 -0.39908472 0.30683535 -0.16140172 0.18084902
-0.2015685 0.09005563 -0.4320231 0.21288304 0.15238968 0.49106973 -0.39065626 0.4299751
-0.2443174 0.15900001 -0.12178002 0.53980726 -0.3275781 -0.03395506 0.31356668 0.4532932
00000000: 85b7 813e 0955 6c3c 1ec2 c3be f979 b9bd
00000010: 0c64 d83e 76a8 e23e 8a0e 5bbe 4360 363e
00000020: 98d4 f23e 6089 f83d d7cc 793e 222d 753e
00000030: 4b05 693e 9315 d33e 7b3a 833b f7e5 fdbe
00000040: c84a c53d 7ec4 873e 4d66 36bd cadf ff3d
00000050: 6050 8f3e aa6e e6bc 3d7f 5dbe 7bf8 473e
00000060: 13f7 8a3e 5b9f 53be 31a2 c23d e029 bd3d
00000070: d554 ccbe 8619 9d3e 7e46 25be 7c30 393e
00000080: f967 4ebe 166f b83d 2232 ddbe 03fe 593e
00000090: 0a0c 1c3e 7e6d fb3e 1904 c8be b225 dc3e
000000a0: 572e 7abe e6d0 223e ce67 f9bd cf30 0a3f
000000b0: 51b8 a7be 7614 0bbd d08b a03e 0c16 e83e

GRU.weight_hh_l3 f4 [12, 4]
0.42436737 0.42113265 0.1326079 0.41560236 0.15876904 0.4003263 0.40545836 0.48456672
-0.14154433 -0.0067734793 -0.014432612 0.37017033 0.34740767 -0.21866252 -0.26681438 -0.034031384
-0.07351442 -0.49329233 0.47798914 0.3777319 0.3241432 0.11292525 0.1409986 -0.061563194
-0.020241097 0.020511612 0.12350679 -0.27867475 0.012434845 0.3168251 0.15245287 0.15940462
-0.48639143 -0.36960766 0.3489939 -0.4520584 0.38759223 -0.34856814 -0.10422992 0.13003182
0.40144655 -0.4876586 -0.40945327 0.23699546 -0.26170594 0.13291353 0.31444502 0.10676325
00000000: ae46 d93e b39e d73e 5eca 073e d5c9 d43e
00000010: 5a94 223e 92f7 cc3e 3d98 cf3e 2119 f83e
00000020: fff0 10be 10f4 ddbb c376 6cbc f786 bd3e
00000030: 6bdf b13e 11e9 5fbe e59b 88be 7e64 0bbd
00000040: ba8e 96bd d090 fcbe feba f43e 1366 c13e
00000050: 19f6 a53e 5a45 e73d f061 103e b029 7cbd
00000060: a8d0 a5bc f807 a83c 21f1 fc3d 75ae 8ebe
00000070: 85bb 4b3c e636 a23e 9b1c 1c3e f73a 233e
00000080: 4c08 f9be 373d bdbe 54af b23e 3374 e7be
00000090: 7d72 c63e 8677 b2be 7f76 d5bd 1027 053e
000000a0: 678a cd3e 63ae f9be dca3 d1be f0ae 723e
000000b0: 52fe 85be 7c1a 083e f0fe a03e b1a6 da3d

GRU.bias_ih_l3 f4 [12]
-0.260127 -0.26594383 0.073802456 -0.068938285 -0.31511897 -0.1969914 0.10475693 0.4020902
-0.22455774 0.3060866 0.13514975 -0.26609966
00000000: 5e2f 85be ca29 88be be25 973d 842f 8dbd
00000010: 4657 a1be 1db8 49be cd8a d63d c4de cd3e
00000020: 77f2 65be 62b7 9c3e b264 0a3e 373e 88be

GRU.bias_hh_l3 f4 [12]
0.22184892 -0.056829512 -0.47878572 0.047511123 -0.3745473 0.053327344 0.29192966 -0.24260597
0.40121216 -0.027226606 0.27418616 0.045265373
00000000: 5d2c 633e 10c6 68bd 6723 f5be 069b 423d
00000010: aac4 bfbe c66d 5a3d ce77 953e b36d 78be
00000020: ae6b cd3e 550a dfbc 2162 8c3e 2f68 393d

GRU.weight_ih_l4 f4 [12, 4]
0.22850052 0.114142686 -0.31592757 0.16216642 -0.42143476 -0.14428097 0.041064177 0.30249858
-0.11334359 0.40970036 -0.34172618 -0.4753226 0.23385014 -0.04726738 0.14320248 -0.43147507
0.34838083 0.3440158 0.16216625 -0.037485477 0.46026495 -0.28542382 0.16582549 0.3539552
-0.040341146 0.1531684 -0.2033963 0.47047737 -0.3956238 -0.10341522 0.21319956 -0.20086126
0.1089762 -0.020242965 0.351702 0.19739003 0.10839748 -0.35621685 0.088535056 0.059157792
-0.18808647 -0.3960201 -0.48623583 -0.030032113 -0.113394804 -0.21402623 0.2416561 0.18987496
00000000: 0afc 693e a4c3 e93d 42c1 a1be f40e 263e
00000010: 4cc6 d7be 64be 13be e932 283d 18e1 9a3e
00000020: af20 e8bd 3fc4 d13e bcf6 aebe 7c5d f3be
00000030: 6976 6f3e 719b 41bd aca3 123e 4dea dcbe
00000040: f95e b23e d722 b03e e90e 263e 5f8a 19bd
00000050: d9a7 eb3e 1223 92be 28ce 293e 9e39 b53e
00000060: c23c 25bd 2dd8 1c3e 1f47 50be 69e2 f03e
00000070: 348f cabe 5ccb d3bd fc50 5a3e 93ae 4dbe
00000080: ea2e df3d 93d4 a5bc 4912 b43e 9d20 4a3e
00000090: 7fff dd3d 0e62 b6be de51 b53d 714f 723d
000000a0: bd99 40be 26c3 cabe e7f3 f8be e805 f6bc
000000b0: 893b e8bd b129 5bbe b274 773e 956e 423e

GRU.weight_hh_l4 f4 [12, 4]
0.12338983 0.43111372 0.45662835 -0.26436222 0.20229712 0.44043845 0.05428911 -0.2880032
0.16857845 -0.2720369 0.034890648 -0.4388438 0.07487091 -0.075848386 0.2861803 -0.16757232
-0.21498457 -0.3664078 0.048105165 0.3469286 0.002556438 -0.28945723 0.49399272 0.23536107
0.118766524 0.2914841 -0.09788128 0.4676801 -0.30714318 0.2519239 0.30217162 0.19840886
0.21730089 0.30891103 -0.27226034 0.2772606 0.37205264 0.27296934 0.34483373 -0.038961027
0.34461704 0.47451493 -0.087148406 -0.13525018 0.2739858 0.016782122 -0.037284985 0.1872366
00000000: cfb3 fc3d f0ba dc3e 31cb e93e 7c5a 87be
00000010: fa26 4f3e 2681 e13e 425e 5e3d 2875 93be
00000020: d49f 2c3e 6c48 8bbe 7fe9 0e3d 22b0 e0be
00000030: eb55 993d 6656 9bbd 3986 923e 1498 2bbe
00000040: ea24 5cbe ce99 bbbe ec09 453d a0a0 b13e
00000050: ea89 273b bd33 94be 9dec fc3e 7e02 713e
00000060: dd3b f33d 673d 953e fb75 c8bd c473 ef3e
00000070: df41 9dbe 2bfc 803e 3db6 9a3e b12b 4b3e
00000080: 2084 5e3e 9629 9e3e b565 8bbe 1af5 8d3e
00000090: af7d be3e a3c2 8b3e 0c8e b03e 9995 1fbd
000000a0: a571 b03e 9ff3 f23e dd7a b2bd 067f 0abe
000000b0: de47 8c3e a97a 893c 24b8 18bd f4ba 3f3e

GRU.bias_ih_l4 f4 [12]
0.22175734 -0.13754645 0.18690206 -0.09813345 -0.29707688 -0.3073678 -0.48381788 -0.26158398
-0.7833812 0.4745376 0.5999613 0.384339
00000000: 5b14 633e fad8 0cbe 4163 3f3e 31fa c8bd
00000010: 761a 98be 505f 9dbe fab6 f7be 56ee 85be
00000020: ac8b 48bf 98f6 f23e 1097 193f 15c8 c43e

GRU.bias_hh_l4 f4 [12]
0.3573399 -0.13803181 0.011359005 -0.19275868 0.10454959 0.37918603 0.10844667 -0.24795231
-0.005896251 0.37370032 0.5653743 -0.13250326
00000000: 41f5 b63e 3658 0dbe 1f1b 3a3c 8862 45be
00000010: 181e d63d ac24 c23e 4a19 de3d 36e7 7dbe
00000020: 5735 c1bb a655 bf3e 5fbc 103f efae 07be

lin3.weight f4 [6, 4]
-0.3555623 0.5042055 -0.020394921 0.4107681 0.482214 -0.18851477 -0.25093764 -0.39092293
0.1515173 0.21260522 -0.44345257 0.37242386 0.18406095 -0.1864009 -0.5366502 0.025587425
-0.2001207 0.35174268 -0.18233442 -0.21863236 -0.8303159 0.4775678 0.27570614 0.09681996
00000000: 430c b6be 9d13 013f 4013 a7bc 3250 d23e
00000010: c1e4 f63e 040a 41be e67a 80be 0d27 c8be
00000020: 5a27 1b3e 2fb5 593e 370c e3be 57ae be3e
00000030: 797a 3c3e e1df 3ebe e861 09bf b89c d13c
00000040: 71ec 4cbe 9e17 b43e e0b5 3abe 29e1 5fbe
00000050: 958f 54bf c483 f43e 5b29 8d3e 8b49 c63d

lin3.bias f4 [6]
-0.17970422 -0.042370047 -0.057308424 -0.25053155 -0.6861379 1.2157822
00000000: 6204 38be 378c 2dbd 3dbc 6abd ac45 80be
00000010: bca6 2fbf c09e 9b3f
