aa2_models/model8.pt (torch_old, 5173 bytes, 24 tensors)

lin1.weight f4 [2, 7]
0.34453598 -0.047275692 -0.24768905 0.09613127 -0.08529602 0.10302904 -0.15933345 0.24279973
0.10649341 -0.25897184 0.2889129 -0.08868654 0.2871326 0.17201811
00000000: 0567 b03e 28a4 41bd 33a2 7dbe 79e0 c43d
00000010: aeaf aebd e400 d33d 4f28 23be 7ea0 783e
00000020: 3819 da3d f597 84be 64ec 933e 4aa1 b5bd
00000030: 0b03 933e 8425 303e

lin1.bias f4 [2]
-0.33167002 0.15364923
00000000: a7d0 a9be 3956 1d3e

GRU.weight_ih_l0 f4 [6, 2]
0.45940676 0.20288597 -0.6334801 0.317703 -0.26348516 -0.63357115 -0.23877807 -0.4718022
0.22849973 -0.28910923 0.26563695 -0.24882008
00000000: 5d37 eb3e 57c1 4f3e c02b 22bf f8a9 a23e
00000010: 87e7 86be b831 22bf 3d82 74be 0f90 f1be
00000020: d5fb 693e 2006 94be 9101 883e b1ca 7ebe

GRU.weight_hh_l0 f4 [6, 2]
-0.5056318 0.5004676 -0.23330386 0.6301322 -0.24162889 -0.59381706 -0.21887682 0.5712912
0.10078861 0.0831839 -0.28866762 0.6688121
00000000: 1671 01bf a51e 003f 35e7 6ebe 5850 213f
00000010: 906d 77be 6504 18bf 3f21 60be 2440 123f
00000020: 426a ce3d 525c aa3d 3ecc 93be 4537 2b3f

GRU.bias_ih_l0 f4 [6]
-0.349126 -0.53561026 -0.6693889 0.08984315 -0.24388279 0.32408753
00000000: a5c0 b2be c11d 09bf 125d 2bbf afff b73d
00000010: 69bc 79be cdee a53e

GRU.bias_hh_l0 f4 [6]
-0.48775554 0.07165621 0.2426938 0.2066437 0.58438545 -0.41674486
00000000: 18bb f9be 7ec0 923d b984 783e 689a 533e
00000010: 499a 153f 955f d5be

lin3.weight f4 [6, 2]
0.10697922 0.64834034 -0.32919505 0.14942211 0.5641004 0.5264757 -0.28987265 -0.5627532
-0.49575585 0.1439794 0.64065313 -0.5210662
00000000: ec17 db3d a2f9 253f 418c a8be 1c02 193e
00000010: e268 103f 1dc7 063f 306a 94be 9810 10bf
00000020: b6d3 fdbe 566f 133e d801 243f 9864 05bf

lin3.bias f4 [6]
-0.15788248 -0.25424507 0.4320772 0.39257792 0.12930112 0.37881273
00000000: f2ab 21be 692c 82be 3939 dd3e f9ff c83e
00000010: 8367 043e bef3 c13e

exp_avg f4 [2, 7]
0.0 3.633721e-13 -0.00043699698 -0.00063297484 -0.0007136083 0.0 -0.0006006933 0.0
7.1808873e-13 0.0013539572 0.0017755972 0.00052722375 0.0 0.0005037178
00000000: 0000 0000 708f cc2a be1c e5b9 39ee 25ba
00000010: 7111 3bba 0000 0000 d877 1dba 0000 0000
00000020: bf1f 4a2b 4477 b13a 28bb e83a 6335 0a3a
00000030: 0000 0000 ee0b 043a

exp_avg_sq f4 [2, 7]
0.0 1.0717246e-24 5.0297745e-05 6.4759966e-05 3.3665808e-07 0.0 2.4268942e-07 0.0
4.2155784e-24 0.00020564858 0.00026483214 2.2075974e-07 0.0 2.5660128e-07
00000000: 0000 0000 63d7 a517 cbf6 5238 becf 8738
00000010: efbd b434 0000 0000 fb4a 8234 0000 0000
00000020: 1115 a318 5fa3 5739 2bd9 8a39 fa09 6d34
00000030: 0000 0000 03c3 8934

exp_avg f4 [2]
0.02084373 -0.008223254
00000000: 78c0 aa3c d4ba 06bc

exp_avg_sq f4 [2]
0.00014825298 1.2497126e-05
00000000: 5b74 1b39 bfaa 5137

exp_avg f4 [6, 2]
0.018810475 -0.008712775 0.01382766 -0.0064032143 -0.0015993043 0.00073428225 0.002060586 -0.0010223915
0.15872592 -0.07352263 -0.16120613 0.07454253
00000000: 6d18 9a3c 07c0 0ebc 698d 623c 0ed2 d1bb
00000010: bf9f d1ba d97c 403a e50a 073b c401 86ba
00000020: 0c89 223e 0893 96bd 3813 25be c1a9 983d

exp_avg_sq f4 [6, 2]
0.0002002155 4.1171203e-05 9.939201e-05 2.0436193e-05 2.113342e-06 4.11094e-07 1.868518e-05 4.653488e-06
0.01442488 0.0029661932 0.014789158 0.0030300128
00000000: f0f0 5139 3eaf 2c38 ae70 d038 646e ab37
00000010: f0d2 0d36 54b4 dc34 1ebe 9c37 2825 9c36
00000020: 5556 6c3c 7764 423b 394e 723c 2e93 463b

exp_avg f4 [6, 2]
0.011764516 -0.0010319678 0.009358345 8.225444e-05 -0.003929519 -0.0034695554 0.0038690905 0.0031657554
0.030305201 -0.002005617 -0.0467396 0.0042957403
00000000: f5bf 403c 1843 87ba be53 193c 0480 ac38
00000010: 32c3 80bb 7b61 63bb 9190 7d3b 9078 4f3b
00000020: 9d42 f83c ab70 03bb 0672 3fbd 48c3 8c3b

exp_avg_sq f4 [6, 2]
8.317436e-05 2.265459e-06 4.859725e-05 1.845066e-07 9.189765e-06 6.967829e-06 9.031399e-06 5.793707e-06
0.0005588769 1.1533379e-05 0.0013163364 3.735129e-05
00000000: e56d ae38 4a08 1836 e6d4 4b38 ca1c 4634
00000010: bd2d 1a37 32cd e936 9085 1737 9067 c236
00000020: 9881 123a 7c7f 4137 ec88 ac3a a4a9 1c38

exp_avg f4 [6]
-0.056719173 -0.041916173 0.0051773437 -0.0061778203 -0.47836375 0.48807344
00000000: 5d52 68bd 4bb0 2bbd b5a6 a93b 506f cabb
00000010: 18ec f4be c3e4 f93e

exp_avg_sq f4 [6]
0.0018701158 0.00093744695 1.59211e-05 2.2882015e-05 0.13462834 0.13927688
00000000: ac1e f53a 00bf 753a 4d8e 8537 c1f2 bf37
00000010: 03dc 093e 999e 0e3e

exp_avg f4 [6]
-0.056719173 -0.041916173 0.0051773437 -0.0061778203 -0.14375082 0.22605136
00000000: 5d52 68bd 4bb0 2bbd b5a6 a93b 506f cabb
00000010: 6a33 13be 027a 673e

exp_avg_sq f4 [6]
0.0018701158 0.00093744695 1.59211e-05 2.2882015e-05 0.012167609 0.029742513
00000000: ac1e f53a 00bf 753a 4d8e 8537 c1f2 bf37
00000010: a75a 473c 92a6 f33c

exp_avg f4 [6, 2]
0.12725091 0.14819625 -0.032275688 -0.011660633 -0.042144615 -0.007469764 -0.107841454 -0.069486216
-0.064587355 -0.033299018 0.11959825 -0.026280612
00000000: 104e 023e c2c0 173e 8333 04bd 3d0c 3fbc
00000010: d59f 2cbd ecc4 f4bb fbdb dcbd ca4e 8ebd
00000020: 6046 84bd 8d64 08bd edef f43d 704a d7bc

exp_avg_sq f4 [6, 2]
0.009432198 0.013035861 0.0006208266 6.741792e-05 0.0010578593 1.7529479e-05 0.0067683137 0.0026219257
0.0024848576 0.0005853947 0.008653549 0.0007523318
00000000: 8189 1a3c 5d94 553c f8be 223a b862 8d38
00000010: dea7 8a3a 450c 9337 bbc8 dd3b 9dd4 2b3b
00000020: fed8 223b 2c75 193a 9dc7 0d3c 2238 453a

exp_avg f4 [6]
-0.0694528 0.10604472 0.1682696 0.24511284 0.17734966 -0.6273239
00000000: 453d 8ebd f92d d93d de4e 2c3e dcfe 7a3e
00000010: 269b 353e 4d98 20bf

exp_avg_sq f4 [6]
0.00294813 0.006528205 0.016479982 0.034216996 0.01829992 0.227547
00000000: 6a35 413b 8dea d53b 0701 873c 1f27 0c3d
00000010: b7e9 953c 1502 693e
