aa2_models/model1.pt (torch_old, 18963 bytes, 72 tensors)

lin1.weight f4 [4, 7]
00000000: 534d 183d b671 ea3e a135 af3d 6972 bc3d
00000010: 945c c63d 28c8 613d 6293 1c3e 80fb 9abe
00000020: 7188 063e 90be df3d 85c4 953e 8b34 513e
00000030: 614b a23e 1479 213e c80b 52bb b033 2ebe
00000040: c923 c03e e824 ac3e a70f 293d 7797 8dbe
00000050: 08cf 1d3f 4e61 17be 7967 07bd c4b8 963e
00000060: 447b 1a3d 8e7e f1bd b07d a8bc 7ff0 b93d
0.037183117 0.4578988 0.08555151 0.092015095 0.096856266 0.055122524 0.15290597 -0.30270004
0.13137986 0.10925019 0.29251495 0.204302 0.31698135 0.15768844 -0.003205048 -0.17011905
0.37527302 0.33621907 0.041274693 -0.2765462 0.6164403 -0.14783213 -0.033057664 0.2943784
0.03771521 -0.117917165 -0.020567745 0.09079074

lin1.bias f4 [4]
00000000: 0dd1 d03e 1f86 073f 52d1 3dbe 5354 1a3f
0.40784493 0.5293903 -0.1853688 0.6028492

GRU.weight_ih_l0 f4 [12, 4]
00000000: b98a 153f 42db 033f 879f c4be 1093 0e3f
00000010: 6cd4 4f3e a102 20bf 9bb7 90be 0bb1 b7bd
00000020: 9f13 9a3e 28ce 263e 3521 c23e bc10 8d3c
00000030: 2494 29be e8c2 0b3f de42 eabe d9a8 c43e
00000040: 009a b2bd 0b99 80be d76b b6be 7ef6 883e
00000050: 5900 5fbf 5f21 a9be c73e 25be 4df7 12bf
00000060: 5d71 ffbc 18ca 4fbc 2cdb f9bd 6608 a63d
00000070: a185 8ebc e20d 01be 3fa4 393d b00c 3a3e
00000080: ea76 92be f6f9 80be 748d e1be a139 a53e
00000090: 30a4 ccbd aacb 45be c9eb 193f 6e49 18bd
000000a0: c090 68be 1772 3c3e 97c6 303e c9c0 193d
000000b0: 739e 923e abdb 193f 9f16 573e 65ba d73e
0.584148 0.51506436 -0.3840296 0.5569315 0.20295876 -0.6250401 -0.2826508 -0.08969315
0.30093095 0.1628958 0.3791596 0.017219894 -0.16560417 0.5459428 -0.4575414 0.3841007
-0.087207794 -0.25116763 -0.3562915 0.2675056 -0.87109905 -0.33033273 -0.16137229 -0.574086
-0.031181986 -0.01268246 -0.12200007 0.081070706 -0.017397704 -0.12602952 0.045322653 0.18168902
-0.2860635 -0.25190705 -0.44053233 0.3227053 -0.09992254 -0.19315973 0.60125405 -0.037179403
-0.22711468 0.18402897 0.17263256 0.03753737 0.28636512 0.6010081 0.21004723 0.42134395

GRU.weight_hh_l0 f4 [12, 4]
00000000: 6b2e cd3d 398b 193e 6c50 a5bd 2bdc 403f
00000010: e466 493d b958 29bd 54c6 d7be 1061 2fbe
00000020: d03a bb3e 7bfd 363e 0715 ffbe 3b90 5abe
00000030: cb54 fc3d 407f 4ebe d8b1 8e3e e20a 873e
00000040: 5f88 923e f6dd 47bf 1fee 62bf c165 5cbe
00000050: d99b 4c3d 72b6 35bf b15f 67bf 7a6f 04be
00000060: 162b 3b3e 8717 e3be 02af 16bf 4205 1ebf
00000070: d620 e7be 3de3 5fbc acd5 ab3e c0bf cc3e
00000080: b7a5 92bd ad9c ef3e 74e9 26be 695e e43e
00000090: 0c6a 4cbe 4803 d1be 261d 383e 40cc 07bf
000000a0: 68f6 a8be 8a2c d73e aa1f b0be 3555 8cbb
000000b0: b28f 683e 747f 8fbe d1bd 373f ffa5 37be
0.10018619 0.14994515 -0.0807198 0.7533595 0.04917039 -0.04134438 -0.421435 -0.1712687
0.36568308 0.17870133 -0.4982073 -0.21344082 0.123208605 -0.2016573 0.2787006 0.2637549
0.28619668 -0.7807306 -0.88644594 -0.21523191 0.049953315 -0.70981514 -0.9038039 -0.1293315
0.18278155 -0.44353887 -0.5886079 -0.6172677 -0.4514224 -0.013665018 0.33561456 0.39990044
-0.07160514 0.46799222 -0.16299993 0.4460328 -0.19962329 -0.40822816 0.17979869 -0.53046036
-0.33000493 0.42026168 -0.34399158 -0.0042826184 0.22711065 -0.28026927 0.7177401 -0.17934416

GRU.bias_ih_l0 f4 [12]
00000000: 76c8 873d a83d cbbe 8f04 0c3f 75b1 7dbc
00000010: 85a2 24bf c18e a2bc b832 38bf 46e7 41bc
00000020: 6644 f93e 50bb 37bf de86 5cbd 9e48 d73e
0.06630032 -0.39695477 0.54694456 -0.015484204 -0.64310485 -0.019843461 -0.7195239 -0.011834925
0.48684996 -0.7177019 -0.053839557 0.4204759

GRU.bias_hh_l0 f4 [12]
00000000: bc5f b53e 17c0 25be abdd 26be a860 34be
00000010: 58cc 19bf d2bb 8abd c315 16bf 5370 f03e
00000020: 39ab ba3e abf0 613e 3f09 01bf 073a a93e
0.35424602 -0.16186558 -0.16295497 -0.17614996 -0.6007743 -0.06774105 -0.58626956 0.46960697
0.36458758 0.22064464 -0.50404733 0.33052084

GRU.weight_ih_l1 f4 [12, 4]
00000000: 5fa5 893d 23d3 b0be 33fb 943e 586b d93e
00000010: 8198 7ebe 8e97 8b3c 43f0 073e b877 db3c
00000020: cbeb b7be e0b2 8e3e 8a00 8b3e 8408 a83e
00000030: a79f 9abd cc37 d6be 3374 70be 4150 103d
00000040: e21e 253e 3aff 6abf 0dcc 84bf d1bf 7d3e
00000050: ecb0 63bc dfcb bdbe dd6e 15bf 9bc4 10bf
00000060: a64c a53e bf0a 2cbe 811b 45bf 6f9d 7bbe
00000070: a707 79bb 2b74 2ebd 0309 b93c 7afb 93be
00000080: 44ed 063e 9cdf 82be 8766 43bf b7d1 c73c
00000090: a527 1d3f 84da 53bf d2c0 293d 988c eb3e
000000a0: 894b 28bf 08a9 143f 5516 453f f589 85be
000000b0: 5436 13be d2d5 013f 048f 833e 9134 2abf
0.06720995 -0.34536085 0.290979 0.4246471 -0.24862863 0.01704004 0.13275246 0.026790485
-0.35922083 0.27870846 0.2714885 0.32818997 -0.075499825 -0.41839445 -0.23481826 0.035232786
0.16125062 -0.91795695 -1.0374771 0.24780203 -0.013897162 -0.37069604 -0.5837229 -0.56549996
0.3228504 -0.16800974 -0.7699509 -0.24571775 -0.0037998946 -0.042591255 0.022587305 -0.289028
0.13176447 -0.25561225 -0.7632832 0.024391992 0.6138862 -0.82755303 0.041443653 0.46005702
-0.6574026 0.5807042 0.769872 -0.26081815 -0.14376193 0.5071689 0.2569505 -0.6648646

GRU.weight_hh_l1 f4 [12, 4]
00000000: ecc1 13bf 6fc2 9ebe 4efc 0e3f c1cb bb3e
00000010: 3e32 5ebe e2d2 473e 3a44 aa3e 9e8e 33be
00000020: a326 c03c 1133 0dbd a051 683d b6c0 ddbd
00000030: c3f6 b33e 7585 61bd 3e46 18bf 2881 fc3d
00000040: 078f 4d3d 57ee 2b3d b495 043f 23eb 823d
00000050: 0069 703e a10a a53e e770 a7be ff4e 08bf
00000060: 8c25 08bd ee74 2c3e 1893 02bd e4a7 05bf
00000070: 8c54 3d3f 2444 0cbe 7e6b 243d cdac 37bf
00000080: 4d3e d23e 7da9 003f 0df0 17bf 9162 e8bd
00000090: 6ca6 02be 20c9 05bd 0e0d 0e3f 63a3 ccbe
000000a0: cef1 48be a932 06be 70bf ce3e 5e64 a93e
000000b0: 16b3 363e bea3 9d3e 25dc e83e 90a7 d53d
-0.57717776 -0.31007716 0.55853736 0.3667889 -0.21698853 0.19514039 0.33255178 -0.17534873
0.023455923 -0.03447253 0.05671847 -0.10827772 0.35149202 -0.055058915 -0.5948218 0.12329322
0.05018523 0.041975345 0.5179093 0.06392505 0.23477554 0.32234672 -0.32703325 -0.5324554
-0.033238932 0.1684148 -0.03187856 -0.52209306 0.73957133 -0.13697869 0.040141575 -0.7174805
0.41063157 0.5025862 -0.59350663 -0.11346925 -0.12758797 -0.03266251 0.5548867 -0.39968404
-0.19623491 -0.13105263 0.4038043 0.33084387 0.17841753 0.30788988 0.45480457 0.10432351

GRU.bias_ih_l1 f4 [12]
00000000: 385d c53e 65a9 b2be fb1d c4be 4350 89be
00000010: efa9 cabd fee9 92be e0b5 5cbf 0db7 54bf
00000020: 00f0 ba3a 13b1 bc3e f606 a0be 13ff 613e
0.38547683 -0.34894863 -0.38304123 -0.26819047 -0.098956935 -0.28694147 -0.8621502 -0.83091813
0.0014262199 0.36853847 -0.3125531 0.2206996

GRU.bias_hh_l1 f4 [12]
00000000: 7df8 703d e230 1abf 1eef 01bf 1c18 9e3e
00000010: fbce 8ebe 6123 71bf d7ca 1dbe a309 d6be
00000020: db67 0bbe 7f8c 76be 524d 48be 1626 eebe
0.058830727 -0.6023084 -0.5075549 0.3087777 -0.2789229 -0.9419461 -0.15409409 -0.41804227
-0.13613836 -0.24077033 -0.19560745 -0.46513432

GRU.weight_ih_l2 f4 [12, 4]
00000000: b3cd 843e db72 7d3e 66ec b03d f6be b63c
00000010: b697 b53e 4b85 acbe 33f6 85be 1643 233e
00000020: 258e 573e f6b3 f6be fac6 ce3e a2b2 a33e
00000030: 0e66 4e3f 7fc2 483e db1e 28bf 8e68 1fbf
00000040: a19b 56bf 5f57 09be c478 033e 9928 1a3f
00000050: b61b 753f a287 46bc 77f5 1ebf a90c d1be
00000060: bdee 803f 1796 fdbc 878a bdbe f5b4 28be
00000070: b4aa 383f 5962 b0be e4a4 1abf 27a0 f7be
00000080: d373 77be 5474 a53d 7b74 983e d2b0 c0be
00000090: 3e5c eb3e 709e 173f 07c0 033e 5827 6cbf
000000a0: 7634 b3be cf9c 533f 2b69 febe 3978 c7be
000000b0: 426e 09be 834d e73e ba32 4bbf 380f 65bf
0.25938186 0.24750845 0.086388394 0.022307854 0.3546731 -0.33695444 -0.26164398 0.1594356
0.21050318 -0.48184174 0.40386182 0.31972224 0.80624473 0.19605444 -0.6567208 -0.6226891
-0.8383122 -0.13412236 0.12839037 0.602182 0.9574541 -0.012117298 -0.620933 -0.4082997
1.0072857 -0.030955357 -0.3701975 -0.1647528 0.7213547 -0.34450033 -0.60407853 -0.48364374
-0.24165277 0.080788285 0.29776368 -0.37634903 0.45968813 0.5922613 0.12866221 -0.92247534
-0.35000962 0.82661146 -0.49689612 -0.3895891 -0.13420966 0.45176324 -0.7937428 -0.89476347

GRU.weight_hh_l2 f4 [12, 4]
00000000: 3021 293f 87fb 91be a62e 86be 80af d6bd
00000010: 1572 df3e 8091 463e e3c9 563e 1790 173f
00000020: fd69 0fbe a99b 243f b7ca 223f 9bf4 abbe
00000030: 6ba3 e23e ff84 e33c 55be 133f af99 743e
00000040: cee0 0abf bef8 623e 0d97 14be 2c1a dbbe
00000050: f04b bb3d 807f 4f3f cdff eb3d 6cef 7f3e
00000060: fa91 31bf eb2e e23d 8d96 1c3f b66b 153f
00000070: 5c1a 53be 4603 373f 299f 873e eccd 1a3f
00000080: 5a6d 3d3f beca c6be 3715 0fbe eeb7 823e
00000090: cc08 b93e 80db 48be f9c1 7e3e b177 0f3f
000000a0: 88f4 42be 68d3 80be 28aa 913e 8296 033f
000000b0: 1733 24be 59b1 0c3d 77c6 8b3e ff1a 843e
0.66066265 -0.28512213 -0.26207465 -0.10482693 0.43641725 0.19391441 0.20975451 0.5920424
-0.14005275 0.6430002 0.6359057 -0.33585057 0.44265303 0.027773378 0.577123 0.2388675
-0.54249275 0.221652 -0.14510746 -0.42793405 0.09145343 0.81053925 0.115233995 0.24993676
-0.6936337 0.11044105 0.6116722 0.5836748 -0.20615524 0.7148937 0.26488617 0.6047046
0.7399498 -0.38826555 -0.13972937 0.25530952 0.36139524 -0.19614983 0.24878682 0.5604201
-0.19038594 -0.2516129 0.2845013 0.5140153 -0.16035114 0.03434882 0.27299854 0.25801846

GRU.bias_ih_l2 f4 [12]
00000000: bc8e 103f ace5 153e 6016 07bf ad2a d3be
00000010: fe19 423e 44b4 03bf e897 eebe 1858 2abf
00000020: 13c0 213f 4b91 a9be 8577 ca3e bc57 293e
0.56467795 0.14638394 -0.52768517 -0.41243497 0.18955228 -0.5144694 -0.4660027 -0.6654067
0.63183707 -0.33118662 0.3954431 0.16537374

GRU.bias_hh_l2 f4 [12]
00000000: f9c6 293f e3ae f43e 18c8 0abe deac b9bd
00000010: cecc 103f af93 d1be a1a6 4dbf b805 41bf
00000020: 56db 4d3e 8f0c 233e f688 f9be d721 0b3f
0.66319233 0.47789678 -0.13552892 -0.09066175 0.5656251 -0.40932986 -0.8033238 -0.7539935
0.20103201 0.1592276 -0.48737305 0.5434851

GRU.weight_ih_l3 f4 [12, 4]
00000000: 5ead 1abe fd28 023e ef15 da3e f214 a23e
00000010: 025b 78be caad bb3d ee36 213f 5233 b93d
00000020: 156c 483e f7fa 0fbe bd8e 4bbf 67a4 3f3e
00000030: 6784 5cbe f478 7d3a f305 963e 4617 833e
00000040: a158 6ebf 9530 6d3e f619 81be d0a0 c8bd
00000050: 0bb8 63bc 9b49 3d3f f656 8fbe 7fad 36bc
00000060: 94bf 75bf 72f6 4c3f 55f4 05be 3765 9cbe
00000070: 9875 adbe 2919 513f d7b7 0abf 9b47 91bd
00000080: b2da 0abe fc49 ecbe 5697 80be ac3a 24bf
00000090: ec11 e73e b26a 6a3e 16e3 1a3f 8ea6 4c3f
000000a0: c572 05be a371 8dbe 0e5f a8be fab2 f6be
000000b0: 8e39 3b3f f96a fa3e 6c75 2d3f 4af0 1fbc
-0.15105197 0.12710948 0.4259486 0.31656605 -0.24253467 0.09164007 0.6297444 0.09042992
0.1957248 -0.14060579 -0.79514676 0.18715058 -0.21534882 0.00096692075 0.29301414 0.25603694
-0.93103987 0.23163064 -0.2521512 -0.097962976 -0.01389886 0.7394044 -0.27996033 -0.011149763
-0.9599545 0.80063546 -0.13081487 -0.3054597 -0.3387878 0.81679016 -0.5418677 -0.07093736
-0.13559988 -0.46150196 -0.2511546 -0.64152026 0.4513086 0.22892264 0.60502756 0.7994164
-0.13032062 -0.2762576 -0.3288502 -0.48183423 0.73134696 0.4890974 0.67757297 -0.009761879

GRU.weight_hh_l3 f4 [12, 4]
00000000: ed26 01be c32e 283e 64e8 d0be 5a2f 0d3f
00000010: 725f 15bf b72b 0ebd 28ac ce3c 7f72 183f
00000020: fb45 083f ed61 813e d048 9ebd 3cf7 72bd
00000030: 8cf1 b43e c315 9fbe 2e34 b63e 265d 223f
00000040: 03ba d4be 7b15 233b 2e17 8fbf 0c21 42be
00000050: 4adf 8fbf 49de 253e f834 bbbe cc43 24bd
00000060: 7dc5 2bbf 8162 f03d 49e3 0ebf f349 cb3d
00000070: 6706 18bf 63eb ee3e f7ab 1abf 40ac a83e
00000080: 7586 5d3e 0755 603e a5b2 be3e e3f9 38be
00000090: 151c 05bf ad45 db3e c5dd b4be d865 a0be
000000a0: 1115 b6be 0829 95be 6ef2 023f 2a27 963c
000000b0: 847f f53e dcbd 063f aae8 4a3e 85fb 0abe
-0.12612505 0.16424088 -0.408023 0.5515038 -0.58348763 -0.03470966 0.025228575 0.5954971
0.5323178 0.25270024 -0.07728732 -0.059317812 0.35340536 -0.3107129 0.35586685 0.63423383
-0.41548166 0.002488463 -1.1178949 -0.18957919 -1.1240017 0.16198076 -0.3656385 -0.04010372
-0.6709822 0.11737538 -0.5581556 0.09926214 -0.5938477 0.4666396 -0.6041865 0.32943916
0.21633323 0.21907435 0.3724567 -0.18064074 -0.51995975 0.42826596 -0.35325447 -0.313277
-0.35562947 -0.29132867 0.5115117 0.018329222 0.4794885 0.5263345 0.19815317 -0.1357251

GRU.bias_ih_l3 f4 [12]
00000000: 8207 3abe 4f3d 23bf bf09 f3be 64d5 93be
00000010: 30f9 4bbc 5bf1 01bf 9cb1 15bf 4f10 8cbe
00000020: 2c9a e8bd ae27 523e 8ff0 90be afc0 b03d
-0.18166927 -0.63765424 -0.47468373 -0.28873742 -0.012449548 -0.50758904 -0.58474135 -0.27356192
-0.11357531 0.20522949 -0.28308532 0.086305015

GRU.bias_hh_l3 f4 [12]
00000000: b342 69be 4a0a 93be 84fb 83bd 1c59 053f
00000010: 4a81 a5bd cc10 49be 80ff d9be c904 e5be
00000020: 8f22 94be a0e5 763e 8743 113e a173 cb3e
-0.2277935 -0.28718787 -0.06444457 0.52089095 -0.080813006 -0.19635314 -0.42577744 -0.44730213
-0.28932616 0.24111032 0.14185916 0.39736655

GRU.weight_ih_l4 f4 [12, 4]
00000000: ac06 29bf cd27 213f 39d0 e43d d6cd 193f
00000010: 883d 0bbe 6c03 d33e 532d e7be df9d 35be
00000020: f45c 373f 0241 19bf 23a3 0d3f fb37 a9be
00000030: 27ee f73d 6a0a 90be a080 d03e 37b9 723e
00000040: 0e26 913f af5a acbe f2d6 893f 3dbf 8abf
00000050: 5834 0c3f 72f4 21be eb31 96bc 8531 46bf
00000060: 712a 193e 63d6 9abe 0dca 04bf fc82 84bf
00000070: 0468 843e e544 dfbd 981c 023f 5619 343e
00000080: 4598 aabc 7258 223d 10a0 1b3f 16b8 f4bc
00000090: bb92 37bf edef f63e aa3e 0f3e 4a1b 3e3f
000000a0: d749 3abf 0ddf af3e 250e 1ebf e2dd 9a3e
000000b0: 7bde 80bf b166 6a3f 4fad 39bf 4e5d b83e
-0.66025805 0.62951356 0.11172528 0.60079706 -0.13597691 0.41213548 -0.45151767 -0.17736004
0.7162621 -0.5986482 0.5532705 -0.33050522 0.12105971 -0.28132945 0.40723133 0.23703466
1.1339738 -0.33662936 1.0768721 -1.0839611 0.5476737 -0.15815905 -0.01833435 -0.7741931
0.14957596 -0.3024169 -0.51870805 -1.0352473 0.25860608 -0.109018125 0.5082488 0.1758779
-0.02082456 0.03963513 0.6079111 -0.029872935 -0.7170827 0.48229924 0.13988748 0.7426039
-0.7276892 0.34349862 -0.6174033 0.30247408 -1.0067896 0.91562945 -0.7253007 0.36008686

GRU.weight_hh_l4 f4 [12, 4]
00000000: 4e71 0ebe 974b 613e 15a6 d73d 56ed a83e
00000010: 2d49 55be cab1 9b3e b81c 6c3f 45ff 7b3e
00000020: bd81 8e3e b4c4 b5be 8165 a3be 58a3 623e
00000030: 3c3b 0a3e 3f83 0f3f 472c 013f 1c8c af3e
00000040: 1a73 233f 7ab1 90bf 5e84 4fbf 169f 96bf
00000050: 652e 05bf da17 e23e 4585 b43e f510 9ebd
00000060: 80f7 d3be b436 b53d afed 163f c552 fa3e
00000070: 0c67 693e 342a 063f cc0c ea3e 913e 3a3f
00000080: 4399 583e 30c5 30bf 1187 0abf 25b7 39be
00000090: 9837 b43d 76cb b63e aefb 293f fd03 8d3d
000000a0: 2de3 aebd 2139 1e3f adb1 f8bd e2f1 81be
000000b0: eb13 ad3e fb84 c03e 83a5 393f c014 103f
-0.1391041 0.22001491 0.105297245 0.32993573 -0.20828696 0.3040908 0.9223132 0.24609096
0.27833357 -0.35501635 -0.3191338 0.22132623 0.13499159 0.5605964 0.50458187 0.34286582
0.63847506 -1.1304162 -0.8106135 -1.1767299 -0.5202392 0.44158822 0.35257927 -0.07718078
-0.41399765 0.088483244 0.58956426 0.48891273 0.22793216 0.52408147 0.45712888 0.7275172
0.21152215 -0.69050884 -0.54112345 -0.1813627 0.08799666 0.35702103 0.6639966 0.06885526
-0.08539424 0.6180592 -0.12143264 -0.25379854 0.3380426 0.37601456 0.72518176 0.5628166

GRU.bias_ih_l4 f4 [12]
00000000: b722 283f 851b 98be a94f bb3e f10e d53e
00000010: e61d c83e ccd1 5fbf 4b71 16bf 65c7 aebd
00000020: 667b a2ba b66a a73e 4243 193f 9b5a 333e
0.6567797 -0.29708496 0.36584213 0.41612962 0.3908531 -0.874295 -0.5876662 -0.08534125
-0.0012396395 0.326986 0.5986825 0.17515032

GRU.bias_hh_l4 f4 [12]
00000000: 5fca 9f3e 1f39 a8bc 6b8a 9cbe 796a 0d3d
00000010: e14d 083e 9d92 86bf d6fc 80bf 9cab 5bbf
00000020: 77e7 48bf b561 0abd 449a 16bf ff2a b23d
0.31209084 -0.02053505 -0.30574355 0.03452537 0.13310958 -1.0513493 -1.007716 -0.8580873
-0.7847819 -0.033784587 -0.5882914 0.08699607

lin3.weight f4 [6, 4]
00000000: efe7 0e3f a561 1abf 152f 72bf fad1 5dbf
00000010: 5596 fe3e aaae e0be 8c47 abbe 8148 86bd
00000020: 35a9 a23d 7407 7cbe 7acb eebe 6780 bb3d
00000030: 643c 813f d272 9cbe aaf5 2bbe 5b9e 9dbe
00000040: 426f 633f 4947 85be f043 98be 5b3c 2f3d
00000050: 2bb8 42bf a857 313f 262f 393f be91 393f
0.5582265 -0.60305244 -0.9460309 -0.86648524 0.4972407 -0.43883258 -0.33453023 -0.06556798
0.0794243 -0.24612218 -0.46639615 0.0915535 1.0096555 -0.3055635 -0.16792932 -0.30784878
0.8884164 -0.2603095 -0.29739332 0.04278217 -0.7606227 0.6927438 0.7233757 0.7248801

lin3.bias f4 [6]
00000000: bfff 823f ad5a babd 20ef 1bbe a58c c1be
00000010: d7eb 56bf 02bc 393e
1.0234298 -0.09099326 -0.15227938 -0.37802616 -0.83953613 0.18138126

exp_avg f4 [4, 7]
00000000: 0500 0080 ea13 15b2 2d21 d538 f4fc a839
00000010: 2264 4038 0000 0000 ed08 1038 0400 0000
00000020: e52d 47b4 2bff 183a a7b0 8fb9 4731 4338
00000030: 0000 0000 85ac 2638 2900 0080 d290 cf33
00000040: df5d e3b9 c6b2 fb39 f4f4 88b9 0000 0000
00000050: e9ec b9b8 2800 0000 c4af aa34 fb15 57ba
00000060: 834f bc3a b733 2bb7 0000 0000 6599 94b8
-7e-45 -8.677469e-09 0.00010162811 0.00032231922 4.5869623e-05 0.0 3.4340588e-05 6e-45
-1.8550016e-07 0.0005836363 -0.00027406702 4.6537516e-05 0.0 3.9738155e-05 -5.7e-44 9.665531e-08
-0.00043366753 0.00048007647 -0.00026122446 0.0 -8.8656154e-05 5.6e-44 3.1792854e-07 -0.00082048745
0.0014366958 -1.0204435e-05 0.0 -7.085762e-05

exp_avg_sq f4 [4, 7]
00000000: 3d78 8625 c920 0627 8810 0734 099d ae35
00000010: 2e36 0c34 0000 0000 bcc2 4c32 4b57 7227
00000020: cc3b 572b 773e 9235 783c 243a a7f8 be33
00000030: 0000 0000 e5c0 f031 c962 6526 fb95 6c2a
00000040: f7d0 0a36 243b 3b39 4e3f 4636 0000 0000
00000050: f4b2 c133 b1fc a327 4ec0 1c2c eceb f935
00000060: 3335 f43a 3559 0034 0000 0000 eb83 8b32
2.332677e-16 1.8614009e-15 1.2578869e-07 1.3009713e-06 1.3058227e-07 0.0 1.191864e-08 3.3631568e-15
7.646633e-13 1.0896027e-06 0.0006265114 8.892794e-08 0.0 7.006849e-09 7.9584214e-16 2.1013046e-13
2.0685236e-06 0.00017855741 2.9541147e-06 0.0 9.019814e-08 4.5515557e-15 2.2275684e-12 1.8620608e-06
0.0018631577 1.1953382e-07 0.0 1.6241719e-08

exp_avg f4 [4]
00000000: 8be4 2f36 6ecd 6a36 3808 1ab8 bb82 04b7
2.6210062e-06 3.4988293e-06 -3.6724115e-05 -7.898251e-06

exp_avg_sq f4 [4]
00000000: adfc 2134 88a6 5134 7bcd 1134 5e39 c433
1.5086216e-07 1.9525226e-07 1.357893e-07 9.137396e-08

exp_avg f4 [12, 4]
00000000: 58fe 5335 022c cd35 f0ca 0d36 6634 4135
00000010: 9fc6 3334 e27c e534 1246 4a35 672b d731
00000020: 04f2 8734 5e0f fa34 128b 0435 02af 6834
00000030: fd95 dcb3 91e1 0eb4 453c 4e33 e94d 23b4
00000040: 4900 6c34 f5ce 8634 3630 92b4 a01d bc34
00000050: 4131 9435 2a53 b835 efe4 42b5 6fbe e435
00000060: f8e5 15b5 faaa 89b5 2e49 ceb5 3795 dbb4
00000070: 6981 66b9 ef77 0d3a e4da ac39 157e 42ba
00000080: 7cb1 0a38 2a7d 8138 3834 a338 383d 0938
00000090: ac43 d5b8 a35b 4eb9 c8fd 67b9 76e6 97b8
000000a0: 4364 82b8 bb95 dfb8 9bed 25b9 2959 4eb8
000000b0: 0b4f d9b5 a7d3 0cb6 d40a 4a35 0fcd 20b6
7.8973744e-07 1.5286498e-06 2.1128762e-06 7.197435e-07 1.6742932e-07 4.2745438e-07 7.535283e-07 6.262258e-09
2.53218e-07 4.657731e-07 4.9376206e-07 2.1670351e-07 -1.0271831e-07 -1.3306841e-07 4.8017927e-08 -1.5208902e-07
2.1979317e-07 2.5110026e-07 -2.7229697e-07 3.5039284e-07 1.1041194e-06 1.3733272e-06 -7.2603774e-07 1.7042747e-06
-5.5841474e-07 -1.0257056e-06 -1.5369494e-06 -4.0900497e-07 -0.00021982718 0.00053965946 0.00032969483 -0.00074193004
3.306706e-05 6.174513e-05 7.782172e-05 3.272036e-05 -0.00010169236 -0.00019679828 -0.00022124418 -7.243168e-05
-6.217558e-05 -0.00010661358 -0.00015824141 -4.9197264e-05 -1.6190764e-06 -2.0984824e-06 7.526662e-07 -2.3961218e-06

exp_avg_sq f4 [12, 4]
00000000: d25b e52e 4bad da2f e447 d32d af80 e42f
00000010: b11a 702f 0600 a630 232c 842e 8401 b930
00000020: 6b63 812e 042e 892f 37b8 0d2e 0178 422f
00000030: c245 822d 8999 c72e 3bd2 262c e0b1 bd2e
00000040: b7d8 0e32 5a49 0e32 2f5f 8331 f955 5132
00000050: 49a7 f231 40bf cf32 da95 0030 3c21 e532
00000060: 656d 4535 a25a d635 2855 d135 5942 7235
00000070: e655 e039 8e78 803b 8c18 cd3b 1d62 2439
00000080: 3f46 a533 5a47 8134 8b4c 2a34 e31a c033
00000090: e54a 5935 f32c 2d36 2f1d 0836 23a3 f434
000000a0: 507d 0134 6bbb 9f34 c4fc 7a34 2628 3933
000000b0: 4f42 fb31 ec80 4a33 7bf9 2531 e679 5333
1.0430025e-10 3.97771e-10 2.4019849e-11 4.1564394e-10 2.1837356e-10 1.2078096e-09 6.010505e-11 1.3460952e-09
5.883901e-11 2.495285e-10 3.2223304e-11 1.7686831e-10 1.4810268e-11 9.0767456e-11 2.370672e-12 8.626322e-11
8.314763e-09 8.282166e-09 3.823423e-09 1.2184949e-08 7.062145e-09 2.4184942e-08 4.677908e-10 2.6674222e-08
7.354741e-07 1.597062e-06 1.5596497e-06 9.0248574e-07 0.0004278861 0.0039206212 0.0062590297 0.00015676809
7.696189e-08 2.4080038e-07 1.586033e-07 8.9455874e-08 8.0947785e-07 2.5805173e-06 2.0282566e-06 4.556724e-07
1.205965e-07 2.9752422e-07 2.337502e-07 4.3110184e-08 7.3126e-09 4.7149044e-08 2.4152473e-09 4.9238132e-08

exp_avg f4 [12, 4]
00000000: e38e 5eb4 fece 6034 8811 5434 22d9 7634
00000010: 7b59 0034 49b4 fcb3 0c7f 13b4 1dd0 a3b4
00000020: 1c81 5db3 d0d7 9532 d898 e4b1 09e2 2834
00000030: b5e5 0a34 e68a 06b4 b5a1 18b4 0847 4eb4
00000040: ca42 39b5 78bb 3835 b49f 3635 b7d8 0535
00000050: 0095 3cb6 b2ef 3c36 c25b 3e36 64f3 1736
00000060: fe53 6d34 172a 60b4 87fc 2fb4 fcd1 59b4
00000070: 18fa 5e38 8dfc 5eb8 6b06 5fb8 5b10 4eb6
00000080: e2bd 78b7 f86b 7937 826e 7537 b225 6a37
00000090: 3736 80b5 d831 7935 6603 9535 311b d635
000000a0: 94ae b037 23c9 afb7 f78d afb7 c8b4 b8b7
000000b0: 3a4e 9134 ec27 42b4 3a45 fcb4 b1e3 0db6
-2.0727343e-07 2.0936929e-07 1.9750416e-07 2.2989528e-07 1.1953482e-07 -1.1767458e-07 -1.3736661e-07 -3.0512538e-07
-5.1572997e-08 1.7444023e-08 -6.6530497e-09 1.572845e-07 1.2935818e-07 -1.2530253e-07 -1.4214932e-07 -1.9211086e-07
-6.901506e-07 6.8818144e-07 6.803268e-07 4.986172e-07 -2.8100912e-06 2.8153704e-06 2.8365616e-06 2.2642425e-06
2.2102901e-07 -2.0876938e-07 -1.6390014e-07 -2.0286092e-07 5.3161843e-05 -5.316413e-05 -5.317332e-05 -3.0705912e-06
-1.4826162e-05 1.4866695e-05 1.4628868e-05 1.39562635e-05 -9.552522e-07 9.283226e-07 1.1102354e-06 1.5952156e-06
2.106213e-05 -2.0955287e-05 -2.0927733e-05 -2.2018692e-05 2.7065272e-07 -1.8082181e-07 -4.6989027e-07 -2.114317e-06

exp_avg_sq f4 [12, 4]
00000000: 423f 8830 af4e 9030 6534 b030 3ecd 3930
00000010: a6c7 b331 be82 cd31 b795 d631 c14c bb30
00000020: 55cd 6c30 6fc8 7230 0a34 c02f 4c8e 1d30
00000030: 8332 862f 068b a52f d9a3 4c2e cc8d 7d2f
00000040: b3a0 0832 b61b 0c32 333b 1132 9214 4131
00000050: 13d2 bc33 c927 d033 9ab9 f633 21fa 6633
00000060: 5c5f f52f 060e 0630 c390 972f b5b2 c12f
00000070: 9e22 4f32 51d6 6632 d598 8f32 8458 6231
00000080: aba0 c732 49ab ed32 28cf 3333 222f 2633
00000090: bf92 6332 cc8b cb32 0a57 dc32 dd60 8133
000000a0: 72d3 8132 a1b3 9d32 d111 8232 96d5 a732
000000b0: b8f2 c831 7187 3032 5b82 cd31 4921 ff32
9.913281e-10 1.0499742e-09 1.2820577e-09 6.7594275e-10 5.232283e-09 5.981149e-09 6.2452403e-09 1.3627856e-09
8.6148094e-10 8.832392e-10 3.4961573e-10 5.7318483e-10 2.441035e-10 3.0112107e-10 4.6529756e-11 2.3060592e-10
7.952781e-09 8.155373e-09 8.453571e-09 2.809689e-09 8.7926445e-08 9.692992e-08 1.14890284e-07 5.377854e-08
4.4632997e-10 4.8768845e-10 2.75696e-10 3.5233474e-10 1.2056857e-08 1.3436492e-08 1.6716891e-08 3.2937644e-09
2.3239712e-08 2.7668323e-08 4.1865093e-08 3.8692754e-08 1.3246505e-08 2.3695883e-08 2.5650952e-08 6.02465e-08
1.511373e-08 1.8358891e-08 1.5142094e-08 1.9538486e-08 5.84836e-09 1.0275344e-08 5.981105e-09 2.9701043e-08

exp_avg f4 [12]
00000000: 5761 0634 c612 84b4 4682 2434 18a8 87b4
00000010: b8f8 3135 a8ab 4136 73bb a9b3 df25 5fb8
00000020: 3413 5c37 349e 23b8 f355 bbb7 c988 85b6
1.2515135e-07 -2.4600575e-07 1.5321083e-07 -2.5268014e-07 6.629957e-07 2.8859158e-06 -7.9037726e-08 -5.3202613e-05
1.3117493e-05 -3.9009567e-05 -2.233216e-05 -3.9796328e-06

exp_avg_sq f4 [12]
00000000: fbe6 2531 2ec6 2a32 a320 c130 fcb5 4930
00000010: b5d4 1b32 292a 1834 fd36 5030 04f9 b932
00000020: 8136 d634 e615 1536 78bb 2134 0586 dd34
2.4141957e-09 9.940363e-09 1.4051874e-09 7.338199e-10 9.070551e-09 1.4171441e-07 7.57481e-10 2.1650074e-08
3.9900263e-07 2.2215477e-06 1.5062494e-07 4.126197e-07

exp_avg f4 [12]
00000000: 5761 0634 c612 84b4 4682 2434 18a8 87b4
00000010: b8f8 3135 a8ab 4136 73bb a9b3 df25 5fb8
00000020: 8665 5d37 9f81 1236 ec55 b5b7 b167 2bb6
1.2515135e-07 -2.4600575e-07 1.5321083e-07 -2.5268014e-07 6.629957e-07 2.8859158e-06 -7.9037726e-08 -5.3202613e-05
1.3196264e-05 2.1831145e-06 -2.1616892e-05 -2.5541342e-06

exp_avg_sq f4 [12]
00000000: fbe6 2531 2ec6 2a32 a320 c130 fcb5 4930
00000010: b5d4 1b32 292a 1834 fd36 5030 04f9 b932
00000020: be81 1734 7b9c 6534 2613 3a33 7efb b633
2.4141957e-09 9.940363e-09 1.4051874e-09 7.338199e-10 9.070551e-09 1.4171441e-07 7.57481e-10 2.1650074e-08
1.4110171e-07 2.1384214e-07 4.3323915e-08 8.5207816e-08

exp_avg f4 [12, 4]
00000000: 1290 eb35 4c1e 04b6 b142 f7b5 0b2e de35
00000010: 1745 aab8 60bf a838 dc03 a738 2d53 ba38
00000020: 762d bf37 6c74 bbb7 e473 b8b7 2b14 cbb7
00000030: 2c8e 27b9 b643 2639 1c5a 2339 fd0b d938
00000040: 2812 6fb7 3f0f 6b37 26e9 5337 2bbd 33b6
00000050: 4209 3ab8 2457 4238 d032 5e38 5783 0137
00000060: a9a3 35b8 baf0 3b38 5337 5138 6257 f336
00000070: e7ec f9b8 ddf4 fd38 d2df 0439 a2d1 c035
00000080: 33bb 09b8 419c 0b38 17c1 1a38 69b8 3536
00000090: 8da9 eaba 9052 e93a 4368 e73a cc8b b73a
000000a0: 50c1 9239 bff1 90b9 5c62 8fb9 bdbd 35b9
000000b0: 7800 2c3b 29b1 2abb e4ee 27bb 0ded 03bb
1.7550794e-06 -1.9687168e-06 -1.8422344e-06 1.6553689e-06 -8.119101e-05 8.0465106e-05 7.9638994e-05 8.884664e-05
2.2790144e-05 -2.234635e-05 -2.1988475e-05 -2.4208877e-05 -0.00015979324 0.00015856218 0.0001557846 0.00010349599
-1.4249737e-05 1.4010641e-05 1.2630864e-05 -2.6783189e-06 -4.4354478e-05 4.633436e-05 5.2976247e-05 7.719579e-06
-4.3306183e-05 4.480847e-05 4.9881008e-05 7.252137e-06 -0.00011917372 0.000121095894 0.0001267188 1.4366126e-06
-3.283769e-05 3.3285705e-05 3.689629e-05 2.7078443e-06 -0.0017903313 0.0017801095 0.0017654974 0.0014003455
0.0002799132 -0.00027645935 -0.0002734837 -0.00017332188 0.0026245397 -0.0026045537 -0.0025624568 -0.0020130307

exp_avg_sq f4 [12, 4]
00000000: 4857 a030 1c86 b930 3684 9930 0cd9 a130
00000010: 4313 0333 77ca bb32 d0fa 3f32 c2e8 4d32
00000020: 89b4 5f32 e478 4b32 8c2a b131 370a 1e32
00000030: 207c 6533 7312 9733 b2b0 e432 2191 ff32
00000040: 14d9 7431 232c 5b31 3574 1d31 7033 df2f
00000050: 4b62 1d33 375d 6e31 2c91 8533 a493 f133
00000060: 61db fe32 2925 ef31 c912 da33 ac57 1934
00000070: 70da 4234 ada5 8234 5502 d534 bdbf 4433
00000080: e043 0d34 662e 2934 7e90 5134 9ef9 ff33
00000090: bd06 9836 eb56 7b36 ae2c 2336 6292 1836
000000a0: 190c 1e36 1ac4 0636 6fcd 4134 9d43 2a35
000000b0: 9f2b 7137 0e03 5a37 3256 d936 b2e9 d036
1.1666339e-09 1.3498638e-09 1.1169792e-09 1.177598e-09 3.0518333e-08 2.1861736e-08 1.1174691e-08 1.19854935e-08
1.3021357e-08 1.18436425e-08 5.156215e-09 9.199133e-09 5.343111e-08 7.034841e-08 2.6623045e-08 2.9751904e-08
3.5630068e-09 3.1893783e-09 2.2912563e-09 4.0600012e-10 3.6643808e-08 3.4686545e-09 6.219702e-08 1.1249293e-07
2.9669254e-08 6.96004e-09 1.0154833e-07 1.428113e-07 1.8147125e-07 2.4334932e-07 3.9676038e-07 4.580919e-08
1.3156341e-07 1.5756231e-07 1.9517208e-07 1.1919768e-07 4.5307374e-06 3.7452508e-06 2.43149e-06 2.273497e-06
2.3550876e-06 2.0081702e-06 1.8049262e-07 6.3428325e-07 1.4374876e-05 1.2994524e-05 6.4771384e-06 6.2260888e-06

exp_avg f4 [12, 4]
00000000: 2681 2135 d39e af35 86b1 86b5 51cb 9cb5
00000010: db4a bfb8 8b4c 2cb8 e7e1 b738 7d80 2338
00000020: da80 d337 c628 4f37 17c5 ccb7 51c2 42b7
00000030: 3f07 e8b8 6e17 68b8 52c2 e138 8dad 5638
00000040: 16c6 a635 befb 0ab6 ac68 8635 c8f9 ed35
00000050: 8817 1fb7 362f 7fb6 048f 1737 2760 6d36
00000060: d767 14b7 ab03 a0b6 7454 1637 4092 9136
00000070: 1c0e beb6 5284 dfb5 bb28 b536 05f9 aa35
00000080: b943 7336 7962 2a36 1221 8cb6 32c3 3cb6
00000090: c88e 33ba 5992 afb9 efc0 2d3a 6762 a639
000000a0: d096 dd38 275c 5338 1f43 d6b8 bafc 45b8
000000b0: 3172 eb39 9d3c 6739 d1d3 e4b9 3d48 56b9
6.016511e-07 1.308474e-06 -1.0035444e-06 -1.1682079e-06 -9.121533e-05 -4.107928e-05 8.7681976e-05 3.8981892e-05
2.5213161e-05 1.2347655e-05 -2.4410472e-05 -1.1608544e-05 -0.00011063972 -5.533493e-05 0.00010765031 5.1183208e-05
1.2425614e-06 -2.0710136e-06 1.0014242e-06 1.7730572e-06 -9.482617e-06 -3.8025441e-06 9.0336e-06 3.537172e-06
-8.8456645e-06 -4.7687986e-06 8.96036e-06 4.3383625e-06 -5.664084e-06 -1.6653305e-06 5.398962e-06 1.2738461e-06
3.6249241e-06 2.5389293e-06 -4.176175e-06 -2.8127802e-06 -0.0006849584 -0.0003348764 0.00066281756 0.00031735303
0.00010566192 5.0392144e-05 -0.000102168175 -4.720383e-05 0.00044907772 0.00022052457 -0.00043645364 -0.00020435541

exp_avg_sq f4 [12, 4]
00000000: d4fd 8230 07e9 9730 3add 1931 2451 3b30
00000010: 9406 2d32 d3a8 9131 1339 6432 088c 9831
00000020: a687 0c32 60e5 5d32 1c5e c132 2bea 1a32
00000030: df71 c632 6e06 fb32 7592 9433 2327 1132
00000040: e9cb 822f 5da5 162f 8ac4 d02e b37b 1c2e
00000050: e332 c133 f984 aa33 2b71 3134 cbb7 9933
00000060: 7ed6 e833 a1ad c933 bab7 5834 097b b733
00000070: e5ff 3933 e301 7833 03dd f733 867c 3233
00000080: 334b bb32 cb20 a132 06f2 2533 6c5f 5532
00000090: 22fd c034 9784 d733 41a1 c034 42bc 9d33
000000a0: d389 ab33 446d 0a34 97f4 0334 409f 2c33
000000b0: 0211 0735 6aaa 3635 ddce cc35 e1d2 4e34
9.530887e-10 1.1052926e-09 2.2390183e-09 6.814551e-10 1.0071421e-08 4.2392485e-09 1.3284324e-08 4.439702e-09
8.179915e-09 1.2916047e-08 2.2510953e-08 9.017223e-09 2.3102016e-08 2.922317e-08 6.9184274e-08 8.4490095e-09
2.379175e-10 1.370117e-10 9.493657e-11 3.558016e-11 8.996519e-08 7.9404295e-08 1.652558e-07 7.1580494e-08
1.0842358e-07 9.391375e-08 2.0183407e-07 8.5439815e-08 4.3306404e-08 5.7743716e-08 1.15420356e-07 4.1557108e-08
2.1803862e-08 1.875778e-08 3.8637175e-08 1.2419928e-08 3.5946965e-07 1.00358356e-07 3.5880115e-07 7.345126e-08
7.987878e-08 1.2892002e-07 1.2289307e-07 4.0191708e-08 5.031617e-07 6.804827e-07 1.525939e-06 1.9261962e-07

exp_avg f4 [12]
00000000: 1961 0f35 89fb aa38 d89f b9b7 c2a0 2039
00000010: a290 0337 09b2 8638 d6c4 7338 88a6 0e39
00000020: 2333 5138 1b79 e93a 5535 90b9 faa0 26bb
5.3412947e-07 8.153084e-05 -2.2128152e-05 0.00015318676 7.841883e-06 6.4227796e-05 5.8119032e-05 0.00013604213
4.9877108e-05 0.0017812582 -0.00027505556 -0.002542554

exp_avg_sq f4 [12]
00000000: 5250 2031 c0dc 9232 a3e2 c732 73c3 bc33
00000010: 3d5d 6130 ea72 ba34 0229 0435 47d2 3b35
00000020: 1bf4 e734 a941 2136 0a23 d734 98dc 0437
2.3328721e-09 1.7097022e-08 2.3269711e-08 8.789984e-08 8.198702e-10 3.472881e-07 4.9233506e-07 6.996892e-07
4.3204713e-07 2.4029089e-06 4.0072365e-07 7.919174e-06

exp_avg f4 [12]
00000000: 1961 0f35 89fb aa38 d89f b9b7 c2a0 2039
00000010: a290 0337 09b2 8638 d6c4 7338 88a6 0e39
00000020: 48b8 e237 2c4b 503a 7074 20b9 3181 1aba
5.3412947e-07 8.153084e-05 -2.2128152e-05 0.00015318676 7.841883e-06 6.4227796e-05 5.8119032e-05 0.00013604213
2.7027112e-05 0.0007945772 -0.00015302165 -0.0005893885

exp_avg_sq f4 [12]
00000000: 5250 2031 c0dc 9232 a3e2 c732 73c3 bc33
00000010: 3d5d 6130 ea72 ba34 0229 0435 47d2 3b35
00000020: fa95 1434 b424 e534 1d8c 7634 5c4c c735
2.3328721e-09 1.7097022e-08 2.3269711e-08 8.789984e-08 8.198702e-10 3.472881e-07 4.9233506e-07 6.996892e-07
1.3838135e-07 4.268128e-07 2.2961508e-07 1.4848879e-06

exp_avg f4 [12, 4]
00000000: 7f12 61b7 35f4 5bb7 c79c 8437 74f1 4337
00000010: 1b62 c236 24df adb5 92ce 79b6 ace9 2835
00000020: 7cde 9a39 17d1 3039 edf2 99b9 667c 1fb9
00000030: 65bb dbb7 f1b3 9eb7 a2fd e837 736e 8537
00000040: 2480 5b3a 8388 fe39 ba4a 5cba 796d e0b9
00000050: cb22 8fb8 56b0 4bb8 d478 7f38 27f3 2138
00000060: fc39 60b8 d82c b8b7 82f6 0e38 5510 9637
00000070: 29ab 9eb8 1e81 dcb7 7bc1 3a38 f788 b237
00000080: f421 8ab9 5434 71b9 b14a 9939 8bf7 5239
00000090: 7825 beb9 b8d4 a7b9 e09a e839 d21c 8d39
000000a0: a334 efba 9c8b 90ba f6c0 f23a a93a 803a
000000b0: 4691 b8ba 304d 56ba c150 be3a c003 3d3a
-1.34153515e-05 -1.3110276e-05 1.5808631e-05 1.1679123e-05 5.7930715e-06 -1.2954447e-06 -3.722413e-06 6.2924914e-07
0.00029538933 0.0001686256 -0.00029363428 -0.00015209764 -2.6194097e-05 -1.891886e-05 2.7774662e-05 1.5906267e-05
0.00083732815 0.00048548364 -0.0008403469 -0.00042806173 -6.825252e-05 -4.8563197e-05 6.0909268e-05 3.8611845e-05
-5.3459764e-05 -2.1955391e-05 3.4085017e-05 1.7888999e-05 -7.565908e-05 -2.6286169e-05 4.452605e-05 2.1283033e-05
-0.00026346708 -0.00023003045 0.00029238084 0.00020119378 -0.0003626754 -0.0003201121 0.0004436588 0.00026915089
-0.001824994 -0.0011027935 0.0018520642 0.0009783107 -0.0014081381 -0.0008174954 0.0014519916 0.00072103366

exp_avg_sq f4 [12, 4]
00000000: fbcf 1832 1ca2 4331 0ddc 4632 4530 dd30
00000010: da53 6f32 58dd 7c32 61e9 1a33 2013 b331
00000020: f6f8 d533 6ac4 3634 81d8 3934 5a6f 4c33
00000030: 26a1 9e32 ad28 5732 6c25 f932 8d05 8d31
00000040: 23da 0a34 c85d 8133 93be 1234 8367 2c33
00000050: 355e 3d33 dea4 de32 0747 7933 546d ac32
00000060: 98ae 6933 3fa9 8430 52bc a632 bf6b 2432
00000070: 5258 ed33 30c7 9a31 7ac7 2633 28b3 7832
00000080: e429 8535 22b4 fc34 06d8 c135 9e3d 8134
00000090: 6240 9f35 5781 8636 8cd6 c636 7715 c935
000000a0: e163 3836 54bc e536 2078 0537 99e9 1536
000000b0: 85a1 e635 8882 6d37 8b71 8a37 e441 7e36
8.894854e-09 2.8468383e-09 1.1575151e-08 1.6093585e-09 1.3930697e-08 1.4718658e-08 3.6068176e-08 5.21176e-09
9.963871e-08 1.7021526e-07 1.7308231e-07 4.7598725e-08 1.8466903e-08 1.2523896e-08 2.9004433e-08 4.104271e-09
1.2931609e-07 6.024089e-08 1.366664e-07 4.0141014e-08 4.4090672e-08 2.5919174e-08 5.803943e-08 2.0073152e-08
5.4408332e-08 9.652367e-10 1.9410582e-08 9.570555e-09 1.1052238e-07 4.504635e-09 3.883131e-08 1.4476235e-08
9.921464e-07 4.7069722e-07 1.4442492e-06 2.4072955e-07 1.1865161e-06 4.0085683e-06 5.9258364e-06 1.4981914e-06
2.7476274e-06 6.846656e-06 7.9553865e-06 2.2338702e-06 1.7183344e-06 1.41566925e-05 1.6503755e-05 3.7887303e-06

exp_avg f4 [12, 4]
00000000: 3d95 60b7 630f 26b7 17b3 08b7 4b24 1eb7
00000010: f43d 2ab7 96e3 3037 83be e136 f604 2237
00000020: e5fb fd37 56a8 6d39 f18a 0639 b810 4e39
00000030: 1ad9 aa36 fd72 3eb7 30eb c5b6 d7cb 25b7
00000040: 31ec 27b9 9815 213a 9e9a c039 0fe5 0e3a
00000050: d011 0f37 af08 9eb6 43f4 89b5 96e9 59b6
00000060: 408d 5737 c558 62b7 cffb ecb6 7bd3 46b7
00000070: 1e37 b137 70d2 b3b7 21b4 3bb7 0bc1 9cb7
00000080: 85f7 d8b8 36f4 02b9 274e ccb8 d3c7 f6b8
00000090: 3388 edb7 daeb 90b8 f121 20b8 0aa2 79b8
000000a0: 0bf1 4e34 86dc dbb9 ec5c 78b9 f68c bfb9
000000b0: 366e d0b6 59a0 6eb8 4076 f3b7 23ba 4bb8
-1.3386188e-05 -9.8979535e-06 -8.147929e-06 -9.425984e-06 -1.0147214e-05 1.05434065e-05 6.727701e-06 9.6571075e-06
3.0277248e-05 0.00022664791 0.00012830996 0.00019651919 5.0916688e-06 -1.1351655e-05 -5.898437e-06 -9.882227e-06
-0.00016014349 0.00061448803 0.00036736293 0.00054510025 8.5276115e-06 -4.709778e-06 -1.0278385e-06 -3.2471485e-06
1.2847886e-05 -1.3491318e-05 -7.0626625e-06 -1.1850959e-05 2.112571e-05 -2.1436455e-05 -1.1188008e-05 -1.8686542e-05
-0.00010345787 -0.00012488742 -9.742035e-05 -0.00011767414 -2.8316024e-05 -6.910386e-05 -3.8178583e-05 -5.9517137e-05
1.9272936e-07 -0.00041935238 -0.00023685739 -0.00036535383 -6.2117133e-06 -5.6892957e-05 -2.9022922e-05 -4.8572325e-05

exp_avg_sq f4 [12, 4]
00000000: af19 8232 c889 9f31 b91a 6d31 285d 7732
00000010: fcc5 0e33 ea10 1332 f160 5632 cfd2 3b33
00000020: c9c7 eb33 411d de33 741d 6f33 cba7 c733
00000030: d5ae c732 9c6b 8332 8d14 8732 4122 1733
00000040: e3d5 d232 1a05 b833 76ea 2133 754e 9433
00000050: 77fc 0433 a6a5 b332 952e be31 905d 3f32
00000060: 4c7a 3933 cdc9 8833 dd43 f832 eb59 4633
00000070: 39ab db33 cafc e533 ec31 1f33 0fa4 8533
00000080: c23b 8c35 4ca0 9834 a4ec 6534 641d 8235
00000090: 7dcb 9535 2dc5 0635 88ce 3f35 8f29 0b36
000000a0: b177 fa34 d08b 8734 8673 5a34 7ae7 0635
000000b0: 8732 0535 4d36 ce34 fb21 2a35 747c b435
1.5145671e-08 4.643173e-09 3.450323e-09 1.43984735e-08 3.3242017e-08 8.560372e-09 1.2478481e-08 4.373106e-08
1.0979381e-07 1.0343002e-07 5.567331e-08 9.297181e-08 2.3246153e-08 1.5299342e-08 1.5725414e-08 3.518858e-08
2.4544482e-08 8.569096e-08 3.7698975e-08 6.906058e-08 3.096326e-08 2.091367e-08 5.5350236e-09 1.1138937e-08
4.3184897e-08 6.369701e-08 2.890186e-08 4.6182247e-08 1.02291274e-07 1.07096255e-07 3.7065476e-08 6.223137e-08
1.0448205e-06 2.8428838e-07 2.1413376e-07 9.694309e-07 1.1160588e-06 5.020582e-07 7.145359e-07 2.0736804e-06
4.6653216e-07 2.5247436e-07 2.034486e-07 5.025573e-07 4.961989e-07 3.841e-07 6.3379383e-07 1.3447266e-06

exp_avg f4 [12]
00000000: f738 d336 8014 afb6 d98a a4b9 bd60 fb37
00000010: 16ba 6aba a4ab be38 0437 8a38 84cb c338
00000020: c5c2 4539 6a90 d339 16b9 fd3a 59fb c43a
6.2949216e-06 -5.217793e-06 -0.00031383967 2.9966579e-05 -0.00089541206 9.0918766e-05 6.5906e-05 9.336232e-05
0.00018859941 0.00040352653 0.0019357528 0.0015028521

exp_avg_sq f4 [12]
00000000: eebe 1b33 1cdd 9833 e328 2234 3063 a033
00000010: de7e 2334 9e1a 9934 90cf 7a34 3d87 1235
00000020: f465 9136 f0b4 9936 e4b4 e536 ca28 de36
3.62624e-08 7.118271e-08 1.51023e-07 7.468623e-08 1.5226712e-07 2.8517837e-07 2.3358575e-07 5.4586036e-07
4.3332057e-06 4.580819e-06 6.8457903e-06 6.620864e-06

exp_avg f4 [12]
00000000: f738 d336 8014 afb6 d98a a4b9 bd60 fb37
00000010: 16ba 6aba a4ab be38 0437 8a38 84cb c338
00000020: 5a08 0d39 1d81 5339 4904 3d3a 29fc c838
6.2949216e-06 -5.217793e-06 -0.00031383967 2.9966579e-05 -0.00089541206 9.0918766e-05 6.5906e-05 9.336232e-05
0.00013449919 0.00020170627 0.00072104164 9.583712e-05

exp_avg_sq f4 [12]
00000000: eebe 1b33 1cdd 9833 e328 2234 3063 a033
00000010: de7e 2334 9e1a 9934 90cf 7a34 3d87 1235
00000020: 8c63 2d36 d76f 2636 447e 8f35 8c9a 7235
3.62624e-08 7.118271e-08 1.51023e-07 7.468623e-08 1.5226712e-07 2.8517837e-07 2.3358575e-07 5.4586036e-07
2.5836953e-06 2.4801027e-06 1.0691078e-06 9.037692e-07

exp_avg f4 [12, 4]
00000000: f426 b7b6 bd6b 55b8 9916 31b8 9ca9 5bb8
00000010: b4a3 cf35 ede6 1538 1927 9837 ad1f 0a38
00000020: ea85 3fb8 b37d ca38 3cea 9238 cb77 d038
00000030: 1334 59b8 ab01 1ab9 c3e4 d8b8 ffd2 0db9
00000040: c944 1d39 3d1b 9eb9 d48f 09b9 f729 4eb9
00000050: 693b bf38 1646 16b9 8a26 48b8 0d05 a8b8
00000060: cc48 8738 3afe 30b8 d756 9537 a87a 9a36
00000070: 6b50 3738 b51f 85b8 25f6 88b7 9994 fdb7
00000080: 21cf c9b9 51cb f73a f287 b13a 73df f23a
00000090: 57e1 2139 8f81 bfba b5dc 73ba 865e aeba
000000a0: 0cef 89b9 9d96 dc3a 1bc1 b13a 7e2e e73a
000000b0: d180 0fba f618 afba c18e 80ba 831c a4ba
-5.4583597e-06 -5.0883496e-05 -4.2221134e-05 -5.237163e-05 1.5470346e-06 3.5739435e-05 1.8138018e-05 3.2931264e-05
-4.5662666e-05 9.655524e-05 7.005452e-05 9.940526e-05 -5.178533e-05 -0.00014687206 -0.00010342293 -0.0001352541
0.00014998311 -0.00030156402 -0.00013118918 -0.00019661324 9.118656e-05 -0.00014331224 -4.7719608e-05 -8.011805e-05
6.450861e-05 -4.2198437e-05 1.7802622e-05 4.6038367e-06 4.3705495e-05 -6.34784e-05 -1.6327083e-05 -3.0229146e-05
-0.0003849203 0.0018905198 0.0013544543 0.0018529728 0.00015438102 -0.0014610755 -0.0009302602 -0.0013303317
-0.0002630878 0.0016829554 0.0013561578 0.0017637757 -0.0005474212 -0.0013358879 -0.0009808169 -0.0012520704

exp_avg_sq f4 [12, 4]
00000000: 1906 3233 22d4 5234 f589 6134 ee39 ad34
00000010: 1a84 0c33 06b1 7433 f3c8 4d33 2507 b833
00000020: b839 bf33 02a7 9d33 5fa3 b433 cdc8 3c34
00000030: abff 4634 533a 6033 4157 9f33 b05a 8034
00000040: c509 b835 64a4 ce35 32b8 3634 4ab3 cc34
00000050: 0e92 0835 c5bc e634 cf45 5133 bbb0 de32
00000060: 79b3 b933 8f1c 3733 94b2 a332 3f06 d831
00000070: 2617 db33 8b58 8833 5e0c 8c32 1e6d a831
00000080: e0f6 0538 b092 9b38 75b1 e338 c4e9 4b39
00000090: a091 9536 cc98 0a37 238e 5137 40bc 7a37
000000a0: 4236 6937 0585 5a38 6bf4 7938 2f9b b938
000000b0: aa34 8637 1399 8236 c583 f936 fb6a a837
4.14494e-08 1.9634948e-07 2.1004946e-07 3.226591e-07 3.2716436e-08 5.697168e-08 4.7913044e-08 8.569467e-08
8.9046296e-08 7.341261e-08 8.41162e-08 1.7581915e-07 1.8533198e-07 5.220711e-08 7.419886e-08 2.3907842e-07
1.3711912e-06 1.539604e-06 1.7017081e-07 3.812841e-07 5.0876486e-07 4.2978186e-07 4.8725095e-08 2.592457e-08
8.64738e-08 4.263398e-08 1.9056905e-08 6.2871375e-09 1.0202193e-07 6.3490994e-08 1.6303769e-08 4.9018487e-09
3.193959e-05 7.4182986e-05 0.000108572574 0.00019446673 4.457499e-06 8.261017e-06 1.24904645e-05 1.4944992e-05
1.3900515e-05 5.2099134e-05 5.9593858e-05 8.8503926e-05 1.5998568e-05 3.892122e-06 7.4361183e-06 2.0076977e-05

exp_avg f4 [12, 4]
00000000: 08fb 4f37 a2ce 64b7 3460 3c37 1035 4bb7
00000010: 3490 1cb8 2829 2f38 7f1d 05b8 53d5 be37
00000020: 3223 2db8 c3d9 2838 c246 0bb8 6042 80b6
00000030: 4ceb 8c38 92ce bdb8 cd3e 8b38 2563 c7b8
00000040: d71b af38 09c0 a3b8 320e 8f38 a0f1 b937
00000050: e2aa 2738 cb95 0bb8 1b0b fa37 59b2 d037
00000060: 0201 2238 0786 06b8 11e8 f437 6927 9737
00000070: a022 a037 41ee 7bb7 c09a 6a37 1b8d 5b37
00000080: 7e56 24b9 c628 3239 9c17 12b9 ff47 e938
00000090: 49dc b538 73ae ccb8 23db 9d38 61ad 7ab8
000000a0: 207f bcb9 2e7b b639 c1f9 9bb9 b360 6038
000000b0: 7607 9e39 a434 dfb9 49bf a039 c28a 07ba
1.2396609e-05 -1.36379695e-05 1.1228072e-05 -1.21120975e-05 -3.7327598e-05 4.176158e-05 -3.173714e-05 2.2749102e-05
-4.1279192e-05 4.0257128e-05 -3.320608e-05 -3.8224243e-06 6.719548e-05 -9.050699e-05 6.639734e-05 -9.5075266e-05
8.349836e-05 -7.808215e-05 6.8214154e-05 2.2166234e-05 3.997505e-05 -3.3279688e-05 2.9807494e-05 2.4878582e-05
3.862475e-05 -3.2072912e-05 2.9195131e-05 1.8018955e-05 1.908961e-05 -1.5016239e-05 1.3983517e-05 1.3086271e-05
-0.0001567248 0.00016990592 -0.0001393244 0.00011123716 8.671784e-05 -9.759972e-05 7.527161e-05 -5.9766116e-05
-0.0003595287 0.0003480552 -0.00029749985 5.349582e-05 0.00030141667 -0.00042573095 0.00030660097 -0.0005170518

exp_avg_sq f4 [12, 4]
00000000: c060 b733 1c6b 0434 dc21 c632 9366 ad33
00000010: 2541 dd32 d2e5 3933 bbdc 2532 e6ea 3a32
00000020: 55e6 a133 c1dd 1e34 5113 2532 e093 b333
00000030: 689c 5a33 5239 a234 ac9d a532 9bee a433
00000040: c555 bc34 fe2e bb34 4c0a 6334 7a04 9333
00000050: a212 3434 097c 1b34 e935 c933 74db b732
00000060: fda8 d532 846a b532 29ab 8732 d0b9 3631
00000070: 9060 ed32 faa4 d032 a74b 7032 102f 8f31
00000080: dc01 e636 4681 9c37 e010 9b35 b431 f936
00000090: 1aa3 ee33 5c9a 1934 bda2 1633 c1c4 0e33
000000a0: 550e 3b36 84b1 8936 2272 1835 675c 0b36
000000b0: b411 6235 510a 7d36 8837 b534 a0a2 8335
8.5392e-08 1.2332424e-07 2.3065631e-08 8.0745984e-08 2.575741e-08 4.328269e-08 9.654452e-09 1.0880035e-08
7.539044e-08 1.479557e-07 9.608656e-09 8.362235e-08 5.089933e-08 3.0216557e-07 1.9280229e-08 7.680247e-08
3.5080134e-07 3.4865656e-07 2.1144768e-07 6.846035e-08 1.6770585e-07 1.4480624e-07 9.369598e-08 2.14038e-08
2.487331e-08 2.1119611e-08 1.5793903e-08 2.6590108e-09 2.7634343e-08 2.428941e-08 1.398704e-08 4.167198e-09
6.8547506e-06 1.8656847e-05 1.1553311e-06 7.4265645e-06 1.11124066e-07 1.4305391e-07 3.5072606e-08 3.3240898e-08
2.7873514e-06 4.1035837e-06 5.67905e-07 2.07664e-06 8.421732e-07 3.7705943e-06 3.3754282e-07 9.807591e-07

exp_avg f4 [12]
00000000: 51c3 1138 e3db 17b8 6ba9 dbb8 68e3 1c39
00000010: 5a55 0a3a 73af 9539 573b 0f39 cd66 0d39
00000020: cccb eaba 13d2 d33a e67b 92ba bc55 a23a
3.4752597e-05 -3.620599e-05 -0.0001047429 0.00014962035 0.00052770006 0.00028550214 0.00013659649 0.00013485104
-0.0017913519 0.001616063 -0.0011175841 0.001238517

exp_avg_sq f4 [12]
00000000: d942 7b33 c877 bd33 2af7 2434 41bb e234
00000010: e3f5 9f36 eb2c c935 4d53 7934 1cf9 9734
00000020: 88c3 aa38 32eb 6c37 e57b 9137 35db 1138
5.850129e-08 8.8227864e-08 1.5363608e-07 4.2232026e-07 4.7671942e-06 1.498874e-06 2.3220237e-07 2.8307193e-07
8.142652e-05 1.4121457e-05 1.734304e-05 3.4774846e-05

exp_avg f4 [12]
00000000: 51c3 1138 e3db 17b8 6ba9 dbb8 68e3 1c39
00000010: 5a55 0a3a 73af 9539 573b 0f39 cd66 0d39
00000020: b19d 8cb9 4b81 6639 1753 36ba 92c1 1b3a
3.4752597e-05 -3.620599e-05 -0.0001047429 0.00014962035 0.00052770006 0.00028550214 0.00013659649 0.00013485104
-0.0002682037 0.00021982675 -0.00069551304 0.0005941625

exp_avg_sq f4 [12]
00000000: d942 7b33 c877 bd33 2af7 2434 41bb e234
00000010: e3f5 9f36 eb2c c935 4d53 7934 1cf9 9734
00000020: a956 8837 ce31 8f35 c58c 9436 b0a6 c136
5.850129e-08 8.8227864e-08 1.5363608e-07 4.2232026e-07 4.7671942e-06 1.498874e-06 2.3220237e-07 2.8307193e-07
1.6252818e-05 1.0668825e-06 4.4271314e-06 5.771253e-06

exp_avg f4 [12, 4]
00000000: 1e5d 94b8 e12b 5d38 afd2 46b8 1689 d9b8
00000010: 5c70 1c37 11f5 6937 456f 5eb6 fe37 8638
00000020: 2ed8 53b9 a760 6339 8fa9 40b9 946b 8a38
00000030: be00 4cb9 f749 3039 001d 20b9 a93b 44b8
00000040: c9fe a9b9 384b a539 2f55 9cb9 3c12 2c39
00000050: a0f1 f336 053a b8b7 f09b 1437 6ac3 5037
00000060: 5b08 a937 da2b 50b8 3cd1 c737 3744 9337
00000070: 7f00 d237 6181 cfb8 3a53 0f38 541d 9d38
00000080: f682 7a3a 799e 16ba 80e2 013a 3462 043b
00000090: e1ea 2a3a 222d 9dba 112c 6a3a b596 0ebb
000000a0: c0de 553b 2c4d 5ebb 8bdb 413b cb14 dbba
000000b0: 5594 a23a c882 a2ba 9a9f 8d3a 4f30 94b8
-7.0745344e-05 5.273137e-05 -4.7403093e-05 -0.000103729006 9.324485e-06 1.3944941e-05 -3.3145345e-06 6.400047e-05
-0.00020203061 0.00021684413 -0.00018373712 6.600391e-05 -0.00019455233 0.00016812222 -0.00015269592 -4.6785604e-05
-0.00032424022 0.00031527295 -0.00029818105 0.00016409991 7.270093e-06 -2.1961527e-05 8.8577945e-06 1.24432645e-05
2.015026e-05 -4.9631904e-05 2.3820081e-05 1.755553e-05 2.5034182e-05 -9.894628e-05 3.4171368e-05 7.491806e-05
0.0009556258 -0.000574566 0.00049547106 0.0020200135 0.0006519985 -0.00119916 0.0008932958 -0.002175731
0.003263399 -0.003392051 0.002958032 -0.0016714571 0.0012403826 -0.0012398595 0.0010805011 -7.066188e-05

exp_avg_sq f4 [12, 4]
00000000: 8b78 e835 6efb 8236 2bb2 ab34 bf07 0a36
00000010: 9f53 6434 facb fc34 048c d333 2b7a 2834
00000020: e3b4 3436 9b1e 6c36 6e60 ce34 2c72 1036
00000030: ac71 9133 ba98 c533 a2cf ec32 09d8 1a33
00000040: 07c2 8434 cae4 9a34 420a 3f34 73aa 2534
00000050: 1e66 ea30 3275 9132 7f3f c030 1236 3233
00000060: 54ef 8932 8ce0 2c32 2128 3532 d9bf 3432
00000070: 9d3d 6d32 0444 0234 bfa2 4e32 da9e 8134
00000080: 5549 9638 0d0e 3f39 785c 4937 24c6 cc38
00000090: d782 d838 e554 c739 b20a e937 618b 1139
000000a0: 5560 a639 cba4 d139 e288 b938 de2d 9039
000000b0: 5171 4437 0030 7a37 cbf9 d436 7116 d836
1.732043e-06 3.903572e-06 3.1980866e-07 2.0568111e-06 2.1264576e-07 4.708707e-07 9.850922e-08 1.5690664e-07
2.692738e-06 3.5184555e-06 3.8440652e-07 2.152413e-06 6.7727655e-08 9.201308e-08 2.7568436e-08 3.6052402e-08
2.472809e-07 2.88512e-07 1.7791993e-07 1.5428832e-07 1.7054764e-09 1.6933516e-08 1.3987885e-09 4.149303e-08
1.6057733e-08 1.0062774e-08 1.0544711e-08 1.0521e-08 1.3809225e-08 1.2131937e-07 1.2027782e-08 2.4143702e-07
7.1662165e-05 0.00018220414 1.2002063e-05 9.7643846e-05 0.000103240534 0.0003801949 2.7780745e-05 0.000138802
0.0003173376 0.00039986367 8.846984e-05 0.00027499994 1.1708894e-05 1.4912337e-05 6.347172e-06 6.439914e-06

exp_avg f4 [12, 4]
00000000: 728c 0738 cfaf b1b7 c002 3338 5eb4 1239
00000010: 8d87 5b38 4656 8c37 b695 26b7 42b8 98b8
00000020: d37b 8ab7 2aa8 ce38 8397 1739 6ca6 4b39
00000030: 2eb6 7136 eb22 9738 947a 1f39 99fe 8639
00000040: 47d7 a336 0bd1 7738 2929 8538 054d 4d38
00000050: 0389 05b6 e966 62b7 8424 13b8 583b 84b8
00000060: aca8 d3b6 c7e4 a0b7 2776 64b8 0058 d4b8
00000070: e18f 2ab8 8f34 8fb7 4a77 dfb8 fdab 6eb9
00000080: c5bf 01ba 74f2 4a39 55a0 05ba 0519 c7ba
00000090: 8582 bc39 fde0 eeb9 00ac a4b9 0527 98b8
000000a0: b9a4 6938 b00a 5eba 6387 a8ba c622 e6ba
000000b0: 266e 2638 70ae 4cb9 ecb3 d4b9 485d 37ba
3.2317308e-05 -2.1181912e-05 4.2679487e-05 0.00013990837 5.233991e-05 1.6729475e-05 -9.929228e-06 -7.2822455e-05
-1.6508542e-05 9.8541685e-05 0.00014456925 0.00019421586 3.601784e-06 7.206745e-05 0.00015209086 0.00025748162
4.88284e-06 5.9084075e-05 6.349601e-05 4.894754e-05 -1.9898296e-06 -1.349461e-05 -3.508154e-05 -6.305304e-05
-6.307926e-06 -1.9180019e-05 -5.4469474e-05 -0.00010125339 -4.0665156e-05 -1.7071403e-05 -0.00010655688 -0.0002276152
-0.00049495354 0.00019354542 -0.00050974387 -0.0015189952 0.000359554 -0.00045562527 -0.00031408668 -7.255193e-05
5.570494e-05 -0.00084702205 -0.0012857731 -0.0017557971 3.9680068e-05 -0.00019519939 -0.00040569843 -0.0006994796

exp_avg_sq f4 [12, 4]
00000000: eea7 9735 ce45 3a36 3a28 ad35 5895 8b36
00000010: e1c9 9134 fe65 e934 f701 ae34 f769 5935
00000020: 1740 2635 292a 2b36 853c 8f35 aba4 1a36
00000030: 9d5f 8631 b771 f232 5576 c131 b526 a733
00000040: 79b0 f631 245b 3534 10b6 5a34 a942 8334
00000050: 7670 cc32 0135 8d33 0bf4 6133 b111 1134
00000060: e22b a232 3bda d033 9e94 ad33 ec97 4334
00000070: 2459 a733 8865 7b34 db9d 6934 b86b 2135
00000080: a07f 2a38 ebdb bf38 931b 3038 26a2 1039
00000090: 68b2 b836 6179 dd37 8fe1 d236 ee37 7a38
000000a0: f0f0 2b36 4569 8837 e5a0 f436 aa92 6237
000000b0: a892 5d33 4135 c335 c6bb bf34 5195 f935
1.1299251e-06 2.7756791e-06 1.2901212e-06 4.1599087e-06 2.715524e-07 4.347384e-07 3.2411455e-07 8.0993e-07
6.193308e-07 2.5505526e-06 1.0671944e-06 2.3043638e-06 3.9107833e-09 2.822422e-08 5.630492e-09 7.783584e-08
7.179605e-09 1.6890095e-07 2.0369066e-07 2.4449153e-07 2.3799867e-08 6.5754655e-08 5.260885e-08 1.3510613e-07
1.8879238e-08 9.725451e-08 8.0829736e-08 1.8216059e-07 7.792758e-08 2.3413133e-07 2.1757243e-07 6.0133925e-07
4.065002e-05 9.1485526e-05 4.198735e-05 0.00013793315 5.5043965e-06 2.6401774e-05 6.284746e-06 5.9656733e-05
2.562123e-06 1.6261483e-05 7.2904973e-06 1.3504798e-05 5.1588955e-08 1.4544131e-06 3.5713146e-07 1.8595402e-06

exp_avg f4 [12]
00000000: d5bb 93b9 174b 6fb7 98b8 9cb9 e41a 95b9
00000010: 83fa 49b7 32c4 3f39 10b5 b339 82dc 693a
00000020: 2ac9 9b3b 08a8 fbb9 4ef4 063b cf7d 023b
-0.0002817797 -1.4262993e-05 -0.00029892172 -0.0002843953 -1.203886e-05 0.00018288268 0.00034276443 0.0008921103
0.0047542052 -0.00047999644 0.0020592394 0.0019911414

exp_avg_sq f4 [12]
00000000: 5fe5 9336 d4a0 1435 575b f835 b24f 3c34
00000010: 94db a034 5600 1235 3337 6a35 ddc3 8e36
00000020: bd53 8f39 e323 e039 dd79 1a39 2640 0438
4.4076437e-06 5.536833e-07 1.8504023e-06 1.7537857e-07 2.9962087e-07 5.438973e-07 8.725212e-07 4.2547313e-06
0.00027337475 0.00042751347 0.00014731982 3.1530995e-05

exp_avg f4 [12]
00000000: d5bb 93b9 174b 6fb7 98b8 9cb9 e41a 95b9
00000010: 83fa 49b7 32c4 3f39 10b5 b339 82dc 693a
00000020: d5bd 443b 6b96 ddb9 d8da 273b 318f 9b3a
-0.0002817797 -1.4262993e-05 -0.00029892172 -0.0002843953 -1.203886e-05 0.00018288268 0.00034276443 0.0008921103
0.0030020375 -0.00042264475 0.0025612619 0.0011868236

exp_avg_sq f4 [12]
00000000: 5fe5 9336 d4a0 1435 575b f835 b24f 3c34
00000010: 94db a034 5600 1235 3337 6a35 ddc3 8e36
00000020: 3bf1 3e39 4a72 8c38 7607 b737 e7cf 1837
4.4076437e-06 5.536833e-07 1.8504023e-06 1.7537857e-07 2.9962087e-07 5.438973e-07 8.725212e-07 4.2547313e-06
0.00018209677 6.697008e-05 2.1818774e-05 9.108312e-06

exp_avg f4 [6, 4]
00000000: 16dd b6bb 96c4 443c 57da 943c 6f52 d63c
00000010: 112d 0bbc 437b e43b 1cc8 9a3b 09ed f33a
00000020: ce11 78bc 29a5 453c 1926 0e3c e7fc 953b
00000030: 89fe 83bb 80a5 703b 46ff 283b 6975 8b3a
00000040: 460e 75bb b713 2f3b 654e a63a c411 10ba
00000050: 137c 173d 7025 19bd 2112 11bd a4a3 07bd
-0.0055805547 0.01200976 0.018170519 0.026162354 -0.008494631 0.0069727018 0.004723562 0.0018610071
-0.015140964 0.012063303 0.008676075 0.0045772674 -0.0040281457 0.003671974 0.002578692 0.0010639849
-0.003739254 0.0026714632 0.0012688158 -0.00054958113 0.03698356 -0.03738922 -0.03541768 -0.033115044
