aa2_models/model3.pt (torch_old, 18969 bytes, 72 tensors)

lin1.weight f4 [4, 7]
0	0xbd35ced0	-0.044386685
1	0x3e98e247	0.29860136
2	0xbf86afb4	-1.052237
3	0xbf78bebf	-0.97166055
4	0xbf6c6bec	-0.92352176
5	0xbd9586d8	-0.0730111
6	0xbfa059c5	-1.2527395
7	0xbde02c90	-0.109459996
8	0xbe2203ac	-0.15821713
9	0x3cfe9c5d	0.03108042
10	0x3e8ee641	0.27910045
11	0x3fc2e926	1.5227401
12	0x3e2a71fe	0.16645047
13	0x3f3d0c9c	0.73847365
14	0x3db7177e	0.08940028
15	0xbe9fc305	-0.31203476
16	0x3fa4d7ce	1.2878358
17	0x3f615bb5	0.8803056
18	0x3ff39fe6	1.9033172
19	0x3e80b7a1	0.25140098
20	0x3fb99c57	1.4500836
21	0xbe285051	-0.16436888
22	0x3e16a1ce	0.14710161
23	0xbf942488	-1.1573648
24	0xbf1f9e9f	-0.6235141
25	0xbee021c8	-0.43775773
26	0x3cd4f230	0.02599439
27	0xc011b288	-2.2765217

lin1.bias f4 [4]
0	0x3f0e280d	0.5552986
1	0xbe19a3cf	-0.15003894
2	0xbef39a17	-0.475785
3	0x3f3af097	0.7302336

GRU.weight_ih_l0 f4 [12, 4]
0	0x3fe7f8b3	1.8122772
1	0xbf6099cf	-0.87734693
2	0xc00927d3	-2.1430557
3	0x4013923c	2.3058004
4	0x3fa448a5	1.2834669
5	0xbf02dfe8	-0.51122904
6	0xbfe10609	-1.7579967
7	0x40116e07	2.2723405
8	0x3fa75752	1.3073523
9	0xbec94871	-0.3931308
10	0xbf495918	-0.7865157
11	0x3fabe42a	1.3429005
12	0x3f5d5f92	0.86473954
13	0x3fad5081	1.3540193
14	0xbf19ea3d	-0.60123044
15	0x3f0c51cb	0.54812306
16	0xc033ed25	-2.8113492
17	0x3fd4424e	1.6582735
18	0x40299fec	2.6503859
19	0xc03e0e6c	-2.9696302
20	0xc00d241f	-2.2053297
21	0x3f21972b	0.6312129
22	0x3fd61fac	1.6728415
23	0xbf80af57	-1.005351
24	0x3f6b84e8	0.91999674
25	0x3e98ef76	0.29870194
26	0xc005f009	-2.0927756
27	0xbee815ab	-0.4532903
28	0xbf2bc96e	-0.6710423
29	0x3cdfac66	0.027303886
30	0x3fac20b2	1.3447478
31	0xbfa0a6ec	-1.255094
32	0xbfc74aa9	-1.556966
33	0x3f361247	0.7112164
34	0x3f9a16ac	1.2038169
35	0xbfbc8cd5	-1.4730479
36	0x3da6ca16	0.081440136
37	0x3fbe1928	1.4851427
38	0xbe03b847	-0.12863265
39	0xbe2d7433	-0.16938858
40	0xbf7578d2	-0.9588748
41	0xbe98bc53	-0.2983118
42	0x3e8bf2bd	0.27333632
43	0xbf1aea0f	-0.60513395
44	0xbf94d1cb	-1.1626524
45	0xbee4f78e	-0.4472012
46	0x3ef6780c	0.48138463
47	0xbf8ef93b	-1.1169809

GRU.weight_hh_l0 f4 [12, 4]
0	0x4018dd6d	2.3885148
1	0xbfb95006	-1.4477546
2	0x3fc0c6b7	1.5060643
3	0x3e9fea9d	0.31233683
4	0x3f057a70	0.5213995
5	0xbfc39508	-1.5279856
6	0x3fa39b71	1.2781812
7	0x3f0fc280	0.5615616
8	0x3ed77d83	0.42087945
9	0xbf9fbeed	-1.2480141
10	0x3e9b9216	0.30384892
11	0xbf627f11	-0.8847514
12	0x3faada70	1.3347912
13	0x3e164caa	0.14677683
14	0x40311cbd	2.767379
15	0x3e2f8554	0.17140704
16	0xbfdea15f	-1.7392997
17	0x3fdc4809	1.7209483
18	0xc013d26a	-2.3097177
19	0xbfabb61a	-1.3414948
20	0xbfadca22	-1.3577311
21	0x3faeb907	1.3650216
22	0xc04da9b4	-3.2134829
23	0xc00cbbe1	-2.1989672
24	0x3ff460e3	1.9092067
25	0x3feb3ed2	1.8378546
26	0xbf9d1736	-1.2272708
27	0x3ffa24e2	1.9542506
28	0xbfb539be	-1.4158247
29	0xbf3a96c0	-0.72886276
30	0xbfe27ff9	-1.7695304
31	0xc02107d0	-2.5161018
32	0xbf9786e3	-1.1838039
33	0x3fff0c00	1.9925537
34	0xbfe49faa	-1.7861226
35	0xbe660e81	-0.2246647
36	0x3deeaa6d	0.116536
37	0xbea2762d	-0.31730786
38	0xbf0c100a	-0.54711974
39	0xbfec3530	-1.8453732
40	0xbeb6fbdd	-0.3573903
41	0x3f3df3ae	0.7419995
42	0xbf860bca	-1.0472348
43	0x3f71b59b	0.9441773
44	0xbfa682f3	-1.3008713
45	0x3f08d98f	0.5345697
46	0xc033e69d	-2.8109505
47	0xbea9d57f	-0.33170697

GRU.bias_ih_l0 f4 [12]
0	0x3ee0cc80	0.4390602
1	0x3f543fbb	0.82909745
2	0xbe54a585	-0.20766266
3	0xbfaccf60	-1.3500786
4	0xbf3d225f	-0.7388057
5	0xbfef6227	-1.8701829
6	0xbf35b47f	-0.7097854
7	0xbfabfa3a	-1.3435738
8	0xbf71f794	-0.945184
9	0xbf5fcc47	-0.8742108
10	0x3ec6efa3	0.38854703
11	0x3ee69887	0.45038244

GRU.bias_hh_l0 f4 [12]
0	0x3f31e52d	0.6949032
1	0x3f0c30d1	0.5476199
2	0xbf4669db	-0.7750527
3	0xbfb73c8e	-1.4315355
4	0xbf502acb	-0.81315297
5	0xbf92a93f	-1.14579
6	0xbed42aba	-0.41438848
7	0xbfbaf54a	-1.4606106
8	0xbf94bad1	-1.1619512
9	0xbf253f64	-0.6454985
10	0x3ea45a12	0.32099968
11	0x3ed7eab2	0.42171246

GRU.weight_ih_l1 f4 [12, 4]
0	0xbf4ae879	-0.79260975
1	0xbf298ad1	-0.6622744
2	0xbf4099b1	-0.75234514
3	0xbf42d9ab	-0.76113385
4	0xbf7048ff	-0.93861383
5	0xbf077434	-0.52911687
6	0x3f7739bd	0.96572477
7	0xbfeaa85f	-1.8332633
8	0x3edbd38d	0.42934838
9	0x3fdc2177	1.7197713
10	0xbf1ff814	-0.6248791
11	0x4008fabc	2.1403036
12	0xc00e02c1	-2.218918
13	0xc0024b26	-2.0358367
14	0xbf9377de	-1.1520956
15	0xbfa69c2e	-1.3016412
16	0x3fac0f0c	1.3442092
17	0x40149125	2.321359
18	0x3ec3bf61	0.38231948
19	0x3f821ece	1.0165651
20	0xbf9db3c7	-1.2320489
21	0x3fe40b2f	1.7815913
22	0xc012be6a	-2.292872
23	0xbf1f8bdb	-0.6232278
24	0xbf43ac2b	-0.7643458
25	0x3fd2e834	1.6477113
26	0xbfdaaae7	-1.7083405
27	0xbf10b4c4	-0.56525826
28	0xbee42381	-0.44558337
29	0x3f755953	0.9583942
30	0xbff3c3f6	-1.9044178
31	0xc0206918	-2.5064144
32	0x3f21806b	0.63086575
33	0x3e495699	0.1966194
34	0x3ee7e0ab	0.45288596
35	0xbdd85db8	-0.105647504
36	0x3ffaca00	1.9592896
37	0x3d671c65	0.056423564
38	0x3f48172f	0.78160375
39	0x3f86ab69	1.052106
40	0x3f963bc7	1.1736993
41	0x400afcd9	2.1716826
42	0x3f6332d7	0.8874945
43	0x3f88b0a8	1.0678911
44	0xbfcb2fe7	-1.5873994
45	0xbf8b7d73	-1.0897659
46	0xbfd8b334	-1.6929688
47	0xbfa77d77	-1.3085164

GRU.weight_hh_l1 f4 [12, 4]
0	0xbfa4e87a	-1.2883446
1	0x3ef81a17	0.48457405
2	0x3d42ccb2	0.047558494
3	0xbecf57ef	-0.40496776
4	0xbe82ed49	-0.2557166
5	0xbf015ed5	-0.5053533
6	0x3fa27299	1.2691222
7	0x3f7e2e09	0.99288994
8	0xbeda63bf	-0.42654225
9	0x3f19b5f3	0.6004326
10	0x3d53b455	0.05168565
11	0xbe7b23a2	-0.24525312
12	0x3fc7f568	1.5621767
13	0xbf6bbd35	-0.9208558
14	0xbe190efa	-0.1494712
15	0x3fbe2272	1.4854262
16	0xbf2e8a71	-0.68179995
17	0x3ed161be	0.40894884
18	0x3f4c2c22	0.7975484
19	0xbfa74f1d	-1.3071018
20	0xbc08f1dc	-0.008358445
21	0xbfd868a7	-1.6906937
22	0xc015b2fb	-2.339049
23	0x4009d9fa	2.1539292
24	0x3eeaef3e	0.45885652
25	0xbfe52e4f	-1.7904757
26	0xc01064d8	-2.256155
27	0xbf0e4723	-0.55577296
28	0x3f63e253	0.8901722
29	0xbfbf25a2	-1.493336
30	0xc0258496	-2.5862174
31	0x3ffb222b	1.9619802
32	0x3fe8faeb	1.8201574
33	0xbf41e1f6	-0.75735414
34	0xbec429dd	-0.3831319
35	0x3ef84c51	0.48495725
36	0xbfa28f72	-1.2700026
37	0xbf69bdbf	-0.91305155
38	0xbd6f8028	-0.05847183
39	0x3f8b6d1f	1.0892676
40	0xbf340e50	-0.7033434
41	0x3f180538	0.59382963
42	0xbf4d862b	-0.8028285
43	0xc019a480	-2.4006653
44	0x3ebc9945	0.36835685
45	0x3f1276e9	0.5721269
46	0x3f512fb2	0.817134
47	0x3ea515fe	0.3224334

GRU.bias_ih_l1 f4 [12]
0	0x3fcc3cff	1.5956115
1	0xbf08879a	-0.5333191
2	0x3f28261f	0.6568317
3	0xbfb7a6ba	-1.4347756
4	0x3f960156	1.1719158
5	0xbd5bfc5d	-0.05370747
6	0xbfdb2e65	-1.7123533
7	0xbff5fadf	-1.9217185
8	0xbfc64c34	-1.5492005
9	0x3f9d05b7	1.2267369
10	0x3f46424d	0.77444917
11	0xbf9774d3	-1.1832527

GRU.bias_hh_l1 f4 [12]
0	0x3fbbe8a5	1.4680372
1	0xbd66f0ad	-0.05638187
2	0x3f8252f8	1.018157
3	0xbf899a1a	-1.0750153
4	0x3fb55df3	1.4169296
5	0xbf80b8e0	-1.0056419
6	0xbf582931	-0.84437853
7	0xc014560e	-2.3177524
8	0xbf823e34	-1.0175233
9	0x3e48dd67	0.19615708
10	0x3fc274b6	1.5191867
11	0xbe8f02cb	-0.27931818

GRU.weight_ih_l2 f4 [12, 4]
0	0xbf276544	-0.65388894
1	0xbee85953	-0.4538065
2	0x3f5f1be9	0.8715196
3	0x3fa730e3	1.3061794
4	0x3d65375a	0.05596099
5	0x3f60037a	0.87505305
6	0xbefb5f54	-0.49096167
7	0xbe75f23e	-0.2401819
8	0xbd3b0037	-0.0456545
9	0x3e516a96	0.20450816
10	0x3e91636a	0.2839616
11	0xbed87e00	-0.4228363
12	0x3f16dcaa	0.58930457
13	0x3e82411a	0.25440294
14	0xbf8d65ff	-1.1046752
15	0x3f0cf617	0.55063003
16	0xbe62af34	-0.22137147
17	0x3fc11c63	1.5086788
18	0x3f8f2bd7	1.1185254
19	0xc014434c	-2.3166075
20	0xbfc5275b	-1.5402635
21	0x3ff1c0f0	1.8887005
22	0x400a6fd3	2.1630752
23	0xc0184574	-2.379239
24	0x40643a55	3.5660603
25	0xbe5b36ff	-0.21407698
26	0xbbafbc8b	-0.0053630522
27	0xbe9f5f71	-0.31127504
28	0xbf155210	-0.5832834
29	0x3fd82e41	1.6889116
30	0x3f88210a	1.0635083
31	0xc00a7efe	-2.164001
32	0x3fd50594	1.6642327
33	0xbf2d239d	-0.67632467
34	0xbeefabd0	-0.4681077
35	0xbebb2ef1	-0.3655925
36	0xbf1a8b1e	-0.60368526
37	0x3e7816a8	0.24227393
38	0xbf81d309	-1.0142528
39	0x3eadda74	0.3395573
40	0x3f58d6bd	0.84702665
41	0xbff28949	-1.8948146
42	0xbfa92c99	-1.3216735
43	0x3feccfe8	1.8500948
44	0x3fbf259b	1.4933351
45	0xbddf98d7	-0.10917824
46	0x3dd84597	0.10560148
47	0xbf523a68	-0.8212037

GRU.weight_hh_l2 f4 [12, 4]
0	0xbfd0dcd6	-1.6317394
1	0xbf2fd51f	-0.6868457
2	0xbfd07838	-1.6286688
3	0xbf75eac9	-0.9606138
4	0x3f5b7749	0.8572889
5	0xbeea82f8	-0.45803046
6	0x3f8218c2	1.0163805
7	0x3dc4b994	0.09605709
8	0x3f14e292	0.5815822
9	0xbefd0bf8	-0.49423194
10	0xbfae4b27	-1.3616685
11	0x3f1c5515	0.61067325
12	0x3ea889a4	0.3291751
13	0xbf07d4d4	-0.53059125
14	0x3f9b3727	1.2126206
15	0x3f85f983	1.046677
16	0x3e6995ae	0.22811005
17	0x3fbfb393	1.4976677
18	0xbf19fbb9	-0.60149723
19	0xbf928fdc	-1.1450152
20	0xbf1d09c2	-0.61343014
21	0x4033a195	2.8067372
22	0xbf47f3b5	-0.7810624
23	0xbfeea14f	-1.8642977
24	0x3f9d482f	1.2287654
25	0xc0109272	-2.2589383
26	0x40349ea7	2.8221834
27	0x4009d40d	2.1535676
28	0x3f15b6ef	0.5848226
29	0x3f4480e5	0.7675918
30	0xbf514f9d	-0.81762105
31	0xbfa56f48	-1.2924585
32	0x3ee641f9	0.44972208
33	0xbf960e8e	-1.1723192
34	0x3ea47a36	0.3212449
35	0x3f6246b5	0.8838914
36	0x3ec001f8	0.37501502
37	0x3e444fb2	0.19171026
38	0x3f9f17fc	1.2429194
39	0x3ee07059	0.43835714
40	0x3ef2d0f6	0.4742505
41	0xbf67f85c	-0.9061334
42	0xbecb2098	-0.39673305
43	0x3f2048e4	0.6261122
44	0xbf2009f6	-0.625152
45	0xbf85e018	-1.0459013
46	0xbecd5c41	-0.40109447
47	0x3d1142a9	0.035463963

GRU.bias_ih_l2 f4 [12]
0	0xbf38c243	-0.7217142
1	0xbeb9585b	-0.36200222
2	0xbf0d0c24	-0.5509665
3	0xbf91856a	-1.136884
4	0x3fae54d4	1.3619637
5	0x3fb92637	1.4464787
6	0xbfb2b566	-1.3961608
7	0x3f9ba04f	1.2158297
8	0xbf9b82c6	-1.2149284
9	0x3ef4dd6a	0.47825176
10	0xbf44d157	-0.7688193
11	0xbf4d9a3d	-0.80313474

GRU.bias_hh_l2 f4 [12]
0	0x3d70df46	0.05880668
1	0xbf3b8f3d	-0.7326544
2	0xbe78ab4f	-0.24284099
3	0xbf326552	-0.6968585
4	0x3fddb5af	1.732107
5	0x3fb085bc	1.3790812
6	0xbfbaff85	-1.4609228
7	0x3f947cad	1.1600548
8	0xbf8b6699	-1.0890685
9	0x3f25395a	0.64540637
10	0xbe8e0d95	-0.27744737
11	0xbf27564c	-0.65366054

GRU.weight_ih_l3 f4 [12, 4]
0	0xbf331c1a	-0.69964755
1	0x3ea4c138	0.32178664
2	0xbf0c2f94	-0.547601
3	0xbf0d03dc	-0.55084014
4	0x3e9c05e3	0.3047324
5	0xbfc59d22	-1.5438578
6	0xbf556ade	-0.8336619
7	0x3f58815e	0.845724
8	0x3fd439db	1.6580156
9	0xbf8c2494	-1.0948663
10	0xbf3f4bf3	-0.74725264
11	0x3faccdcb	1.3500303
12	0x3f456d97	0.77120346
13	0x3eeb5fed	0.45971623
14	0x3fd2a251	1.6455785
15	0x3f84ce46	1.037545
16	0x3fa5209c	1.2900577
17	0xbf997b17	-1.1990689
18	0xbfe94ab9	-1.8225929
19	0xbd060158	-0.032716125
20	0x3f65e189	0.89797264
21	0xc02b225d	-2.6739724
22	0x3f117398	0.5681701
23	0x3feb659b	1.8390383
24	0x4017e083	2.373078
25	0xbf9a68aa	-1.2063191
26	0x401e5c11	2.4743693
27	0x3f8f5aaa	1.1199543
28	0xbf1b7e18	-0.6073928
29	0x3f48a095	0.7837003
30	0xc00befc8	-2.18651
31	0xbead5ec0	-0.3386135
32	0xbf4d92d5	-0.8030217
33	0x3f449482	0.76789105
34	0x3f5663f4	0.83746266
35	0xbf4f13a5	-0.8088935
36	0xbfae655b	-1.3624681
37	0x3ee41475	0.44546857
38	0x3f48f27e	0.78495014
39	0xbf5f24fe	-0.8716582
40	0x3f1baea4	0.60813355
41	0xbe032c72	-0.12809923
42	0x3f1c6746	0.6109508
43	0x3ed68730	0.41900015
44	0x3e267fe9	0.16259731
45	0x3f56a985	0.83852416
46	0x3f93428c	1.1504683
47	0x3d925b1c	0.07146284

GRU.weight_hh_l3 f4 [12, 4]
0	0x3f8cc3d5	1.0997263
1	0x3efd8395	0.49514452
2	0xbea63a25	-0.32466236
3	0x3fcfd74c	1.6237578
4	0xbf61f122	-0.88258564
5	0xbe833b9d	-0.2563142
6	0x3f2b918b	0.67018956
7	0x3ed6fa05	0.41987625
8	0xbed252ba	-0.4107874
9	0xbe5f1c92	-0.21788242
10	0xbe9d6a4a	-0.30745155
11	0xbf46e5d7	-0.7769446
12	0x3fbb7156	1.4643962
13	0x3e2149d3	0.15750818
14	0xbca70b5b	-0.020391157
15	0xbf8647be	-1.0490644
16	0x3f05e27b	0.52298707
17	0xbfef484c	-1.8693938
18	0xbf1afede	-0.60545146
19	0x3e9e397e	0.30903238
20	0x3f8755cf	1.0573062
21	0x3e171eb3	0.14757805
22	0x3e01f32d	0.1269042
23	0x3f1ce8eb	0.61292905
24	0xbfa6c33a	-1.3028328
25	0x401595ea	2.337275
26	0x40181e6c	2.3768568
27	0xbfced9b6	-1.616019
28	0xbef94479	-0.48685053
29	0xbfa00dbd	-1.2504193
30	0xbf16c04b	-0.58887166
31	0x3f6dd8f8	0.92909193
32	0xbc614650	-0.013749674
33	0xbef3f957	-0.4765117
34	0x3fc77af7	1.5584401
35	0x3e93b9f3	0.28852805
36	0xbf0f7fb8	-0.5605426
37	0xbef1ba9f	-0.47212693
38	0x3ea50d47	0.32236692
39	0x3e460377	0.19337259
40	0xbf8e2237	-1.1104192
41	0x3f97b7a8	1.1852922
42	0xbe8ed01b	-0.27893147
43	0xbf6edaf9	-0.93302876
44	0x3eacd99d	0.33759776
45	0xbe70d65f	-0.23519276
46	0x3d41af29	0.047286186
47	0xbe90521f	-0.28187653

GRU.bias_ih_l3 f4 [12]
0	0x3f490436	0.7852205
1	0xbf4d6dd4	-0.8024571
2	0xbd8e12a6	-0.06937151
3	0x3d9a44ea	0.075326756
4	0x3f5028be	0.8131217
5	0xc02487b1	-2.570782
6	0xbf82334f	-1.0171908
7	0x3fcda48d	1.6065842
8	0x3d3dd25d	0.046343196
9	0xbf9350cf	-1.1509036
10	0xbf568c61	-0.8380795
11	0x3ce4d7a7	0.027934862

GRU.bias_hh_l3 f4 [12]
0	0x3ef5c9c4	0.48005497
1	0xbf1b0f4b	-0.6057021
2	0xbeae64ea	-0.34061366
3	0x3d753013	0.0598603
4	0x3fc0aadd	1.5052143
5	0xc032407c	-2.7851858
6	0xbfbfd1bd	-1.4985882
7	0x3fa6c575	1.3029009
8	0xbe99ea0a	-0.3006137
9	0xbf21571f	-0.6302356
10	0xbf066ec5	-0.5251277
11	0x3f711d5d	0.9418543

GRU.weight_ih_l4 f4 [12, 4]
0	0x3f83e4ac	1.030416
1	0xbdb92ca3	-0.09041717
2	0xbcb8c0a0	-0.022552788
3	0xbf0fcbb8	-0.56170225
4	0x3f1f2a08	0.6217351
5	0x3de09fb7	0.10967963
6	0x3f2f24b9	0.6841541
7	0x3f2c731e	0.67363155
8	0xbccd91c8	-0.025093928
9	0x3ec6c15b	0.38819394
10	0x3ea4d954	0.32197058
11	0x3f3932cb	0.7234313
12	0xbf93a2e5	-1.1534086
13	0xbfeac784	-1.8342137
14	0x3f14c5af	0.5811414
15	0xbf311f90	-0.69188786
16	0xbeebed8c	-0.4607967
17	0xbff4290c	-1.9075027
18	0x3e982d49	0.2972205
19	0xbd0624c6	-0.032749914
20	0x3ddf9701	0.109174736
21	0xc01ac7d2	-2.418446
22	0xbf816922	-1.0110209
23	0x3f26217d	0.6489485
24	0xbe3f95fb	-0.18709557
25	0x3f563a2d	0.8368252
26	0x402e362c	2.7220564
27	0xbec58d93	-0.38584575
28	0xbf4202e7	-0.7578568
29	0x3f2f854e	0.6856278
30	0x3fbc9b13	1.4734825
31	0xbfbc665e	-1.471874
32	0xbf934a86	-1.1507118
33	0xbe2aba81	-0.16672708
34	0xbe338b52	-0.17533615
35	0xbe4f40d7	-0.20239578
36	0xbf8079a1	-1.0037118
37	0xbf191ca9	-0.59809357
38	0xbe88803a	-0.2666033
39	0xbe411881	-0.18857004
40	0xbf109856	-0.56482446
41	0xbfe59b51	-1.7938024
42	0xbea53122	-0.32264048
43	0xbe226f7a	-0.15862837
44	0x3fb8b8c9	1.4431392
45	0x4014637f	2.3185728
46	0x3e6f0a11	0.23343684
47	0x3f46a797	0.7759947

GRU.weight_hh_l4 f4 [12, 4]
0	0xbf8b0333	-1.0860351
1	0xbfae4f79	-1.3618003
2	0xbe5352ec	-0.20637101
3	0xbd33f73b	-0.04393695
4	0xbf89d38f	-1.0767688
5	0xbf45201f	-0.7700214
6	0x3f2165a1	0.630457
7	0xbe614259	-0.21997966
8	0x3f2a709e	0.6657809
9	0x3f823317	1.0171841
10	0x3efd8286	0.49513644
11	0xc00139ee	-2.0191607
12	0x3f95c261	1.1699945
13	0x3fb5c793	1.420153
14	0xbfcded96	-1.608813
15	0x3e1a614d	0.1507618
16	0x3c5c492a	0.013445178
17	0xbef1ebe5	-0.47250286
18	0xbf941328	-1.1568346
19	0x3cf102a8	0.029420212
20	0x3e8e5fed	0.2780756
21	0xbf455035	-0.7707551
22	0x3f670ad2	0.90250885
23	0xc012bb07	-2.2926652
24	0x3e10ea06	0.14151773
25	0x3e842027	0.2580578
26	0xbfae94a7	-1.3639115
27	0x3fa3403f	1.2753981
28	0x3fa2c1c6	1.2715385
29	0x3e98891a	0.297921
30	0xbf61a15d	-0.88136846
31	0x40295970	2.6460838
32	0x3f997672	1.1989272
33	0x3f6fe25f	0.9370479
34	0x3e66ae42	0.22527412
35	0x3e907894	0.28216994
36	0x3f539647	0.8265118
37	0x3fb97cfe	1.449127
38	0xbea3198a	-0.31855422
39	0xbd80e9fb	-0.06294628
40	0xbd3658b8	-0.044518203
41	0xbe82415a	-0.25440484
42	0xbee2e63a	-0.44316274
43	0x3eae4da4	0.3404361
44	0xbe557c37	-0.20848165
45	0x3e7b7a77	0.24558435
46	0x3f0fe246	0.5620464
47	0x3e9c2da8	0.30503583

GRU.bias_ih_l4 f4 [12]
0	0x3f5069f1	0.81411654
1	0x3fc2990b	1.5202955
2	0xbd9b3965	-0.075793065
3	0xbed81c51	-0.42209104
4	0x3f340696	0.7032255
5	0x3fb7ee3b	1.4369577
6	0xbe1fa3b4	-0.15589792
7	0xbff847e4	-1.9396939
8	0xbfac1573	-1.3444046
9	0xbfac8682	-1.3478549
10	0x3ea5076b	0.32232222
11	0xbf039647	-0.5140118

GRU.bias_hh_l4 f4 [12]
0	0x3f8b30f9	1.087432
1	0x3fa5afba	1.2944252
2	0xbf740231	-0.95315844
3	0xbf58622b	-0.8452479
4	0x3fbff45b	1.4996446
5	0x3fef48d9	1.8694106
6	0xbf082ecc	-0.53196406
7	0xbff57ff4	-1.9179673
8	0xbf96c7cd	-1.1779724
9	0xbfb18a88	-1.3870401
10	0x3cc5dd33	0.024153328
11	0xbf229a7f	-0.6351699

lin3.weight f4 [6, 4]
0	0x3f96050d	1.1720291
1	0xbe82f9a0	-0.25581074
2	0x3f6b27f0	0.91857815
3	0xc0263f2a	-2.5976052
4	0x3f421ba1	0.7582341
5	0x3f6816eb	0.9065997
6	0x3f8d7162	1.1050227
7	0xbfa29a6f	-1.2703379
8	0x3fb574f3	1.4176315
9	0x3fe17c99	1.7616149
10	0x3daa2ee6	0.083097264
11	0xbf048324	-0.51762605
12	0x3f912e21	1.1342202
13	0x3f609790	0.87731266
14	0x3f917e1f	1.1366614
15	0xbfc244a2	-1.5177195
16	0x3fa3a7da	1.2785599
17	0x3fa4e41b	1.2882112
18	0x3e8abf02	0.27098852
19	0xbf56dc57	-0.8392996
20	0xc00e2804	-2.2211924
21	0xbfe3d324	-1.779881
22	0xbebf60e1	-0.373786
23	0x3ff36a19	1.9016753

lin3.bias f4 [6]
0	0x3f721dc6	0.9457668
1	0xbf682add	-0.90690404
2	0xbfa96603	-1.3234257
3	0xbf816a61	-1.0110589
4	0xbf69b5bf	-0.9129295
5	0x3fa9079a	1.3205445

exp_avg f4 [4, 7]
0	0x18bd0b8e	4.8867022e-24
1	0x9803e81d	-1.704854e-24
2	0x23804796	1.3908106e-17
3	0x21b1eb89	1.2056332e-18
4	0x20c99b47	3.4153478e-19
5	0x00000000	0.0
6	0x208b1d70	2.3566996e-19
7	0x98bd725e	-4.8970836e-24
8	0x18579491	2.7863106e-24
9	0xa4223212	-3.517056e-17
10	0xa2a36e47	-4.4298e-18
11	0xa1dbb1d0	-1.4887084e-18
12	0x00000000	0.0
13	0xa1c1cc23	-1.3132223e-18
14	0x98af89e6	-4.537568e-24
15	0x1788e115	8.845613e-25
16	0xa41c95b4	-3.395391e-17
17	0xa3189d38	-8.273229e-18
18	0xa25a4585	-2.9581313e-18
19	0x00000000	0.0
20	0xa2316d1c	-2.4045735e-18
21	0x18d41ca9	5.4829655e-24
22	0x980d808a	-1.8288719e-24
23	0x2412c93c	3.1829156e-17
24	0x2208efc9	1.8558378e-18
25	0x20d5b342	3.6202226e-19
26	0x00000000	0.0
27	0x20c9c7c9	3.418293e-19

exp_avg_sq f4 [4, 7]
0	0x1f009a32	2.7232602e-20
1	0x21d41649	1.4371578e-18
2	0x3385f9b4	6.238716e-08
3	0x3107171c	1.9658222e-09
4	0x2f6d43d2	2.1579119e-10
5	0x00000000	0.0
6	0x2ece8cc9	9.392804e-11
7	0x1e9fcc72	1.6919336e-20
8	0x228d9fe8	3.8387434e-18
9	0x33fd63f9	1.17994155e-07
10	0x32c9f746	2.3511927e-08
11	0x3178a391	3.6181727e-09
12	0x00000000	0.0
13	0x3161f1cd	3.2879257e-09
14	0x1e8ae63b	1.470654e-20
15	0x20e46197	3.8689282e-19
16	0x33e5e82b	1.07058746e-07
17	0x33f19640	1.1249767e-07
18	0x3262c06c	1.3198683e-08
19	0x00000000	0.0
20	0x323d64af	1.1024141e-08
21	0x1e249a40	8.713986e-21
22	0x21f4103e	1.6538382e-18
23	0x33de4dcc	1.0351832e-07
24	0x31000789	1.8630735e-09
25	0x2f2d84a6	1.5781385e-10
26	0x00000000	0.0
27	0x2edbddc0	9.998358e-11

exp_avg f4 [4]
0	0xb31c1ef9	-3.634975e-08
1	0x32b4039d	2.0956401e-08
2	0x330bd7cf	3.2559736e-08
3	0xb2855567	-1.5522074e-08

exp_avg_sq f4 [4]
0	0x38227f05	3.8742106e-05
1	0x371bdc1d	9.289969e-06
2	0x37039252	7.842276e-06
3	0x3808c6d2	3.2610093e-05

exp_avg f4 [12, 4]
0	0x2e889567	6.211103e-11
1	0xad939d20	-1.6781743e-11
2	0xae6a0ce8	-5.3216903e-11
3	0x2eb39ca5	8.167803e-11
4	0x300b0810	5.0579363e-10
5	0xaf164264	-1.3666007e-10
6	0xafee3ec3	-4.3336543e-10
7	0x3036d4bb	6.651352e-10
8	0x30c1c96d	1.4099847e-09
9	0xafd16fcc	-3.8096315e-10
10	0xb0a60982	-1.2080792e-09
11	0x30fed604	1.8541759e-09
12	0x2fbd0642	3.4383346e-10
13	0xaecc4a2a	-9.29002e-11
14	0xafa1f4eb	-2.9459754e-10
15	0x2ff892c5	4.5215223e-10
16	0xad3c1440	-1.0691059e-11
17	0x2c4b44b9	2.8886184e-12
18	0x2d212594	9.1601345e-12
19	0xad775489	-1.4059095e-11
20	0x2e63b559	5.1774893e-11
21	0xad761915	-1.398905e-11
22	0xae4319f2	-4.436091e-11
23	0x2e95b8d5	6.808568e-11
24	0xb204dad4	-7.733167e-09
25	0x310f9585	2.089423e-09
26	0x31e3a92f	6.6258035e-09
27	0xb22eb55a	-1.0169368e-08
28	0xaf2f858f	-1.5963607e-10
29	0x2e3db257	4.3132022e-11
30	0x2f166338	1.367767e-10
31	0xaf66d11c	-2.0992669e-10
32	0x2fc26559	3.5360406e-10
33	0xaed21848	-9.5540076e-11
34	0xafa68f19	-3.02969e-10
35	0x2fffa313	4.65001e-10
36	0x3264d373	1.3319425e-08
37	0xb1774e2e	-3.598767e-09
38	0xb2440f0b	-1.1412122e-08
39	0x329674f4	1.7515482e-08
40	0x3221d5f9	9.420085e-09
41	0xb12ee7b8	-2.545205e-09
42	0xb20aa952	-8.071156e-09
43	0x3254d1cc	1.2387726e-08
44	0x31dd9891	6.4492913e-09
45	0xb0ef7dd4	-1.7425301e-09
46	0xb1bddd33	-5.5257714e-09
47	0x3211b3f7	8.48103e-09

exp_avg_sq f4 [12, 4]
0	0x309214ab	1.0628772e-09
1	0x30e1f77a	1.6441242e-09
2	0x307dabac	9.2284824e-10
3	0x3112b9b6	2.135136e-09
4	0x2fbaf187	3.4004818e-10
5	0x304f898d	7.550163e-10
6	0x2f940989	2.6927818e-10
7	0x3019b96b	5.592457e-10
8	0x2df32f0b	2.7646793e-11
9	0x2d17cc85	8.628769e-12
10	0x2dbe4d2d	2.1634772e-11
11	0x2d5cf783	1.2560511e-11
12	0x33a3c9c0	7.626977e-08
13	0x33d5af8d	9.950518e-08
14	0x338b417d	6.484604e-08
15	0x34226377	1.5123611e-07
16	0x3185128f	3.8729193e-09
17	0x3280a85e	1.4977726e-08
18	0x31292893	2.46158e-09
19	0x317fb940	3.7212686e-09
20	0x2f3bf1b7	1.7093425e-10
21	0x3065d472	8.361162e-10
22	0x2f32d25c	1.626374e-10
23	0x30419bad	7.043422e-10
24	0x324eaf15	1.2030587e-08
25	0x3316ad73	3.5082348e-08
26	0x32783cdc	1.4449338e-08
27	0x31876e16	3.9415324e-09
28	0x331f632b	3.7110265e-08
29	0x33465b53	4.6183526e-08
30	0x32ccd892	2.384721e-08
31	0x32820166	1.5134628e-08
32	0x341f2f3b	1.4825211e-07
33	0x349dc7bc	2.9388855e-07
34	0x342404fe	1.5275506e-07
35	0x349b81c8	2.8965428e-07
36	0x3412307a	1.3614945e-07
37	0x3431974d	1.6539452e-07
38	0x33ee43ae	1.10950495e-07
39	0x345d0e5f	2.0587457e-07
40	0x3359b50d	5.0688914e-08
41	0x323fe09f	1.1168736e-08
42	0x332768d4	3.8978058e-08
43	0x32655e0b	1.3350937e-08
44	0x366033d7	3.3408776e-06
45	0x36acaccf	5.146117e-06
46	0x363e9954	2.8401455e-06
47	0x36e3cefc	6.7892233e-06

exp_avg f4 [12, 4]
0	0xaef564e8	-1.11592346e-10
1	0x2d99f09c	1.7500938e-11
2	0xaea69e63	-7.576941e-11
3	0xaedada25	-9.9522425e-11
4	0xb07758fe	-8.998454e-10
5	0xaed01c41	-9.463764e-11
6	0xafd8d577	-3.9441847e-10
7	0xb04be45d	-7.4175494e-10
8	0xb0d460df	-1.5452563e-09
9	0x2ea14501	7.33369e-11
10	0x2e9a0a85	7.004978e-11
11	0xb0b86ab3	-1.3418088e-09
12	0xafdf73e4	-4.064581e-10
13	0xae57c426	-4.9059555e-11
14	0x2e22462f	3.689687e-11
15	0xafb93ea1	-3.3695804e-10
16	0x2d6943d4	1.32595775e-11
17	0xac96cb6a	-4.28584e-12
18	0x2cb832c8	5.2352324e-12
19	0x2d59d263	1.2381737e-11
20	0xaed79e09	-9.805141e-11
21	0xac20f2f2	-2.287223e-12
22	0xae803627	-5.8303855e-11
23	0xaece3349	-9.3769055e-11
24	0x2fa2c3e4	2.9606817e-10
25	0xaec265bd	-8.840171e-11
26	0xb265f066	-1.3384215e-08
27	0x2f97df41	2.7625371e-10
28	0x2f806f05	2.3361948e-10
29	0x2e954455	6.787874e-11
30	0x2eb6aa06	8.306604e-11
31	0x2f756707	2.2319223e-10
32	0xb00f3fbc	-5.211367e-10
33	0xadefa782	-2.7245543e-11
34	0xaf8d4d51	-2.5702687e-10
35	0xaff0343c	-4.369286e-10
36	0xb2d55501	-2.4835119e-08
37	0xb146b7bb	-2.891723e-09
38	0xb2590972	-1.263321e-08
39	0xb2aeee36	-2.0364592e-08
40	0xb2b0d283	-2.0584826e-08
41	0xb098f968	-1.1130341e-09
42	0xb2929960	-1.7066384e-08
43	0xb292a3bb	-1.7071093e-08
44	0xaf122c93	-1.3294459e-10
45	0xad8d4253	-1.6059298e-11
46	0xafcbe526	-3.7088305e-10
47	0xaef29aba	-1.1032371e-10

exp_avg_sq f4 [12, 4]
0	0x2f7b828a	2.2874694e-10
1	0x313b54a5	2.7260196e-09
2	0x2e9a9cd2	7.030966e-11
3	0x30a8e528	1.2288739e-09
4	0x2f67512b	2.1038164e-10
5	0x3099af91	1.1182114e-09
6	0x2f1c7c44	1.4232265e-10
7	0x30406a46	7.0000217e-10
8	0x2dbe22ad	2.1615898e-11
9	0x2e41ffc0	4.411027e-11
10	0x2d9c2cec	1.7755096e-11
11	0x2de0cc57	2.5556597e-11
12	0x3234a134	1.0514032e-08
13	0x3466bf6b	2.1490057e-07
14	0x3278222d	1.4443271e-08
15	0x340ce4de	1.3121777e-07
16	0x32756511	1.4283857e-08
17	0x2f82463e	2.3696772e-10
18	0x2ed96e30	9.887591e-11
19	0x3248051b	1.1642693e-08
20	0x30aba879	1.248977e-09
21	0x2ee7c46f	1.05395574e-10
22	0x2c1b6541	2.2083032e-12
23	0x30b17d83	1.2914118e-09
24	0x3016775c	5.47393e-10
25	0x2ea0aa3c	7.306197e-11
26	0x2f8a2233	2.5126354e-10
27	0x2ffe31c5	4.6237694e-10
28	0x2f230971	1.4828118e-10
29	0x2dfafbaf	2.853348e-11
30	0x2d14a4bf	8.449407e-12
31	0x2e97fd5e	6.911692e-11
32	0x329a7591	1.7981423e-08
33	0x34194a14	1.4276185e-07
34	0x31800873	3.726251e-09
35	0x33809a70	5.9885565e-08
36	0x3261d9e5	1.3146267e-08
37	0x33a77148	7.797149e-08
38	0x327db8c6	1.4768551e-08
39	0x33664359	5.36123e-08
40	0x319d475b	4.5774136e-09
41	0x3251b0cd	1.2205601e-08
42	0x31ad6de0	5.047454e-09
43	0x321133b6	8.4518685e-09
44	0x324e8925	1.2021961e-08
45	0x3555d3f2	7.9657104e-07
46	0x3274a27f	1.4239617e-08
47	0x34daf927	4.0786946e-07

exp_avg f4 [12]
0	0x2ef5f730	1.11852194e-10
1	0x307a5fb9	9.10855e-10
2	0x312e7d62	2.5391604e-09
3	0x302a33a1	6.191901e-10
4	0xada959b5	-1.9252913e-11
5	0x2ecd0891	9.3238424e-11
6	0xb26f4022	-1.3926213e-08
7	0xaf9e0b23	-2.8747946e-10
8	0x302f09cb	6.3678546e-10
9	0x32ce0a35	2.3986198e-08
10	0x3291b875	1.6964103e-08
11	0x324787a1	1.1614163e-08

exp_avg_sq f4 [12]
0	0x32085120	7.934688e-09
1	0x318268b5	3.7954018e-09
2	0x2f955f43	2.717063e-10
3	0x35094a20	5.1144343e-07
4	0x327f58c7	1.4863139e-08
5	0x31110b31	2.1106639e-09
6	0x3011eef7	5.309028e-10
7	0x2fab7893	3.1190392e-10
8	0x35add0d3	1.295028e-06
9	0x3596b0be	1.122731e-06
10	0x350a7a4b	5.1586966e-07
11	0x37ccb98e	2.44051e-05

exp_avg f4 [12]
0	0x2ef5f730	1.11852194e-10
1	0x307a5fb9	9.10855e-10
2	0x312e7d62	2.5391604e-09
3	0x302a33a1	6.191901e-10
4	0xada959b5	-1.9252913e-11
5	0x2ecd0891	9.3238424e-11
6	0xb26f4022	-1.3926213e-08
7	0xaf9e0b23	-2.8747946e-10
8	0x300fd28e	5.2322313e-10
9	0x32c6333d	2.3073534e-08
10	0x32673ed9	1.346026e-08
11	0xaf4771e7	-1.8139411e-10

exp_avg_sq f4 [12]
0	0x32085120	7.934688e-09
1	0x318268b5	3.7954018e-09
2	0x2f955f43	2.717063e-10
3	0x35094a20	5.1144343e-07
4	0x327f58c7	1.4863139e-08
5	0x31110b31	2.1106639e-09
6	0x3011eef7	5.309028e-10
7	0x2fab7893	3.1190392e-10
8	0x34dfd906	4.1694892e-07
9	0x349eff1e	2.9615416e-07
10	0x33b3b75a	8.3686885e-08
11	0x360335d9	1.9551865e-06

exp_avg f4 [12, 4]
0	0xabb10529	-1.2578039e-12
1	0x268ae325	9.637241e-16
2	0xaf3e60cf	-1.7314793e-10
3	0xab992e78	-1.0884202e-12
4	0x2f53dec3	1.9269479e-10
5	0x30046b6a	4.8173965e-10
6	0xb3223946	-3.7770654e-08
7	0x2f89b9c1	2.505214e-10
8	0xb18e075f	-4.133582e-09
9	0xb169e487	-3.4035865e-09
10	0xb0b19a9e	-1.292239e-09
11	0xb1884700	-3.9661927e-09
12	0xb18947b8	-3.9953783e-09
13	0xaf3b39bf	-1.7028066e-10
14	0xb08bb494	-1.0164904e-09
15	0xb15dee1e	-3.2295087e-09
16	0x333f17cf	4.4492307e-08
17	0x333760f1	4.2696175e-08
18	0x33598f9e	5.065487e-08
19	0x333d7a0f	4.4116003e-08
20	0xb146692d	-2.8872578e-09
21	0xb1c0fa76	-5.6164096e-09
22	0xb1112a43	-2.11243e-09
23	0xb16b9707	-3.428285e-09
24	0xb21c75a1	-9.107141e-09
25	0xb22d76ff	-1.0096982e-08
26	0xb1b16fb1	-5.164076e-09
27	0xb21e1258	-9.200981e-09
28	0x31ee5ada	6.9370403e-09
29	0xb0c6b28b	-1.4457141e-09
30	0xb0a2c250	-1.1842278e-09
31	0x31b70f9b	5.327775e-09
32	0x2f803713	2.3322197e-10
33	0xadbefe86	-2.171353e-11
34	0x31169114	2.191034e-09
35	0x2f656801	2.0864378e-10
36	0xb1a160f9	-4.696741e-09
37	0xb184447e	-3.8494923e-09
38	0x33cb5e92	9.4701264e-08
39	0xb19aee2c	-4.509067e-09
40	0xb27f5b7d	-1.4863756e-08
41	0xb1e5e614	-6.690934e-09
42	0xb11ec00a	-2.3101188e-09
43	0xb2647003	-1.3296815e-08
44	0x32f1f36a	2.8166784e-08
45	0x31bfda2c	5.583635e-09
46	0xafb5a296	-3.3039232e-10
47	0x32caa08f	2.3588909e-08

exp_avg_sq f4 [12, 4]
0	0x301ea6a3	5.771687e-10
1	0x31c65a2b	5.7728093e-09
2	0x2f167f89	1.368773e-10
3	0x314e28bc	3.00001e-09
4	0x30a13742	1.1729997e-09
5	0x3225e340	9.655935e-09
6	0x3105086d	1.9358837e-09
7	0x31af5306	5.102609e-09
8	0x32f59bb1	2.8592554e-08
9	0x320a6b0c	8.056997e-09
10	0x3366e926	5.3763095e-08
11	0x3279e342	1.454538e-08
12	0x33dd8c38	1.031662e-07
13	0x3309faab	3.212578e-08
14	0x370471ed	7.8943385e-06
15	0x3400fba9	1.2012482e-07
16	0x3504e15f	4.950179e-07
17	0x338802d3	6.333507e-08
18	0x34359456	1.6910903e-07
19	0x34c613fa	3.689491e-07
20	0x3238e777	1.0762839e-08
21	0x2f8f3c87	2.6054556e-10
22	0x2f883cb1	2.478138e-10
23	0x321b7c3d	9.050436e-09
24	0x3200257a	7.459102e-09
25	0x31230f95	2.372848e-09
26	0x2f7832b4	2.2573482e-10
27	0x3236d218	1.0641564e-08
28	0x310b0920	2.023235e-09
29	0x30f39b93	1.7724794e-09
30	0x2f466b51	1.8046122e-10
31	0x2ff8afd3	4.5235868e-10
32	0x34ae302d	3.2445078e-07
33	0x36b8e2c4	5.5100263e-06
34	0x3400e294	1.2003358e-07
35	0x36512a45	3.116803e-06
36	0x35c221a9	1.4463923e-06
37	0x362dba9c	2.588763e-06
38	0x36997c36	4.5742154e-06
39	0x362ad248	2.5454374e-06
40	0x3595a8fc	1.1150546e-06
41	0x34f4217d	4.5472908e-07
42	0x372bf126	1.0248541e-05
43	0x35279918	6.243513e-07
44	0x368633be	3.999535e-06
45	0x361caf1e	2.3347743e-06
46	0x38b3987d	8.563788e-05
47	0x36a879f8	5.020989e-06

exp_avg f4 [12, 4]
0	0xab8ea22f	-1.0134722e-12
1	0xac1335b1	-2.0919761e-12
2	0xac227e95	-2.3091852e-12
3	0x2c1b15f4	2.2039011e-12
4	0x311af0bc	2.254679e-09
5	0xb30741b2	-3.1491886e-08
6	0xb3261718	-3.867089e-08
7	0x33250fb1	3.8431327e-08
8	0xb0a324f7	-1.1870317e-09
9	0x310cbaa4	2.0478774e-09
10	0x31363c7b	2.6518865e-09
11	0xb13f5395	-2.784167e-09
12	0xb1934faa	-4.28732e-09
13	0xb19534d5	-4.342477e-09
14	0xb199d6cf	-4.477307e-09
15	0x31840ffd	3.8435233e-09
16	0x31bf7daa	5.573118e-09
17	0xb309aa88	-3.2052895e-08
18	0xb32aa593	-3.97318e-08
19	0x332973d1	3.9453713e-08
20	0x312ef80f	2.5461337e-09
21	0x320a349f	8.044622e-09
22	0x321f0348	9.255764e-09
23	0xb21612ef	-8.735454e-09
24	0xaeba45c8	-8.4706964e-11
25	0x32223e19	9.44376e-09
26	0x3244198a	1.14145084e-08
27	0xb240b27a	-1.1216452e-08
28	0x321b5661	9.041828e-09
29	0x323a95f4	1.086072e-08
30	0x32443a71	1.142199e-08
31	0xb231bd29	-1.0345766e-08
32	0x2f2bca24	1.5624174e-10
33	0x2f6ce14f	2.154412e-10
34	0x2f6d00ee	2.1555355e-10
35	0xaf64b98c	-2.0802399e-10
36	0xb1a47c54	-4.7871627e-09
37	0x33466a32	4.619705e-08
38	0x33752f7d	5.7086698e-08
39	0xb3746edc	-5.6911503e-08
40	0xb12a0a6e	-2.4744184e-09
41	0xb0b084be	-1.2843413e-09
42	0xb0980d2d	-1.10632e-09
43	0x305cfb6f	8.039284e-10
44	0x32c376c1	2.275499e-08
45	0x32aa4c4a	1.9825297e-08
46	0x32a8cfa5	1.96522e-08
47	0xb28fadba	-1.6726393e-08

exp_avg_sq f4 [12, 4]
0	0x31374344	2.666824e-09
1	0x2fbf3197	3.4777933e-10
2	0x30ef8a00	1.7428761e-09
3	0x318b283c	4.0500066e-09
4	0x31f36267	7.083418e-09
5	0x30eede5d	1.7379979e-09
6	0x31404f24	2.7984663e-09
7	0x324b7403	1.1842533e-08
8	0x32801187	1.4909132e-08
9	0x32b9eb97	2.1643968e-08
10	0x337bc5ef	5.862051e-08
11	0x32b44ff9	2.0991125e-08
12	0x3647d354	2.977632e-06
13	0x352c0137	6.407676e-07
14	0x33ea9f5b	1.0925461e-07
15	0x352cc020	6.435457e-07
16	0x334bb2ee	4.7427356e-08
17	0x34bce473	3.5183947e-07
18	0x34fc898c	4.7038736e-07
19	0x348a9b0b	2.5817312e-07
20	0x2ec88e6a	9.120245e-11
21	0x30cd3605	1.4931066e-09
22	0x30925634	1.0647399e-09
23	0x319690f8	4.3820556e-09
24	0x300532bb	4.845721e-10
25	0x2f93a1a1	2.6853988e-10
26	0x31fd6d41	7.37569e-09
27	0x31659903	3.3410863e-09
28	0x3088fe6d	9.967615e-10
29	0x318bf2d7	4.07304e-09
30	0x303253c0	6.487504e-10
31	0x319e2f18	4.603759e-09
32	0x359dee9a	1.1766854e-06
33	0x33f228f4	1.12764525e-07
34	0x359c5200	1.1646771e-06
35	0x36376796	2.732942e-06
36	0x34657b55	2.1372155e-07
37	0x33549a60	4.95005e-08
38	0x345673db	1.9972451e-07
39	0x34a11ac0	3.000805e-07
40	0x3579cda7	9.305899e-07
41	0x35080d9b	5.0683747e-07
42	0x35d030f6	1.5511457e-06
43	0x34db766f	4.08781e-07
44	0x364a3ddb	3.013635e-06
45	0x356f0434	8.9040554e-07
46	0x34b869ad	3.434956e-07
47	0x3530fa48	6.5929316e-07

exp_avg f4 [12]
0	0xaf3ccda6	-1.7171561e-10
1	0xb32367b3	-3.804571e-08
2	0x3192d69f	4.273559e-09
3	0x318a1981	4.019228e-09
4	0xb2631f72	-1.3220289e-08
5	0x31362f34	2.6511318e-09
6	0x3216185c	8.736688e-09
7	0xb1f89b1c	-7.235384e-09
8	0x30fc4b2b	1.8356777e-09
9	0x33d9c421	1.01405256e-07
10	0x3284096c	1.5371107e-08
11	0xb3276c5b	-3.8981266e-08

exp_avg_sq f4 [12]
0	0x3256e688	1.2508856e-08
1	0x32b6a77d	2.1263753e-08
2	0x33a2896e	7.568711e-08
3	0x37065188	8.006005e-06
4	0x357553b9	9.1391445e-07
5	0x3231c47c	1.0347431e-08
6	0x321c1c5d	9.086844e-09
7	0x3185f2bd	3.8984056e-09
8	0x374b3884	1.21129015e-05
9	0x372b5b02	1.0213584e-05
10	0x373e56ae	1.1345064e-05
11	0x38c1a0fe	9.232944e-05

exp_avg f4 [12]
0	0xaf3ccda6	-1.7171561e-10
1	0xb32367b3	-3.804571e-08
2	0x3192d69f	4.273559e-09
3	0x318a1981	4.019228e-09
4	0xb2631f72	-1.3220289e-08
5	0x31362f34	2.6511318e-09
6	0x3216185c	8.736688e-09
7	0xb1f89b1c	-7.235384e-09
8	0x30e2fa30	1.6514772e-09
9	0x337cdbcb	5.8873223e-08
10	0x31848f3a	3.8579886e-09
11	0xb2d34157	-2.4593346e-08

exp_avg_sq f4 [12]
0	0x3256e688	1.2508856e-08
1	0x32b6a77d	2.1263753e-08
2	0x33a2896e	7.568711e-08
3	0x37065188	8.006005e-06
4	0x357553b9	9.1391445e-07
5	0x3231c47c	1.0347431e-08
6	0x321c1c5d	9.086844e-09
7	0x3185f2bd	3.8984056e-09
8	0x3700b670	7.671872e-06
9	0x358c8f2d	1.0472482e-06
10	0x36591c85	3.235212e-06
11	0x37267fc9	9.924123e-06

exp_avg f4 [12, 4]
0	0x3151984f	3.050008e-09
1	0x319a08bd	4.4829833e-09
2	0x318ff585	4.18976e-09
3	0xb19144c2	-4.2278723e-09
4	0x2efccee9	1.1496388e-10
5	0xb0b4120a	-1.3101851e-09
6	0xb0952594	-1.0851857e-09
7	0x30bc1567	1.3684883e-09
8	0xb002e22f	-4.761515e-10
9	0xafe080b6	-4.0836817e-10
10	0xafdcaa2d	-4.0138684e-10
11	0x2f8d672b	2.5721056e-10
12	0x308e90d1	1.0373019e-09
13	0xaeaf8bd6	-7.9829185e-11
14	0xaf8d063a	-2.5652175e-10
15	0x2fb8141d	3.3483696e-10
16	0xb47a2b38	-2.3298787e-07
17	0xb462c9ad	-2.112126e-07
18	0xb42c6deb	-1.6058736e-07
19	0x34328e99	1.6629419e-07
20	0xb3b03294	-8.204839e-08
21	0xb433120d	-1.6677241e-07
22	0xb434fda7	-1.6856085e-07
23	0x34362853	1.6964741e-07
24	0xb1c54a62	-5.741911e-09
25	0x33bc6518	8.772821e-08
26	0x33c4e0e1	9.1678665e-08
27	0xb3c77748	-9.288357e-08
28	0xb39559b0	-6.954667e-08
29	0xb3f4f27c	-1.1406243e-07
30	0xb3e91e44	-1.0855413e-07
31	0x33ec7013	1.10099926e-07
32	0xb2ba621f	-2.169787e-08
33	0xb326e3bf	-3.885702e-08
34	0xb3228907	-3.784319e-08
35	0x33245676	3.826286e-08
36	0x33aa2bdd	7.9242206e-08
37	0x34075bfc	1.2606318e-07
38	0x340393af	1.2254053e-07
39	0xb40305b4	-1.22024e-07
40	0x32abc93c	1.999853e-08
41	0x329d1838	1.8288219e-08
42	0x3296bf26	1.7549223e-08
43	0xb265e40e	-1.3381408e-08
44	0xb32199a2	-3.7625462e-08
45	0x3476dfe2	2.2991983e-07
46	0x3499f7e4	2.8678835e-07
47	0xb4996215	-2.8569835e-07

exp_avg_sq f4 [12, 4]
0	0x3233a3ed	1.0456444e-08
1	0x315bb5b3	3.1971978e-09
2	0x31d2c28e	6.1339227e-09
3	0x328582a5	1.5542648e-08
4	0x301a1e71	5.6068133e-10
5	0x30dd5792	1.6104755e-09
6	0x311b057a	2.2558582e-09
7	0x3085f04c	9.74532e-10
8	0x3230ae56	1.0284188e-08
9	0x30c71cce	1.4487342e-09
10	0x2ffd6419	4.6091556e-10
11	0x30dd4613	1.6099783e-09
12	0x303661e7	6.635034e-10
13	0x305af8cf	7.9661516e-10
14	0x30830ffe	9.53605e-10
15	0x304cad07	7.4460654e-10
16	0x3724ad6b	9.815539e-06
17	0x37fcbeda	3.0129613e-05
18	0x37f6547b	2.9364825e-05
19	0x37f3f6b5	2.908274e-05
20	0x342edf87	1.6286332e-07
21	0x34349009	1.6816206e-07
22	0x34177052	1.4103833e-07
23	0x3435faef	1.6948228e-07
24	0x2f2042b6	1.4575616e-10
25	0x3092bf31	1.0677238e-09
26	0x3072518f	8.815499e-10
27	0x3144fcfb	2.8665557e-09
28	0x3627ac1c	2.498512e-06
29	0x36cb45b7	6.0579873e-06
30	0x36c3118d	5.813496e-06
31	0x36c32301	5.815528e-06
32	0x359a0834	1.1476282e-06
33	0x349b5928	2.893587e-07
34	0x35317ad5	6.611638e-07
35	0x35ba0d49	1.3861946e-06
36	0x33658dea	5.3447287e-08
37	0x355859bb	8.0596845e-07
38	0x352d4f46	6.456288e-07
39	0x352dce8a	6.4748076e-07
40	0x35911910	1.0810636e-06
41	0x3452a301	1.9617075e-07
42	0x33cec902	9.6291856e-08
43	0x346db9cb	2.2139936e-07
44	0x350b27cf	5.1839464e-07
45	0x35e08677	1.6728435e-06
46	0x35e2d7a1	1.6901068e-06
47	0x36048af2	1.975041e-06

exp_avg f4 [12, 4]
0	0x2f96932d	2.7389416e-10
1	0xaf868612	-2.446972e-10
2	0x31df3669	6.49634e-09
3	0x2f8d083c	2.5653601e-10
4	0x31138fed	2.1473128e-09
5	0xb110a099	-2.1046047e-09
6	0xb1ff45b3	-7.4294007e-09
7	0x3115a432	2.1775688e-09
8	0xb012313c	-5.3184457e-10
9	0x300e16b2	5.169155e-10
10	0x303b73e8	6.8194916e-10
11	0xb01259fa	-5.3242355e-10
12	0x302bd4ce	6.251185e-10
13	0xb0265eff	-6.0525446e-10
14	0x304b4914	7.395482e-10
15	0x302c212b	6.262037e-10
16	0xb21c738e	-9.106669e-09
17	0x31ee654b	6.9382273e-09
18	0xb52e6925	-6.4973057e-07
19	0xb20231d8	-7.578329e-09
20	0xb25820cc	-1.2580312e-08
21	0x3247e1e7	1.1634689e-08
22	0xb3f91054	-1.1597936e-07
23	0xb2546672	-1.23633175e-08
24	0xad48f440	-1.1422918e-11
25	0xac065098	-1.9087284e-12
26	0xb1568005	-3.121387e-09
27	0xac0befe4	-1.9886254e-12
28	0xb10e5771	-2.0713424e-09
29	0x30ce58c9	1.5013707e-09
30	0xb4277eab	-1.5599169e-07
31	0xb0e1b321	-1.6421816e-09
32	0xaff44b62	-4.4436904e-10
33	0x2f860d48	2.4383895e-10
34	0xb32c7788	-4.0155584e-08
35	0xafa881a2	-3.0651132e-10
36	0x31073e39	1.9680455e-09
37	0xb1000973	-1.8631823e-09
38	0x3200f7aa	7.506893e-09
39	0x3105daff	1.9478532e-09
40	0x2f72fb39	2.2099024e-10
41	0xaf57edaf	-1.9638578e-10
42	0x315965c1	3.1635496e-09
43	0x2f6445d9	2.0761294e-10
44	0xb00ce59e	-5.125801e-10
45	0x3004066b	4.803044e-10
46	0xb1b8b144	-5.3752576e-09
47	0xb009dad8	-5.0151305e-10

exp_avg_sq f4 [12, 4]
0	0x328ad87a	1.6163757e-08
1	0x3195e8cd	4.362937e-09
2	0x319768f7	4.4066115e-09
3	0x327d2967	1.4735952e-08
4	0x30753539	8.9206115e-10
5	0x2fbc66d5	3.4270067e-10
6	0x30c74fc7	1.450183e-09
7	0x3092c073	1.0677595e-09
8	0x3027232e	6.080424e-10
9	0x3224544c	9.565223e-09
10	0x320f0137	8.323972e-09
11	0x3192f924	4.2774833e-09
12	0x3013c47d	5.3757515e-10
13	0x302a1080	6.186909e-10
14	0x2fd00391	3.7837514e-10
15	0x303b51da	6.814652e-10
16	0x36492f86	2.9978996e-06
17	0x3517d418	5.656052e-07
18	0x380c9cf4	3.3524775e-05
19	0x36434dd0	2.9102557e-06
20	0x32f925f5	2.9004676e-08
21	0x329a2481	1.794456e-08
22	0x3491983e	2.7119125e-07
23	0x331eaf41	3.6946634e-08
24	0x2e18d1e8	3.4747233e-11
25	0x2c5dcf32	3.1521005e-12
26	0x2f3891e3	1.6786532e-10
27	0x2de36d50	2.5855457e-11
28	0x355629d9	7.978211e-07
29	0x341f0d66	1.4812903e-07
30	0x36e86263	6.9255925e-06
31	0x3550eb51	7.782847e-07
32	0x347a1557	2.3290828e-07
33	0x341bb15e	1.4500026e-07
34	0x341b82ea	1.4483126e-07
35	0x3480213c	2.386604e-07
36	0x338e33cf	6.621814e-08
37	0x309dc20f	1.1478408e-09
38	0x3307f3e9	3.1653972e-08
39	0x3339e697	4.328339e-08
40	0x3200ecee	7.504452e-09
41	0x3461cd80	2.1029518e-07
42	0x342bbfc2	1.5995377e-07
43	0x33b9c382	8.6502965e-08
44	0x33f285b6	1.1293325e-07
45	0x31f9a1a5	7.2652306e-09
46	0x33156729	3.478559e-08
47	0x33959139	6.964769e-08

exp_avg f4 [12]
0	0xb1f73034	-7.194126e-09
1	0x31398c74	2.7000882e-09
2	0x2fd37e09	3.847023e-10
3	0xb13f8aef	-2.7873133e-09
4	0x353898df	6.87678e-07
5	0x3417b88a	1.4130106e-07
6	0x33d3c6d9	9.861623e-08
7	0x342e7e7a	1.6251025e-07
8	0x334d42e8	4.7791133e-08
9	0xb427ddf4	-1.5633833e-07
10	0xb2ccd54e	-2.3845725e-08
11	0x34b7063c	3.4090942e-07

exp_avg_sq f4 [12]
0	0x334140ee	4.4995367e-08
1	0x30637dcb	8.276088e-10
2	0x32b0a6dd	2.0564977e-08
3	0x30fefb9f	1.8552447e-09
4	0x383cf621	4.505192e-05
5	0x351c17fa	5.814942e-07
6	0x318a9e3a	4.034317e-09
7	0x371771d6	9.026806e-06
8	0x3699286b	4.5644606e-06
9	0x359dd56c	1.1759525e-06
10	0x361bf835	2.3241275e-06
11	0x36896a23	4.095274e-06

exp_avg f4 [12]
0	0xb1f73034	-7.194126e-09
1	0x31398c74	2.7000882e-09
2	0x2fd37e09	3.847023e-10
3	0xb13f8aef	-2.7873133e-09
4	0x353898df	6.87678e-07
5	0x3417b88a	1.4130106e-07
6	0x33d3c6d9	9.861623e-08
7	0x342e7e7a	1.6251025e-07
8	0x332fbfb8	4.091973e-08
9	0xb250d4df	-1.2155595e-08
10	0xb172b5dc	-3.531901e-09
11	0x3202f16b	7.621888e-09

exp_avg_sq f4 [12]
0	0x334140ee	4.4995367e-08
1	0x30637dcb	8.276088e-10
2	0x32b0a6dd	2.0564977e-08
3	0x30fefb9f	1.8552447e-09
4	0x383cf621	4.505192e-05
5	0x351c17fa	5.814942e-07
6	0x318a9e3a	4.034317e-09
7	0x371771d6	9.026806e-06
8	0x355c02c8	8.1960434e-07
9	0x341fe7bd	1.4892335e-07
10	0x34e0c54b	4.18668e-07
11	0x348fc794	2.6781038e-07

exp_avg f4 [12, 4]
0	0xb2f7b210	-2.8835558e-08
1	0x33050fd1	3.098086e-08
2	0xb397a511	-7.061511e-08
3	0xb302062d	-3.02736e-08
4	0xb2c125dc	-2.2485374e-08
5	0x30db2ddc	1.5947381e-09
6	0xb692dd89	-4.376929e-06
7	0xb1eeadc3	-6.946466e-09
8	0xb05b1891	-7.9706647e-10
9	0x314e76d0	3.0044482e-09
10	0x3494c096	2.7707273e-07
11	0xb122e25a	-2.3702769e-09
12	0x319c3759	4.54649e-09
13	0xb19593ec	-4.3532875e-09
14	0x33068f3c	3.1329577e-08
15	0x319a7f0b	4.496433e-09
16	0xb50b2a6a	-5.1843256e-07
17	0x351f3c4d	5.9319865e-07
18	0x36e33955	6.7718015e-06
19	0xb515b61f	-5.5771847e-07
20	0xb067451e	-8.413553e-10
21	0x3082458c	9.478511e-10
22	0x2fa1fb59	2.9464323e-10
23	0xb075852e	-8.931974e-10
24	0x2f526d65	1.9138253e-10
25	0xaf2ebdf1	-1.5892689e-10
26	0x338d095c	6.5675266e-08
27	0x2f4b89e1	1.8511727e-10
28	0xb37335dd	-5.6626835e-08
29	0x3373045c	5.658181e-08
30	0x34ebf2d7	4.394885e-07
31	0xb376306d	-5.732038e-08
32	0x353e6f2d	7.09423e-07
33	0xb53b6170	-6.980472e-07
34	0x353f3bfc	7.1240333e-07
35	0x354103a2	7.190339e-07
36	0x35a618d4	1.237519e-06
37	0xb5930c79	-1.0955983e-06
38	0x38373ca4	4.3687076e-05
39	0x3596f107	1.1246019e-06
40	0x3520752b	5.9775147e-07
41	0xb51f4500	-5.9332524e-07
42	0xb583423b	-9.779536e-07
43	0x352544e2	6.156753e-07
44	0x33048a42	3.085939e-08
45	0xb2fd3e99	-2.9481543e-08
46	0x346035d1	2.0881204e-07
47	0x330306e7	3.0507092e-08

exp_avg_sq f4 [12, 4]
0	0x32e0ba19	2.616166e-08
1	0x31964af6	4.3740966e-09
2	0x3421c7c4	1.5066968e-07
3	0x32c785f2	2.322756e-08
4	0x357047f5	8.951168e-07
5	0x336e21e6	5.5444524e-08
6	0x362fa536	2.6173198e-06
7	0x35386c08	6.870255e-07
8	0x31244d84	2.3909204e-09
9	0x326063df	1.3061224e-08
10	0x3239f81f	1.08248335e-08
11	0x31cfc0bd	6.0464047e-09
12	0x33600ba2	5.2164644e-08
13	0x3216379f	8.743796e-09
14	0x3487a687	2.5266874e-07
15	0x33317d8d	4.132521e-08
16	0x348cc433	2.6219786e-07
17	0x3328e303	3.9322014e-08
18	0x350953d8	5.1158486e-07
19	0x345b9bb9	2.0452616e-07
20	0x3244ccad	1.1455239e-08
21	0x307c1a0b	9.1714075e-10
22	0x32946975	1.7277424e-08
23	0x321152cd	8.4589376e-09
24	0x2f4ff99e	1.8915222e-10
25	0x2f85d299	2.4342198e-10
26	0x30ad01b7	1.2587894e-09
27	0x2f9c24c5	2.840236e-10
28	0x33d308d5	9.82706e-08
29	0x32931450	1.712229e-08
30	0x34ad6e4d	3.2304015e-07
31	0x33b7ef6b	8.5651514e-08
32	0x35b996c9	1.3827458e-06
33	0x360ad01f	2.0684745e-06
34	0x370a27d1	8.2347115e-06
35	0x35f3786b	1.8139957e-06
36	0x387fcefb	6.0989503e-05
37	0x37164670	8.957097e-06
38	0x39216193	0.00015390506
39	0x38565532	5.110092e-05
40	0x359405e0	1.1028569e-06
41	0x368a30fc	4.118423e-06
42	0x368e7ae0	4.2462343e-06
43	0x361009cf	2.1463381e-06
44	0x36387775	2.748767e-06
45	0x360e92c9	2.124509e-06
46	0x368aa98f	4.1324597e-06
47	0x362cfa4a	2.5775685e-06

exp_avg f4 [12, 4]
0	0x3158aa53	3.1528955e-09
1	0xb3af8ef7	-8.175078e-08
2	0xb3d3df68	-9.8660905e-08
3	0x314c608e	2.9740792e-09
4	0xb42160ea	-1.502955e-07
5	0xb68e940e	-4.2491656e-06
6	0xb691802e	-4.336259e-06
7	0xb3971ecf	-7.0370895e-08
8	0x32802f22	1.4922595e-08
9	0x34d6ab7c	3.9985377e-07
10	0x34db7f35	4.0884484e-07
11	0x31fdf5e1	7.3912223e-09
12	0xb166747a	-3.3535614e-09
13	0x32dffb9c	2.6075035e-08
14	0x33146ce9	3.455799e-08
15	0xb1844ce0	-3.8504453e-09
16	0x335aad02	5.091443e-08
17	0x365a3c32	3.251957e-06
18	0x365c5ab2	3.2835346e-06
19	0x32a2553a	1.8898039e-08
20	0xae38ba3e	-4.2002173e-11
21	0xb0924e3f	-1.0645137e-09
22	0xb09618f4	-1.0921029e-09
23	0xadb60e0b	-2.069724e-11
24	0xae5c5365	-5.0096278e-11
25	0xaf2dc026	-1.5802523e-10
26	0x2f50957c	1.8970597e-10
27	0xac0c75e1	-1.9960633e-12
28	0x333b8943	4.366417e-08
29	0x34ae191b	3.2428292e-07
30	0x348e7eff	2.6541963e-07
31	0x33133808	3.4277065e-08
32	0xb500efcd	-4.803267e-07
33	0xb43bc762	-1.7488267e-07
34	0x357ad4f4	9.3442145e-07
35	0xb4fbc8f9	-4.689862e-07
36	0x34e7fb08	4.3209752e-07
37	0x374b073a	1.2101425e-05
38	0x374f23ed	1.2346526e-05
39	0x345a4f71	2.0331733e-07
40	0xb31a9787	-3.5993732e-08
41	0xb57e7822	-9.479719e-07
42	0xb581f271	-9.681809e-07
43	0xb2939d08	-1.7184462e-08
44	0xb29dfcc5	-1.8392152e-08
45	0x3249bc6a	1.174258e-08
46	0x335e62da	5.1778308e-08
47	0xb2a7aac6	-1.9519018e-08

exp_avg_sq f4 [12, 4]
0	0x310de75d	2.0649715e-09
1	0x32c16f33	2.2518725e-08
2	0x3413eab4	1.3775826e-07
3	0x3133629b	2.610398e-09
4	0x33826f20	6.07381e-08
5	0x34a79c6c	3.1219986e-07
6	0x363ae6cd	2.7850504e-06
7	0x33ac6911	8.0284856e-08
8	0x3183abb5	3.8321226e-09
9	0x30840c54	9.607768e-10
10	0x321b9e44	9.058173e-09
11	0x30e5ef45	1.6729947e-09
12	0x31c73fd8	5.7989205e-09
13	0x32ff96c1	2.9754462e-08
14	0x34588cac	2.0167744e-07
15	0x3299e474	1.7915433e-08
16	0x333c00c2	4.377285e-08
17	0x34794ada	2.3217163e-07
18	0x34ec4b9e	4.4013444e-07
19	0x3366840d	5.3671148e-08
20	0x3083e839	9.597506e-10
21	0x31708b5c	3.5003813e-09
22	0x32f3853a	2.8349508e-08
23	0x30ab44e8	1.2461472e-09
24	0x2ea1e44f	7.361988e-11
25	0x2f7f875d	2.3240206e-10
26	0x2f26fc66	1.5187282e-10
27	0x2f6e88a0	2.1694513e-10
28	0x321ed227	9.2445935e-09
29	0x32deac7d	2.592264e-08
30	0x34a2c052	3.0314783e-07
31	0x3289c140	1.6036779e-08
32	0x33c96dfb	9.379797e-08
33	0x34e34965	4.2335446e-07
34	0x366bb037	3.51203e-06
35	0x34206fa3	1.4941774e-07
36	0x344815c4	1.863437e-07
37	0x35565f67	7.986004e-07
38	0x36d400b7	6.3181756e-06
39	0x34c525ca	3.6721605e-07
40	0x34a50b42	3.0741836e-07
41	0x33ebccb4	1.09802755e-07
42	0x357d8eeb	9.445782e-07
43	0x34725dc0	2.2572112e-07
44	0x3466f64b	2.151002e-07
45	0x33c6714b	9.2407014e-08
46	0x359f123b	1.1851729e-06
47	0x357628e7	9.170166e-07

exp_avg f4 [12]
0	0x341bde64	1.4516405e-07
1	0x369332e9	4.386868e-06
2	0xb48d47a1	-2.6315413e-07
3	0xb32ec343	-4.069012e-08
4	0xb6b79706	-5.4714064e-06
5	0x31087dd6	1.9862134e-09
6	0xb3956736	-6.957127e-08
7	0xb4a9c3de	-3.1621215e-07
8	0xb618db3c	-2.2777376e-06
9	0xb8421ff4	-4.6282963e-05
10	0xb4c33c7d	-3.6365591e-07
11	0xb4920df9	-2.7204786e-07

exp_avg_sq f4 [12]
0	0x343e50c8	1.7724517e-07
1	0x367131d0	3.5940793e-06
2	0x32fc4671	2.9368694e-08
3	0x34afe7fa	3.2765075e-07
4	0x353bc70b	6.9952574e-07
5	0x333da8fe	4.415869e-08
6	0x31d289bb	6.1274625e-09
7	0x3512801a	5.457565e-07
8	0x375750e8	1.2833836e-05
9	0x395251c0	0.00020057615
10	0x37415ce8	1.1525328e-05
11	0x3730b69f	1.0532937e-05

exp_avg f4 [12]
0	0x341bde64	1.4516405e-07
1	0x369332e9	4.386868e-06
2	0xb48d47a1	-2.6315413e-07
3	0xb32ec343	-4.069012e-08
4	0xb6b79706	-5.4714064e-06
5	0x31087dd6	1.9862134e-09
6	0xb3956736	-6.957127e-08
7	0xb4a9c3de	-3.1621215e-07
8	0xb607cae0	-2.0234656e-06
9	0xb7517e14	-1.2486726e-05
10	0x34a488f9	3.064704e-07
11	0xb384265a	-6.153705e-08

exp_avg_sq f4 [12]
0	0x343e50c8	1.7724517e-07
1	0x367131d0	3.5940793e-06
2	0x32fc4671	2.9368694e-08
3	0x34afe7fa	3.2765075e-07
4	0x353bc70b	6.9952574e-07
5	0x333da8fe	4.415869e-08
6	0x31d289bb	6.1274625e-09
7	0x3512801a	5.457565e-07
8	0x36c17d02	5.766401e-06
9	0x37193854	9.132626e-06
10	0x365403dc	3.1592708e-06
11	0x36923ba2	4.3580812e-06

exp_avg f4 [12, 4]
0	0x335624f3	4.9859363e-08
1	0x3601a987	1.9321176e-06
2	0x3604aa5c	1.9768695e-06
3	0x32c4f44f	2.2928502e-08
4	0x309a067a	1.1206815e-09
5	0x33af04ac	8.149922e-08
6	0x33a9b2ad	7.902177e-08
7	0x2fe2be3e	4.1244336e-10
8	0x34d3d338	3.9455495e-07
9	0x36e45fb7	6.806072e-06
10	0x36eab440	6.9947273e-06
11	0x346f7df4	2.2304431e-07
12	0x321d8750	9.169369e-09
13	0x34d0a681	3.8864167e-07
14	0x34d972d5	4.050295e-07
15	0x318eaa3b	4.152097e-09
16	0xb73413d6	-1.07334545e-05
17	0xb9a0febb	-0.00030707367
18	0xb9a4d39a	-0.00031438173
19	0xb6ad08d1	-5.156828e-06
20	0x347ff4cd	2.3837784e-07
21	0xb6e4d4f6	-6.8197214e-06
22	0xb701caca	-7.736215e-06
23	0x3357f89f	5.0284708e-08
24	0x32b35c25	2.0880245e-08
25	0xb27fb766	-1.48846535e-08
26	0xb42cf16c	-1.6106577e-07
27	0x3117790c	2.20422e-09
28	0x328369ff	1.5298609e-08
29	0x3556fb30	8.008674e-07
30	0x354a7aca	7.5429546e-07
31	0x31a6eb99	4.85802e-09
32	0xb48a2d4e	-2.5737467e-07
33	0xb7379f06	-1.09446755e-05
34	0xb73c95dc	-1.1240565e-05
35	0xb3fa3a8a	-1.16521804e-07
36	0xb2141611	-8.619751e-09
37	0xb52db9bd	-6.4717807e-07
38	0xb529db3b	-6.327643e-07
39	0xb1474d3f	-2.900222e-09
40	0x350c7cee	5.233586e-07
41	0xb8189eb6	-3.6387435e-05
42	0xb837da23	-4.3833756e-05
43	0x35d30402	1.5721891e-06
44	0xb59a0da0	-1.147786e-06
45	0xb788ad01	-1.6293025e-05
46	0xb75374b0	-1.26037485e-05
47	0xb50323d8	-4.885346e-07

exp_avg_sq f4 [12, 4]
0	0x326b1f66	1.36859395e-08
1	0x30076fa4	4.9271365e-10
2	0x31a2426d	4.7223723e-09
3	0x32ad77cc	2.0194328e-08
4	0x333d2fb5	4.404838e-08
5	0x311af8e0	2.2551419e-09
6	0x32e46b43	2.659147e-08
7	0x32e8acd0	2.708694e-08
8	0x322a37dc	9.908003e-09
9	0x31734a8e	3.5403533e-09
10	0x334fe79a	4.8406584e-08
11	0x342c8bd5	1.6069619e-07
12	0x33782138	5.7772212e-08
13	0x319f49f4	4.6359165e-09
14	0x33a1d20a	7.5353526e-08
15	0x32b66190	2.1231955e-08
16	0x35402f9f	7.159487e-07
17	0x35bdfe22	1.415556e-06
18	0x36788d2c	3.7037053e-06
19	0x353baf46	6.9917985e-07
20	0x33551b62	4.961783e-08
21	0x341987b8	1.429861e-07
22	0x34b3e790	3.3509832e-07
23	0x338e9d83	6.6410415e-08
24	0x30d9f563	1.5858571e-09
25	0x315b48df	3.1910117e-09
26	0x3194d509	4.331586e-09
27	0x314f7daa	3.0193896e-09
28	0x312c55c3	2.5078044e-09
29	0x317c6c34	3.6732333e-09
30	0x32bc0bb3	2.18914e-08
31	0x315e2c5f	3.2330474e-09
32	0x3660d053	3.3499862e-06
33	0x34962195	2.796411e-07
34	0x36ca90da	6.036932e-06
35	0x36121ec7	2.177361e-06
36	0x3623b241	2.439265e-06
37	0x343c6a48	1.754753e-07
38	0x365b916c	3.271819e-06
39	0x3589e63e	1.0274305e-06
40	0x35d3db23	1.5784502e-06
41	0x3485b17c	2.4902317e-07
42	0x363a9d36	2.7807669e-06
43	0x3698e6c7	4.556819e-06
44	0x3703bef3	7.852667e-06
45	0x36eba596	7.0228225e-06
46	0x382b648c	4.086322e-05
47	0x3709c3d5	8.211432e-06

exp_avg f4 [12, 4]
0	0x354f3143	7.7185194e-07
1	0x316f1df2	3.47961e-09
2	0xb6055a5d	-1.9871143e-06
3	0x360a77ee	2.063341e-06
4	0x314c7125	2.9750222e-09
5	0x2e803c47	5.8314735e-11
6	0xb22348a8	-9.504369e-09
7	0x32293021	9.848038e-09
8	0x36ed0fec	7.065004e-06
9	0xb282b999	-1.5218392e-08
10	0xb6ea385f	-6.980306e-06
11	0x36f0a848	7.172148e-06
12	0x33bd6ef4	8.8211806e-08
13	0x2f5dd613	2.0175887e-10
14	0xb5287ae7	-6.2763723e-07
15	0x352e66d9	6.4969714e-07
16	0xb929e5d9	-0.00016202721
17	0xb560f856	-8.380788e-07
18	0x39a575b4	0.00031558948
19	0xb9ab8718	-0.00032716314
20	0xb5cd04fd	-1.5275142e-06
21	0xb3e469e2	-1.0636337e-07
22	0x3641b039	2.8861816e-06
23	0xb648aa4d	-2.990145e-06
24	0xb38b5e1e	-6.489812e-08
25	0xb1a8c20f	-4.9115054e-09
26	0x339e9128	7.383852e-08
27	0xb3a2bd8b	-7.5781905e-08
28	0xb1fd6c5a	-7.3755873e-09
29	0xaf9c0899	-2.8382344e-10
30	0xaf175556	-1.3763687e-10
31	0x2f0c03a2	1.2734216e-10
32	0xb66ee2ab	-3.5596702e-06
33	0xb2a2eb91	-1.8966405e-08
34	0x372a6300	1.015584e-05
35	0xb7311ff2	-1.055746e-05
36	0xb330c97d	-4.1161446e-08
37	0xb0b0d2d6	-1.2865609e-09
38	0x34050dba	1.2391584e-07
39	0xb409d922	-1.2838112e-07
40	0xb7bfb741	-2.2854309e-05
41	0xb3de12d6	-1.0341107e-07
42	0x37ad2fca	2.064546e-05
43	0xb7b1ca26	-2.1194177e-05
44	0xb4a2f163	-3.0350483e-07
45	0xb1214084	-2.3465256e-09
46	0x360423ed	1.9690444e-06
47	0xb608d3b1	-2.03888e-06

exp_avg_sq f4 [12, 4]
0	0x32e1fc84	2.6308278e-08
1	0x330de552	3.3037686e-08
2	0x3289120a	1.5957102e-08
3	0x3085409f	9.69539e-10
4	0x33948cd0	6.917401e-08
5	0x33a83417	7.832585e-08
6	0x32e00244	2.6078062e-08
7	0x320a6d23	8.057472e-09
8	0x338eed5a	6.655564e-08
9	0x341a6d15	1.4382051e-07
10	0x3430f820	1.6481545e-07
11	0x320dd35d	8.255339e-09
12	0x3374e2ea	5.7017054e-08
13	0x338678d7	6.261842e-08
14	0x331a7992	3.5966487e-08
15	0x32e4e8a1	2.664848e-08
16	0x35707e09	8.959037e-07
17	0x35a81c57	1.2525223e-06
18	0x360c0bc0	2.0868465e-06
19	0x35d27b7a	1.5682156e-06
20	0x33ce672d	9.61139e-08
21	0x33bfdd7a	8.934417e-08
22	0x3404f41a	1.2382262e-07
23	0x33a6d50b	7.76873e-08
24	0x30e6658e	1.6763566e-09
25	0x318b9feb	4.063613e-09
26	0x3029d036	6.177773e-10
27	0x2fe9f128	4.2553805e-10
28	0x318bb29a	4.065737e-09
29	0x3187936f	3.9457784e-09
30	0x320c7698	8.176038e-09
31	0x30ec5802	1.7196273e-09
32	0x35f25be7	1.8057152e-06
33	0x3641a073	2.8852635e-06
34	0x35e22dac	1.6851604e-06
35	0x3567e763	8.639092e-07
36	0x35d777c7	1.6053608e-06
37	0x360ab182	2.0666926e-06
38	0x355ff01f	8.3423396e-07
39	0x34fa4be1	4.6621338e-07
40	0x35215ae1	6.010942e-07
41	0x35928a1e	1.0918045e-06
42	0x35913982	1.0820079e-06
43	0x33f2259f	1.12758464e-07
44	0x35b29a21	1.3306891e-06
45	0x360d0cc9	2.101808e-06
46	0x35c27c68	1.4490333e-06
47	0x3545e2d3	7.371829e-07
