aa2_models/model2.pt (torch_old, 6794 bytes, 24 tensors)

lin1.weight f4 [4, 7]
0	0x3eae153f	0.34000584
1	0x3e2f44f4	0.17116147
2	0x3ce7d298	0.028298661
3	0x3ebec318	0.3725822
4	0xbdc22053	-0.094788216
5	0x3e98e56b	0.29862532
6	0xbe8d77a4	-0.2763034
7	0x3e816ea4	0.25279725
8	0x3e6d9fae	0.23205444
9	0x3e9e9427	0.30972406
10	0xbea6003e	-0.3242206
11	0xbe8dcf4d	-0.2769722
12	0xbe40befd	-0.18822856
13	0xbe9f1402	-0.31069952
14	0xbe848e10	-0.25889635
15	0x3ea15cd6	0.3151614
16	0x3e99c15b	0.3003033
17	0x3e133dd6	0.14379057
18	0xbebef37b	-0.37295136
19	0xbe914b71	-0.2837787
20	0x3e969ec3	0.29418
21	0xbdb2d960	-0.08732867
22	0x3ea14dac	0.3150457
23	0x3e8a6035	0.27026525
24	0xbea193a5	-0.31557956
25	0x3eaf75d9	0.34269598
26	0xbe4381d2	-0.19092491
27	0x3e35276b	0.17690818

lin1.bias f4 [4]
0	0x3e923090	0.28552675
1	0x3d153b0a	0.036433257
2	0xbe424d47	-0.18974791
3	0xbdd60cc7	-0.10451656

GRU.weight_ih_l0 f4 [12, 4]
0	0xbea5ecae	-0.32407135
1	0x3e92313c	0.28553188
2	0xbd690a93	-0.05689485
3	0x3edf1fd4	0.4357897
4	0x3eaab02d	0.33337536
5	0x3efb5f32	0.49096066
6	0xbca7b7b9	-0.020473348
7	0x3eea224b	0.45729288
8	0x3ed78586	0.42094058
9	0x3ebb517d	0.36585608
10	0xbf000de4	-0.50021195
11	0xbeefe230	-0.46852255
12	0x3e6b3477	0.22969232
13	0x3e63fd14	0.2226451
14	0xbe964578	-0.29349875
15	0x3e8fa62f	0.28056476
16	0xbe3ceebd	-0.18450446
17	0xbeac5592	-0.33659035
18	0xbe31010b	-0.17285554
19	0x3ee21de6	0.44163436
20	0xbdf5db67	-0.12004738
21	0x3e7b5c63	0.24546961
22	0xbe7d9a46	-0.24765882
23	0xbe4651b3	-0.19367103
24	0xbd8c4a85	-0.06850151
25	0x3ef897a6	0.485532
26	0xbe09fb7e	-0.13474843
27	0xbec2f09f	-0.38074204
28	0x3eb4531a	0.3521965
29	0x3e88805c	0.2666043
30	0xbec5f21a	-0.3866127
31	0x3d810c1c	0.06301138
32	0xbdc91635	-0.09818689
33	0xbe6cb71f	-0.2311673
34	0x3e3c8b9a	0.18412629
35	0x3eb56917	0.3543174
36	0x3d2d3635	0.042288024
37	0xbac2b081	-0.0014853628
38	0x3e910bfd	0.2832946
39	0x3e86700a	0.26257354
40	0xbe89a394	-0.26882613
41	0x3efc1c12	0.49240166
42	0xbe92fd74	-0.28708994
43	0x3e2c1809	0.16806044
44	0xbe1f594d	-0.1556141
45	0xbc899f64	-0.016799636
46	0xbd8da541	-0.06916285
47	0xbea1409d	-0.3149461

GRU.weight_hh_l0 f4 [12, 4]
0	0x3eb8f4c3	0.36124238
1	0x3eacc2a4	0.3374225
2	0x3e1af2cb	0.1513168
3	0x3e950348	0.29104066
4	0xbe16eaf9	-0.14738072
5	0x3ebee6b6	0.37285393
6	0x3edc57b9	0.43035677
7	0x3efc34ec	0.49259126
8	0xbe96532b	-0.29360327
9	0xbca2c34b	-0.019868514
10	0x3e5ed526	0.21760997
11	0x3e800260	0.25001812
12	0x3dd56bae	0.10420929
13	0x3e813abf	0.25240132
14	0xbe165bd0	-0.14683461
15	0x3ef5be8c	0.47996938
16	0x3e0360ce	0.12829897
17	0x3ec2966f	0.38005397
18	0x3d9308b8	0.07179397
19	0x3e6873bf	0.22700404
20	0x3ee8dd54	0.4548136
21	0xbd802974	-0.062579066
22	0x3eae8649	0.34086826
23	0x3ebd212a	0.36939365
24	0x3ea3b40f	0.3197331
25	0x3eb70965	0.35749355
26	0x3e39a06c	0.18127602
27	0x3ee5ce68	0.44884038
28	0xbee4fe3a	-0.4472521
29	0x3d709998	0.05874023
30	0xbeed0cbb	-0.46298775
31	0xbed9ab56	-0.4251353
32	0x3d8d1ce3	0.06890275
33	0xbe539102	-0.20660785
34	0xbe0dfbfd	-0.13865657
35	0xbe4a2a75	-0.19742759
36	0xbe984a65	-0.2974426
37	0xbed832a0	-0.42226124
38	0x3e3c36b9	0.1838025
39	0xbed43ba6	-0.41451758
40	0x3ed044ad	0.40677395
41	0xbd903f89	-0.07043368
42	0x3eb6efca	0.3572982
43	0x3eb51d78	0.35374045
44	0xbeb5373c	-0.35393703
45	0xbe06a62e	-0.1314933
46	0x3ec4b809	0.38421658
47	0xbeffec9e	-0.49985212

GRU.bias_ih_l0 f4 [12]
0	0xbeec6bcd	-0.46175995
1	0x3eca14db	0.39469036
2	0x3ebad1c7	0.36488172
3	0x3ec309d9	0.3809345
4	0x3e99823c	0.29982173
5	0x3e9b2080	0.30298233
6	0xbed50296	-0.41603535
7	0x3d54a6b8	0.051916808
8	0xbee50e6b	-0.44737563
9	0x3e8527e3	0.26006994
10	0x3ef7ffb3	0.4843727
11	0xbe177b8a	-0.1479322

GRU.bias_hh_l0 f4 [12]
0	0x3ee9c393	0.45657024
1	0x3e76828c	0.24073237
2	0xbecdef41	-0.402216
3	0x3eedead9	0.46468237
4	0x3e48af8c	0.19598216
5	0xbe818e5c	-0.25303924
6	0x3eb186ce	0.3467316
7	0xbefc6701	-0.49297336
8	0xbeda2e80	-0.42613602
9	0xbd74fef7	-0.059813466
10	0xbea34f72	-0.3189655
11	0xbd1cac21	-0.038250092

GRU.weight_ih_l1 f4 [12, 4]
0	0x3ee387d9	0.4443958
1	0xbee19fbc	-0.4406718
2	0x3eecd67d	0.46257392
3	0xbd2fd52c	-0.042927906
4	0x3ebee891	0.3728681
5	0x3e94cc96	0.29062337
6	0xbe9525ba	-0.29130346
7	0xbeed14ab	-0.4630483
8	0xbee91450	-0.4552331
9	0x3eb7e8c6	0.3591978
10	0xbe820c5d	-0.25400057
11	0x3ebeaf8f	0.37243316
12	0x3dd2de70	0.10296333
13	0x3cb310f2	0.021858666
14	0xbd9cf89f	-0.07664608
15	0xbeb4bc9e	-0.35300153
16	0xbed2260e	-0.41044658
17	0xbdeec6b5	-0.11658994
18	0x3eb5495c	0.3540753
19	0xbe113ad5	-0.14182599
20	0xbe86462c	-0.26225412
21	0xbe22fe5a	-0.1591734
22	0xbeb144a2	-0.34622675
23	0xbd01f918	-0.031731695
24	0x3edc1413	0.42984065
25	0xbee144b8	-0.4399774
26	0xbee02f0d	-0.43785897
27	0xbefccd10	-0.493752
28	0xbeae1c61	-0.34006026
29	0xbd6a2391	-0.057162825
30	0xbe530e5e	-0.2061095
31	0x3e5d15b8	0.21590316
32	0xbe878683	-0.26469812
33	0xbda5ffec	-0.08105454
34	0x3e5d8eaa	0.21636453
35	0x3e4a7bbf	0.19773768
36	0x3d8998e3	0.06718614
37	0x3efd12c0	0.49428368
38	0x3e401c1a	0.1876072
39	0x3e4f4392	0.2024062
40	0xbea73098	-0.32654262
41	0x3efb4f94	0.4908415
42	0xbdb73ac0	-0.089467525
43	0xbec4a67e	-0.38408273
44	0xbd54fe24	-0.05200018
45	0xbebd6899	-0.36993864
46	0xbea22136	-0.31665963
47	0x3ec22e38	0.37925887

GRU.weight_hh_l1 f4 [12, 4]
0	0x3ebf620b	0.37379488
1	0xbcec39ae	-0.028836098
2	0xbe88851c	-0.26664054
3	0x3d0f18fa	0.03493593
4	0xbd4eb6f7	-0.050467458
5	0x3d378cb4	0.04481192
6	0x3e0c9ee2	0.13732484
7	0xbe46d432	-0.19416884
8	0xbdc03092	-0.09384264
9	0xbe81353e	-0.25235933
10	0x3e45ee5f	0.19329213
11	0xbe9d378e	-0.30706447
12	0x3e76649c	0.24061817
13	0x3e9414aa	0.28922015
14	0xbed950a5	-0.4244434
15	0x3dbf88a3	0.09352233
16	0xbd32f392	-0.043689318
17	0xbd02d866	-0.031944655
18	0xbef73091	-0.4827924
19	0x3eb37992	0.35053688
20	0x3e4785db	0.19484656
21	0x3e59fa66	0.21286926
22	0xbdbc2312	-0.09186377
23	0x3eb6b63b	0.35685906
24	0x3e94a2a4	0.29030335
25	0x3dee7af1	0.11644543
26	0xbecf0272	-0.40431553
27	0xbec1aac1	-0.37825587
28	0xbecebad1	-0.40376905
29	0x3d0a3af4	0.03374763
30	0xbe1c19cc	-0.15244216
31	0x3efe21fd	0.49635306
32	0xbed44df4	-0.41465724
33	0x3e984df2	0.29746968
34	0xbeb4b5eb	-0.35295042
35	0x3e5ce518	0.21571767
36	0xbdd326c0	-0.10310125
37	0x3efa4c8c	0.48886526
38	0xbe81862f	-0.25297686
39	0xbeca9bac	-0.39571893
40	0x3ede1d6c	0.43381822
41	0x3edab960	0.42719555
42	0xbaadf846	-0.0013272844
43	0xbdb482ba	-0.088139966
44	0xbe5d9516	-0.21638903
45	0xbdd3d1dd	-0.103427626
46	0xbed549f7	-0.41657993
47	0xbeaab019	-0.33337477

GRU.bias_ih_l1 f4 [12]
0	0xbe09097d	-0.13382526
1	0x3edd079b	0.43169865
2	0xbea0c64a	-0.31401283
3	0xbe9ba1f7	-0.30397007
4	0xbc02fdbc	-0.007995065
5	0x3d3619aa	0.04445807
6	0x3cd42b3e	0.025899526
7	0xbd85c67b	-0.06531998
8	0xbef94439	-0.48684862
9	0x3eea2861	0.45733932
10	0x3e344d14	0.17607528
11	0xbe4aa952	-0.19791153

GRU.bias_hh_l1 f4 [12]
0	0x3eb39ded	0.35081425
1	0xbe88f7ff	-0.26751706
2	0xbec1a080	-0.37817764
3	0xbe77b963	-0.24191813
4	0xbecf72e3	-0.4051734
5	0x3dbbbc1f	0.091667406
6	0xbefb76a9	-0.49113968
7	0xbe161dba	-0.14659777
8	0xbe09bfd4	-0.13452083
9	0x3ea50299	0.32228544
10	0x3e8f740a	0.28018218
11	0xbbcae348	-0.006191645

GRU.weight_ih_l2 f4 [12, 4]
0	0xbe36883f	-0.17825411
1	0x3ee75b1a	0.45186692
2	0x3eae0c49	0.33993748
3	0x3da76621	0.081737764
4	0x3ecbde44	0.39818013
5	0x3ec78de2	0.38975435
6	0x3eeb5064	0.4595977
7	0x3d29717e	0.041368
8	0x3cc75edb	0.024337223
9	0xbebee420	-0.3728342
10	0xbdc68b23	-0.09694507
11	0xbedd3bb0	-0.432096
12	0x3e5540b4	0.20825464
13	0x3e898c53	0.2686487
14	0xbebebdee	-0.3725428
15	0xbebe2f95	-0.37145677
16	0xbef1ce92	-0.47227913
17	0xbe8e9949	-0.27851322
18	0x3e9e3339	0.30898455
19	0x3e77f4ce	0.2421448
20	0xbee712c1	-0.45131496
21	0x3e6c26b1	0.23061635
22	0x3db4584b	0.08805903
23	0x3dae161a	0.08500309
24	0xbe226edb	-0.158626
25	0x3e78a69a	0.24282303
26	0xbeb8da72	-0.3610416
27	0xbe999059	-0.2999294
28	0xbecf6379	-0.4050558
29	0xbeb96df7	-0.3621671
30	0xbe044070	-0.12915206
31	0xbe86d164	-0.26331627
32	0x3e630f6a	0.22173849
33	0xbe827397	-0.25478813
34	0x3bacaa4d	0.005269325
35	0xbde99960	-0.11406207
36	0xbce2bc18	-0.02767758
37	0x3e6b78ab	0.2299525
38	0xbe737424	-0.23774773
39	0x3ec5edf6	0.38658112
40	0x3f056745	0.521107
41	0xbcf5eaa7	-0.030019118
42	0xbf0bde3d	-0.54635984
43	0x3e9e0c2d	0.30868664
44	0xbe469269	-0.19391789
45	0x3c987848	0.018612042
46	0xbe208210	-0.15674615
47	0x3ee6bc6c	0.4506563

GRU.weight_hh_l2 f4 [12, 4]
0	0xbec40b32	-0.3828979
1	0xbe884e1d	-0.26622096
2	0xbe7a82d7	-0.24463974
3	0x3ecf9db5	0.40550008
4	0xbe89d12b	-0.26917395
5	0x3e039a83	0.1285191
6	0x3d6d5fa0	0.057952523
7	0x3d1b8752	0.03797085
8	0xbe1aeba9	-0.1512896
9	0x3e3a0dd2	0.18169335
10	0xbea6d7dc	-0.32586563
11	0x3e645283	0.222971
12	0xbdc86a6e	-0.09785925
13	0x3ee4b508	0.44669366
14	0xbeb0f1c0	-0.3455944
15	0x3e393edf	0.1809039
16	0xbe8c9f2e	-0.27465194
17	0xbed0997b	-0.40742096
18	0xbed84318	-0.42238688
19	0x3d006931	0.03135032
20	0x3efdb030	0.49548483
21	0x3d7da4ac	0.06192462
22	0xbd9ffef3	-0.078122996
23	0x3ef1a47f	0.47195813
24	0x3e4212fa	0.18952551
25	0xbeb46170	-0.3523059
26	0x3e713fb5	0.23559459
27	0xbe098ca8	-0.13432562
28	0x3e286261	0.16443779
29	0x3ee9132b	0.45522436
30	0x3d34eff9	0.04417417
31	0xbc591634	-0.013249923
32	0xbee88753	-0.45415744
33	0xbe495713	-0.19662122
34	0xbec1f757	-0.37884018
35	0xbec89e60	-0.3918333
36	0x3eafe8d2	0.34357315
37	0x3e83ef32	0.2576843
38	0xbee03e22	-0.43797404
39	0x3ea27ab5	0.31734243
40	0x3e886e6c	0.26646745
41	0x3ea948a5	0.33063236
42	0xbee40691	-0.4453626
43	0xbde3f046	-0.11129813
44	0xbebb98bd	-0.36639968
45	0x3e9d9b02	0.30782324
46	0x3e76d110	0.24103189
47	0xbd4af909	-0.049553905

GRU.bias_ih_l2 f4 [12]
0	0xbe886cdc	-0.26645553
1	0xbdaec4f9	-0.08533663
2	0xbdc74973	-0.09730806
3	0x3ecdae39	0.40171984
4	0xbed61798	-0.41814876
5	0x3e652508	0.22377408
6	0x3e4a33e5	0.19746359
7	0x3ef266be	0.4734401
8	0xbe598734	-0.21242982
9	0x3e4107f8	0.18850696
10	0xbee9e0c6	-0.456793
11	0xbeef1ffb	-0.46704087

GRU.bias_hh_l2 f4 [12]
0	0xbeacbc86	-0.33737582
1	0xbedd54c0	-0.43228722
2	0x3eb262cd	0.34841004
3	0xbe707d5b	-0.2348532
4	0xbe8f0f82	-0.2794152
5	0x3e0717dc	0.13192695
6	0xbd8a2d38	-0.06746906
7	0x3ed1bb08	0.40963006
8	0xbeab8534	-0.33500063
9	0xbe16d1a1	-0.14728405
10	0xbebcc4a5	-0.36868778
11	0xbd2dec53	-0.042461704

GRU.weight_ih_l3 f4 [12, 4]
0	0xbeb35d2b	-0.3503202
1	0xbec98114	-0.3935629
2	0xbc7de50c	-0.015496504
3	0x3ce5adfb	0.028037062
4	0x3e4e1cba	0.20128146
5	0x3d00cacb	0.0314434
6	0xbc0268e2	-0.007959576
7	0x3e6b6285	0.22986801
8	0x3ed472c9	0.41493824
9	0xbecbf052	-0.39831787
10	0xbe0ce9cb	-0.1376106
11	0xbd94d919	-0.072679706
12	0xbef3d9a8	-0.47626996
13	0xbed7bcf8	-0.4213636
14	0x3ee89d61	0.4543257
15	0xbec64ff4	-0.38732874
16	0xbed9c26a	-0.4253114
17	0xbed0ab9b	-0.40755925
18	0x3e12adc0	0.14324093
19	0x3da97d03	0.08275797
20	0x3e60763b	0.21920101
21	0xbe060d02	-0.130909
22	0xbeec0b46	-0.4610235
23	0x3d97c338	0.07410282
24	0xbe292df5	-0.16521437
25	0xbead2519	-0.33817366
26	0xbeae0f34	-0.33995974
27	0x3edaa622	0.42704874
28	0xbefa66ff	-0.48906705
29	0xbe4ab55d	-0.19795747
30	0xbec35f36	-0.38158578
31	0x3e8f716c	0.28016222
32	0xbe88ece6	-0.2674324
33	0xbec50485	-0.3848001
34	0x3f0f666c	0.5601566
35	0xbc8db523	-0.017298287
36	0x3d24730c	0.04014878
37	0xbe7d321a	-0.24726143
38	0xbd7958f7	-0.06087586
39	0xbe55491d	-0.20828672
40	0xbe66fb33	-0.22556762
41	0xbe71834c	-0.23585242
42	0x3ed2d14b	0.41175303
43	0xbdb5d6bf	-0.0887885
44	0xbe365e58	-0.17809427
45	0xbce89ca6	-0.028395008
46	0xbf06de30	-0.5268278
47	0xbecbd062	-0.3980742

GRU.weight_hh_l3 f4 [12, 4]
0	0x3ec4e7f4	0.38458216
1	0xbe1271c0	-0.14301205
2	0xbe82d80d	-0.2555546
3	0xbe7f1c95	-0.24913247
4	0x3ec49852	0.3839746
5	0xbe65ae4a	-0.22429767
6	0xbecd7215	-0.401261
7	0xbe6cb1cf	-0.23114704
8	0x3ec4e1ab	0.3845342
9	0x3e4356c0	0.19076061
10	0x3ea69487	0.32535192
11	0xbeb87a00	-0.3603058
12	0x3df2b71a	0.1185133
13	0xbeac9294	-0.3370558
14	0xbe26df96	-0.16296229
15	0xbc85578c	-0.016277097
16	0xbea696e6	-0.32537
17	0x3eac179e	0.33611768
18	0x3ead9efc	0.33910358
19	0xbe95f800	-0.2929077
20	0x3eb33eb9	0.3500879
21	0x3eb3b87b	0.35101685
22	0xbe559848	-0.20858872
23	0xbe2283d4	-0.15870601
24	0x3c7ffc04	0.01562405
25	0x3d8d4e00	0.06899643
26	0x3d1e57f5	0.0386581
27	0xbebee04a	-0.37280494
28	0x3eb7b0e0	0.35877132
29	0x3d4ce3b0	0.050021827
30	0xbebdd0b3	-0.37073287
31	0xbecf7059	-0.40515402
32	0x3e9e2696	0.30888814
33	0x3e804075	0.25049177
34	0x3ec509ae	0.38483948
35	0xbea9c32f	-0.33156726
36	0x3ef1fb72	0.4726215
37	0xbd51e379	-0.051242325
38	0xbd443867	-0.047905352
39	0xbe9ff3c8	-0.31240678
40	0x3eb97bca	0.36227256
41	0x3ee70187	0.45118353
42	0x3dcb272a	0.09919579
43	0xbd5931f1	-0.053026143
44	0xbec521bb	-0.38502297
45	0xbe42720f	-0.18988822
46	0x3e6210b6	0.22076687
47	0xbc4fe9fe	-0.012690065

GRU.bias_ih_l3 f4 [12]
0	0x3e9f94a0	0.3116808
1	0xbebab453	-0.364657
2	0x3ea41247	0.32045195
3	0xbeda08d0	-0.42584848
4	0xbc844eb1	-0.016150804
5	0xbec5f6e1	-0.38664916
6	0xbe5fd458	-0.21858346
7	0x3da9e1b8	0.082950056
8	0x3db03834	0.0860447
9	0xbe45f7c9	-0.19332804
10	0x3ddf0f48	0.108915865
11	0xbd18e758	-0.03733

GRU.bias_hh_l3 f4 [12]
0	0x3effa760	0.49932384
1	0x3ea8c85f	0.3296537
2	0x3e863361	0.26211074
3	0x3edc9120	0.43079472
4	0xbe203ee6	-0.15648994
5	0x3efde115	0.49585786
6	0x3ecd7d86	0.4013483
7	0xbebc1774	-0.36736643
8	0xbe88cc0b	-0.26718172
9	0x3ea9a39f	0.33132645
10	0xbebacfbd	-0.36486617
11	0x3e1d50a5	0.15362795

GRU.weight_ih_l4 f4 [12, 4]
0	0xbedca147	-0.43091795
1	0xbe366d07	-0.17815028
2	0xbc970997	-0.01843719
3	0xbe9f3d29	-0.3110135
4	0x3eceb8f2	0.40375477
5	0x3e820ed6	0.25401944
6	0x3e3518bc	0.17685217
7	0xbe16f27a	-0.14740935
8	0xbd607a21	-0.05480397
9	0xbeee78fc	-0.4657668
10	0x3ed0b9ee	0.40766853
11	0xbe9d76dc	-0.30754745
12	0xbe9871c7	-0.29774305
13	0x3e0c822a	0.13721529
14	0xbe605105	-0.21905906
15	0x3ec9d243	0.3941823
16	0x3eda3bc2	0.42623717
17	0xbd4ba503	-0.049717914
18	0x3e9fa52a	0.31180698
19	0xbeb37ecf	-0.35057685
20	0xbec53d53	-0.3852335
21	0x3e010ebb	0.12603275
22	0xbeb76f47	-0.35827085
23	0xbee76b52	-0.45199066
24	0x3da604f8	0.081064165
25	0x3ef6ed11	0.48227742
26	0x3eb42b9d	0.35189524
27	0x3e040daa	0.12895837
28	0xbe7b458e	-0.24538252
29	0x3e247dc6	0.16063604
30	0x3efd11c2	0.4942761
31	0x3ee470ad	0.44617215
32	0x3eb3019f	0.34962174
33	0x3e9ffa4e	0.31245655
34	0x3e3e0dba	0.18559924
35	0xbf0bc798	-0.5460143
36	0xbeb76974	-0.35822642
37	0xbbc9635b	-0.0061458773
38	0xbe5d76c4	-0.21627337
39	0xbed29c11	-0.41134694
40	0x3f0cfe48	0.550755
41	0x3daec90a	0.08534439
42	0x3f05fd60	0.52339745
43	0xbeee5945	-0.46552482
44	0xbed3bac8	-0.4135344
45	0x3edf2352	0.43581635
46	0xbefba3a3	-0.49148282
47	0x3e7b75c5	0.24556644

GRU.weight_hh_l4 f4 [12, 4]
0	0x3ef22e91	0.47301152
1	0x3e127bb7	0.14305006
2	0x3e868f2b	0.26281103
3	0x3cca013c	0.024658792
4	0x3cf44fea	0.029823262
5	0xbef2e5f7	-0.47441074
6	0xbd6cf439	-0.057850096
7	0xbee9c211	-0.45655873
8	0x3ede8cb2	0.43466717
9	0xbee9172d	-0.45525494
10	0xbe0a6e10	-0.13518548
11	0x3edc2f8c	0.43005025
12	0x3e271392	0.16316059
13	0xbee5205d	-0.44751254
14	0x3e1b5e4e	0.15172693
15	0x3ea9e312	0.33181053
16	0x3ec6827a	0.3877142
17	0x3e497901	0.19675066
18	0xbebb3fb9	-0.36572054
19	0xbd72e425	-0.059299607
20	0xbeb4bb3f	-0.35299107
21	0xbec85361	-0.39126113
22	0xbce96a07	-0.02849294
23	0x3eecdb24	0.4626094
24	0x3e5a55fd	0.21321864
25	0x3ea561c4	0.32301152
26	0x3e968f61	0.29406264
27	0xbd8737f4	-0.06602469
28	0x3e0d1823	0.13778739
29	0x3e298bb4	0.16557199
30	0x3e324789	0.17410101
31	0x3e931268	0.2872498
32	0xbe375df5	-0.17906936
33	0xbe1a98a3	-0.15097289
34	0x3eef9dc8	0.46800065
35	0xbc9bccff	-0.019018648
36	0xbdc6634a	-0.09686907
37	0xbd8c3441	-0.06845904
38	0x3e88979d	0.26678172
39	0xbe157279	-0.14594449
40	0x3ef02106	0.46900195
41	0x3dba78ca	0.0910507
42	0xbe116769	-0.14199604
43	0xbe661ff7	-0.22473131
44	0xbd168a12	-0.036752768
45	0xbe3728bc	-0.17886633
46	0xbebf5564	-0.37369835
47	0x3ecc0379	0.398464

GRU.bias_ih_l4 f4 [12]
0	0xbe95e80f	-0.2927861
1	0x3e7bee2a	0.24602571
2	0xbefa7a3a	-0.48921376
3	0xbe8b89b5	-0.272535
4	0x3ebc8d34	0.3682648
5	0xbe416dfd	-0.18889613
6	0xbc4508ee	-0.012026055
7	0xbe787fb2	-0.24267462
8	0xbeafc1e3	-0.3432761
9	0xbf2154c7	-0.63019985
10	0xbf0b1ffc	-0.5434568
11	0x3e52cb2a	0.20585313

GRU.bias_hh_l4 f4 [12]
0	0x3ec55afb	0.38545975
1	0x3da2a8cf	0.07942354
2	0xbc8a923b	-0.016915431
3	0xbcd490e6	-0.025948
4	0x3e8ab94a	0.2709449
5	0x3e294943	0.16531853
6	0xbea841d2	-0.32862717
7	0x3e963549	0.29337528
8	0x3e810acf	0.2520356
9	0xbea45c89	-0.3210185
10	0xbc91565c	-0.017741375
11	0xbe94086b	-0.28912672

lin3.weight f4 [5, 4]
0	0xbf34150e	-0.70344627
1	0xbf02748a	-0.50959074
2	0xbf58d904	-0.8470614
3	0x3f109cc2	0.56489193
4	0x3e79b965	0.24387129
5	0xbca094a6	-0.019602131
6	0x3ee66984	0.45002377
7	0x3ea1f229	0.31630066
8	0x3ee61eb2	0.44945294
9	0x3ed454a9	0.4147084
10	0xbe0cc60b	-0.13747422
11	0xbf007b15	-0.5018781
12	0x3ee55f58	0.44799304
13	0xbebcec50	-0.36899042
14	0x3ea1aaff	0.31575772
15	0xbee19984	-0.44062436
16	0xbd990fe0	-0.07473731
17	0x3efc02ae	0.49220794
18	0x3e60ee61	0.21965934
19	0x3e851770	0.25994444

lin3.bias f4 [5]
0	0x3f80debd	1.0067974
1	0xbf105547	-0.5638012
2	0x3e388cd2	0.18022469
3	0xbefbca15	-0.49177614
4	0xbedc45f0	-0.43022108
