aa2_models/model6.pt (torch_old, 66444 bytes, 252 tensors)

lin1.weight f4 [4, 7]
0.30203906 -0.34915996 0.31326902 0.22277062 0.3671392 0.37371537 0.2698659 -0.04680991
-0.16301546 0.09579498 0.038448345 -0.31964788 -0.32060933 -0.0866105 0.13298628 -0.2839908
0.035094704 -0.27591258 -0.278629 -0.03228849 -0.18691884 -0.22450905 -0.18452454 0.14018378
-0.08918403 0.3735961 0.27144358 0.31329325
00000000: dda4 9a3e 18c5 b2be cc64 a03e fb1d 643e
00000010: abf9 bb3e 9f57 bf3e dd2b 8a3e c0bb 3fbd
00000020: 86ed 26be 2930 c43d 037c 1d3d e3a8 a3be
00000030: e826 a4be d960 b1bd 8e2d 083e 3e67 91be
00000040: 77bf 0f3d 6a44 8dbe 76a8 8ebe f040 04bd
00000050: a767 3fbe b3e5 65be 00f4 3cbe 568c 0f3e
00000060: 1ea6 b6bd fd47 bf3e a7fa 8a3e f967 a03e

lin1.bias f4 [4]
-0.16313508 0.3219929 0.05030411 0.05982959
00000000: e20c 27be 41dc a43e af0b 4e3d df0f 753d

GRU.weight_ih_l0 f4 [12, 4]
-0.12292401 0.26072454 -0.39016894 0.27844876 0.12230169 0.042462308 0.2966014 -0.030050106
0.061026588 -0.2289578 0.19446178 0.489113 0.15850893 -0.09771987 0.3701105 -0.008713074
0.008684101 -0.099095754 0.023462525 0.32931998 -0.099572316 0.35301661 0.44790056 0.30145165
0.13804261 -0.29854175 0.38210765 -0.14285375 -0.0935082 0.48501366 -0.090302385 0.48425868
-0.12830865 0.33216935 0.4731239 -0.18785164 0.13162297 0.43062162 0.037779022 -0.3706648
0.34651545 0.48481673 0.19728488 -0.25460702 -0.1652438 -0.012099339 0.20707451 -0.22696862
00000000: 95bf fbbd b07d 853e 39c4 c7be d690 8e3e
00000010: 4f79 fa3d f5ec 2d3d 24dc 973e a42b f6bc
00000020: 04f7 793d ea73 6abe fd20 473e 056d fa3e
00000030: 2a50 223e 5b21 c8bd 207f bd3e 48c1 0ebc
00000040: c247 0e3c b7f2 cabd 7b34 c03c a19c a83e
00000050: 92ec cbbd 98be b43e 3953 e53e df57 9a3e
00000060: 0b5b 0d3e 77da 98be 9da3 c33e 4148 12be
00000070: 3a81 bfbd b653 f83e 75f0 b8bd c1f0 f73e
00000080: 5863 03be 1a12 aa3e 4c3d f23e 2e5c 40be
00000090: 2cc8 063e 707a dc3e 2dbe 1a3d c7c7 bdbe
000000a0: 796a b13e e639 f83e 0c05 4a3e da5b 82be
000000b0: ac35 29be 4e3c 46bc 570b 543e 766a 68be

GRU.weight_hh_l0 f4 [12, 4]
0.32382923 -0.17832837 -0.010474149 -0.17259586 0.35675755 -0.040877316 0.32103366 0.26240778
-0.26240256 0.26088983 0.15338802 0.21710366 -0.42796516 -0.06707991 0.40915364 0.48629338
-0.16802827 0.356488 0.38216138 0.042629097 0.297044 0.3924868 0.44522843 0.36062545
0.21837243 -0.2000958 0.30700636 -0.037570555 -0.0038261504 -0.23441517 0.40143344 -0.26843223
-0.1417239 -0.1888 0.47834793 -0.39695448 0.013466253 -0.19738658 -0.01772726 0.0121859275
0.3690271 0.19119237 -0.16394515 0.1480367 0.066590525 -0.08720874 -0.0741624 0.15765055
00000000: f2cc a53e b69b 36be c49b 2bbc f8bc 30be
00000010: eda8 b63e f96e 27bd 865e a43e 505a 863e
00000020: a159 86be 5a93 853e c011 1d3e 6c50 5e3e
00000030: 401e dbbe 3161 89bd 967c d13e 72fb f83e
00000040: 9a0f 2cbe 9885 b63e a8aa c33e d99b 2e3d
00000050: 2716 983e 08f4 c83e fbf4 e33e e6a3 b83e
00000060: 069d 5f3e eae5 4cbe f02f 9d3e 95e3 19bd
00000070: 27c0 7abb 880a 70be af88 cd3e f36f 89be
00000080: 1220 11be ca54 41be 05ea f43e 9e3d cbbe
00000090: 8fa1 5c3c b51f 4abe c238 91bc 7ca7 473c
000000a0: 1ff1 bc3e efc7 433e 3de1 27be ef96 173e
000000b0: 9d60 883d 7f9a b2bd 75e2 97bd 256f 213e

GRU.bias_ih_l0 f4 [12]
-0.13359058 0.19671588 -0.16976504 -0.30828992 0.33785176 -0.29818124 -0.13691819 0.2803478
-0.0868048 0.34433764 -0.38755706 0.10607824
00000000: f8cb 08be e36f 493e e3d6 2dbe 2dd8 9dbe
00000010: e8fa ac3e 36ab 98be 4834 0cbe bf89 8f3e
00000020: b7c6 b1bd 064d b03e e16d c6be 8c3f d93d

GRU.bias_hh_l0 f4 [12]
0.34410253 -0.4080276 -0.020128379 -0.07266716 -0.2105062 -0.3183462 0.26181895 0.3695579
0.31736442 -0.26394135 0.16621469 0.048068497
00000000: 352e b03e fee8 d0be 45e4 a4bc 85d2 94bd
00000010: f08e 57be 46fe a2be 220d 863e b136 bd3e
00000020: 977d a23e 5223 87be 2f34 2a3e 79e3 443d

GRU.weight_ih_l1 f4 [12, 4]
-0.07493276 0.4910411 0.30939764 0.4810339 -0.04096755 -0.10873106 0.41645828 0.17715167
0.45091128 -0.072623715 -0.0036591745 -0.27131253 0.017300636 0.050815776 0.22327253 -0.11144516
0.37391552 0.28145328 -0.38449332 -0.030841198 0.06553936 0.30996427 -0.2650761 0.102976196
-0.49408528 -0.182224 -0.1787522 -0.49607182 -0.36017483 -0.4312397 0.21730018 -0.41640612
0.24124628 -0.13043667 -0.45647627 0.44882435 -0.4740058 -0.46379182 -0.08352344 -0.08426585
-0.16338882 0.14690672 0.12245905 -0.1551302 0.37296653 -0.0937378 -0.22443862 -0.13042009
00000000: 5976 99bd bd69 fb3e 5e69 9e3e 134a f63e
00000010: 97cd 27bd 64ae debd 053a d53e 3f67 353e
00000020: d8dd e63e bebb 94bd c3ce 6fbb 7ae9 8abe
00000030: 10ba 8d3c 3424 503d 8ea1 643e 5c3d e4bd
00000040: db71 bf3e a51a 903e 4fdc c4be aea6 fcbc
00000050: 8039 863d a3b3 9e3e 0eb8 87be 2fe5 d23d
00000060: bff8 fcbe ee98 3abe d10a 37be 20fd fdbe
00000070: d668 b8be 73cb dcbe f083 5e3e 2f33 d5be
00000080: 4409 773e 3191 05be 42b7 e9be 4ecc e53e
00000090: e3b0 f2be 1f76 edbe 560e abbd 9393 acbd
000000a0: 664f 27be b76e 163e cfcb fa3d 73da 1ebe
000000b0: 78f5 be3e 9bf9 bfbd 3dd3 65be d88c 05be

GRU.weight_hh_l1 f4 [12, 4]
0.0045994804 0.29984546 0.3370532 0.08284625 -0.33996072 -0.31423637 0.44510478 0.0075146696
0.40058175 0.19140236 -0.21737014 -0.36967024 -0.08184086 0.07119854 -0.27049166 0.09807279
0.24131694 0.0349948 -0.120462395 -0.15169008 0.055960413 0.4402016 -0.1948688 -0.18542208
-0.20635809 -0.17537266 -0.26040155 0.10675121 0.46285206 -0.049632616 0.43866622 -0.40449357
0.35888278 -0.093460284 0.36058146 -0.18472227 0.34023905 -0.21740614 -0.20264567 0.45781922
-0.08255409 -0.43919715 -0.1875079 0.24582958 -0.14399849 -0.33037946 -0.34926108 0.2294494
00000000: 3db7 963b 5885 993e 3d92 ac3e 4bab a93d
00000010: 550f aebe 97e3 a0be c6e4 e33e 9e3d f63b
00000020: 0d19 cd3e fbfe 433e 4796 5ebe 6b45 bdbe
00000030: 2e9c a7bd 8ad0 913d e27d 8abe 63da c83d
00000040: ca1b 773e b556 0f3d fdb4 f6bd a554 1bbe
00000050: bf36 653d 1b62 e13e b08b 47be 49df 3dbe
00000060: 894f 53be e494 33be 5a53 85be 61a0 da3d
00000070: f2fa ec3e 924b 4bbd dc98 e03e c819 cfbe
00000080: 7cbf b73e 1b68 bfbd 229e b83e d627 3dbe
00000090: d033 ae3e b79f 5ebe 5982 4fbe 4867 ea3e
000000a0: 1e12 a9bd 73de e0be 1202 40be c0ba 7b3e
000000b0: 5774 13be 7f27 a9be 59d2 b2be c9f4 6a3e

GRU.bias_ih_l1 f4 [12]
-0.2653155 0.06151429 0.07400621 -0.39559507 -0.015487602 0.25514135 0.2712009 -0.4381909
0.08091831 0.039566755 -0.29434416 0.008178489
00000000: 6fd7 87be 68f6 7b3d 9190 973d 708b cabe
00000010: b6bf 7dbc e3a1 823e d8da 8a3e 8f5a e0be
00000020: 80b8 a53d c010 223d 47b4 96be 12ff 053c

GRU.bias_hh_l1 f4 [12]
0.46713027 0.27268925 0.45795953 -0.21423791 0.41093704 0.31769887 0.31739885 -0.45612088
-0.1187253 0.031458504 -0.19098242 -0.071600065
00000000: b32b ef3e ed9d 8b3e ac79 ea3e 2f61 5bbe
00000010: 5766 d23e 6da9 a23e 1a82 a23e ad88 e9be
00000020: 4026 f3bd a2da 003d e590 43be 0ea3 92bd

GRU.weight_ih_l2 f4 [12, 4]
0.36192003 0.14290597 -0.12815568 -0.1358654 -0.14140296 0.49217826 -0.16328888 0.41662282
-0.06009424 -0.49382186 -0.2645294 -0.4872889 0.4588095 -0.32982272 0.13588631 0.2932313
-0.46257684 0.32549506 0.09672557 -0.324417 0.32086822 -0.37569273 -0.13246967 0.2103625
0.08751665 -0.39311004 0.3872524 0.19701864 -0.052596543 0.23642407 0.25608778 -0.4055215
-0.21562941 0.33401793 -0.41283238 -0.44298974 0.14115007 0.03253393 -0.16322266 -0.07130486
-0.075717956 -0.43247512 0.31160218 0.017992307 0.10074057 0.25771552 0.28194156 0.20264675
00000000: 954d b93e f155 123e 3e3b 03be 4d20 0bbe
00000010: f0cb 10be cafe fb3e 3335 27be 964f d53e
00000020: 6125 76bd 38d6 fcbe 6670 87be ee7d f9be
00000030: 14e9 ea3e 86de a8be c825 0b3e 6a22 963e
00000040: dfd6 ecbe 4aa7 a63e 0e18 c63d fc19 a6be
00000050: d748 a43e cc5a c0be 21a6 07be 4469 573e
00000060: ee3b b33d b845 c9be f245 c63e 41bf 493e
00000070: 796f 57bd 2719 723e f01d 833e 84a0 cfbe
00000080: f5cd 5cbe 6604 ab3e c45e d3be 8dcf e2be
00000090: a589 103e 4c42 053d d723 27be 4808 92bd
000000a0: 0412 9bbd 616d ddbe 528a 9f3e 9a64 933c
000000b0: 1251 ce3d 4af3 833e a55a 903e a182 4f3e

GRU.weight_hh_l2 f4 [12, 4]
-0.045279425 0.042229816 -0.14305885 0.11390683 -0.4356292 0.023158912 -0.3973755 -0.37455967
-0.10933042 -0.1510212 -0.4231914 -0.11920815 -0.24603064 0.39497143 -0.2114307 0.39384925
0.20030643 0.2677111 -0.4922986 0.19841066 -0.37800282 -0.24821806 0.01079615 0.39852065
0.08175245 0.38202974 -0.33876425 -0.37801245 0.19928415 -0.096380465 0.10203613 0.32089612
-0.4877693 -0.39626446 -0.28519708 0.4533319 0.07275234 -0.45271426 0.48158628 -0.4491781
-0.17593777 -0.1367921 -0.17304423 0.4579876 0.18548407 0.21576059 -0.18343867 -0.37273842
00000000: eb76 39bd 2cf9 2c3d 057e 12be fc47 e93d
00000010: ca0a dfbe c2b7 bd3c cd74 cbbe 49c6 bfbe
00000020: a1e8 dfbd 4da5 1abe 8bac d8be 6723 f4bd
00000030: 75ef 7bbe b239 ca3e 4a81 58be 9ca6 c93e
00000040: 211d 4d3e 6e11 893e 900e fcbe 2a2c 4b3e
00000050: 9689 c1be e02c 7ebe 56e2 303c e60a cc3e
00000060: d46d a73d 6799 c33e 8272 adbe d98a c1be
00000070: 2511 4c3e 1f63 c5bd 52f8 d03d 7f4c a43e
00000080: e6bc f9be 2de3 cabe 5a05 92be 1e1b e83e
00000090: 2eff 943d 2aca e7be 7a92 f63e acfa e5be
000000a0: 0829 34be 3a13 0cbe 8232 31be 5a7d ea3e
000000b0: 89ef 3d3e 58f0 5c3e 59d7 3bbe 92d7 bebe

GRU.bias_ih_l2 f4 [12]
-0.26696783 0.04634605 -0.2817881 -0.06567391 0.10137774 0.026522199 -0.19252181 0.06346257
-0.46221536 0.08691202 -0.13362318 -0.031169051
00000000: 02b0 88be 5bd5 3d3d 8846 90be 0b80 86bd
00000010: 229f cf3d 1545 d93c 7024 45be aaf8 813d
00000020: 7ea7 ecbe eefe b13d 84d4 08be 3d56 ffbc

GRU.bias_hh_l2 f4 [12]
0.20636651 -0.25258148 0.31140578 0.12160269 -0.3985034 -0.12831411 0.29270458 0.23876429
-0.44773826 -0.0063870917 0.06772858 -0.52061635
00000000: be51 533e 5c52 81be 9470 9f3e d50a f93d
00000010: a308 ccbe c664 03be 60dd 953e a07e 743e
00000020: f33d e5be cf4a d1bb 48b5 8a3d 1d47 05bf

GRU.weight_ih_l3 f4 [12, 4]
0.3900125 -0.16760786 0.27131474 -0.18906093 0.3254265 -0.46052226 0.39478752 -0.45792094
-0.09778159 0.40280437 0.48439115 -0.052600484 -0.052457023 0.48816448 -0.3181177 -0.12695287
-0.49132684 -0.04625757 0.36099413 0.1567537 0.38706172 0.040892735 -0.38809997 -0.13936305
-0.2872622 -0.3633181 -0.32838508 -0.43111345 -0.45895514 -0.15186162 -0.21086124 -0.28592315
-0.22215742 -0.13593185 -0.23474394 -0.4404821 0.33029452 -0.2477591 0.20755325 -0.20794542
0.3592297 0.30846894 -0.0022271578 0.40423602 -0.082771406 -0.4556684 -0.3046133 0.4302518
00000000: b8af c73e 65a1 2bbe c4e9 8a3e 3099 41be
00000010: 4d9e a63e 93c9 ebbe 9721 ca3e 9d74 eabe
00000020: b741 c8bd 603c ce3e 1e02 f83e 9b73 57bd
00000030: 2ddd 56bd b2f0 f93e 53e0 a2be efff 01be
00000040: 318f fbbe 9478 3dbd 39d4 b83e 0b84 203e
00000050: f42c c63e 247f 273d 0ab5 c6be 30b5 0ebe
00000060: 0814 93be d404 babe 1722 a8be e7ba dcbe
00000070: 2bfc eabe 9d81 1bbe 02ec 57be 8564 92be
00000080: 3c7d 63be b831 0bbe b760 70be df86 e1be
00000090: 5d1c a93e 90b4 7dbe d788 543e a5ef 54be
000000a0: f5ec b73e a4ef 9d3e 82f5 11bb 06f8 ce3e
000000b0: 0e84 a9bd 5e4d e9be 46f6 9bbe f749 dc3e

GRU.weight_hh_l3 f4 [12, 4]
-0.47880313 -0.18440317 -0.4002945 0.37182862 0.025817784 -0.1628531 0.17186224 -0.21471977
0.10910167 0.10053316 -0.46624032 -0.31484985 0.24076109 -0.25530142 -0.2703336 0.19699912
-0.12414656 -0.17902343 -0.1504529 0.02901058 -0.08988727 0.075133786 0.2819414 -0.18151689
-0.27285564 -0.41094342 -0.43338212 0.39576238 -0.49166733 0.12933066 -0.43619975 0.33025157
0.042646013 0.047978275 0.13290827 0.1533028 0.17985423 -0.41236869 -0.23130724 -0.3132791
-0.45281005 0.31422895 -0.08333961 0.103343174 0.17996445 0.34173948 0.07888894 -0.084667236
00000000: af25 f5be 2fd4 3cbe 67f3 ccbe 5260 be3e
00000010: d17f d33c f7c2 26be a8fc 2f3e 80df 5bbe
00000020: b270 df3d 54e4 cd3d 0db7 eebe 0034 a1be
00000030: 138a 763e deb6 82be 2a69 8abe 23ba 493e
00000040: 8d40 febd eb51 37be 5310 1abe 99a7 ed3c
00000050: d116 b8bd bedf 993d a05a 903e 90df 39be
00000060: bcb3 8bbe 2d67 d2be 43e4 ddbe 5ea1 ca3e
00000070: d2bb fbbe 426f 043e 9355 dfbe bc16 a93e
00000080: 96ad 2e3d de84 443d 1b19 083e 69fb 1c3e
00000090: b52b 383e fd21 d3be cedb 6cbe 1e66 a0be
000000a0: b8d6 e7be 9ee2 a03e f5ad aabd 96a5 d33d
000000b0: 9a48 383e 7af8 ae3e 8690 a13d 0466 adbd

GRU.bias_ih_l3 f4 [12]
-0.37326518 -0.08820405 0.26959458 -0.13956587 0.1874709 -0.08597393 0.36540636 0.3901613
0.29805267 0.2858812 -0.13151217 -0.45845538
00000000: 9d1c bfbe 53a4 b4bd 4d08 8a3e 5bea 0ebe
00000010: 5ff8 3f3e 1a13 b0bd 8b16 bb3e 39c3 c73e
00000020: 5c9a 983e 055f 923e 20ab 06be aaba eabe

GRU.bias_hh_l3 f4 [12]
0.37582412 -0.12835482 0.3266311 -0.368783 -0.008606995 0.4830606 -0.2993938 -0.30977622
0.07949051 -0.22126405 -0.3224217 0.41167682
00000000: 056c c03e 726f 03be 313c a73e 20d1 bcbe
00000010: 5b04 0dbc b853 f73e 254a 99be fd9a 9ebe
00000020: eccb a23d 0b93 62be 7514 a5be 4ec7 d23e

GRU.weight_ih_l4 f4 [12, 4]
-0.08710271 -0.28780803 -0.2743465 0.29609498 0.32362333 -0.45072836 0.25704286 -0.26065144
0.45822674 0.035922766 0.4325582 -0.31710094 0.30091748 0.43878675 -0.33003518 -0.3868507
-0.27318567 -0.043125447 0.15385512 0.0888275 -0.10908181 0.4276555 -0.20957936 0.031618245
-0.42654258 0.18347362 0.09856975 0.0041088755 0.4799644 0.40730533 0.28644025 0.31051812
-0.34626693 -0.37431642 0.04243908 0.4718112 -0.1336081 0.41173214 -0.28612065 0.013136163
-0.51817954 -0.0027342907 0.039319288 0.4068672 -0.27795124 0.20980474 -0.0786774 -0.14551644
00000000: e862 b2bd 935b 93be 2577 8cbe c399 973e
00000010: f5b1 a53e dec5 e6be 1f9b 833e 1b74 85be
00000020: b29c ea3e c023 133d 4578 dd3e 0e5b a2be
00000030: db11 9a3e a8a8 e03e 5ffa a8be 4c11 c6be
00000040: fede 8bbe 4fa4 30bd 328c 1d3e 31eb b53d
00000050: 4966 dfbd a9f5 da3e f99b 56be 2282 013d
00000060: ca63 dabe 82e0 3b3e f0de c93d bfa3 863b
00000070: e5bd f53e 538a d03e 4ca8 923e 3bfc 9e3e
00000080: e649 b1be 67a6 bfbe 9ad4 2d3d 3d91 f13e
00000090: 90d0 08be 8ece d23e 687e 92be 1039 573c
000000a0: 6aa7 04bf c931 33bb 430d 213d e650 d03e
000000b0: a04f 8ebe 0ed7 563e 9e21 a1bd 4302 15be

GRU.weight_hh_l4 f4 [12, 4]
-0.37401807 0.07569482 0.22504486 -0.40402967 0.44590986 -0.30661333 0.26785457 0.4272538
0.4208632 0.481073 0.15105076 0.48904365 0.28585854 0.17885244 -0.20735697 -0.36324397
0.43818745 -0.3267259 -0.30864388 -0.26771986 0.020305414 0.053327072 0.40106905 -0.2552518
0.4360297 0.4676337 0.35952163 0.4160546 -0.0537259 -0.4774166 0.40010038 0.37110463
-0.07030926 0.32155272 -0.39078945 0.03195134 0.07755829 -0.26901475 -0.074415244 0.22300564
0.31925255 -0.445464 0.3136113 -0.48063543 0.2607089 0.31961936 -0.13161027 -0.1379039
00000000: 4c7f bfbe e305 9b3d 2972 663e fadc cebe
00000010: 4c4e e43e 6cfc 9cbe 3c24 893e 03c1 da3e
00000020: 627b d73e 334f f63e 0dad 1a3e ee63 fa3e
00000030: 0d5c 923e 1825 373e 6355 54be 1dfb b9be
00000040: 1b5a e03e 9e48 a7be 9206 9ebe 9412 89be
00000050: 8a57 a63c 7d6d 5a3d ec58 cd3e 5db0 82be
00000060: 493f df3e af6d ef3e 3813 b83e 1c05 d53e
00000070: b00f 5cbd f36f f4be f5d9 cc3e 6d01 be3e
00000080: 4dfe 8fbd 8fa2 a43e 8e15 c8be 69df 023d
00000090: e1d6 9e3d 4dbc 89be 0567 98bd 975b 643e
000000a0: 1275 a33e db13 e4be a991 a03e d915 f6be
000000b0: a37b 853e 26a5 a33e d8c4 06be ae36 0dbe

GRU.bias_ih_l4 f4 [12]
0.17859758 0.24786723 0.05572486 0.17779136 -0.47948766 0.3092135 -0.09848065 0.1207077
-0.49179098 0.23757523 -0.4887164 -0.0067801094
00000000: 49e2 363e e8d0 7d3e c03f 643d f00e 363e
00000010: 687f f5be 3b51 9e3e 39b0 c9bd 9935 f73d
00000020: 07cc fbbe ec46 733e 0939 fabe ae2b debb

GRU.bias_hh_l4 f4 [12]
-0.19801776 0.4072984 -0.11559744 0.38681942 -0.14640623 0.19922997 0.08806705 0.37461618
-0.35004044 0.13786516 0.38680288 -0.22435045
00000000: 2bc5 4abe 6a89 d03e 5abe ecbd 320d c63e
00000010: 84eb 15be f102 4c3e 7f5c b43d b1cd bf3e
00000020: 8038 b3be 862c 0d3e 070b c63e 20bc 65be

GRU.weight_ih_l5 f4 [12, 4]
-0.46407542 -0.3038818 -0.50080144 0.45095897 -0.3660385 -0.13009001 0.31263977 0.000533309
-0.18474449 -0.22999536 -0.11745087 -0.14462179 -0.24233474 0.42944488 -0.17859726 0.078754276
0.11495719 0.3073326 0.30316564 -0.41387904 0.36253598 0.16828348 0.058067016 0.0008034778
-0.02069118 -0.22859445 0.19738121 0.32997575 -0.20651585 -0.15008202 0.41464838 0.1081683
0.4035773 0.0895281 0.34080505 -0.078478694 0.2867351 -0.34396228 0.1835827 0.25397494
0.49516493 0.1306192 0.11648892 0.37388006 -0.39035705 0.1746207 0.15025306 0.16182792
00000000: 4b9b edbe 6596 9bbe 8634 00bf 18e4 e63e
00000010: 6669 bbbe 5136 05be 5212 a03e c3cd 0b3a
00000020: a92d 3dbe e783 6bbe 158a f0bd bc17 14be
00000030: 9926 78be 33e0 db3e 33e2 36be ec49 a13d
00000040: ad6e eb3d b35a 9d3e 8738 9b3e f4e7 d3be
00000050: 519e b93e 8152 2c3e aed7 6d3d 7ba0 523a
00000060: 8d80 a9bc aa14 6abe 4d1e 4a3e 95f2 a83e
00000070: e478 53be 1aaf 19be cb4c d43e 5787 dd3d
00000080: afa1 ce3e 825a b73d 007e ae3e 70b9 a0bd
00000090: f1ce 923e d31b b0be 1afd 3b3e 0109 823e
000000a0: 4286 fd3e 0ac1 053e be91 ee3d 356d bf3e
000000b0: e1dc c7be c5cf 323e f0db 193e 38b6 253e

GRU.weight_hh_l5 f4 [12, 4]
-0.33190382 -0.35822287 -0.19226573 0.26108772 0.25977772 -0.06736187 -0.1962997 -0.22181894
0.37582606 0.37405646 0.003921884 0.18469954 -0.33596468 -0.20181997 0.089534014 0.2896634
-0.041563958 -0.22829732 0.20161383 0.48110232 -0.055464253 0.39224058 0.14057517 -0.05310742
-0.35290545 -0.032643415 -0.23856558 -0.41975152 -0.07523876 0.48739934 -0.21689858 -0.098463066
0.29508376 0.024433604 0.030600252 0.42201847 0.0008099977 -0.16100742 -0.40157628 -0.50642985
0.20309785 0.1477965 -0.008932616 -0.2690024 -0.29994437 0.5254259 0.2766935 0.32021925
00000000: 4cef a9be fd68 b7be 4fe1 44be 4aad 853e
00000010: 9601 853e 05f5 89bd ca02 49be 8124 63be
00000020: 466c c03e 5484 bf3e 2683 803b e021 3d3e
00000030: 9003 acbe e5a9 4ebe 9c5d b73d c34e 943e
00000040: f83e 2abd c6c6 69be db73 4e3e 0b53 f63e
00000050: 7c2e 63bd c2d3 c83e f0f2 0f3e 2b87 59bd
00000060: 06b0 b4be 1ab5 05bd 894a 74be ace9 d6be
00000070: c716 9abd 688c f93e a91a 5ebe 01a7 c9bd
00000080: 3815 973e fb28 c83c 61ad fa3c ce12 d83e
00000090: 0756 543a 21df 24be 689b cdbe 63a5 01bf
000000a0: e2f8 4f3e f757 173e 1b5a 12bc afba 89be
000000b0: 4f92 99be 5082 063f c5aa 8d3e c7f3 a33e

GRU.bias_ih_l5 f4 [12]
0.03657492 0.34780455 -0.33053705 0.31883395 -0.3069025 -0.3242452 -0.19759963 0.5089668
0.14213824 0.40085524 -0.3297696 -0.05865304
00000000: 95cf 153d 7013 b23e 273c a9be 343e a33e
00000010: 5322 9dbe 7803 a6be 8f57 4abe a64b 023f
00000020: b08c 113e e63c cd3e 90d7 a8be 2c3e 70bd

GRU.bias_hh_l5 f4 [12]
-0.2833284 -0.17511427 -0.30373397 0.3924446 -0.2544655 -0.16371454 0.3888595 0.2997238
-0.15770684 -0.38363054 0.10559505 0.31220886
00000000: 6c10 91be 2851 33be 0583 9bbe 80ee c83e
00000010: 4d49 82be c9a4 27be 9818 c73e 6675 993e
00000020: e77d 21be 396b c4be 3842 d83d d7d9 9f3e

GRU.weight_ih_l6 f4 [12, 4]
-0.44705713 0.19878227 -0.17086965 -0.31873736 0.16422825 0.13161385 -0.073161274 -0.37347743
0.40278673 -0.27883288 0.44463244 0.26266393 -0.45488936 0.30869934 -0.43829995 -0.42354676
-0.1333744 0.25695127 0.37187704 -0.3794464 -0.1781646 -0.39920428 -0.046656933 0.22745456
-0.34949517 0.3084789 -0.35192558 -0.0664849 0.45043063 0.4053204 -0.20879821 0.24695131
-0.030808715 0.39061368 0.3206076 -0.045449737 -0.28177807 0.11636955 -0.3616299 -0.2018067
0.36447608 -0.2702708 0.0049229655 -0.24600832 -0.25999168 -0.011432603 0.080655225 -0.42373285
00000000: ace4 e4be 948d 4b3e 74f8 2ebe 8b31 a3be
00000010: 732b 283e c8c5 063e 94d5 95bd 6f38 bfbe
00000020: 103a ce3e 2fc3 8ebe dda6 e33e e37b 863e
00000030: 42e7 e8be d70d 9e3e da68 e0be 1fdb d8be
00000040: 4c93 08be 1e8f 833e ab66 be3e cc46 c2be
00000050: c870 36be 8164 ccbe 571b 3fbd d9e9 683e
00000060: 08f1 b2be f2f0 9d3e 972f b4be 3c29 88bd
00000070: d89e e63e 2886 cf3e 33cf 55be cee0 7c3e
00000080: 8f62 fcbc 84fe c73e ae26 a43e 8129 3abd
00000090: 3745 90be 2953 ee3d 8e27 b9be 6aa6 4ebe
000000a0: 9c9c ba3e ef60 8abe d450 a13b 9be9 7bbe
000000b0: a11d 85be d04f 3bbc 912e a53d 83f3 d8be

GRU.weight_hh_l6 f4 [12, 4]
0.2423099 0.15954913 -0.5199214 -0.36633557 0.3671332 0.17012076 -0.29179966 0.34552112
0.31692743 0.07704771 0.46883535 0.2702077 0.120251074 0.39745086 0.06161645 -0.0042590853
-0.4714115 -0.43197957 0.34397638 0.29802516 0.1743228 0.32296637 -0.11520536 0.29269338
-0.027177393 0.38170096 -0.35428602 -0.24067992 -0.13032489 0.45760238 -0.48217165 -0.5086145
0.39772257 -0.19028583 0.21082735 -0.19950564 0.31899616 0.3100447 0.23279546 -0.28385505
0.3516285 -0.092823684 0.47634766 0.044666953 0.42247373 -0.103821985 -0.3409866 -0.41401163
00000000: 1620 783e d960 233e 9219 05bf 5690 bbbe
00000010: e2f8 bb3e 2334 2e3e c466 95be 25e8 b03e
00000020: 5044 a23e 31cb 9d3d 300b f03e aa58 8a3e
00000030: 3246 f63d ae7e cb3e 8861 7c3d cc8f 8bbb
00000040: d95c f1be 6d2c ddbe ac1d b03e c196 983e
00000050: ad81 323e d95b a53e caf0 ebbd e8db 953e
00000060: 20a3 debc 4f6e c33e fa64 b5be cc74 76be
00000070: e373 05be dc4a ea3e 34df f6be 8f34 02bf
00000080: 4ba2 cb3e 4ada 42be 20e3 573e 354b 4cbe
00000090: 7753 a33e 2ebe 9e3e ef61 6e3e 7355 91be
000000a0: a708 b43e 581a bebd d7e3 f33e b2f4 363d
000000b0: 7a4e d83e 9fa0 d4bd cc95 aebe 55f9 d3be

GRU.bias_ih_l6 f4 [12]
0.08372013 0.055000108 -0.32190186 0.3877973 -0.0039194776 0.35397846 0.021109935 0.0017247349
-0.07842369 -0.053693973 -0.09185571 -0.3989178
00000000: 7675 ab3d cb47 613d 52d0 a4be 5e8d c63e
00000010: f66e 80bb aa3c b53e beee ac3c 8010 e23a
00000020: 999c a0bd 36ee 5bbd d91e bcbd f43e ccbe

GRU.bias_hh_l6 f4 [12]
0.30007678 -0.087035894 0.04207104 0.17512687 0.10833232 0.022035835 -0.10979597 0.45371145
-0.25074476 -0.25073993 -0.14905104 -0.03619379
00000000: aaa3 993e e03f b2bd af52 2c3d 7554 333e
00000010: 56dd dd3d 7f84 b43c b6dc e0bd de4c e83e
00000020: 9e61 80be fc60 80be d6a0 18be f13f 14bd

GRU.weight_ih_l7 f4 [12, 4]
0.3164546 0.43383542 0.06806462 0.5281859 -0.07075778 0.4392611 0.30926245 0.34994277
0.48732445 0.15818489 0.18810323 0.30464348 0.15296228 0.08279967 -0.44903147 0.46547082
-0.3451502 -0.23379205 -0.3590109 0.10259268 0.23738548 -0.20954065 -0.44649988 0.14718312
-0.44014296 -0.16001938 -0.43220434 -0.16252477 -0.20274976 -0.1094268 -0.42067963 0.40710822
0.5258287 -0.19740368 -0.28906605 -0.424704 -0.048669767 -0.14073776 0.36531162 -0.12964219
0.07407037 0.10205988 0.30308223 -0.4327836 0.48898885 -0.058070127 -0.25242883 0.20447601
00000000: 5606 a23e ad1f de3e 7765 8b3d 3137 073f
00000010: 74e9 90bd d5e6 e03e a657 9e3e b32b b33e
00000020: 9782 f93e 38fb 213e 229e 403e 3bfa 9b3e
00000030: 25a2 1c3e e092 a93d 74e7 e5be 3152 ee3e
00000040: 87b7 b0be 2f67 6fbe 47d0 b7be 1c1c d23d
00000050: 2e15 733e d391 56be a29b e4be 2cb7 163e
00000060: 6b5a e1be 1fdc 23be e349 ddbe e56c 26be
00000070: a29d 4fbe 281b e0bd 5263 d7be 7d70 d03e
00000080: b69c 063f 3124 4abe 7700 94be cd72 d9be
00000090: f359 47bd 8f1d 10be 200a bb3e ecc0 04be
000000a0: 35b2 973d c504 d13d 982d 9b3e d095 ddbe
000000b0: bf5c fa3e f1da 6dbd 5a3e 81be 2962 513e

GRU.weight_hh_l7 f4 [12, 4]
0.28154555 -0.16588698 0.42033118 -0.41829404 0.5197449 -0.35450816 0.15269874 -0.50287503
-0.010098404 -0.13754039 -0.32905304 0.080703154 -0.37509194 0.031821523 0.4823459 -0.5064842
-0.40480524 -0.03981071 0.46859068 -0.05037639 -0.26115575 0.02972875 0.3624247 0.17805576
-0.27037027 0.06401839 0.21226844 0.14172834 -0.16604944 -0.14652587 -0.46167174 0.4685746
-0.24287798 0.41925207 0.21379843 0.17221849 0.4339221 -0.07885043 -0.22351259 0.08569658
0.09732694 0.2412261 -0.24203494 0.3967675 -0.106729686 -0.22061473 0.3930314 -0.077995524
00000000: bd26 903e 47de 29be a635 d73e a32a d6be
00000010: 000e 053f 1882 b5be 0f5d 1c3e 6bbc 00bf
00000020: c773 25bc 63d7 0cbe a479 a8be b247 a53d
00000030: 0d0c c0be 4957 023d 0bf6 f63e f3a8 01bf
00000040: a242 cfbe 8e10 23bd 1eeb ef3e 7957 4ebd
00000050: 35b6 85be b589 f33c bb8f b93e 4054 363e
00000060: f96d 8abe 131c 833d e65c 593e 3c21 113e
00000070: dd08 2abe e10a 16be 3d60 ecbe 03e9 ef3e
00000080: 01b5 78be 35a8 d63e faed 5a3e 0b5a 303e
00000090: 0a2b de3e 567c a1bd 7ce0 64be b081 af3d
000000a0: 5953 c73d fa03 773e 02d8 77be 1c25 cb3e
000000b0: 1895 dabd d4e8 61be 693b c93e 1ebc 9fbd

GRU.bias_ih_l7 f4 [12]
-0.23699737 -0.3405473 -0.4629413 0.24822177 0.5184709 0.13487916 -0.18985608 0.19452055
0.43219766 0.301333 -0.44326535 -0.47919726
00000000: 70af 72be 375c aebe a406 edbe d92d 7e3e
00000010: 82ba 043f c31d 0a3e a269 42be 6530 473e
00000020: 0349 dd3e 5248 9a3e adf3 e2be 5859 f5be

GRU.bias_hh_l7 f4 [12]
-0.20352101 0.49272397 -0.053949025 0.02971902 -0.06201579 -0.4147955 0.0124707455 0.06399992
0.15282838 0.39781305 -0.047703587 0.120647445
00000000: d067 50be 5146 fc3e a7f9 5cbd 4d75 f33c
00000010: 4504 7ebd 1360 d4be 1952 4c3c 6412 833d
00000020: 0b7f 1c3e 27ae cb3e d664 43bd 0216 f73d

GRU.weight_ih_l8 f4 [12, 4]
-0.37357095 -0.33172897 -0.21887155 -0.2955858 0.25455198 0.25654835 0.05705973 -0.31973022
0.12982485 -0.36984468 -0.19428006 -0.14862365 0.18529798 0.27265754 0.5448995 0.43160808
0.07159952 -0.20096672 0.19851945 -0.3399908 0.30696186 0.036823787 -0.41336754 0.37256247
-0.32325307 0.1572646 0.135275 -0.15046647 -0.42710477 9.548632e-05 -0.065699935 0.0008124997
-0.42848426 0.5089554 -0.123648286 0.11475408 -0.052457906 0.35618073 -0.29897892 -0.4195571
0.18023014 -0.051520906 0.29396978 0.19754982 -0.38326403 -0.03694108 -0.5071472 -0.375917
00000000: b144 bfbe 61d8 a9be dd1f 60be 0657 97be
00000010: a354 823e 4e5a 833e 77b7 693d aeb3 a3be
00000020: cef0 043e 485c bdbe 5af1 46be cc30 18be
00000030: c1be 3d3e c599 8b3e 897e 0b3f bcfb dc3e
00000040: c5a2 923d 38ca 4dbe af48 4b3e 4613 aebe
00000050: 1b2a 9d3e 8ad4 163d e9a4 d3be 82c0 be3e
00000060: 6d81 a5be f909 213e 8885 0a3e e213 1abe
00000070: 7aad dabe d43f c838 b08d 86bd effd 543a
00000080: 4a62 dbbe e74a 023f 503b fdbd 3004 eb3d
00000090: 1ade 56bd 525d b63e c413 99be 30d0 d6be
000000a0: 408e 383e 9607 53bd 3583 963e 804a 4a3e
000000b0: 2f3b c4be 884f 17bd 66d4 01bf 3178 c0be

GRU.weight_hh_l8 f4 [12, 4]
-0.024498343 -0.112513654 -0.26601073 -0.02652367 -0.08177035 -0.32849178 -0.14599742 -0.40572485
-0.4244134 0.38637504 -0.25407133 0.34453666 -0.37839 -0.42536116 -0.40338907 -0.4515272
-0.11706036 0.3616196 -0.23892164 0.3528543 -0.3827901 0.2613298 0.16886725 0.3334358
0.17555201 0.05072163 -0.24568649 0.39152002 0.17981626 -0.17597309 0.44450805 -0.4918355
-0.38103515 -0.043646917 -0.31015328 -0.30456263 -0.014358466 0.44093186 0.34056404 -0.3987685
-0.20588726 0.34554854 0.24308975 -0.32495642 0.15854444 -0.37801424 0.31876653 -0.010140231
00000000: c0b0 c8bc 8f6d e6bd 8f32 88be 2b48 d9bc
00000010: 3777 a7bd 1330 a8be 5980 15be 2bbb cfbe
00000020: b74c d9be f3d2 c53e a315 82be 1c67 b03e
00000030: 56bc c1be f0c8 d9be 0389 cebe 932e e7be
00000040: 58bd efbd 3426 b93e e0a7 74be 52a9 b43e
00000050: 10fd c3be 05cd 853e 89eb 2c3e 19b8 aa3e
00000060: e8c3 333e 7cc1 4f3d 3d95 7bbe 5075 c83e
00000070: c121 383e 4a32 34be 8f96 e33e ddd1 fbbe
00000080: 0a17 c3be 1cc7 32bd 69cc 9ebe a2ef 9bbe
00000090: c53f 6bbc d2c1 e13e 695e ae3e 632b ccbe
000000a0: 1cd4 52be bdeb b03e 85ec 783e b060 a6be
000000b0: 7959 223e 158b c1be 5e35 a33e 3623 26bc

GRU.bias_ih_l8 f4 [12]
-0.07825694 -0.25002813 -0.2831625 -0.44620678 0.3958034 -0.51664376 0.40917423 0.30870253
0.08493137 0.14520212 0.5509529 0.26491538
00000000: 2d45 a0bd b003 80be adfa 90be 3775 e4be
00000010: bea6 ca3e c442 04bf 497f d13e 420e 9e3e
00000020: 80f0 ad3d ddaf 143e 400b 0d3f fda2 873e

GRU.bias_hh_l8 f4 [12]
0.2557836 -0.063130744 -0.42527154 -0.09930023 0.053296812 -0.17790446 0.18129414 -0.22675267
0.55670667 -0.18446887 0.13828574 -0.43934995
00000000: 11f6 823e b14a 81bd 31bd d9be eb5d cbbd
00000010: c24d 5a3d 962c 36be 2ca5 393e da31 68be
00000020: 5484 0e3f 68e5 3cbe c79a 0d3e 7af2 e0be

GRU.weight_ih_l9 f4 [12, 4]
-0.023741564 0.11627858 0.5263299 0.2674659 0.1620591 0.14345169 0.25102255 -0.13259473
-0.4438365 0.4169896 -0.065508425 0.27237126 0.15426505 0.25431713 0.076793306 -0.38679966
0.035538472 0.011540677 -0.14781624 -0.18942963 -0.540955 -0.047517687 0.38637725 0.41180676
-0.13652971 -0.031554244 -0.045778316 -0.29081786 -0.45701188 -0.13578868 -0.40102765 -0.30244255
-0.21823797 -0.24749747 -0.013479821 -0.24826868 -0.3545256 -0.0350984 -0.16221243 -0.3401763
0.3199822 -0.11257756 0.38149038 0.38408518 -0.21425834 0.40525225 0.0564116 0.44329992
00000000: ab7d c2bc 7723 ee3d 8ebd 063f 4af1 883e
00000010: d2f2 253e 00e5 123e 0786 803e eac6 07be
00000020: 8a3e e3be a97f d53e 4829 86bd 3f74 8b3e
00000030: a8f7 1d3e db35 823e cf45 9d3d 9b0a c6be
00000040: ca90 113d 1c15 3d3c 245d 17be d7f9 41be
00000050: 077c 0abf e8a1 42bd 3dd3 c53e 56d8 d23e
00000060: 72ce 0bbe 063f 01bd 0b82 3bbd 14e6 94be
00000070: 76fd e9be 300c 0bbe 7f53 cdbe c0d9 9abe
00000080: c679 5fbe fa6f 7dbe 78da 5cbc 253a 7ebe
00000090: 6184 b5be 57c3 0fbd 041b 26be 972b aebe
000000a0: b5d4 a33e 108f e6bd b552 c33e d0a6 c43e
000000b0: 8a66 5bbe 397d cf3e da0f 673d 35f8 e23e

GRU.weight_hh_l9 f4 [12, 4]
0.31146502 0.05365156 0.006221441 -0.22894411 0.026035639 0.25312006 0.49516287 -0.22793078
-0.47613022 0.352696 -0.3785939 0.06109343 0.21312109 0.0273905 0.18423454 -0.29456994
0.45405707 -0.03209182 0.0854151 0.13119115 -0.09940611 0.20894416 -0.19761115 0.41050786
-0.27142265 -0.14299557 -0.4871973 -0.04279417 0.30121863 -0.023990707 0.43245718 -0.13820153
0.58820593 0.54903543 -0.39460665 0.42021498 0.49319732 0.5196763 -0.26746702 0.49420848
-0.41440874 0.15033911 -0.24546382 0.08579345 -0.21816835 0.3821741 -0.32266796 0.17569335
00000000: 5878 9f3e bdc1 5b3d 3bdd cb3b 5370 6abe
00000010: b148 d53c f498 813e fd85 fd3e b066 69be
00000020: 57c7 f3be 9294 b43e 0fd7 c1be 1b3d 7a3d
00000030: 6a3c 5a3e 0b62 e03c fba7 3c3e dfd1 96be
00000040: 2b7a e83e b672 03bd 1dee ae3d f956 063e
00000050: 6e95 cbbd 75f5 553e 945a 4abe 162e d23e
00000060: e9f7 8abe 6e6d 12be ed71 f9be f148 2fbd
00000070: 5439 9a3e 2988 c4bc 076b dd3e b484 0dbe
00000080: aa94 163f 968d 0c3f e209 cabe 6b26 d73e
00000090: 5c84 fc3e 8209 053f 70f1 88be e508 fd3e
000000a0: 622d d4be 7ff2 193e de5a 7bbe 7ab4 af3d
000000b0: 8667 5fbe 53ac c33e bc34 a5be f5e8 333e

GRU.bias_ih_l9 f4 [12]
0.13783446 0.29249978 -0.0053349477 0.15531537 -0.5016017 -0.44646302 -0.46544617 0.2688974
0.0009316815 -0.08767469 0.32468742 -0.25128132
00000000: 7a24 0d3e 88c2 953e c9d0 aebb fe0a 1f3e
00000010: f868 00bf cd96 e4be f64e eebe ecac 893e
00000020: 163c 743a ca8e b3bd 6e3d a63e f2a7 80be

GRU.bias_hh_l9 f4 [12]
0.34781587 -0.17491864 0.3077073 0.2153879 0.11938038 -0.076861426 -0.39786512 0.2692659
0.07897243 -0.4665146 0.5176472 0.042271145
00000000: ec14 b23e df1d 33be d08b 9d3e a58e 5c3e
00000010: b37d f43d 8669 9dbd fab4 cbbe 38dd 893e
00000020: 4cbc a13d 00db eebe 8784 043f 8224 2d3d

GRU.weight_ih_l10 f4 [12, 4]
0.34465393 -0.39593393 0.009462391 0.035671346 0.019925408 0.37587264 0.27734834 -0.21319619
0.09887004 -0.4846238 0.40586957 0.41921967 0.17975138 -0.35653004 0.4896591 -0.016819926
-0.28038597 -0.029325496 0.42211238 0.44656056 0.111200824 0.23394439 -0.34123388 -0.42594793
-0.19827497 0.52266264 -0.33995652 -0.09213597 0.47254813 0.27428672 -0.18603489 -0.13743564
0.2629897 0.16040477 -0.5208081 -0.47299334 0.23134658 0.07203769 -0.15321909 -0.10174727
-0.092343695 -0.49395716 0.37799954 -0.4606737 -0.36910763 0.5261498 0.4385491 0.07906548
00000000: 7b76 b03e dab7 cabe 2508 1b3c 1e1c 123d
00000010: 9c3a a33c 6172 c03e 9a00 8e3e 1a50 5abe
00000020: 607c ca3d 9c20 f8be 23ce cf3e f6a3 d63e
00000030: bf10 383e 1b8b b6be 99b4 fa3e f1c9 89bc
00000040: c08e 8fbe 063c f0bc 1d1f d83e 96a3 e43e
00000050: 42bd e33d 1e8f 6f3e 35b6 aebe d915 dabe
00000060: 9808 4bbe 38cd 053f c80e aebe c9b1 bcbd
00000070: d4f1 f13e 4f6f 8c3e ee7f 3ebe eebb 0cbe
00000080: 96a6 863e 2641 243e ae53 05bf 2f2c f2be
00000090: 1ee6 6c3e 7f88 933d 77e5 1cbe df60 d0bd
000000a0: b11e bdbd f4e7 fcbe 2889 c13e 6cdd ebbe
000000b0: adfb bcbe c1b1 063f 8289 e03e 15ed a13d

GRU.weight_hh_l10 f4 [12, 4]
-0.09193104 0.056904178 -0.39013886 -0.13958013 0.1078875 0.48113972 0.22934943 -0.12060248
-0.20701315 -0.45933506 -0.078956224 -0.4740355 -0.013883292 0.032682456 -0.38392133 -0.27977124
0.016869288 -0.12145272 -0.096463 0.04857961 0.33483273 0.256703 0.44239894 0.06541548
-0.05444975 -0.034950916 -0.36019874 0.07383653 0.34962147 -0.5027042 0.011594966 -0.44251162
-0.20206371 0.1657822 -0.21498965 0.35828096 0.42405802 -0.5328629 0.29345024 0.37101686
-0.33764392 -0.10506536 0.05126112 -0.5350157 -0.09071453 -0.32087412 -0.12299931 -0.40078416
00000000: 5746 bcbd 5b14 693d 48c0 c7be 18ee 0ebe
00000010: 1ff4 dc3d f257 f63e 94da 6a3e 6ffe f6bd
00000020: 41fb 53be f72d ebbe cdb3 a1bd c8b4 f2be
00000030: bf76 63bc 0ade 053d 5691 c4be 2d3e 8fbe
00000040: 7631 8a3c 34bc f8bd 658e c5bd 6afb 463d
00000050: 326f ab3e 936e 833e 1d82 e23e 8df8 853d
00000060: b306 5fbd b128 0fbd f86b b8be 9b37 973d
00000070: 9601 b33e 39b1 00bf d0f8 3d3c e290 e2be
00000080: cae9 4ebe cfc2 293e 3f26 5cbe 9a70 b73e
00000090: 221e d93e b469 08bf 1c3f 963e ecf5 bd3e
000000a0: aadf acbe 822c d7bd 2ef7 513d caf6 08bf
000000b0: 8ac8 b9bd 9d49 a4be 10e7 fbbd 9533 cdbe

GRU.bias_ih_l10 f4 [12]
0.116628245 -0.37682474 -0.06051127 0.4175195 -0.48727664 -0.40246236 -0.32101652 0.1272477
0.21879523 0.29396093 0.34338742 -0.1740078
00000000: cada ee3d 2cef c0be aada 77bd 1ec5 d53e
00000010: 537c f9be 8c0f cebe 475c a4be 394d 023e
00000020: db0b 603e 0c82 963e 7ad0 af3e 1a2f 32be

GRU.bias_hh_l10 f4 [12]
0.23798229 -0.29243964 -0.120405674 0.4371031 0.38631502 0.26249477 0.27025858 0.46077627
-0.46663135 -0.24945493 0.4687309 -0.024382718
00000000: a1b1 733e a6ba 95be 4097 f6bd facb df3e
00000010: 15cb c53e b765 863e 555f 8a3e deea eb3e
00000020: 4eea eebe 1d71 7fbe 7ffd ef3e 44be c7bc

GRU.weight_ih_l11 f4 [12, 4]
-0.09570279 0.13283727 -0.1878518 -0.09207698 0.11435246 -0.31762743 -0.15635742 0.44109893
-0.4011833 0.21498978 -0.23968576 0.16388884 -0.03809206 0.42464748 0.5345345 -0.4511719
-0.04126317 0.41641116 -0.22968987 0.20848916 0.26544094 0.32303306 -0.4037509 -0.11569001
0.287889 -0.29601058 0.14586896 -0.043961592 0.40109918 0.26093936 -0.07477466 -0.010592136
-0.30806112 -0.29025424 0.2520586 -0.13741007 -0.11027889 0.1796557 0.2043709 -0.15866998
-0.20619974 -0.28275132 -0.21495976 0.105200745 0.402354 -0.4431424 0.27096665 0.23465437
00000000: d3ff c3bd 7e06 083e 395c 40be db92 bcbd
00000010: 9f31 ea3d 10a0 a2be 291c 20be b8d7 e13e
00000020: e667 cdbe 4826 5c3e 2f70 75be 7ad2 273e
00000030: 6b06 1cbd 656b d93e 41d7 083f 0100 e7be
00000040: 9203 29bd d833 d53e d233 6bbe 2f7e 553e
00000050: e0e7 873e 9764 a53e 70b8 cebe e2ee ecbd
00000060: 3066 933e b38e 97be ac5e 153e 1211 34bd
00000070: df5c cd3e d899 853e 7523 99bd a38a 2dbc
00000080: 30ba 9dbe 349c 94be d30d 813e 3ab5 0cbe
00000090: e6d9 e1bd aaf7 373e 9b46 513e 627a 22be
000000a0: 0626 53be c8c4 90be 691e 5cbe 7d73 d73d
000000b0: 5801 ce3e 90e3 e2be 24bc 8a3e 3c49 703e

GRU.weight_hh_l11 f4 [12, 4]
-0.41065678 0.03681024 0.36909595 0.018327115 -0.22892964 -0.2562448 -0.3825912 0.16435009
0.47158167 -0.32783857 0.46365806 0.2725894 0.27570975 -0.14119463 -0.12048026 -0.15181726
0.11938506 0.13428362 -0.36718905 -0.021404337 0.36114863 -0.3378629 0.4942041 -0.23766626
0.37893376 -0.22616525 -0.5399699 0.19705655 0.43147102 -0.09511608 0.004668825 -0.052112818
-0.08583656 -0.33366987 0.22555271 -0.29598317 -0.43738014 -0.28803587 0.25070748 0.317995
0.46753097 -0.04578742 -0.036019254 -0.299087 -0.15866682 0.095235966 0.43426248 -0.09241724
00000000: 9b41 d2be 56c6 163d 25fa bc3e bf22 963c
00000010: 886c 6abe 8532 83be fee2 c3be 644b 283e
00000020: 2773 f13e 75da a7be 9764 ed3e d690 8b3e
00000030: d429 8d3e 5395 10be 5bbe f6bd fc75 1bbe
00000040: 2880 f43d a581 093e 3400 bcbe 2658 afbc
00000050: 79e8 b83e 5efc acbe 5208 fd3e c95e 73be
00000060: 9b03 c23e dd97 67be 783b 0abf 31c9 493e
00000070: c5e9 dc3e 38cc c2bd f1fc 983b 4074 55bd
00000080: 14cb afbd c7d6 aabe 4af7 663e 1b8b 97be
00000090: 4af0 dfbe 7079 93be bb5c 803e 3ed0 a23e
000000a0: 3860 ef3e 978b 3bbd ed88 13bd ee21 99be
000000b0: 8e79 22be 130b c33d a757 de3e 4045 bdbd

GRU.bias_ih_l11 f4 [12]
0.25618997 -0.12908055 0.5091899 0.5358067 -0.35406837 0.16569571 0.24386917 -0.19760324
0.557765 0.2576621 0.28119996 0.19935149
00000000: 552b 833e b12d 04be 455a 023f a12a 093f
00000010: 7348 b5be 23ac 293e d7b8 793e 8158 4abe
00000020: b0c9 0e3f 49ec 833e 71f9 8f3e cc22 4c3e

GRU.bias_hh_l11 f4 [12]
0.2814528 0.0899839 0.55518186 -0.06467962 0.21161652 0.17471205 0.13866559 -0.07549441
0.5645665 -0.21709782 0.06990486 0.51593876
00000000: 951a 903e 7b49 b83d 6620 0e3f c076 84bd
00000010: 00b2 583e b7e7 323e 5afe 0d3e d09c 9abd
00000020: 6e87 103f e44e 5ebe 472a 8f3d 9014 043f

GRU.weight_ih_l12 f4 [12, 4]
-0.15989284 -0.4237976 -0.23513454 0.37183872 0.09047023 0.27732816 0.35878623 -0.27353472
0.22683544 0.5048073 -0.27813253 0.043544624 -0.20880227 0.333883 0.1546509 0.34477973
-0.4426971 -0.050742596 0.21443522 0.5224251 0.057495102 0.20676659 -0.29525754 -0.23954858
-0.10319676 0.41907135 -0.30141324 0.23568112 -0.30559036 0.22298536 0.19908552 -0.30139497
-0.3051938 -0.20902662 -0.08924851 0.3610811 -0.53118193 -0.420099 -0.22156718 -0.54776955
0.48285428 0.25028914 0.12216 0.14838104 0.5530879 -0.40395564 -0.0313821 0.36079615
00000000: f3ba 23be 00fc d8be 1cc7 70be a561 be3e
00000010: 7548 b93d f5fd 8d3e d4b2 b73e be0c 8cbe
00000020: 8d47 683e 0d3b 013f 6367 8ebe d95b 323d
00000030: 43d0 55be b6f2 aa3e ce5c 1e3e f886 b03e
00000040: 32a9 e2be 78d7 4fbd e894 5b3e a7bd 053f
00000050: fc7f 6b3d 9fba 533e ff2b 97be 394c 75be
00000060: d358 d3bd 8590 d63e d652 9abe 6456 713e
00000070: 5776 9cbe 4656 643e 13dd 4b3e 7150 9abe
00000080: 5d42 9cbe 130b 56be ecc7 b6bd 9fdf b83e
00000090: 8afb 07bf 3717 d7be 82e2 62be a03a 0cbf
000000a0: ad38 f73e e625 803e 062f fa3d 33f1 173e
000000b0: 2b97 0d3f 46d3 cebe 848a 00bd 46ba b83e

GRU.weight_hh_l12 f4 [12, 4]
-0.12452199 -0.34473053 -0.46191135 0.3789111 -0.070930354 0.41123807 0.1485457 -0.54264206
0.37141398 0.068407685 -0.16577823 -0.19815172 0.105469055 0.10392533 -0.022980526 -0.030822886
-0.1942184 0.06898023 0.3186587 0.50498253 0.4200366 -0.16976456 -0.08036001 -0.37581474
-0.07901609 -0.16392215 -0.502828 0.31637204 0.4258475 -0.009713706 0.21345808 -0.51004606
-0.38621995 0.15757173 0.3967185 0.21737757 0.022537071 0.07588182 0.24500415 0.00951475
0.12870467 -0.38460332 0.44372824 0.52456105 0.1910004 -0.13319117 0.3160494 0.49819416
00000000: 6305 ffbd 8580 b0be a57f ecbe a300 c23e
00000010: ef43 91bd cc8d d23e 5d1c 183e 97ea 0abf
00000020: f929 be3e 5419 8c3d c5c1 29be 49e8 4abe
00000030: 2900 d83d ced6 d43d a841 bcbc 4780 fcbc
00000040: 30e1 46be 8245 8d3d 3c27 a33e 8946 013f
00000050: 0a0f d73e c3d6 2dbe ca93 a4bd ca6a c0be
00000060: 30d3 a1bd 35db 27be 56b9 00bf 84fb a13e
00000070: af08 da3e 3c26 1fbc c194 5a3e 6192 02bf
00000080: 9fbe c5be 7c5a 213e b01e cb3e 3a98 5e3e
00000090: aa9f b83c ed67 9b3d 5ee2 7a3e c1e3 1b3c
000000a0: 28cb 033e baea c4be 5930 e33e a249 063f
000000b0: 9c95 433e 4463 08be 3ad1 a13e 4e13 ff3e

GRU.bias_ih_l12 f4 [12]
-0.4704197 -0.16230862 -0.05191712 0.5266581 -0.10822588 -0.24168153 0.04756178 -0.34132046
0.3961919 -0.122775204 0.55232877 0.0866829
00000000: dada f0be 3b34 26be 0ca7 54bd 11d3 063f
00000010: 88a5 ddbd 5d7b 77be 24d0 423d 8ec1 aebe
00000020: aad9 ca3e 9171 fbbd 6b65 0d3f ce86 b13d

GRU.bias_hh_l12 f4 [12]
-0.09989209 -0.030870145 -0.015824826 -0.2805814 0.11692694 -0.45949337 0.1060968 0.3522702
-0.08664963 -0.030723527 0.08603824 0.47379684
00000000: 3994 ccbd 63e3 fcbc 11a3 81bc 5ea8 8fbe
00000010: 6477 ef3d b742 ebbe 4749 d93d c25c b43e
00000020: 5c75 b1bd e8af fbbc d134 b03d 8095 f23e

GRU.weight_ih_l13 f4 [12, 4]
0.37823153 0.03839345 0.30740866 -0.19296801 -0.18474737 0.13339144 -0.36999425 0.20576374
0.1406836 -0.043859497 -0.2909817 -0.5362129 0.22259453 -0.1653105 -0.28090113 -0.31500608
0.21751708 0.018096004 0.31831202 0.1329371 -0.35838613 0.122214355 0.29514426 0.30538535
-0.46040124 0.28524953 0.40835866 0.04643343 0.5036812 -0.3305024 -0.32341754 0.1593682
0.27003714 -0.08618332 -0.13020791 0.017525395 0.04206296 -0.27185547 -0.46334615 -0.10242008
0.30925548 0.55566764 -0.10121407 -0.5711806 0.39935365 -0.19493937 0.22527663 0.20185073
00000000: 90a7 c13e 7342 1d3d ab64 9d3e 6899 45be
00000010: 6a2e 3dbe c497 083e e36f bdbe bbb3 523e
00000020: 5d0f 103e 04a6 33bd 8efb 94be 4045 09bf
00000030: d2ef 633e 2847 29be 46d2 8fbe 7a48 a1be
00000040: ccbc 5e3e 123e 943c cbf9 a23e aa20 083e
00000050: 637e b7be 854b fa3d 261d 973e 785b 9c3e
00000060: b6b9 ebbe 3a0c 923e 6314 d13e fb30 3e3d
00000070: 40f1 003f 9c37 a9be fc96 a5be 6b31 233e
00000080: 4f42 8a3e e180 b0bd 3955 05be 6b91 8f3c
00000090: 364a 2c3d a430 8bbe b53b edbe 9ec1 d1bd
000000a0: bc56 9e3e 3c40 0e3f 5349 cfbd e438 12bf
000000b0: 1578 cc3e 309e 47be ebae 663e f5b1 4e3e

GRU.weight_hh_l13 f4 [12, 4]
-0.013223922 0.33464494 -0.20110075 -0.45110562 -0.20556027 0.2794538 0.21810165 -0.1279035
-0.16872926 -0.26140332 0.0490693 0.34826607 0.49690884 0.14312905 -0.10820275 -0.45266423
-0.30372772 -0.005111905 -0.3206301 -0.07680708 0.4130779 0.2602132 0.5250247 0.10203106
-0.27341434 0.024197219 0.59102875 0.33137086 -0.25083005 0.1999557 0.098243915 0.07252463
-0.14960143 0.14234035 0.34151462 -0.31955823 -0.42008045 -0.3920246 -0.1076396 -0.1624204
0.3301519 0.03922187 -0.1253287 -0.20059626 -0.16529006 0.12026459 0.04627025 -0.233202
00000000: 26a9 58bc 9556 ab3e 5bed 4dbe 51f7 e6be
00000010: 647e 52be 9214 8f3e 0a56 5f3e 23f9 02be
00000020: 5dc7 2cbe a8d6 85be e4fc 483d ee4f b23e
00000030: d66a fe3e 6c90 123e 6799 ddbd 9bc3 e7be
00000040: 3382 9bbe c481 a7bb a129 a4be 084d 9dbd
00000050: f27e d33e aa3a 853e 0568 063f a9f5 d03d
00000060: f7fc 8bbe 3f39 c63c a94d 173f 71a9 a93e
00000070: cc6c 80be 30c1 4c3e 1b34 c93d cb87 943d
00000080: 1e31 19be abc1 113e 01db ae3e 239d a3be
00000090: c914 d7be 73b7 c8be 2772 dcbd 8951 26be
000000a0: ab09 a93e 1da7 203d 2b56 00be 1b69 4dbe
000000b0: cc41 29be 484d f63d e085 3d3d 81cc 6ebe

GRU.bias_ih_l13 f4 [12]
0.088172205 0.30946758 -0.494882 0.36384618 0.063338384 -0.3411112 -0.55676645 -0.028230011
0.26250544 0.18373798 -0.1916843 0.40772772
00000000: a193 b43d 8972 9e3e 2c61 fdbe 0c4a ba3e
00000010: 8eb7 813d 21a6 aebe 3f88 0ebf a042 e7bc
00000020: 1d67 863e cf25 3c3e e448 44be b0c1 d03e

GRU.bias_hh_l13 f4 [12]
0.045907125 -0.4859809 -0.54693514 0.3664952 -0.5111026 0.14318676 0.2031326 0.110330746
0.56346065 0.08672339 0.34482118 -0.0049153683
00000000: 1c09 3c3d 7dd2 f8be f103 0cbf 42a5 bb3e
00000010: 9fd7 02bf 8d9f 123e fe01 503e 16f5 e13d
00000020: f53e 103f 089c b13d 678c b03e 1911 a1bb

GRU.weight_ih_l14 f4 [12, 4]
0.26699618 0.51645815 -0.056280553 0.11801692 -0.39427328 -0.39683253 -0.07649535 -0.3387927
-0.5790714 0.4349224 -0.35834247 0.2507607 -0.2608843 0.06847496 0.3132471 -0.09863505
-0.103069104 0.06682767 0.34819764 -0.49360448 -0.22364277 -0.13580261 -0.08977057 0.3198037
-0.3486574 -0.23366703 -0.012646612 -0.53902495 -0.33267447 -0.27313572 -0.080143966 0.4685493
-0.45338798 0.33696762 0.34883744 -0.3940403 -0.36340094 0.4608544 0.47422397 0.09394792
0.30791155 -0.042422645 0.5245467 -0.048869736 0.18920852 0.26525152 0.49068195 0.09917762
00000000: b9b3 883e 9a36 043f 7086 66bd dbb2 f13d
00000010: 30de c9be a22d cbbe 98a9 9cbd 3d76 adbe
00000020: 063e 14bf 26ae de3e aa78 b7be b563 803e
00000030: a192 85be 9a3c 8c3d ed61 a03e 2c01 cabd
00000040: e515 d3bd f2dc 883d f646 b23e bab9 fcbe
00000050: 9c02 65be d70f 0bbe a2d9 b7bd 50bd a33e
00000060: 3983 b2be 6946 6fbe bc33 4fbc 8afd 09bf
00000070: 4f54 aabe 72d8 8bbe 8522 a4bd b2e5 ef3e
00000080: 7822 e8be 0587 ac3e d29a b23e a6bf c9be
00000090: b00f babe 1cf5 eb3e 7ccd f23e c467 c03d
000000a0: 95a6 9d3e 5ec3 2dbd b148 063f a22b 48bd
000000b0: e1bf 413e 0ccf 873e aa3a fb3e a31d cb3d

GRU.weight_hh_l14 f4 [12, 4]
0.27030987 -0.2868449 -0.3236172 -0.21718764 -0.30232412 0.25192937 -0.25829077 0.33753666
0.27521095 -0.3047458 -0.06032303 0.26458088 -0.29716405 0.1449249 -0.26139224 0.24888696
-0.18228509 -0.13702393 0.25963342 -0.24807924 0.0026486157 0.34444374 -0.42555732 0.09352439
-0.17178397 0.1801867 0.35828924 -0.5404892 -0.05224167 0.21944353 0.3972274 -0.22662847
0.11833044 -0.17799266 -0.11425495 -0.32777852 0.037586685 -0.09320013 0.5172832 0.21050517
-0.18749969 0.34508035 -0.05464166 0.052593492 0.42285472 0.04388586 -0.37677816 -0.017477684
00000000: 0e66 8a3e 56dd 92be 27b1 a5be 7066 5ebe
00000010: 3aca 9abe e3fc 803e b03e 84be 9bd1 ac3e
00000020: 73e8 8c3e a407 9cbe 4815 77bd 2577 873e
00000030: e325 98be 3167 143e 34d5 85be 39dc 7e3e
00000040: f1a8 3abe 0050 0cbe acee 843e 7c08 7ebe
00000050: 6694 2d3b ee5a b03e a6e2 d9be b789 bf3d
00000060: 23e8 2fbe dd82 383e b071 b73e 805d 0abf
00000070: 5dfb 55bd ceb5 603e 6461 cb3e 4b11 68be
00000080: 3b57 f23d b543 36be 80fe e9bd 96d2 a7be
00000090: 7ff4 193d b6df bebd ac6c 043f ab8e 573e
000000a0: ebff 3fbe 5fae b03e efcf 5fbd 466c 573d
000000b0: 6a80 d83e a9c1 333d 11e9 c0be 5c2d 8fbc

GRU.bias_ih_l14 f4 [12]
0.20786612 -0.0068872045 -0.49489388 0.076403774 -0.21050546 -0.09455854 -0.46735677 -0.43416253
-0.46717137 0.33992875 -0.32163075 0.2811856
00000000: dbda 543e 0fae e1bb bb62 fdbe 9579 9c3d
00000010: be8e 57be e8a7 c1bd 6349 efbe 8d4a debe
00000020: 1631 efbe 240b ae3e c9ac a4be 8ff7 8f3e

GRU.bias_hh_l14 f4 [12]
-0.36446288 0.17245832 -0.3915533 -0.29438052 0.22795139 0.29988286 -0.26081046 -0.40034023
0.06478251 0.19866213 0.26590815 0.026126115
00000000: e19a babe ea98 303e ad79 c8be 0bb9 96be
00000010: 176c 693e 3f8a 993e f388 85be 65f9 ccbe
00000020: b1ac 843d 166e 4b3e 1d25 883e 6f06 d63c

GRU.weight_ih_l15 f4 [12, 4]
0.14488852 -0.104028255 -0.38905126 -0.41063753 -0.03705298 0.2296759 0.39155713 -0.47831792
-0.07021009 -0.47033077 -0.5221514 0.48322093 -0.13085583 -0.18359843 -0.47675383 -0.46899337
0.01048774 -0.37518722 0.15742998 -0.13903813 0.53657067 0.39609104 0.089901745 0.30533698
0.433314 -0.3625233 -0.21611609 0.17429246 0.2461067 -0.07762491 0.39263436 -0.13244087
-0.13316095 -0.34392685 -0.026320735 0.012342961 0.072980255 -0.1748432 -0.0254968 0.31702045
0.4980734 -0.41274956 0.56312543 -0.08534733 -0.10159693 -0.08184846 -0.17091015 0.008319573
00000000: a85d 143e c40c d5bd ba31 c7be 153f d2be
00000010: dec4 17bd 2930 6b3e 2d7a c83e 16e6 f4be
00000020: 4fca 8fbd 32cf f0be b7ab 05bf bc68 f73e
00000030: 12ff 05be 3a01 3cbe 1419 f4be e61f f0be
00000040: c5d4 2b3c 8a18 c0be 5335 213e 0360 0ebe
00000050: b25c 093f 72cc ca3e 681e b83d 2155 9c3e
00000060: 55db dd3e a79c b9be 894d 5dbe b979 323e
00000070: 6503 7c3e cff9 9ebd 5f07 c93e 949e 07be
00000080: 585b 08be 2e17 b0be 959e d7bc 213a 4a3c
00000090: ac76 953d 190a 33be aade d0bc 8150 a23e
000000a0: 7a03 ff3e e953 d3be fd28 103f 95ca aebd
000000b0: 0d12 d0bd 2aa0 a7bd 1203 2fbe d14e 083c

GRU.weight_hh_l15 f4 [12, 4]
0.32056886 -0.04190484 0.4230625 -0.08109085 0.31854606 0.41739675 -0.20170718 -0.25277862
0.546973 -0.28030118 -0.2639759 -0.3345625 -0.14796077 -0.13807829 -0.07111826 -0.17427473
-0.46229276 0.29039636 -0.11286987 0.38384002 0.32473966 -0.42657858 -0.43563926 0.025475832
0.04083742 -0.48942068 0.2631512 -0.18514459 -0.2614002 -0.27256605 -0.3561656 0.18261471
0.026498599 -0.19921051 0.10977812 0.039836604 -0.03129162 0.099102266 -0.029120153 0.24588713
0.020718934 -0.42086798 0.04825731 0.18047804 -0.13661203 0.035986785 -0.28442088 0.02072569
00000000: 9a21 a43e 69a4 2bbd a69b d83e f612 a6bd
00000010: 7818 a33e 07b5 d53e 548c 4ebe 336c 81be
00000020: 6c06 0c3f a383 8fbe d927 87be c74b abbe
00000030: 0783 17be 6564 0dbe 73a6 91bd 1375 32be
00000040: a3b1 ecbe d5ae 943e 5228 e7bd ae86 c43e
00000050: 4744 a63e 8268 dabe 1c0c dfbe b1b2 d03c
00000060: 2345 273d 5995 fabe c1bb 863e 8b96 3dbe
00000070: 3fd6 85be c78d 8bbe 565b b6be 5aff 3a3e
00000080: 9713 d93c d7fd 4bbe 5ad3 e03d b52b 233d
00000090: a42b 00bd 21f6 ca3d 638d eebc d6c9 7b3e
000000a0: c1ba a93c 027c d7be 75a9 453d 3ccf 383e
000000b0: 06e4 0bbe e166 133d 9d9f 91be ecc8 a93c

GRU.bias_ih_l15 f4 [12]
0.16623484 0.23897366 0.043867067 -0.13410395 0.34113568 0.040104482 -0.4776886 0.3591819
0.36227062 -0.15215002 0.056519628 0.25841329
00000000: 7739 2a3e 83b5 743e f4ad 333d 8c52 09be
00000010: 56a9 ae3e 9944 243d 9a93 f4be b1e6 b73e
00000020: 897b b93e 37cd 1bbe 2081 673d bf4e 843e

GRU.bias_hh_l15 f4 [12]
0.08603966 0.36758503 0.18271656 0.17285338 -0.06752113 0.30198264 0.512237 -0.40663877
0.07703373 -0.2240004 -0.5352205 0.021635491
00000000: 9035 b03d 1b34 bc3e 0d1a 3b3e 7a00 313e
00000010: 8548 8abd 789d 9a3e f721 033f f532 d0be
00000020: dcc3 9d3d 5c60 65be 3604 09bf ea3c b13c

GRU.weight_ih_l16 f4 [12, 4]
-0.23294169 0.12064417 -0.008288957 -0.5126786 -0.08266259 -0.05081106 0.33223656 0.1262874
-0.37508622 -0.22932105 -0.049822543 -0.47985002 -0.04773407 0.42173755 0.099117756 0.06047201
-0.49129823 0.3562879 -0.14900872 0.36402544 -0.42358965 -0.41340876 0.015172506 0.3391322
-0.37339783 0.1817422 0.23802115 0.3529809 -0.2086524 0.49163288 0.3879909 0.30598962
-0.48268145 0.120443724 0.05519911 0.05032661 0.31545413 0.25305858 -0.481488 0.17824891
-0.15892847 0.045131456 0.09618987 -0.17092194 0.5141567 -0.2456041 0.1877352 0.4392554
00000000: 4488 6ebe 4a14 f73d 68ce 07bc e83e 03bf
00000010: 014b a9bd 421f 50bd e91a aa3e 7c51 013e
00000020: 4d0b c0be 23d3 6abe b912 4cbd e7ae f5be
00000030: cd84 43bd fced d73e 40fe ca3d 80b1 773d
00000040: 718b fbbe 5e6b b63e be95 18be 8b61 ba3e
00000050: bee0 d8be 50aa d3be 1a96 783c bca2 ad3e
00000060: 002e bfbe a11a 3a3e d1bb 733e eab9 b43e
00000070: faa8 55be 4eb7 fb3e bea6 c63e acaa 9c3e
00000080: 0622 f7be 33ab f63d 7618 623d 4723 4e3d
00000090: 3483 a13e e590 813e 9885 f6be e286 363e
000000a0: 25be 22be c3db 383d 32ff c43d 2906 2fbe
000000b0: c69f 033f a47f 7bbe a83d 403e 15e6 e03e

GRU.weight_hh_l16 f4 [12, 4]
0.35461658 0.07809186 0.09365276 -0.24612062 0.34041095 0.2755783 -0.35599607 0.5440544
-0.14609514 -0.42443502 -0.053066842 -0.24173507 0.15113814 0.27145967 0.092741616 -0.005779156
-0.041372783 -0.21639442 0.16277587 -0.039433364 -0.38867617 -0.11384876 0.0808 -0.31827143
-0.028282862 0.019424746 -0.2881072 -0.41543257 -0.15804213 0.20360295 -0.064374134 -0.45600253
0.55325824 0.36985457 -0.076975375 -0.50341296 -0.5621818 0.3166393 -0.0114868 -0.42651355
-0.12634507 -0.39907324 -0.4868899 -0.4081618 -0.51879394 0.4072641 -0.26161578 0.093596466
00000000: 4e90 b53e a0ee 9f3d 05cd bf3d 0b07 7cbe
00000010: 584a ae3e 9918 8d3e 1e45 b6be 2647 0b3f
00000020: f799 15be 8c4f d9be 9e5c 59bd 6689 77be
00000030: f5c3 1a3e c3fc 8a3e 51ef bd3d 135f bdbb
00000040: 8276 29bd 8096 5dbe b8ae 263e e184 21bd
00000050: 9000 c7be 8a29 e9bd 787a a53d 79f4 a2be
00000060: 76b1 e7bc a520 9f3c c982 93be 94b3 d4be
00000070: ccd5 21be 4b7d 503e 96d6 83bd 2a79 e9be
00000080: 55a2 0d3f 945d bd3e 44a5 9dbd acdf 00bf
00000090: 25eb 0fbf 8c1e a23e 2233 3cbc fc5f dabe
000000a0: 9a60 01be 5453 ccbe a249 f9be 95fa d0be
000000b0: aecf 04bf ec84 d03e 81f2 85be 81af bf3d

GRU.bias_ih_l16 f4 [12]
-0.009776772 0.2754984 -0.3627191 0.07069283 0.40213844 0.12982208 -0.29683062 -0.33260888
-0.27514118 0.23871681 -0.36526543 0.06115919
00000000: c12e 20bc 200e 8d3e 51b6 b9be 67c7 903d
00000010: 17e5 cd3e 14f0 043e 2ffa 97be b64b aabe
00000020: 4edf 8cbe 2e72 743e 1204 bbbe 0f82 7a3d

GRU.bias_hh_l16 f4 [12]
-0.14147545 0.3745368 0.46219197 0.29624742 -0.17037939 -0.13261609 -0.13897175 -0.53165287
0.09995599 0.4447834 -0.4481404 -0.30800268
00000000: f1de 10be 4ac3 bf3e 6da4 ec3e bead 973e
00000010: ef77 2ebe 83cc 07be 9c4e 0ebe 671a 08bf
00000020: bab5 cc3d a6ba e33e a972 e5be 87b2 9dbe
