aa2_models/model7.pt (torch_old, 42250 bytes, 132 tensors)

lin1.weight f4 [5, 7]
0.24567905 -0.15291023 0.14210626 -0.03253467 -0.28483757 -0.05661261 0.011907181 0.21291324
0.11292728 0.17445278 -0.28979644 -0.23131679 0.2343845 0.15148792 0.30091056 0.24314003
-0.22712786 0.21357906 0.32693276 0.06174922 -0.1774242 -0.35799426 -0.013781238 -0.29883265
0.14232962 -0.29540098 0.3393208 -0.0013645757 -0.0206225 0.026760971 0.23413125 0.049510207
-0.117420614 0.19610605 -0.1273
00000000: 4a93 7b3e 8094 1cbe 4e84 113e 1343 05bd
00000010: 3bd6 91be a0e2 67bd 5616 433c ee05 5a3e
00000020: 6b46 e73d c0a3 323e 3360 94be 4fde 6cbe
00000030: 7e02 703e a61f 1b3e f310 9a3e b3f9 783e
00000040: 3594 68be 78b4 5a3e bb63 a73e c0ec 7c3d
00000050: b1ae 35be 064b b7be b4ca 61bc 9800 99be
00000060: dbbe 113e cc3e 97be 75bb ad3e 90db b2ba
00000070: 84f0 a8bc d339 db3c 1ac0 6f3e 37cb 4a3d
00000080: 387a f0bd 06d0 483e ee5a 02be

lin1.bias f4 [5]
-0.10097917 -0.106443524 0.069101036 -0.3245717 -0.26638928
00000000: 2bce cebd 10ff d9bd d884 8d3d 432e a6be
00000010: 2d64 88be

GRU.weight_ih_l0 f4 [15, 5]
0.3965267 -0.08068452 -0.41335666 0.36976567 -0.18404296 0.35748976 -0.31604862 0.28099242
0.2186482 0.4124724 -0.25133225 -0.34146768 0.02266156 -0.10185444 0.25079992 -0.07113294
0.40411174 -0.09630914 -0.19431919 -0.2910452 0.36392105 0.12111207 0.02616374 0.20797867
-0.30923244 0.25290227 -0.4053208 0.32154915 0.13584553 -0.2530744 0.3517646 -0.31205994
0.44081217 -0.32614473 -0.44363993 -0.056451187 0.38626397 -0.0718209 -0.24661162 -0.3164792
0.2530421 -0.20127437 -0.21378 0.0641445 -0.39160195 0.3145988 0.021846073 -0.26615375
0.11895372 -0.30787882 0.45265755 0.31130764 -0.16701573 0.032671396 0.045701794 -0.16206698
-0.40092838 -0.078420654 -0.042625386 0.24068609 0.08070854 0.05591102 -0.36941203 -0.44051886
0.16204642 -0.27571315 -0.17865539 0.029817896 0.28518328 -0.13246018 0.37309572 0.24058554
0.00498969 0.30729544 0.22412102
00000000: 8c05 cb3e ed3d a5bd 7ca3 d3be ed51 bd3e
00000010: c275 3cbe e608 b73e 20d1 a1be 3dde 8f3e
00000020: 50e5 5f3e 952f d33e 9fae 80be dad4 aebe
00000030: bca4 b93c 1099 d0bd d968 803e 26ae 91bd
00000040: bce7 ce3e ba3d c5bd 9cfb 46be e003 95be
00000050: dc53 ba3e 9b09 f83d 5755 d63c 5cf8 543e
00000060: b753 9ebe 687c 813e 3586 cfbe 17a2 a43e
00000070: 171b 0b3e f892 81be 7d1a b43e 52c6 9fbe
00000080: 22b2 e13e 71fc a6be c624 e3be 5c39 67bd
00000090: 64c4 c53e d616 93bd c287 7cbe 9009 a2be
000000a0: bc8e 813e de1a 4ebe 25e9 5abe 315e 833d
000000b0: 0d80 c8be 1813 a13e 89f6 b23c 4e45 88be
000000c0: 029e f33d 4ba2 9dbe bbc2 e73e b763 9f3e
000000d0: 2c06 2bbe 71d2 053d ce31 3b3d e3f4 25be
000000e0: 7c46 cdbe 029b a0bd f597 2ebd 6a76 763e
000000f0: 854a a53d f402 653d 9323 bdbe b08b e1be
00000100: 7fef 253e 462a 8dbe 70f1 36be a944 f43c
00000110: 8b03 923e a4a3 07be 6706 bf3e 0e5c 763e
00000120: 8e80 a33b d455 9d3e fb7f 653e

GRU.weight_hh_l0 f4 [15, 5]
-0.2717729 -0.27082723 0.10376659 0.32877752 0.13821422 -0.07596728 0.21299118 -0.2468701
-0.16370545 0.3335845 0.060864974 0.3581655 0.21317293 -0.42512557 -0.08031752 -0.23979935
0.38123518 -0.4546228 -0.011591362 -0.24116795 -0.32017237 0.36090547 0.22112486 0.31624395
0.1997982 -0.1672394 0.3791123 0.2768293 -0.20208006 0.34817544 -0.27441114 0.42725965
0.17649198 0.2990398 0.19805543 0.3898927 0.28128892 -0.33777142 0.13217378 0.01634093
-0.3693629 0.17021275 -0.25260925 -0.41186422 -0.3308729 0.025912927 -0.07943045 0.32330173
-0.27764753 0.16863215 0.3678194 0.21845996 0.25585213 0.34397432 0.050972126 0.30085787
0.3825689 -0.42687902 -0.1207258 0.33662307 -0.21391562 -0.27255648 0.43584752 0.33549395
0.008215462 -0.25113916 0.16096695 -0.02204396 0.040157914 -0.021401705 0.20411536 0.24116415
-0.32566786 0.3983903 0.27282488
00000000: d125 8bbe dea9 8abe 9483 d43d 8755 a83e
00000010: 0788 0d3e bc94 9bbd 5c1a 5a3e 84cb 7cbe
00000020: 67a2 27be 96cb aa3e 8d4d 793d 7861 b73e
00000030: 014a 5a3e 0faa d9be 837d a4bd f68d 75be
00000040: 4231 c33e 52c4 e8be b2e9 3dbc bbf4 76be
00000050: a2ed a3be 9ac8 b83e 8e6e 623e baea a13e
00000060: e697 4c3e ce40 2bbe 021b c23e 92bc 8d3e
00000070: 13ee 4ebe 0d44 b23e 9e7f 8cbe c7c1 da3e
00000080: 50ba 343e bf1b 993e 0bcf 4a3e 04a0 c73e
00000090: 1a05 903e 60f0 acbe 9058 073e 6add 853c
000000a0: 221d bdbe 404c 2e3e 0056 81be dedf d2be
000000b0: 2c68 a9be 5947 d43c 6fac a2bd ce87 a53e
000000c0: d127 8ebe e8ad 2c3e d352 bc3e f8b3 5f3e
000000d0: 0dff 823e 671d b03e 26c8 503d 0b0a 9a3e
000000e0: 12e0 c33e e38f dabe 173f f7bd dc59 ac3e
000000f0: b20c 5bbe 868c 8bbe 6827 df3e ddc5 ab3e
00000100: 259a 063c 5095 80be 85d4 243e 8995 b4bc
00000110: a07c 243d a152 afbc 9e03 513e bcf3 763e
00000120: f0bd a6be d0f9 cb3e b4af 8b3e

GRU.bias_ih_l0 f4 [15]
0.2147456 0.20150256 -0.021625627 0.13461077 -0.19718403 0.14128774 0.19842397 0.20452201
0.22827493 -0.055977568 0.42186734 0.14841641 0.10698483 -0.4030454 0.19802144
00000000: 45e6 5b3e b056 4e3e 3a28 b1bc 68d7 093e
00000010: 9cea 49be bcad 103e a72f 4b3e 386e 513e
00000020: e7c0 693e bc48 65bd fffe d73e 79fa 173e
00000030: dd1a db3d f75b cebe 22c6 4a3e

GRU.bias_hh_l0 f4 [15]
0.24101122 -0.37929344 0.07107611 0.19478154 -0.41125867 -0.2538153 0.37412378 -0.33300704
0.045579016 -0.06332603 0.12390134 -0.2688071 0.3369935 0.061796688 -0.43394595
00000000: a5cb 763e c032 c2be 5a90 913d d074 473e
00000010: 7f90 d2be 14f4 81be 278d bf3e e67f aabe
00000020: 10b1 3a3d 14b1 81bd fcbf fd3d 16a1 89be
00000030: 698a ac3e 861e 7d3d 2a2e debe

GRU.weight_ih_l1 f4 [15, 5]
0.369831 0.004232647 0.4292898 -0.35206217 -0.1740886 -0.02246668 0.37366542 0.3708075
-0.23036373 -0.24646677 0.16409281 0.15983671 0.0007152169 -0.3040931 0.024387235 -0.32432956
-0.26994634 0.26991487 0.23537181 -0.43162677 -0.09562126 -0.31490776 -0.22722892 -0.26071295
0.27549753 0.28858757 0.34692276 0.28380102 -0.09363816 -0.19730315 0.0075388304 0.25233546
0.07379559 0.088839486 -0.23333055 -0.11623553 -0.21106094 0.07317774 -0.26479605 -0.35227597
-0.36535224 0.21759602 0.013751527 -0.020545209 0.43009782 -0.10655929 0.26030937 0.2829682
-0.3226254 -0.32721198 -0.22173639 -0.25551346 -0.043482047 0.20735127 -0.3195822 -0.1647582
-0.17882998 -0.2625503 -0.13371086 0.29983917 -0.36126882 0.14253676 -0.1868777 0.39554253
0.32695425 0.07722468 0.030769384 0.07710771 -0.3838383 -0.10759465 -0.22099474 0.23662055
0.12093203 -0.31039667 0.055666965
00000000: 7d5a bd3e 04b2 8a3b dfcb db3e 7e41 b4be
00000010: 4844 32be 0b0c b8bc 1351 bf3e 7bda bd3e
00000020: 78e4 6bbe c961 7cbe f207 283e 3cac 233e
00000030: 657d 3b3a 17b2 9bbe bdc7 c73c 860e a6be
00000040: 6836 8abe 4832 8a3e 4f05 713e 2ffe dcbe
00000050: 14d5 c3bd 973b a1be b3ae 68be 2b7c 85be
00000060: 030e 8d3e c0c1 933e dc9f b13e 5e4e 913e
00000070: 5dc5 bfbd d609 4abe 4b08 f73b 1d32 813e
00000080: 2422 973d 7af1 b53d 34ee 6ebe e50c eebd
00000090: 5c20 58be 36de 953d 5993 87be 845d b4be
000000a0: 730f bbbe 7ed1 5e3e 164e 613c 6d4e a8bc
000000b0: c835 dc3e c23b dabd 4547 853e 35e1 903e
000000c0: 282f a5be 5488 a7be dd0e 63be a9d2 82be
000000d0: 3b1a 32bd e453 543e 47a0 a3be 60b6 28be
000000e0: 351f 37be fe6c 86be 80eb 08be 8584 993e
000000f0: 3af8 b8be 28f5 113e de5c 3fbe 8d84 ca3e
00000100: 8c66 a73e f927 9e3d 1310 fc3c a6ea 9d3d
00000110: 7486 c4be 955a dcbd 724c 62be a84c 723e
00000120: 36ab f73d 50ec 9ebe 0b03 643d

GRU.weight_hh_l1 f4 [15, 5]
0.3366785 -0.035219032 0.03729458 0.42190415 0.31619474 -0.20013823 -0.2852607 0.18699372
0.12741181 0.36950427 0.28992593 -0.20977686 -0.41497496 -0.021495128 0.032638326 0.393657
0.2611491 -0.14846806 -0.35781738 -0.32698438 -0.33542383 0.41887274 -0.21377078 0.16430028
-0.4015119 -0.06213434 -0.4041596 -0.35969096 -0.15261748 0.42608508 0.37811422 0.31099316
-0.31354138 0.18278292 0.21743324 0.03874926 -0.43389744 -0.101525865 -0.059598207 0.025074057
0.28808123 -0.44608033 0.43217555 -0.3281219 0.28120768 0.3083307 -0.43399552 -0.11896979
0.026353188 0.39990693 -0.35277116 -0.3864562 0.36194843 0.04468994 -0.39573532 -0.23833187
0.31391802 0.38635433 -0.21707954 -0.38199598 -0.08801648 -0.29916394 -0.13449402 0.085887484
-0.24657805 -0.16836557 -0.13768303 0.19368728 0.31616694 -0.15665324 0.095657125 0.33937624
0.12433633 -0.22185417 -0.2970992
00000000: 2061 ac3e d541 10bd 34c2 183d d203 d83e
00000010: 47e4 a13e 09f1 4cbe b10d 92be 487b 3f3e
00000020: 3e78 023e aa2f bd3e 2c71 943e bfcf 56be
00000030: 9977 d4be 8d16 b0bc c4af 053d 698d c93e
00000040: 56b5 853e 0308 18be d733 b7be 7f6a a7be
00000050: acbc abbe 7d76 d63e bae6 5abe 553e 283e
00000060: f892 cdbe 9480 7ebd 02ee cebe 6a29 b8be
00000070: c247 1cbe d327 da3e 3098 c13e 7f3a 9f3e
00000080: 7f88 a0be 722b 3b3e d2a6 5e3e 8bb7 1e3d
00000090: ce27 debe cbec cfbd 401d 74bd 1c68 cd3c
000000a0: 627f 933e a464 e4be 1d46 dd3e 98ff a7be
000000b0: 74fa 8f3e 86dd 9d3e a934 debe 6fa6 f3bd
000000c0: a4e2 d73c 9ac0 cc3e 6c9e b4be 96dd c5be
000000d0: 4e51 b93e cc0c 373d d29d cabe 450d 74be
000000e0: ddb9 a03e 3cd0 c53e 194a 5ebe fa94 c3be
000000f0: fc41 b4bd 042c 99be cdb8 09be c7e5 af3d
00000100: f57e 7cbe 0668 2cbe c8fc 0cbe f555 463e
00000110: a2e0 a13e b569 20be e2e7 c33d b9c2 ad3e
00000120: 0ca4 fe3d bd2d 63be 631d 98be

GRU.bias_ih_l1 f4 [15]
-0.25092265 0.13625443 0.040857833 0.17154145 -0.3332488 -0.3354298 -0.068430886 -0.01572877
0.16028011 0.41919053 -0.3792172 -0.12126466 -0.24478197 0.3197333 -0.26282778
00000000: ef78 80be 4886 0b3e 8b5a 273d 90a8 2f3e
00000010: 969f aabe 74bd abbe 7e25 8cbd 9fd9 80bc
00000020: 7820 243e 24a0 d63e c228 c2be 9b59 f8bd
00000030: 20a8 7abe 15b4 a33e 5d91 86be

GRU.bias_hh_l1 f4 [15]
-0.4016543 0.035729386 -0.2060246 -0.22103262 -0.35623652 -0.2526198 -0.24917305 -0.2619439
0.027348775 0.35144764 -0.14105672 -0.25963712 0.35015163 -0.28269193 -0.32574493
00000000: a2a5 cdbe fa58 123d 1df8 52be 6056 62be
00000010: a264 b6be 6257 81be 3827 7fbe 831d 86be
00000020: 8a0a e03c f2f0 b33e 2c71 10be 28ef 84be
00000030: 1347 b33e ffbc 90be 0ac8 a6be

GRU.weight_ih_l2 f4 [15, 5]
0.048911218 -0.38339698 0.018730486 0.16987579 -0.040599167 -0.34468386 -0.3692451 -0.110223114
0.22305408 -0.10404941 0.27871636 0.25093263 -0.38205755 0.07558348 0.14021035 0.21955809
0.29103297 -0.19699295 0.057741836 0.4330877 -0.3141365 -0.16738364 0.3415229 0.31571108
0.350645 -0.06456323 -0.382173 -0.3408777 -0.002204588 -0.24336965 -0.19287214 0.042333916
-0.05864941 -0.05339828 0.44597504 -0.23919661 0.43909475 -0.10377274 0.4116067 -0.32453445
-0.15201284 0.110996425 -0.047488738 -0.3054233 0.134026 -0.35862154 -0.12649845 0.1884005
-0.33152434 -0.26170436 -0.12714724 -0.19675162 -0.16421147 -0.33936447 0.27134162 -0.22768527
0.2149598 -0.35175923 -0.17585038 0.22292988 -0.21226914 0.3147092 -0.098887905 0.34623075
-0.36177152 -0.30397016 -0.24987125 -0.21071853 -0.056035846 -0.2956237 0.24302743 0.4482974
0.44740522 0.12344959 -0.21518038
00000000: 2157 483d 9c4c c4be ad70 993c ebf3 2d3e
00000010: 504b 26bd 677a b0be b20d bdbe a8bc e1bd
00000020: 4a68 643e db17 d5bd e9b3 8e3e 3e7a 803e
00000030: 0c9d c3be 83cb 9a3d 4d93 0f3e d6d3 603e
00000040: 4602 953e 85b8 49be b482 6c3d acbd dd3e
00000050: 80d6 a0be 9e66 2bbe 17dc ae3e e2a4 a13e
00000060: be87 b33e ba39 84bd 2eac c3be 8687 aebe
00000070: d97a 10bb e535 79be 4680 45be 5466 2d3d
00000080: 5d3a 70bd 28b8 5abd d756 e43e f5ef 74be
00000090: 07d1 e03e cd86 d4bd 1dbe d23e 6129 a6be
000000a0: 41a9 1bbe 1852 e33d 8d83 42bd 7160 9cbe
000000b0: 1d3e 093e 3e9d b7be cf88 01be 10ec 403e
000000c0: 8fbd a9be 1dfe 85be e332 02be 4279 49be
000000d0: 0d27 28be 2ec1 adbe 4aed 8a3e 5426 69be
000000e0: 6c1e 5c3e c919 b4be 1f12 34be bb47 643e
000000f0: 155d 59be 9021 a13e be85 cabd 2845 b13e
00000100: 1e3a b9be faa1 9bbe 40de 7fbe 99c6 57be
00000110: d885 65bd fd5b 97be 2fdc 783e 3d87 e53e
00000120: 4c12 e53e 23d3 fc3d 3f58 5cbe

GRU.weight_hh_l2 f4 [15, 5]
-0.43286294 -0.050090183 0.35910058 -0.11900644 0.37120822 0.23334698 -0.3488666 0.08830175
0.09566776 0.2483699 -0.14832991 -0.13440594 -0.4315405 -0.34715337 -0.306518 -0.21451952
0.43682554 0.14286631 -0.06772356 0.29636922 -0.02485715 0.45912084 -0.33596915 -0.0034461175
0.43411574 -0.41565883 0.14139596 -0.11795018 0.35590672 -0.14763378 0.3191676 -0.2329086
-0.37828183 0.39164722 0.1449152 -0.3975429 0.3527301 0.3738509 0.35073972 0.34385136
-0.4293083 0.39198527 0.31944317 -0.35900417 -0.29521972 0.15581962 -0.2712611 0.11465856
0.35257176 0.29413536 0.19154197 -0.08296658 0.42405906 0.4082083 0.109011866 -0.3389642
0.3700684 -0.02163678 0.16211598 -0.094364874 -0.022036748 0.16847405 0.22374712 -0.2679269
0.10581908 0.41413635 0.3004571 -0.07344285 0.13002752 0.11006344 0.40352243 -0.023599414
-0.2523882 0.32525098 -0.13290799
00000000: 36a0 ddbe 5d2b 4dbd 08dc b73e a6b9 f3bd
00000010: 010f be3e 83f2 6e3e a59e b2be 8cd7 b43d
00000020: 75ed c33d ae54 7e3e cce3 17be b6a1 09be
00000030: e0f2 dcbe 16be b1be edef 9cbe 01ab 5bbe
00000040: 99a7 df3e 8c4b 123e a6b2 8abd b5bd 973e
00000050: 39a1 cbbc e311 eb3e 2604 acbe 42d8 61bb
00000060: 6b44 de3e 3cd1 d4be 1aca 103e dd8f f1bd
00000070: 6839 b63e 4f2d 17be f069 a33e 987f 6ebe
00000080: 28ae c1be fc85 c83e a664 143e be8a cbbe
00000090: 0a99 b43e 6369 bf3e 2894 b33e 490d b03e
000000a0: 4cce dbbe 4bb2 c83e 0e8e a33e 65cf b7be
000000b0: 0a27 97be 2e8f 1f3e bce2 8abe 1bd2 ea3d
000000c0: 4984 b43e e998 963e 9423 443e 62ea a9bd
000000d0: 451e d93e ae00 d13e 9d41 df3d b78c adbe
000000e0: 9b79 bd3e 9e3f b1bc bb01 263e 5f42 c1bd
000000f0: 6986 b4bc 7684 2c3e f71d 653e b72d 89be
00000100: acb7 d83d ae09 d43e 83d5 993e 3469 96bd
00000110: ef25 053e f168 e13d 7e9a ce3e 8f53 c1bc
00000120: 0739 81be 4c87 a63e 0819 08be

GRU.bias_ih_l2 f4 [15]
-0.17440405 0.34374934 0.38364857 -0.15000048 -0.3352329 -0.3052112 0.30757427 0.030353058
-0.35650465 -0.12707196 0.03778242 0.076592766 0.37103587 -0.21275084 -0.046161026
00000000: fa96 32be eaff af3e 966d c43e ba99 19be
00000010: a6a3 abbe a444 9cbe 607a 9d3e faa6 f83c
00000020: c787 b6be 271f 02be bdc1 1a3d abdc 9c3d
00000030: 6af8 bd3e 5bdb 59be 5813 3dbd

GRU.bias_hh_l2 f4 [15]
-0.18968552 -0.16999221 -0.073857576 0.0701371 -0.32012802 -0.35664618 -0.34478107 0.22208668
0.31390572 0.119520396 0.36364552 -0.41851357 0.12305386 0.07371034 0.29882342
00000000: ec3c 42be 7012 2ebe a442 97bd 0aa4 8f3d
00000010: d2e7 a3be 549a b6be 2587 b0be b16a 633e
00000020: 40b8 a03e 1cc7 f43d bf2f ba3e 6947 d6be
00000030: aa03 fc3d 72f5 963d 62ff 983e

GRU.weight_ih_l3 f4 [15, 5]
0.053139597 -0.2088012 0.011291544 -0.41764888 0.2870655 0.37653145 0.31117257 0.40140224
0.24695642 0.40649036 0.11592286 0.329946 -0.26065692 0.39263877 -0.04674779 0.08771509
0.3801397 0.17489003 -0.41047615 0.4154313 0.28782374 0.35856515 0.2480598 -0.39287084
0.3543999 0.12773345 -0.32341734 -0.39934534 -0.123464875 -0.34595865 0.030178841 -0.27193567
0.2995916 -0.30008802 -0.31107727 -0.17920098 0.41482076 0.16234481 -0.09194953 0.19914633
0.42559782 0.18140082 0.25645 0.43771112 -0.27763343 -0.39812616 -0.22781232 0.14802623
-0.3705656 0.19544992 0.20156114 0.3891264 -0.18417123 0.05222367 0.09936606 0.32978758
0.43040365 0.22395673 -0.02919355 0.18616685 -0.109446816 0.32679343 0.35628653 -0.045658324
-0.29323903 -0.38024443 0.42720813 0.35797337 -0.076794304 0.19786662 0.36729178 0.37508732
-0.013959419 -0.36555138 0.1980575
00000000: e8a8 593d fbcf 55be 2b00 393c 13d6 d5be
00000010: 40fa 923e bbc8 c03e 0352 9f3e 9884 cd3e
00000020: 25e2 7c3e 811f d03e f768 ed3d afee a83e
00000030: d374 85be f307 c93e 9c7a 3fbd f8a3 b33d
00000040: aca1 c23e 5f16 333e ee29 d2be 69b3 d43e
00000050: a25d 933e da95 b73e 6303 7e3e 5e26 c9be
00000060: e773 b53e 8fcc 023e f596 a5be fe76 ccbe
00000070: 27db fcbd 7e21 b1be 9e39 f73c 273b 8bbe
00000080: 1264 993e 23a5 99be 8545 9fbe 7680 37be
00000090: 6363 d43e b83d 263e 0950 bcbd 04ed 4b3e
000000a0: f5e7 d93e 23c1 393e 6a4d 833e ac1b e03e
000000b0: f825 8ebe 31d7 cbbe a247 69be 3094 173e
000000c0: c6ba bdbe 0624 483e 0b66 4e3e 933b c73e
000000d0: 6297 3cbe 7de8 553d 6f80 cb3d ebd9 a83e
000000e0: de5d dc3e ea54 653e 5027 efbc 86a2 3e3e
000000f0: a725 e0bd 7851 a73e 306b b63e 3904 3bbd
00000100: 6d23 96be 66af c2be 06bb da3e 4948 b73e
00000110: 5546 9dbd 8c9d 4a3e ab0d bc3e 720b c03e
00000120: 0cb6 64bc 8d29 bbbe 96cf 4a3e

GRU.weight_hh_l3 f4 [15, 5]
-0.39145395 -0.4468535 -0.42238396 0.3235194 -0.13745183 -0.066591695 0.22925034 0.24469809
-0.33051988 -0.34633154 -0.065090984 0.26819935 -0.0010426464 -0.12378766 -0.13459894 -0.40551502
0.33497337 0.2457785 -0.3858372 0.25618345 0.40230143 -0.22185567 -0.25208235 -0.21623932
0.027974706 -0.29098722 0.3761096 0.15821289 -0.1583536 0.21824142 0.27327457 -0.17434022
0.23079993 -0.36637047 -0.42190272 -0.17576441 -0.13624687 0.15073752 -0.18258889 0.19601712
0.36439693 0.27535284 0.41072214 -0.24102166 -0.18581867 -0.14408176 -0.44464555 0.19059296
0.17026323 0.001968675 0.4300808 0.22416411 -0.100748815 -0.20562401 0.205905 -0.254096
-0.0209304 -0.24117903 0.23321618 -0.10543844 0.04678964 0.3376047 0.14484608 0.37817273
0.20817782 -0.38360086 0.021170933 0.21358238 0.28502795 -0.36276698 -0.3988895 0.25758734
-0.35732058 -0.05910466 -0.39119563
00000000: a76c c8be fbc9 e4be b642 d8be 56a4 a53e
00000010: 2cc0 0cbe 3a61 88bd 9ac0 6a3e 2392 7a3e
00000020: e739 a9be 5e52 b1be 6c4e 85bd 6d51 893e
00000030: 68a9 88ba 6284 fdbd 4ed4 09be aa9f cfbe
00000040: a181 ab3e 5cad 7b3e 748c c5be 7a2a 833e
00000050: 74fa cd3e 222e 63be f010 81be d76d 5dbe
00000060: 362b e53c 47fc 94be 7091 c03e 8f02 223e
00000070: 7227 22be ae7a 5f3e a5ea 8b3e 3e86 32be
00000080: d156 6c3e e994 bbbe a203 d8be 96fb 33be
00000090: 4d84 0bbe f05a 1a3e 95f8 3abe b6b8 483e
000000a0: 3c92 ba3e 0cfb 8c3e 2c4a d23e 62ce 76be
000000b0: 4047 3ebe 2b8a 13be 95a8 e3be cd2a 433e
000000c0: 7c59 2e3e e304 013b 8d33 dc3e 478b 653e
000000d0: 6555 cebd 1a8f 52be c3d8 523e df18 82be
000000e0: 3b76 abbc a3f7 76be 39d0 6e3e 1cf0 d7bd
000000f0: 7ea6 3f3d 86da ac3e 8852 143e db9f c13e
00000100: 912c 553e 5567 c4be aa6e ad3c 57b5 5a3e
00000110: 2fef 913e 98bc b9be 3f3b ccbe 7de2 833e
00000120: b9f2 b6be ba17 72bd cb4a c8be

GRU.bias_ih_l3 f4 [15]
0.28106254 -0.43779457 0.33930084 0.4478147 0.41199753 -0.3204947 -0.38897845 -0.04186389
0.23515143 -0.40035263 -0.26640308 -0.43272638 0.39992115 0.36716124 0.3942011
00000000: 6ee7 8f3e 9c26 e0be d7b8 ad3e f847 e53e
00000010: 57f1 d23e e217 a4be 2f28 c7be 7879 2bbd
00000020: 89cb 703e 05fb ccbe fc65 88be 508e ddbe
00000030: 77c2 cc3e 8ffc bb3e bad4 c93e

GRU.bias_hh_l3 f4 [15]
0.08577387 0.16846673 0.23103316 -0.15490736 -0.44302368 0.36286408 -0.31650555 -0.276508
0.07002991 0.21983291 -0.29703748 0.018946888 -0.20862469 -0.02597644 -0.284216
00000000: 36aa af3d 8b82 2c3e f593 6c3e 09a0 1ebe
00000010: 00d4 e2be 52c9 b93e 040d a2be 7592 8dbe
00000020: d76b 8f3d e11b 613e 4c15 98be 8136 9b3c
00000030: b6a1 55be 8bcc d4bc c284 91be

GRU.weight_ih_l4 f4 [15, 5]
0.2977538 0.13847865 -0.07300744 -0.11269631 0.18016453 -0.16430049 0.25181943 0.22475947
0.3587335 -0.41968462 -0.166464 -0.20441958 0.057474013 -0.2926097 0.3124714 0.062182434
0.25572103 0.39571407 -0.066345535 0.020914799 -0.17025343 -0.05621955 -0.44907445 -0.17168725
0.25470906 -0.21613052 -0.36653447 -0.01804375 0.07522875 -0.14433457 -0.35134274 0.29603723
0.010964283 -0.3842542 0.36704135 0.3998765 0.25134328 -0.2199072 -0.35467002 0.00020558672
0.042820543 -0.2960065 0.24440756 -0.38051134 -0.2945709 -0.11594465 0.07943206 -0.28927287
-0.04353831 0.05410617 0.10461696 0.048139293 -0.087354414 -0.39087918 -0.011298251 -0.27824572
-0.1296022 0.40256688 0.18860167 -0.44731468 -0.27259052 0.36716884 0.39028198 0.1981362
0.32376847 -0.33246538 -0.024263786 0.36633694 -0.25145894 -0.37348697 0.43155754 0.06340618
0.22561276 0.18977252 -0.45058277
00000000: 3073 983e 59cd 0d3e ed84 95bd 53cd e6bd
00000010: 0d7d 383e 633e 28be 7aee 803e 5927 663e
00000020: ebab b73e e7e0 d6be 8a75 2abe 5e53 51be
00000030: df69 6b3d f0d0 95be 40fc 9f3e 02b3 7e3d
00000040: deed 823e 099b ca3e 2be0 87bd 8355 ab3c
00000050: ea56 2ebe 7946 66bd 16ed e5be c8ce 2fbe
00000060: 3a69 823e 5251 5dbe 68aa bbbe 7dd0 93bc
00000070: 8811 9a3d 71cc 13be 32e3 b3be 3192 973e
00000080: 89a3 333c f7bc c4be d8ec bb3e 9dbc cc3e
00000090: 11b0 803e 5a2f 61be 4f97 b5be c492 5739
000000a0: 9864 2f3d 2a8e 97be fa45 7a3e 62d2 c2be
000000b0: ffd1 96be 6374 edbd 47ad a23d 931b 94be
000000c0: 3a55 32bd 6e9e 5d3d 6b41 d63d b52d 453d
000000d0: dfe6 b2bd 5121 c8be 4d1c 39bc 3976 8ebe
000000e0: 70b6 04be 3f1d ce3e cc20 413e 6e06 e5be
000000f0: fc90 8bbe 8efd bb3e 0ad3 c73e 37e4 4a3e
00000100: fbc4 a53e e738 aabe d9c4 c6bc 8490 bb3e
00000110: 3abf 80be af39 bfbe 1cf5 dc3e 19db 813d
00000120: 0807 673e ba53 423e c9b2 e6be

GRU.weight_hh_l4 f4 [15, 5]
0.2202156 0.13980177 -0.34631297 0.082964316 -0.112475 0.11001113 0.0522969 0.24914494
0.43560818 -0.075472906 -0.085189596 -0.37900367 0.05232998 -0.41648984 0.13272068 -0.33925152
0.39954892 -0.40649801 0.078503266 -0.035810065 -0.10997876 0.18332958 0.29502222 0.0045976783
0.21001382 -0.20019278 -0.20101604 0.27417344 0.015304479 0.43140313 0.11913454 0.058200836
0.21106964 -0.030428663 -0.06820917 0.25519225 -0.30902943 0.25850138 -0.22151652 0.26297802
-0.1156205 0.15468822 -0.4029015 0.0815643 0.205013 -0.210686 -0.4192749 -0.34127456
0.27217865 0.24977762 0.078338854 0.14046386 -0.09142584 -0.43203628 0.030812634 0.33494827
0.3758319 0.39630687 -0.29133183 -0.36615214 -0.27388933 -0.39790213 0.10204569 0.0593599
-0.114544116 -0.36712703 -0.34523347 0.04067773 -0.22249983 0.13933206 -0.03865233 0.05194252
-0.03902569 -0.44392964 -0.32712233
00000000: 3380 613e 3228 0f3e ef4f b1be 32e9 a93d
00000010: 4b59 e6bd 844d e13d 4635 563d da1f 7f3e
00000020: 0908 df3e 8a91 9abd e277 aebd c50c c2be
00000030: f657 563d 283e d5be eee7 073e 60b2 adbe
00000040: ad91 cc3e 8220 d0be 52c6 a03d 93ad 12bd
00000050: 8b3c e1bd c0ba 3b3e 270d 973e 1fa8 963b
00000060: dd0d 573e 56ff 4cbe 26d7 4dbe 7660 8c3e
00000070: a3bf 7a3c dfe0 dc3e cffc f33d 0064 6e3d
00000080: a422 583e 8845 f9bc 40b1 8bbd 8fa8 823e
00000090: 1b39 9ebe 4b5a 843e 3ad5 62be 0ea5 863e
000000a0: 71ca ecbd 9766 1e3e 1b49 cebe 2f0b a73d
000000b0: eeee 513e 12be 57be 33ab d6be 8abb aebe
000000c0: 005b 8b3e b4c5 7f3e 1f70 a03d c2d5 0f3e
000000d0: 793d bbbd dc33 ddbe c76a fc3c 577e ab3e
000000e0: 0a6d c03e bce8 ca3e 7229 95be 4b78 bbbe
000000f0: 393b 8cbe d4b9 cbbe 55fd d03d 5e23 733d
00000100: 1b96 eabd 13f8 bbbe 71c2 b0be b19d 263d
00000110: ffd6 63be 10ad 0e3e e851 1ebd aec1 543d
00000120: 67d9 1fbd bf4a e3be 947c a7be

GRU.bias_ih_l4 f4 [15]
-0.40559047 0.30689752 0.33080885 -0.032115903 0.16386907 -0.064093396 -0.07188978 0.37434077
0.040119503 -0.35147065 -0.23632702 0.2727829 0.017928654 0.049925223 0.09643589
00000000: 8ea9 cfbe ac21 9d3e c75f a93e f78b 03bd
00000010: 4bcd 273e 6643 83bd f33a 93bd 98a9 bf3e
00000020: 5954 243d f6f3 b3be b6ff 71be 33aa 8b3e
00000030: 1ddf 923c 647e 4c3d 2e80 c53d

GRU.bias_hh_l4 f4 [15]
-0.088101044 -0.1746679 -0.34538034 -0.34306052 0.0051348875 -0.16668828 -0.161464 -0.366885
0.35265705 -0.02459793 0.35598218 -0.23597433 -0.2686625 0.023752157 0.31247038
00000000: 526e b4bd 24dc 32be b1d5 b0be a1a5 afbe
00000010: 8f42 a83b 55b0 2abe d256 25be 5ad8 bbbe
00000020: 778f b43e 9981 c9bc 4c43 b63e 41a3 71be
00000030: 228e 89be e293 c23c 1efc 9f3e

GRU.weight_ih_l5 f4 [15, 5]
0.2672107 -0.012880974 -0.44449612 0.013363066 0.06707673 0.41411683 -0.15007482 0.07555799
0.18379843 0.3320617 -0.38405678 -0.1465841 -0.42637748 0.009829285 0.32531083 -0.21497123
0.37852094 0.23818968 0.40269074 -0.34396124 -0.3831203 0.39017883 -0.11785159 -0.049682725
-0.28332058 -0.05107465 -0.41967508 0.19533743 -0.2140717 0.4575277 0.19591036 0.00871648
0.0025526737 -0.2297264 0.19921522 0.23540032 0.37013277 0.035394166 0.1532111 0.27636987
-0.4274695 -0.40477803 -0.24059929 -0.08165955 0.27948436 0.07678248 0.18050459 0.30106613
0.28651693 0.26961625 0.15385626 0.27954686 0.29797405 0.34278375 0.26570192 -0.38367727
0.017889127 -0.26053748 0.35867277 0.08793251 0.21237262 0.12095059 0.09238667 0.18822603
0.43739092 -0.4279752 0.031679846 -0.08781446 -0.0706504 -0.35521415 0.14799975 -0.008992987
-0.0854098 0.10421112 -0.43212834
00000000: d7cf 883e b90a 53bc ff94 e3be c3f0 5a3c
00000010: 865f 893d 1f07 d43e 37ad 19be 26be 9a3d
00000020: a835 3c3e fe03 aa3e 17a3 c4be 241a 16be
00000030: 264e dabe 020b 213c 248f a63e 6b21 5cbe
00000040: 7fcd c13e ffe7 733e 7b2d ce3e b01b b0be
00000050: 5828 c4be 85c5 c73e 2d5c f1bd 1d80 4bbd
00000060: 650f 91be a733 51bd a7df d6be 8906 483e
00000070: 9d35 5bbe 1241 ea3e ba9c 483e 91cf 0e3c
00000080: c24a 273b 663d 6bbe 13ff 4b3e c80c 713e
00000090: 0b82 bd3e 79f9 103d 5fe3 1c3e 5a80 8d3e
000000a0: 48dd dabe 113f cfbe a95f 76be 1f3d a7bd
000000b0: 9318 8f3e 2240 9d3d 32d6 383e 5725 9a3e
000000c0: 59b2 923e 240b 8a3e 7f8c 1d3e c420 8f3e
000000d0: 0e90 983e 5a81 af3e 150a 883e 5971 c4be
000000e0: 388c 923c 2b65 85be f5a3 b73e f615 b43d
000000f0: 3578 593e f1b4 f73d 3935 bd3d 53be 403e
00000100: b4f1 df3e 911f dbbe bac2 013d 11d8 b3bd
00000110: 28b1 90bd a1de b5be 3f8d 173e 5257 13bc
00000120: 55eb aebd a46c d53d ed3f ddbe

GRU.weight_hh_l5 f4 [15, 5]
-0.26746434 -0.35930428 -0.24938543 -0.1015291 -0.43312946 0.19839524 0.23646057 -0.19371098
-0.20604554 -0.32918483 -0.18960659 0.04233369 0.21416202 -0.1239276 0.2085332 -0.121362224
-0.33636725 0.0069358405 -0.068115264 0.2464224 -0.15533054 0.44060904 -0.33696374 -0.10109083
-0.31524745 -0.11560345 0.16322356 -0.033804715 0.30248347 0.40508258 -0.09356095 -0.1341448
0.40226334 -0.058164295 -0.10132222 -0.3395183 -0.290942 0.14381547 0.37558073 -0.32123405
0.26691413 -0.21944748 -0.06874771 0.4363638 -0.23867433 -0.28138098 -0.10516799 -0.10583484
-0.038723793 -0.09426143 -0.36636138 -0.16585043 0.24683313 -0.24222292 0.22457574 -0.20100752
-0.012251437 0.21453041 0.15979487 0.17573583 -0.1396789 0.26718992 -0.29612017 0.30495757
-0.25574762 -0.34483033 -0.20837373 -0.44220206 -0.14195763 -0.34273002 -0.04284119 0.20264967
0.13697046 -0.41176257 0.25018966
00000000: 16f1 88be bbf6 b7be e55e 7fbe 7dee cfbd
00000010: 25c3 ddbe 1f28 4b3e b822 723e 2c5c 46be
00000020: 9afd 52be ea8a a8be 3b28 42be 1766 2d3d
00000030: 4a4d 5b3e c1cd fdbd ba89 553e c28c f8bd
00000040: 5438 acbe 0c46 e33b 0480 8bbd 2756 7c3e
00000050: f80e 1fbe 8297 e13e 8386 acbe b608 cfbd
00000060: 1d68 a1be 80c1 ecbd 1424 273e d076 0abd
00000070: 1ddf 9a3e fc66 cf3e e29c bfbd 415d 09be
00000080: 76f5 cd3e af3d 6ebd 0682 cfbd 58d5 adbe
00000090: 5af6 94be 5d44 133e 1e4c c03e ca78 a4be
000000a0: f8a8 883e d7b6 60be 99cb 8cbd 136b df3e
000000b0: 0b67 74be 2b11 90be 5162 d7bd f0bf d8bd
000000c0: d79c 1ebd 230c c1bd b893 bbbe b2d4 29be
000000d0: d3c1 7c3e 4909 78be 2ff7 653e ead4 4dbe
000000e0: 40ba 48bc dcad 5b3e 44a1 233e 18f4 333e
000000f0: fc07 0fbe 1ecd 883e 109d 97be 6623 9c3e
00000100: 5af1 82be 9a8d b0be ec5f 55be 4f68 e2be
00000110: 575d 11be 4f7a afbe 3e7a 2fbd 6583 4f3e
00000120: fc41 0c3e 8bd2 d2be dc18 803e

GRU.bias_ih_l5 f4 [15]
0.36123848 0.32031626 0.05293725 0.3964943 0.2909457 0.39015397 0.039852716 -0.02956814
-0.43214726 0.0022601162 0.36518255 0.22804542 -0.26380137 -0.29242283 0.054699373
00000000: 40f4 b83e 7e00 a43e bbd4 583d 4d01 cb3e
00000010: d6f6 943e 43c2 c73e 9a3c 233d e238 f2bc
00000020: 6842 ddbe 751e 143b 35f9 ba3e bd84 693e
00000030: f910 87be 72b8 95be 730c 603d

GRU.bias_hh_l5 f4 [15]
-0.15947369 0.38983595 -0.21235844 0.22932489 -0.14650421 -0.35724527 -0.43596467 0.43457446
-0.13335596 -0.31300688 0.115518674 -0.26538914 -0.35715866 -0.2953766 -0.04018255
00000000: 124d 23be 9498 c73e 7e74 59be 25d4 6a3e
00000010: 3305 16be dae8 b6be c336 dfbe 8b80 de3e
00000020: 778e 08be 7042 a0be 0e95 ec3d 16e1 87be
00000030: 80dd b6be 9a3b 97be 7596 24bd

GRU.weight_ih_l6 f4 [15, 5]
0.34780133 0.38794217 -0.17041129 0.27563322 -0.29122373 0.189586 -0.10146006 0.18751869
-0.085662104 0.22261989 -0.18180838 -0.1900684 -0.19745113 -0.25702858 0.33030316 0.37388596
0.38804105 -0.22869746 0.027070746 -0.0450056 0.2528339 -0.056758266 -0.026316773 -0.20493458
-0.20769052 -0.18176335 0.09485821 0.036307983 -0.4429819 -0.032876115 -0.13246505 0.08878917
0.03173633 0.19572203 0.18259136 0.35159957 0.39231953 -0.34884956 -0.28292558 -0.14678022
0.2723302 -0.18512513 -0.43650118 -0.36396796 -0.28846416 0.09044836 -0.41707042 -0.044907082
0.053268433 -0.31951535 -0.060717613 0.07823002 0.37615338 0.040137444 -0.10147038 0.3527651
0.36464435 0.36222512 0.2374012 -0.31952274 -0.42595097 -0.29960176 0.17295761 0.20757045
0.32149857 0.19185303 0.26739863 0.39985582 0.14086384 -0.41202036 0.048578776 -0.29500896
-0.24299145 -0.29683968 0.03852026
00000000: 0413 b23e 5ba0 c63e 4c80 2ebe cc1f 8d3e
00000010: 471b 95be d522 423e 4bca cfbd e604 403e
00000020: 9d6f afbd 78f6 633e fa2b 3abe 4aa1 42be
00000030: a130 4abe 4099 83be 7f1d a93e fb6d bf3e
00000040: 51ad c63e ab2f 6abe 78c3 dd3c cb57 38bd
00000050: 7273 813e 5b7b 68bd 4696 d7bc 5fda 51be
00000060: d3ac 54be 2c20 3abe 0545 c23d aeb7 143d
00000070: 86ce e2be 1ba9 06bd eba4 07be 19d7 b53d
00000080: f4fd 013d 5b6b 483e 3bf9 3a3e dc04 b43e
00000090: 1bde c83e 699c b2be 9fdb 90be 8e4d 16be
000000a0: dd6e 8b3e 7191 3dbe 157d dfbe 025a babe
000000b0: 93b1 93be fd3c b93d 418a d5be 7df0 37bd
000000c0: 0030 5a3d 8497 a3be 08b3 78bd 1037 a03d
000000d0: 2d97 c03e 2967 243d b4cf cfbd a19d b43e
000000e0: aab2 ba3e 9275 b93e 4d19 733e 7c98 a3be
000000f0: 3f16 dabe 6765 99be cd1b 313e 598d 543e
00000100: 769b a43e 1f75 443e 79e8 883e e7b9 cc3e
00000110: 9c3e 103e 55f4 d2be 8afa 463d 6a0b 97be
00000120: c0d2 78be 5ffb 97be 6cc7 1d3d

GRU.weight_hh_l6 f4 [15, 5]
0.014877962 0.3021995 -0.32831228 0.08008012 -0.34024987 0.1242174 0.019587 0.20680313
-0.12829515 -0.25657502 0.43128216 -0.025682904 -0.06231452 0.36005408 0.43580204 0.2717204
0.36754808 0.27446696 0.16460215 0.28804997 -0.17008993 -0.33160135 -0.17001118 0.25129423
0.27610174 0.20069909 0.28798914 -0.17996264 0.37460268 0.0075771166 -0.3368054 0.389169
0.40894213 -0.13258436 0.32634634 0.071070276 0.28624383 -0.04354378 -0.08506311 0.43932965
0.26106656 -0.109022 0.4048088 -0.027870448 0.11743535 -0.023258938 0.19994678 0.27698505
0.37960783 -0.049930032 0.2867293 0.38806838 0.054755583 -0.12726116 -0.3483973 -0.13060172
0.27833566 -0.2542371 0.23756962 0.3496108 -0.049656834 -0.20641315 -0.41658735 0.123361416
0.40653744 0.32875988 0.33379212 0.10364201 -0.14091592 0.11911577 0.2794134 -0.022598896
-0.23668139 0.44726327 -0.12974496
00000000: b2c2 733c e5b9 9a3e 8c18 a8be 0c01 a43d
00000010: 3b35 aebe b165 fe3d eb74 a03c 33c4 533e
00000020: ce5f 03be cd5d 83be 04d1 dc3e f464 d2bc
00000030: 833d 7fbd 0259 b83e 7221 df3e f01e 8b3e
00000040: 432f bc3e ef86 8c3e 778d 283e 497b 933e
00000050: 0e2c 2ebe a7c7 a9be 6917 2ebe a3a9 803e
00000060: 355d 8d3e 1084 4d3e 5073 933e 2048 38be
00000070: eccb bf3e 7649 f83b c271 acbe 2941 c73e
00000080: dd60 d13e 32c4 07be de16 a73e 4b8d 913d
00000090: 8d8e 923e f65a 32bd 9135 aebd d1ef e03e
000000a0: 84aa 853e ed46 dfbd 1943 cf3e 9150 e4bc
000000b0: f281 f03d 8789 bebc d9be 4c3e fcd0 8d3e
000000c0: f55b c23e 6f83 4cbd 2fce 923e e6b0 c63e
000000d0: 6447 603d c050 02be 2261 b2be 75bc 05be
000000e0: 0382 8e3e 5d2b 82be 7345 733e 3000 b33e
000000f0: f764 4bbd f85d 53be f04a d5be e9a4 fc3d
00000100: ad25 d03e 3753 a83e cde6 aa3e 4342 d43d
00000110: 434c 10be f8f2 f33d 460f 8f3e 5221 b9bc
00000120: 9b5c 72be b1ff e43e dddb 04be

GRU.bias_ih_l6 f4 [15]
-0.23070532 -0.10397694 -0.07579562 -0.17055766 0.27259356 0.3992691 0.06043256 0.04077817
-0.068060674 0.16257627 -0.15795608 -0.2926327 -0.19874676 -0.28819704 0.35183316
00000000: 043e 6cbe ddf1 d4bd bc3a 9bbd aba6 2ebe
00000010: 6291 8b3e 006d cc3e 2288 773d 0307 273d
00000020: 6563 8bbd 657a 263e 3dbf 21be f4d3 95be
00000030: 4584 4bbe 908e 93be 7a23 b43e

GRU.bias_hh_l6 f4 [15]
0.16592154 -0.09986893 -0.06504527 0.24318461 0.32879722 -0.042535894 0.32405168 0.25219786
0.30022222 -0.17535742 -0.17140949 0.11730779 0.04910779 -0.18018049 -0.2858675
00000000: 56e7 293e 1588 ccbd 7436 85bd 6305 793e
00000010: 1c58 a83e 1e3a 2ebd 1aea a53e 1420 813e
00000020: bab6 993e e590 33be f885 2fbe 113f f03d
00000030: 4025 493d 3c81 38be 3a5d 92be

GRU.weight_ih_l7 f4 [15, 5]
0.045227204 0.2874886 -0.45196125 -0.032292236 -0.39064723 -0.14365736 -0.02426419 0.12760302
-0.20917583 -0.2617897 -0.039592076 0.37652647 -0.4215267 0.2869799 -0.11852141 0.02501314
-0.30085525 -0.42095998 -0.049853995 -0.15296026 0.14032532 0.067190565 0.05126679 -0.19547768
0.3343503 0.4253644 0.38168764 0.14964902 -0.10290307 -0.19708236 -0.21974446 0.14679325
-0.19283569 0.1893002 -0.3069916 -0.035627637 0.3303085 -0.42147246 -0.16576435 -0.23236148
0.3406477 0.07809867 0.16494611 0.24002695 -0.42484337 0.0033921911 0.2481349 -0.14147562
-0.4510642 -0.32256448 -0.17971392 0.14736488 -0.2748994 0.13650079 0.015676903 -0.0953354
0.23806712 -0.01944558 -0.36223996 -0.12801813 -0.18095018 0.3295155 -0.26169798 -0.26741904
-0.16300109 -0.07695366 -0.039791066 -0.10535188 -0.12364912 0.31261164 -0.32760087 -0.04674726
0.27444953 0.30696946 -0.4340327
00000000: 2940 393d b531 933e 7767 e7be dd44 04bd
00000010: ea02 c8be ea1a 13be b2c5 c6bc 5eaa 023e
00000020: 3032 56be 4d09 86be 4d2b 22bd 14c8 c03e
00000030: 59d2 d7be 08ef 923e 5abb f2bd 5be8 cc3c
00000040: b309 9abe 1188 d7be b433 4cbd 9da1 1cbe
00000050: 71b1 0f3e 359b 893d 20fd 513d 4d2b 48be
00000060: f62f ab3e 5dc9 d93e 906c c33e 983d 193e
00000070: d8be d2bd f5cf 49be b104 61be f850 163e
00000080: b876 45be e9d7 413e 012e 9dbe 49ee 11bd
00000090: 321e a93e 3dcb d7be 21be 29be 2bf0 6dbe
000000a0: 6069 ae3e 32f2 9f3d a2e7 283e a0c9 753e
000000b0: 1285 d9be 864f 5e3b 1317 7e3e fcde 10be
000000c0: e3f1 e6be 2c27 a5be ed06 38be d2e6 163e
000000d0: 9dbf 8cbe ddc6 0b3e d96c 803c 353f c3bd
000000e0: dec7 733e 564c 9fbc 8477 b9be 2f17 03be
000000f0: 014b 39be 41b6 a83e 47fd 85be 26eb 88be
00000100: c2e9 26be e199 9dbd f5fb 22bd bac2 d7bd
00000110: c03b fdbd a20e a03e 4dbb a7be 0e7a 3fbd
00000120: a684 8c3e 1a2b 9d3e 8939 debe

GRU.weight_hh_l7 f4 [15, 5]
0.37007615 0.07722938 -0.012900254 -0.08786821 -0.24206811 0.10518719 -0.41719252 0.29075623
0.32078037 0.3760204 -0.074589655 -0.31913936 0.34908992 -0.26946217 -0.4156537 -0.384134
-0.16229136 -0.20865536 -0.20524031 0.44714612 -0.36569142 0.41916624 0.43234825 -0.3014425
-0.38485622 -0.44415653 -0.37333104 0.15172139 -0.09802896 -0.0017092922 0.23546913 0.025633324
-0.29027307 0.013129799 0.3513572 -0.28024057 -0.236038 -0.36641267 0.19638088 0.06483722
-0.26433578 0.379026 -0.11982506 -0.39583683 -0.26677087 0.09924256 0.116093904 0.0471608
0.25780833 0.34758326 -0.14457436 -0.4366109 -0.35085425 -0.044185173 0.19609646 0.10965276
-0.085394405 -0.37014106 -0.2786343 0.07820533 0.0020207318 -0.26460487 0.14973408 0.24922967
0.18698364 -0.108736455 -0.34060684 0.30343556 0.28384903 -0.42418534 0.21566539 0.37958825
0.31801203 0.24450964 -0.028738849
00000000: 9f7a bd3e 702a 9e3d 965b 53bc 40f4 b3bd
00000010: b4e0 77be 626c d73d 429a d5be 00de 943e
00000020: 533d a43e bf85 c03e 76c2 98bd 3c66 a3be
00000030: eabb b23e f2f6 89be 90d0 d4be 36ad c4be
00000040: b52f 26be c0a9 55be 842a 52be 56f0 e43e
00000050: e83b bbbe f59c d63e c05c dd3e ac56 9abe
00000060: e00b c5be 7c68 e3be 3f25 bfbe da5c 1b3e
00000070: 68c3 c8bd 540a e0ba d21e 713e fafc d13c
00000080: ac9e 94be 5e1e 573c 17e5 b33e b17b 8fbe
00000090: f2b3 71be 719a bbbe 1218 493e 60c9 843d
000000a0: 0557 87be b20f c23e d766 f5bd 20ab cabe
000000b0: 3196 88be af3f cb3d a4c2 ed3d af2b 413d
000000c0: 74ff 833e 6ff6 b13e 4d0b 14be 778b dfbe
000000d0: 2ba3 b3be 83fb 34bd 83cd 483e a091 e03d
000000e0: 43e3 aebd 2183 bdbe 28a9 8ebe 1e2a a03d
000000f0: 416e 043b 4a7a 87be e453 193e 1036 7f3e
00000100: a478 3f3e 38b1 debd 0564 aebe e85b 9b3e
00000110: a954 913e d22e d9be 63d7 5c3e 6459 c23e
00000120: 79d2 a23e bc60 7a3e bc6d ebbc

GRU.bias_ih_l7 f4 [15]
-0.068095185 0.382156 0.014092781 -0.0064584846 -0.19938438 -0.20765507 -0.31355214 -0.12890331
0.40994343 0.2789169 0.33363864 0.16135961 0.0059939707 0.1724489 0.20440058
00000000: 7d75 8bbd f4a9 c33e 68e5 663c b2a1 d3bb
00000010: 6b2b 4cbe 88a3 54be e889 a0be 3bff 03be
00000020: 1be4 d13e 32ce 8e3e afd2 aa3e 743b 253e
00000030: 1269 c43b 7296 303e 634e 513e

GRU.bias_hh_l7 f4 [15]
-0.4086124 -0.13006715 -0.27657586 -0.34850731 0.006153608 -0.34290078 -0.17544138 -0.17468907
0.39704368 0.02700487 -0.38551226 0.28021774 -0.30421075 0.37703466 -0.33010954
00000000: a535 d1be 5330 05be 5a9b 8dbe 8d6f b2be
00000010: 35a4 c93b b190 afbe e8a6 33be b1e1 32be
00000020: 4f49 cb3e 5139 dd3c dd61 c5be b378 8f3e
00000030: 83c1 9bbe b00a c13e 1e04 a9be

GRU.weight_ih_l8 f4 [15, 5]
0.333436 -0.040819425 -0.24224356 -0.021434193 -0.00013987378 0.11269195 0.2742369 0.29628143
-0.389693 0.13151339 -0.31727633 0.024676332 -0.12948312 -0.25143206 0.29614097 0.2742705
0.2449084 0.22089598 -0.093436986 0.1631728 -0.22664437 -0.25297034 0.13125828 0.09869523
-0.22797015 0.13336553 -0.12992054 -0.01988303 -0.042210575 0.21144329 -0.3851007 -0.24377924
-0.051925555 0.2452267 0.017237538 -0.02618248 0.06253957 -0.07601685 -0.33764115 -0.20146677
0.3605127 -0.33462217 0.13235684 0.3811607 0.33942887 -0.2629445 0.34606373 0.08821408
-0.266774 -0.047930032 -0.1619122 -0.31354046 0.35378006 0.40875566 0.2893904 -0.07437094
-0.28323057 -0.36165822 -0.20472342 -0.30456394 0.40588212 0.05209343 -0.05247207 0.13405377
-0.029460851 -0.23061539 0.17273502 -0.08878291 0.28725776 -0.21332152 0.02482186 -0.086892106
-0.28956115 -0.4266493 -0.23838326
00000000: 20b8 aa3e 4532 27bd b20e 78be c396 afbc
00000010: 15ab 12b9 09cb e63d c768 8c3e 33b2 973e
00000020: d785 c7be 72ab 063e 0b72 a2be 0526 ca3c
00000030: 3997 04be b4bb 80be ca9f 973e 2f6d 8c3e
00000040: 45c9 7a3e 8e32 623e e45b bfbd c516 273e
00000050: 7615 68be 5485 81be 9268 063e ba20 ca3d
00000060: 0271 69be f990 083e e409 05be bce1 a2bc
00000070: ffe4 2cbd 9784 583e eb2b c5be 44a1 79be
00000080: e4af 54bd b51c 7b3e bd35 8d3c a47c d6bc
00000090: bf14 803d b9ae 9bbd 4ddf acbe 4e4d 4ebe
000000a0: 1f95 b83e 9953 abbe 8d88 073e 7f27 c33e
000000b0: 9fc9 ad3e a9a0 86be 442f b13e 95a9 b43d
000000c0: 9a96 88be 4852 44bd 50cc 25be 6088 a0be
000000d0: a922 b53e 6c48 d13e fa2a 943e cb4f 98bd
000000e0: 9903 91be 442b b9be 04a3 51be ceef 9bbe
000000f0: c8cf cf3e ec5f 553d f4ec 56bd 6445 093e
00000100: e257 f1bc 7126 6cbe 73e1 303e d0d3 b5bd
00000110: 7313 933e f570 5abe 3757 cb3c 7df4 b1bd
00000120: 5c41 94be c771 dabe be1a 74be

GRU.weight_hh_l8 f4 [15, 5]
0.23727375 0.13352832 0.09800838 0.094257146 -0.16111003 -0.017016457 -0.3905221 0.06535644
-0.13602442 -0.33938125 0.23701467 0.26456982 -0.19608364 -0.3013594 0.114635795 0.21701525
-0.119428925 0.023906164 0.14954425 -0.2858432 -0.026115576 0.19741231 -0.2531873 0.17017995
-0.42351124 -0.35120305 -0.2845424 0.084028475 -0.2457016 -0.10283306 0.16961496 -0.23219027
-0.039695963 0.22541203 -0.0702501 -0.214249 -0.40461808 0.15571947 0.18392114 0.016263038
0.0758509 -0.3221858 0.08510118 0.37538913 0.20099734 -0.2084936 -0.3746052 -0.20756263
-0.3281916 -0.4226239 -0.19795877 0.050548986 -0.15734908 0.39682505 0.2326268 -0.32880366
0.1522341 -0.36741114 0.2200167 0.41915944 -0.09446899 0.03430244 0.38289186 -0.37963736
-0.004197388 0.090222664 0.36249787 -0.046345294 0.1316085 0.31259623 -0.18684424 -0.39902243
0.2641281 0.3961507 0.15376595
00000000: e4f7 723e a6bb 083e 9eb8 c83d e409 c13d
00000010: 07fa 24be 1966 8bbc 83f2 c7be 99d9 853d
00000020: fc49 0bbe 61c3 adbe f9b3 723e b275 873e
00000030: 26ca 48be c74b 9abe 2cc6 ea3d 3f39 5e3e
00000040: 2797 f4bd dcd6 c33c 2122 193e 0a5a 92be
00000050: 55f0 d5bc 7426 4a3e c4a1 81be a743 2e3e
00000060: 77d6 d8be e3d0 b3be 8baf 91be 1f17 ac3d
00000070: 3399 7bbe 249a d2bd 8baf 2d3e 49c3 6dbe
00000080: 3c98 22bd 69d2 663e 49df 8fbd 1764 5bbe
00000090: 1a2a cfbe ed74 1f3e d355 3c3e 103a 853c
000000a0: b757 9b3d 8af5 a4be 8749 ae3d 0133 c03e
000000b0: 3fd2 4d3e 597f 55be 41cc bfbe 4c8b 54be
000000c0: bb08 a8be 2962 d8be b4b5 4abe 740c 4f3d
000000d0: 1e20 21be a72c cb3e b835 6e3e f458 a8be
000000e0: 42e3 1b3e 501d bcbe 0f4c 613e 119c d63e
000000f0: f578 c1bd b780 0c3d 670a c43e d45f c2be
00000100: 3e8a 89bb a9c6 b83d 5299 b93e 90d4 3dbd
00000110: 61c4 063e 9d0c a03e 1954 3fbe ab4c ccbe
00000120: cc3b 873e 44d4 ca3e d274 1d3e

GRU.bias_ih_l8 f4 [15]
0.4142824 0.015189304 -0.381154 0.18298005 0.07361516 -0.23144652 -0.35593092 0.14821263
0.40338862 -0.24881783 -0.19219992 0.32908818 -0.2496476 -0.005773199 0.2373256
00000000: d31c d43e 8fdc 783c 9e26 c3be 1f5f 3b3e
00000010: 8cc3 963d 5100 6dbe 943c b6be 0dc5 173e
00000020: f488 ce3e 1aca 7ebe 0ed0 44be 3f7e a83e
00000030: 9fa3 7fbe 1a2d bdbb 7b05 733e

GRU.bias_hh_l8 f4 [15]
-0.14635998 0.31001893 0.36024255 -0.3978627 0.38906446 -0.052915268 0.36580473 0.16035272
-0.29240972 0.11983374 -0.34531432 -0.41817704 -0.4543712 0.33352557 -0.43704474
00000000: 64df 15be cdba 9e3e b671 b83e a9b4 cbbe
00000010: 7533 c73e aebd 58bd c24a bb3e 8133 243e
00000020: bab6 95be 646b f53d 0acd b0be 4d1b d6be
00000030: 58a3 e8be ddc3 aa3e 54c4 dfbe

GRU.weight_ih_l9 f4 [15, 5]
0.0073244586 0.25050363 0.08737419 0.08559557 -0.1240355 0.06696038 0.31539303 -0.35426325
0.28454342 -0.119295985 0.2629027 -0.2771346 -0.019098062 -0.15087575 0.17489423 -0.0028992807
-0.23784988 -0.13929549 0.14023316 0.3433966 -0.23244107 -0.254019 -0.31067 -0.20828919
0.21342884 -0.1652388 0.05908815 0.052414577 0.20501557 0.42638838 -0.033557516 0.30143574
-0.2637282 -0.40352818 0.022712687 0.14722668 -0.30798113 0.340667 0.31398606 0.41409543
0.09273074 -0.18775468 -0.34764507 0.26208416 0.054245006 -0.36140582 0.17492886 -0.3842252
-0.036447123 -0.10272913 0.06668478 -0.32021853 -0.2652653 -0.030987151 -0.17226854 -0.18337356
-0.323032 -0.39346108 -0.30915406 0.14162652 -0.015557314 0.314848 0.3399091 -0.15779102
-0.32952356 0.21499869 0.028783325 0.19986433 0.041778557 0.19382106 0.17985511 0.3779843
0.12765513 0.35228053 0.12873575
00000000: 0302 f03b 0342 803e 3df1 b23d bb4c af3d
00000010: 5306 febd 8622 893d 327b a13e fe61 b5be
00000020: adaf 913e 7451 f4bd 2f9b 863e 96e4 8dbe
00000030: 8a73 9cbc 2c7f 1abe 7917 333e dc01 3ebb
00000040: eb8e 73be 7aa3 0ebe 4899 0f3e aed1 af3e
00000050: 0805 6ebe c70e 82be 2310 9fbe c349 55be
00000060: 178d 5a3e 5c34 29be 6a06 723d abb0 563d
00000070: 9aef 513e 944f da3e 9b73 09bd c955 9a3e
00000080: 6207 87be 3f9b cebe f50f ba3c 97c2 163e
00000090: b4af 9dbe e86b ae3e c8c2 a03e 5104 d43e
000000a0: 9de9 bd3d c342 40be 89fe b1be e52f 863e
000000b0: 0330 5e3d 2f0a b9be 8d20 333e 2ab9 c4be
000000c0: 9449 15bd a663 d2bd 0892 883d aff3 a3be
000000d0: dad0 87be c4d8 fdbc 2a67 30be 47c6 3bbe
000000e0: 7364 a5be bb73 c9be 7149 9ebe 8b06 113e
000000f0: 1be4 7ebc c233 a13e 9108 ae3e f893 21be
00000100: 50b7 a8be 9e28 5c3e 02cb eb3c 3ca9 4c3e
00000110: fe1f 2b3d 0779 463e f02b 383e 2887 c13e
00000120: 07b8 023e 1d5e b43e 4ed3 033e

GRU.weight_hh_l9 f4 [15, 5]
0.43707588 -0.01047752 -0.18514399 -0.37030497 0.30564314 0.27670538 -0.15650855 -0.14933611
-0.13080224 -0.14808708 -0.009793873 0.13206641 -0.046925638 -0.29027355 0.27766928 -0.17102177
-0.19005634 0.27427533 -0.21015336 -0.31432155 0.15083535 -0.07362203 0.16416866 0.33596763
-0.087445155 0.015160074 -0.091348454 -0.23200916 -0.015785662 0.13897511 -0.44554433 0.010864152
-0.3606163 -0.075779766 -0.24566928 0.31371868 0.1878478 -0.19921671 -0.3608092 0.14368847
-0.20390832 -0.4087211 0.29329106 0.19061913 -0.28675207 -0.07977344 -0.13874456 0.27421567
-0.20453508 0.31202754 0.36656582 -0.31525218 0.42871574 0.293466 -0.3968997 0.35196015
0.09627555 -0.33995047 0.38086024 0.23038295 -0.3495783 0.23225383 0.17859493 0.17366576
-0.12959203 -0.04987995 0.1994636 -0.06842846 -0.008798754 0.15300046 0.023590675 0.35584822
0.15031186 0.20459677 0.2463533
00000000: 69c8 df3e e7a9 2bbc 6396 3dbe 9d98 bdbe
00000010: 427d 9c3e 54ac 8d3e c743 20be 91eb 18be
00000020: 06f1 05be 24a4 17be 7b76 20bc 6b3c 073e
00000030: 1935 40bd bc9e 94be ab2a 8e3e 5520 2fbe
00000040: 219e 42be d16d 8c3e 7132 57be c1ee a0be
00000050: 9574 1a3e 26c7 96bd d41b 283e f303 ac3e
00000060: 7216 b3bd f661 783c e614 bbbd cf93 6dbe
00000070: ef50 81bc 7e4f 0e3e 631e e4be 8eff 313c
00000080: b3a2 b8be 6c32 9bbd ba90 7bbe bc9f a03e
00000090: 2c5b 403e 77ff 4bbe fcbb b8be 1223 133e
000000a0: 58cd 50be e443 d1be 3f2a 963e a931 433e
000000b0: 2bd1 92be 4260 a3bd 0e13 0ebe ff65 8c3e
000000c0: a571 51be 13c2 9f3e 84ae bb3e bc68 a1be
000000d0: a180 db3e 2d41 963e 7036 cbbe 1f34 b43e
000000e0: 1e2c c53d fd0d aebe 1d00 c33e 82e9 6b3e
000000f0: edfb b2be f3d3 6d3e 97e1 363e 70d5 313e
00000100: c6b3 04be eb4e 4cbd 3040 4c3e 3824 8cbd
00000110: a628 10bc 27ac 1c3e 3b41 c13c bd31 b63e
00000120: 5aeb 193e d181 513e 0a44 7c3e

GRU.bias_ih_l9 f4 [15]
0.13740629 -0.015182847 -0.14773054 -0.3515297 -0.14016122 0.42663854 0.32876685 -0.30900174
0.1309982 -0.323558 -0.30017585 -0.1728732 0.27034262 -0.33931595 -0.2808689
00000000: 3cb4 0c3e 7ac1 78bc ad46 17be b3fb b3be
00000010: 6c86 0fbe 5e70 da3e 2154 a83e 7a35 9ebe
00000020: 6424 063e 65a9 a5be a6b0 99be ac05 31be
00000030: 596a 8a3e d2ba adbe 0cce 8fbe

GRU.bias_hh_l9 f4 [15]
0.009004387 0.22506283 0.30675247 -0.18159637 -0.009853305 -0.36905953 -0.33681905 0.40221518
-0.20380354 -0.109849304 0.25987375 -0.04912734 0.40847412 0.27466124 -0.08260803
00000000: 2387 133c df76 663e a90e 9d3e 66f4 39be
00000010: c26f 21bc 5ff5 bcbe 8c73 acbe 26ef cd3e
00000020: e0b1 50be acf8 e0bd 2c0e 853e c039 49bd
00000030: 8523 d13e 66a0 8c3e 662e a9bd

lin3.weight f4 [6, 5]
0.1938331 -0.17285904 0.32870048 0.14963503 0.09277368 0.42202753 -0.24053846 0.30161947
0.10549945 -0.12466427 -0.29153928 -0.39469275 -0.37355575 0.13061206 0.13578391 0.34362808
0.11536026 0.034175653 -0.3750438 -0.05821203 0.20602563 -0.0758318 0.3169088 -0.06441141
-0.35257292 0.43888748 -0.11416217 -0.05094335 -0.38886216 -0.39388958
00000000: 2f7c 463e f601 31be 6e4b a83e ed39 193e
00000010: 2100 be3d fe13 d83e b74f 76be de6d 9a3e
00000020: 1810 d83d fb4f ffbd a344 95be 2b15 cabe
00000030: b342 bfbe 2bbf 053e f00a 0b3e 05f0 af3e
00000040: 0042 ec3d c5fb 0b3d be05 c0be bd6f 6ebd
00000050: 62f8 523e b44d 9bbd df41 a23e 21ea 83bd
00000060: 7084 b4be dcb5 e03e dbcd e9bd f9a9 50bd
00000070: f118 c7be e5ab c9be

lin3.bias f4 [6]
0.36876985 -0.0027722423 -0.42216682 -0.39646515 -0.3601507 0.37482753
00000000: 67cf bc3e 82ae 35bb 4026 d8be 7bfd cabe
00000010: ac65 b8be 65e9 bf3e

exp_avg f4 [5, 7]
1.0744575e-08 1.8231375e-10 0.00025827074 3.626426e-05 1.3218461e-06 0.0 1.9738748e-06 2.4624207e-09
1.0387875e-10 0.00019598017 2.164476e-05 2.2332213e-06 0.0 2.930046e-06 -8.3499705e-09 1.5156952e-10
-0.00011394546 -2.4714275e-06 5.456404e-07 0.0 6.281222e-07 3.847404e-09 3.2113467e-10 7.330162e-05
-1.6621199e-06 2.3763143e-07 0.0 4.517608e-07 -1.1044623e-08 5.2018827e-11 -0.00028245428 -1.4362811e-05
-1.3891604e-06 0.0 -1.7897819e-06
00000000: 2497 3832 c274 482f 8368 8739 741a 1838
00000010: 496a b135 0000 0000 e976 0436 5d37 2931
00000020: 8a6e e42e 0780 4d39 c591 b537 73de 1536
00000030: 0000 0000 cfa1 4436 8f73 0fb2 07a7 262f
00000040: 01f6 eeb8 cdda 25b6 1f78 1235 0000 0000
00000050: 3b9c 2835 2032 8431 b08b b02f 82b9 9938
00000060: 0116 dfb5 a127 7f34 0000 0000 8889 f234
00000070: c4be 3db2 fec7 642e 5f16 94b9 cef7 70b7
00000080: 3073 bab5 0000 0000 7038 f0b5

exp_avg_sq f4 [5, 7]
1.4070105e-15 9.761567e-18 2.0556617e-07 2.4506432e-09 2.5226894e-13 0.0 3.9576277e-13 7.093164e-18
4.0303337e-18 3.0603555e-09 8.547806e-10 4.4452728e-13 0.0 6.143523e-13 1.0055328e-15 3.0714206e-19
1.483322e-07 1.0896435e-10 4.5352295e-14 0.0 5.73247e-14 2.0459383e-16 6.859724e-18 3.0064328e-08
1.2865861e-09 3.0937116e-14 0.0 4.2918617e-14 1.3603656e-15 3.549654e-18 1.9987844e-07 5.267623e-10
1.5591761e-13 0.0 2.690658e-13
00000000: 86c5 ca26 b211 3423 99b9 5c34 2c68 2831
00000010: c903 8e2a 0000 0000 6dcb de2a 85d8 0223
00000020: 6db1 9422 584e 5231 d6f5 6a30 223f fa2a
00000030: 0000 0000 c0ec 2c2b 9de9 9026 ff4d b520
00000040: 3f45 1f34 7a9d ef2e a33f 4c29 0000 0000
00000050: 7115 8129 71e1 6b25 4314 fd22 1420 0133
00000060: b9d3 b030 1154 0b29 0000 0000 cc49 4129
00000070: a20c c426 89f5 8222 2b9e 5634 9acb 1030
00000080: 318c 2f2a 0000 0000 7878 972a

exp_avg f4 [5]
0.000111153066 7.656085e-05 -3.241999e-06 3.1286687e-05 4.4887605e-05
00000000: d91a e938 4b8f a038 1e91 59b6 d339 0338
00000010: b345 3c38

exp_avg_sq f4 [5]
2.3887006e-09 1.1183521e-09 7.469712e-11 3.472432e-11 2.920728e-10
00000000: 7726 2431 84b4 9930 bd42 a42e 1cb8 182e
00000010: 9891 a02f

exp_avg f4 [15, 5]
-3.4539843e-07 -3.645873e-07 2.3650198e-07 -1.1178652e-06 -9.148639e-07 -8.377967e-08 -9.7008375e-08 1.0973896e-07
3.593168e-08 -1.7825036e-07 1.5807893e-07 1.6690056e-07 -1.0884058e-07 5.0815976e-07 4.1802778e-07 -1.3878545e-07
-1.4752362e-07 9.704143e-08 -4.4307518e-07 -3.6056196e-07 1.9530962e-06 2.059131e-06 -1.3417576e-06 6.2887657e-06
5.1739858e-06 -5.1264113e-08 -8.417567e-08 5.7054994e-08 -1.4914676e-07 -6.9669994e-08 1.4862767e-06 -1.9302595e-06
-1.2170095e-09 -2.4134472e-06 4.0298614e-06 3.609557e-06 1.1968189e-06 -3.844296e-06 -7.870797e-06 7.2435623e-06
-6.757803e-07 -4.3037e-06 3.123408e-06 1.2351384e-06 1.11832684e-07 7.900777e-05 9.4462535e-05 -0.0001242448
-0.00016458437 0.00013125349 -8.148458e-06 -8.609869e-06 5.598889e-06 -2.629977e-05 -2.1604354e-05 -5.721966e-05
-6.513953e-05 8.909807e-05 0.00012561049 -9.71111e-05 4.4294065e-06 1.8933276e-06 -1.6810754e-06 1.2123256e-05
1.2210884e-05 9.711313e-06 1.356003e-05 -8.393829e-06 3.305704e-05 2.4661667e-05 -1.2771942e-05 -2.2922579e-05
1.3521174e-05 -4.7457877e-05 -3.1359785e-05
00000000: 336f b9b4 7fbc c3b4 2bf1 7d34 8e09 96b5
00000010: f894 75b5 5cea b3b3 eb52 d0b3 a2a9 eb33
00000020: 4d53 1a33 1665 3fb4 68bc 2934 4735 3334
00000030: bebb e9b3 7968 0835 4d6d e034 0e05 15b4
00000040: fc66 1eb4 1765 d033 cadf edb4 4293 c1b4
00000050: f011 0336 9a2f 0a36 7116 b4b5 1604 d336
00000060: 339c ad36 7d2d 5cb3 10c4 b4b3 a10c 7533
00000070: 2625 20b4 7c9d 95b3 147c c735 9b89 01b6
00000080: b743 a7b0 b5f6 21b6 3f38 8736 b83b 7236
00000090: 62a2 a035 40fe 80b6 d10c 04b7 ba0d f336
000000a0: 4567 35b5 8068 90b6 be9b 5136 08c7 a535
000000b0: ab28 f033 f9b0 a538 301a c638 b647 02b9
000000c0: 4894 2cb9 17a1 0939 5cb5 08b7 1b73 10b7
000000d0: 17de bb36 539e dcb7 ff3a b5b7 24ff 6fb8
000000e0: 859b 88b8 29da ba38 4fb6 0339 20a8 cbb8
000000f0: 50a0 9436 3e1e fe35 50a1 e1b5 fd64 4b37
00000100: 59dd 4c37 c6ed 2237 e37f 6337 39d3 0cb7
00000110: baa6 0a38 87e0 ce37 1347 56b7 dd49 c0b7
00000120: 00d9 6237 820d 47b8 5088 03b8
