aa2_models/model3.pt (torch_old, 18963 bytes, 72 tensors)

lin1.weight f4 [4, 7]
-0.2326793 0.10827562 0.4329895 0.9676354 -0.33446178 -0.36157542 -0.60690624 0.02665371
-0.043958783 -0.051571455 -0.054148886 -0.37307566 -0.01043275 -0.93339914 -0.14580539 0.3494391
1.0015969 -0.2527441 -0.80431336 -0.19570756 -0.83810115 -0.2993054 0.3563327 -0.43492645
-0.64362013 1.1731508 -0.15995447 0.94358426
00000000: 7b43 6ebe 9cbf dd3d cdb0 dd3e f4b6 773f
00000010: 933e abbe 6a20 b9be 355e 1bbf e258 da3c
00000020: 200e 34bd 973c 53bd 39cb 5dbd c603 bfbe
00000030: 20ee 2abc 3ff3 6ebf 024e 15be afe9 b23e
00000040: 5434 803f ad67 81be 7be7 4dbf 9067 48be
00000050: cc8d 56bf 8f3e 99be 3d71 b63e aeae debe
00000060: 4ac4 24bf ce29 963f 1bcb 23be bd8e 713f

lin1.bias f4 [4]
-0.93428195 0.9093359 -0.78737307 -0.18901943
00000000: 1a2d 6fbf 3dca 683f 4891 49bf 4f8e 41be

GRU.weight_ih_l0 f4 [12, 4]
-0.87683254 0.25132352 0.8605315 -0.8210634 -0.9656173 1.2339716 -0.4767501 -0.47920397
0.51718366 -1.2207047 0.46100146 1.082206 -0.0704185 -0.66443735 -0.71852654 1.2163194
-0.96580017 0.24215873 -0.9424417 0.8120096 1.3059205 -0.96661437 0.9061157 1.1115172
0.11456607 0.023763234 0.7119501 -0.8155992 0.883624 -0.6443139 0.3312715 0.5523704
-1.2729416 1.3521463 0.27801374 -0.55409455 -0.63366073 1.2503252 -1.2491248 -0.754785
1.0361922 -0.9140588 0.68784034 0.8959182 0.64965916 -0.91763693 -0.78279245 0.46591565
00000000: 1978 60bf 7aad 803e cb4b 5c3f 3631 52bf
00000010: b232 77bf c8f2 9d3f 9718 f4be 395a f5be
00000020: 2666 043f 0d40 9cbf 6208 ec3e ba85 8a3f
00000030: 9337 90bd 9118 2abf 5bf1 37bf 5bb0 9b3f
00000040: ae3e 77bf 75f8 773e dc43 71bf dcdf 4f3f
00000050: 6728 a73f 0a74 77bf 33f7 673f 3246 8e3f
00000060: 9ea1 ea3d 1dab c23c 5d42 363f 1ccb 50bf
00000070: 2f35 623f c1f1 24bf 6b9c a93e 2668 0d3f
00000080: c0ef a2bf 2113 ad3f d157 8e3e 24d9 0dbf
00000090: 9737 22bf a80a a03f 52e3 9fbf 9739 41bf
000000a0: f2a1 843f c2ff 69bf 4e16 303f e55a 653f
000000b0: 1050 263f 41ea 6abf 1665 48bf 7f8c ee3e

GRU.weight_hh_l0 f4 [12, 4]
1.0698478 0.9216195 -1.23302 0.5082785 1.2023929 0.82337433 -0.6639095 0.2992473
-0.641591 -1.1949152 0.7166598 -0.7731278 -1.2288727 -0.6971026 0.7225755 -0.3105062
1.944387 1.1542071 0.55669373 -0.49207595 0.9177887 1.2739958 0.52538073 -0.4956449
0.5041586 1.1156814 -0.6029396 -0.2881087 -1.0203218 -0.6240078 0.067670755 -0.69423604
1.2213793 0.49694023 -1.3556553 0.7234571 0.5242912 0.9757817 -0.76837903 0.83873576
-0.57201445 -0.54450387 0.25217265 -0.46962926 -0.88874775 -0.56407714 1.1081735 -1.2828833
00000000: c6f0 883f 41ef 6b3f 99d3 9dbf 8a1e 023f
00000010: 03e8 993f a9c8 523f f9f5 29bf f136 993e
00000020: 4f3f 24bf fbf2 98bf 0477 373f b4eb 45bf
00000030: b34b 9dbf 5175 32bf b5fa 383f abfa 9ebe
00000040: ace1 f83f 0fbd 933f 7b83 0e3f 61f1 fbbe
00000050: 33f4 6a3f 4b12 a33f 5a7f 063f 2bc5 fdbe
00000060: 8a10 013f a6ce 8e3f 405a 1abf fc82 93be
00000070: e899 82bf fabe 1fbf f796 8a3d 74b9 31bf
00000080: 2856 9c3f f36e fe3e 1d86 adbf 7c34 393f
00000090: f337 063f d4cc 793f 7db4 44bf 63b7 563f
000000a0: 8a6f 12bf 9b64 0bbf c61c 813e 3f73 f0be
000000b0: f984 63bf 5c67 10bf a1d8 8d3f 8535 a4bf

GRU.bias_ih_l0 f4 [12]
1.1604111 0.8229316 -0.6850961 -0.7683409 -1.614978 -1.2910508 -0.6727103 1.0992655
0.9350296 0.79778093 -0.88731307 -0.56709856
00000000: 5a88 943f a5ab 523f 7562 2fbf fdb1 44bf
00000010: 99b7 cebf 2741 a5bf be36 2cbf bbb4 8c3f
00000020: 1a5e 6f3f 5f3b 4c3f f326 63bf 5f2d 11bf

GRU.bias_hh_l0 f4 [12]
0.36528513 1.249145 -1.0266908 -0.6609037 -1.7391411 -1.370724 -1.0429655 0.58324564
1.06059 1.1487406 -0.7545221 -0.4915771
00000000: a706 bb3e fce3 9f3f 9b6a 83bf fc30 29bf
00000010: 2d9c debf e273 afbf e57f 85bf 964f 153f
00000020: 6ac1 873f ef09 933f 5c28 41bf feaf fbbe

GRU.weight_ih_l1 f4 [12, 4]
-0.10808911 -0.33344188 1.3844352 -0.61841303 -1.4646952 -1.0415828 -0.5212442 -0.6893131
-1.4146377 -1.4448327 0.9234753 -0.4359826 0.29762226 1.0042982 1.0840455 -0.7925467
1.2915164 0.58106816 1.8705266 0.7078764 1.2090975 1.1377488 0.60100937 0.11890829
-1.2917018 -0.09370902 0.41432205 0.6698411 0.9655568 1.1851839 1.2113824 0.27529362
-1.607844 -1.183059 0.5480207 -0.73049366 1.9165134 1.4492497 0.22006175 -0.16414624
1.3229725 1.058051 -1.0887538 0.68287903 1.6255317 1.8535504 -0.3627263 0.48956737
00000000: d35d ddbd e5b8 aabe 2c35 b13f 5150 1ebf
00000010: 227b bbbf 9652 85bf 4370 05bf d376 30bf
00000020: d912 b5bf 47f0 b8bf e168 6c3f 1d39 dfbe
00000030: f261 983e d88c 803f 01c2 8a3f 57e4 4abf
00000040: 6950 a53f e2c0 143f 6a6d ef3f 6337 353f
00000050: b5c3 9a3f c1a1 913f c0db 193f 3186 f33d
00000060: 7c56 a5bf 84ea bfbd 0522 d43e b57a 2b3f
00000070: bb2e 773f 1bb4 973f 940e 9b3f 49f3 8c3e
00000080: d5cd cdbf 7a6e 97bf 164b 0c3f a201 3bbf
00000090: 5050 f53f 0481 b93f de57 613e f415 28be
000000a0: 2a57 a93f 376e 873f 495c 8bbf 29d1 2e3f
000000b0: 6c11 d03f 2441 ed3f 43b7 b9be 93a8 fa3e

GRU.weight_hh_l1 f4 [12, 4]
-1.114491 -0.0880457 -1.3845757 0.13446434 0.6914078 -0.9941038 0.9803861 -0.72852707
-0.4833946 -0.9150574 -0.20111483 0.3908979 -0.6412347 0.475173 -1.0360621 1.3388184
-1.8547136 1.3594283 -0.27699447 1.2717496 -1.5528557 1.368695 -1.6169891 1.5798892
-0.88053733 -0.008228338 0.7796949 0.6014973 -1.6358875 2.1780188 -1.0769243 1.6670948
-0.07241191 -0.85413533 -0.36149573 -0.2838004 -1.1038519 1.4093701 -0.73727554 1.3885151
-0.27458814 1.0460935 -0.10870215 0.68200696 0.22918615 0.9814735 0.11969791 0.905451
00000000: a4a7 8ebf 4e51 b4bd c739 b1bf 05b1 093e
00000010: 1a00 313f 967d 7ebf 95fa 7a3f c080 3abf
00000020: 7f7f f7be 3441 6abf 0cf1 4dbe c523 c83e
00000030: f527 24bf e049 f33e af9d 84bf 675e ab3f
00000040: 4167 edbf bf01 ae3f 38d2 8dbe b1c8 a23f
00000050: fac3 c6bf 6631 af3f 80f9 cebf cf39 ca3f
00000060: e56a 61bf 27d0 06bc 169a 473f bafb 193f
00000070: c364 d1bf a964 0b40 a8d8 89bf 5d63 d53f
00000080: b24c 94bd 9da8 5abf f815 b9be 494e 91be
00000090: 054b 8dbf 3d66 b43f 17be 3cbf ddba b13f
000000a0: d196 8cbe 64e6 853f 3c9f debd 0298 2e3f
000000b0: c6af 6a3e d941 7b3f 2e24 f53d a3cb 673f

GRU.bias_ih_l1 f4 [12]
-0.89503425 1.2086151 -0.93025476 -0.64026034 -1.4022481 -1.2152798 -0.2602003 -1.8516482
-0.03653221 -0.09097662 0.75090975 0.11504199
00000000: f720 65bf e6b3 9a3f 2d25 6ebf 1ae8 23bf
00000010: de7c b3bf 4a8e 9bbf f938 85be cf02 edbf
00000020: cca2 15bd f351 babd 9f3b 403f 239b eb3d

GRU.bias_hh_l1 f4 [12]
-0.6259139 1.1408049 -0.58181113 -1.246138 -2.2654634 -1.1141156 -0.5675957 -1.8470342
-0.03706579 -0.46669462 -0.14207134 0.3956847
00000000: e53b 20bf e505 923f 93f1 14bf 7381 9fbf
00000010: 5afd 10c0 579b 8ebf f44d 11bf 9e6b ecbf
00000020: 4cd2 17bd 99f2 eebe 267b 11be 2f97 ca3e

GRU.weight_ih_l2 f4 [12, 4]
-0.5501265 1.3862365 -0.945849 1.6919777 0.042002346 1.8198155 0.18587759 0.31208163
-0.6980197 1.5157115 0.037597403 1.3627198 1.4294349 -0.32041612 0.31040007 -1.0789572
0.43640822 1.6861314 -1.4307091 -0.026231945 -1.3137555 1.4810853 -1.6437215 0.7067959
1.7124084 -0.72114927 0.57036155 -1.6370288 -0.92654043 1.812908 -1.4031997 0.7147281
-1.036854 1.079148 -1.1462307 1.4320691 -0.19135906 1.5944159 0.2305861 1.22003
-0.3101989 0.7044891 -0.6554048 0.6440821 -1.1286154 0.39775914 -0.7249264 1.1395389
00000000: 17d5 0cbf 3370 b13f 2923 72bf ba92 d83f
00000010: a70a 2c3d b7ef e83f b256 3e3e 2ac9 9f3e
00000020: 6bb1 32bf d602 c23f bcff 193d 9a6d ae3f
00000030: b9f7 b63f 950d a4be c2ec 9e3e 451b 8abf
00000040: e670 df3e 27d3 d73f 7a21 b7bf 60e4 d6bc
00000050: 2429 a8bf 3494 bd3f 7765 d2bf 93f0 343f
00000060: 3330 db3f 3d9d 38bf 3703 123f 298a d1bf
00000070: c131 6dbf 5f0d e83f 0c9c b3bf 6cf8 363f
00000080: a2b7 84bf 8621 8a3f b0b7 92bf 0a4e b73f
00000090: a1f3 43be d215 cc3f c31e 6c3e f129 9c3f
000000a0: 64d2 9ebe 6659 343f 9cc8 27bf 91e2 243f
000000b0: 7876 90bf 16a7 cb3e c794 39bf 69dc 913f

GRU.weight_hh_l2 f4 [12, 4]
0.98053473 1.1111677 -0.4441373 0.99162555 1.0980439 0.19589317 -0.23460042 1.0886425
1.5661919 0.8884307 -0.3289584 1.428808 0.51118743 -0.5622644 0.64589757 0.89801633
0.55009717 1.5762534 -0.6716208 1.4892876 0.61835414 1.7968374 -0.5843145 1.2878116
-0.48355034 -1.1335672 0.10023962 -0.8804047 1.0367881 1.5624285 0.9627785 1.0765682
0.94567245 1.1528257 0.39535168 -0.16476013 1.3255297 0.15095954 -0.30632848 1.1752648
1.2258838 0.8319818 -0.49669835 0.5130287 -0.39715025 0.7932568 -0.2884328 -0.30496612
00000000: 5304 7b3f be3a 8e3f f765 e3be 2cdb 7d3f
00000010: b48c 8c3f 3898 483e 183b 70be a358 8b3f
00000020: fa78 c83f 3270 633f 3c6d a8be 2ee3 b63f
00000030: 2edd 023f 8ff0 0fbf 8b59 253f 66e4 653f
00000040: 2bd3 0c3f acc2 c93f 57ef 2bbf faa0 be3f
00000050: 754c 1e3f c5fe e53f a395 15bf 03d7 a43f
00000060: e993 f7be bb18 91bf 6e4a cd3d 3462 61bf
00000070: 79b5 843f a8fd c73f a778 763f fdcc 893f
00000080: 9717 723f cb8f 933f 896b ca3e e1b6 28be
00000090: f5aa a93f 2395 1a3e 16d7 9cbe 146f 963f
000000a0: c3e9 9c3f c2fc 543f 3f4f febe d955 033f
000000b0: 4757 cbbe e112 4b3f 77ad 93be 8524 9cbe

GRU.bias_ih_l2 f4 [12]
-0.6551381 0.31228003 -0.2270226 1.2423351 -1.8428061 -1.8462522 1.583869 -1.3048239
-0.050576385 -0.27218845 0.29280606 -0.6588198
00000000: 21b7 27bf 2be3 9f3e 9d78 68be d604 9f3f
00000010: 12e1 ebbf fe51 ecbf 38bc ca3f 7804 a7bf
00000020: 2f29 4fbd 495c 8bbe adea 953e 6aa8 28bf

GRU.bias_hh_l2 f4 [12]
-0.24968076 0.026867462 -0.024019657 0.9349038 -1.421423 -2.001483 1.5954918 -1.9399284
-0.016698534 0.5024919 0.5150266 -1.166775
00000000: 50ac 7fbe 2719 dc3c dfc4 c4bc db55 6f3f
00000010: 30f1 b5bf 4c18 00c0 1339 cc3f 934f f8bf
00000020: 5dcb 88bc 4fa3 003f c9d8 033f e258 95bf

GRU.weight_ih_l3 f4 [12, 4]
-1.3955361 0.39479 -0.6020865 -0.74711776 -1.6251239 -0.18009014 -0.08178044 -0.96796507
-1.4842519 -1.0413502 0.013493988 -0.25501588 0.10569201 1.4343164 0.45378724 -0.04984001
-0.8526575 -0.016782796 -1.2161864 -0.9298303 0.41245475 0.53445435 0.95032316 -0.7996409
0.533001 0.717439 -1.0704305 0.9448821 0.028292684 1.4875633 -1.7719237 0.72404295
1.3226233 1.2454523 0.78446275 0.63988733 -0.25232282 -0.19565763 0.330444 -0.21005291
0.97242147 1.3161008 0.19479604 -0.22870874 -1.43974 -0.70400596 -0.38516578 -0.97203857
00000000: eda0 b2bf ea21 ca3e 5722 1abf 1c43 3fbf
00000010: 0f04 d0bf 8d69 38be 817c a7bd 8fcc 77bf
00000020: f7fb bdbf f74a 85bf e315 5d3c 7191 82be
00000030: 0d75 d83d ae97 b73f cd56 e83e 0a25 4cbd
00000040: c347 5abf 137c 89bc ffab 9bbf 5c09 6ebf
00000050: 452d d33e 00d2 083f 6148 733f 44b5 4cbf
00000060: c172 083f 15aa 373f de03 89bf cbe3 713f
00000070: 0fc6 e73c 7968 be3f 65ce e2bf e15a 393f
00000080: b84b a93f fb6a 9f3f 8dd2 483f a8cf 233f
00000090: 7530 81be 795a 48be f52f a93e 1c18 57be
000000a0: 9df0 783f fe75 a83f 9d78 473e a032 6abe
000000b0: 6649 b8bf bc39 34bf 7334 c5be 85d7 78bf

GRU.weight_hh_l3 f4 [12, 4]
0.69137543 0.47876105 -1.0010257 1.0999961 0.36547625 0.329032 -1.4120445 1.8986421
0.24028416 0.53766966 -0.05878308 0.22441657 1.3327936 0.47361252 0.12388522 -0.7755476
0.7873039 1.0325984 0.8546598 -0.62156135 -0.18135986 3.8127096 -0.4887619 0.66184187
0.16833396 -0.4937917 0.85289377 -0.8205757 1.1672219 -0.33903417 0.81104445 -0.83438945
0.045624953 -0.830399 0.9543508 -0.7644141 1.0675216 -0.04414385 1.116563 -1.334177
-0.12687026 0.14959347 -0.67392176 0.15965594 0.2396473 0.8282287 -1.078372 0.64029664
00000000: fbfd 303f 2b20 f53e 9c21 80bf accc 8c3f
00000010: b41f bb3e e276 a83e e0bd b4bf b406 f33f
00000020: 0d0d 763e b8a4 093f 87c6 70bd 75cd 653e
00000030: fb98 aa3f 577d f23e 89b7 fd3d 4a8a 46bf
00000040: c08c 493f 2f2c 843f fcca 5a3f a51e 1fbf
00000050: 66b6 39be 6f03 7440 003f fabe 786e 293f
00000060: bd5f 2c3e 44d2 fcbe 3f57 5a3f 4011 52bf
00000070: 8767 953f e395 adbe 9ca0 4f3f 8c9a 55bf
00000080: 3be1 3a3d 0795 54bf 5650 743f a4b0 43bf
00000090: 8ca4 883f 2fd0 34bd 89eb 8e3f 50c6 aabf
000000a0: 47ea 01be 082f 193e 2386 2cbf d97c 233e
000000b0: 1a66 753e cc06 543f 1808 8abf 7bea 233f

GRU.bias_ih_l3 f4 [12]
-0.793864 -0.5353175 -0.23767218 -1.0026448 -1.3565794 0.11586025 -1.3734351 -1.6581398
0.62852824 0.47059575 -0.04452499 -0.7236891
00000000: ac3a 4bbf 910a 09bf 5660 73be aa56 80bf
00000010: 65a4 adbf 2448 ed3d b9cc afbf ed3d d4bf
00000020: 3ae7 203f edf1 f03e d65f 36bd b043 39bf

GRU.bias_hh_l3 f4 [12]
-0.6805186 0.022601828 0.026263025 -0.802749 -1.4447833 0.15245399 -1.7556572 -1.5555416
0.069970876 0.41676074 -0.6034783 -0.1963793
00000000: 7836 2ebf 7827 b93c 8e25 d73c f580 4dbf
00000010: a9ee b8bf e61c 1c3e 60b9 e0bf fd1b c7bf
00000020: e44c 8f3d aa61 d53e 8e7d 1abf a817 49be

GRU.weight_ih_l4 f4 [12, 4]
-0.8039834 -0.2857787 -0.10839146 0.34844536 0.3515701 -0.08857015 1.0267631 -2.3426654
-1.2419106 -0.03572608 -0.1484756 0.5721479 0.021923518 1.2055966 -0.86039776 0.86725193
-0.034048207 0.89716774 -0.6642784 0.77370006 0.4409559 0.31219482 0.33676833 0.0048344056
0.5415505 0.13343605 1.5822072 -0.1391076 -0.194549 -0.11239949 0.29821444 0.63059676
0.6484568 0.32874465 -0.70893526 0.5887054 -0.14916198 0.6527308 -1.1358144 1.6949354
1.6161636 0.093092166 1.0657043 -1.2176704 0.55776256 -0.7385629 1.0043753 -1.4091643
00000000: dbd1 4dbf 9651 92be 57fc ddbd 6e67 b23e
00000010: ff00 b43e 4464 b5bd f96c 833f 3bee 15c0
00000020: edf6 9ebf 8355 12bd fd09 18be 4978 123f
00000030: f398 b33c fd50 9a3f 0743 5cbf 3904 5e3f
00000040: 2276 0bbd c9ac 653f 260e 2abf 3511 463f
00000050: f9c4 e13e 00d8 9f3e e66c ac3e ef69 9e3b
00000060: 0ea3 0a3f 76a3 083e c485 ca3f 3972 0ebe
00000070: da37 47be b431 e6bd 90af 983e ca6e 213f
00000080: 4401 263f 3851 a83e c87c 35bf 66b5 163f
00000090: ebbd 18be 5e19 273f 5e62 91bf a5f3 d83f
000000a0: 73de ce3f 1ba7 be3d 0069 883f a0dc 9bbf
000000b0: 87c9 0e3f 7512 3dbf 5f8f 803f 7f5f b4bf

GRU.weight_hh_l4 f4 [12, 4]
-1.3124644 0.57902294 -0.12666605 -0.5402855 0.2868261 0.46026805 0.97027296 -0.33526546
0.71751773 0.98951036 -0.578792 -0.932158 0.32881656 0.008564266 -1.2618197 0.47581723
-0.0443158 0.32432714 0.41998354 0.6863562 0.8188025 -0.7214371 1.734486 0.47559282
1.8965586 -0.22691624 1.3096871 0.874435 1.2056522 -0.19877754 0.6056882 0.6757107
1.4328152 -0.77565163 0.25608638 0.7536446 0.962204 0.11057167 -1.764897 0.17046656
-0.4820925 -0.6869446 -0.6159613 0.3621647 -0.46834818 -0.06470025 0.9041496 -0.21601452
00000000: d5fe a7bf d93a 143f bfb4 01be 2750 0abf
00000010: dfda 923e 41a8 eb3e cf63 783f eaa7 abbe
00000020: 3eaf 373f 8d50 7d3f b62b 14bf e8a1 6ebf
00000030: a55a a83e 2351 0c3c 4f83 a1bf 519e f33e
00000040: 7c84 35bd 350e a63e 1508 d73e 0ab5 2f3f
00000050: 0a9d 513f 1ab0 38bf a303 de3f e780 f33e
00000060: 6fc2 f23f bb5c 68be d4a3 a73f f9da 5f3f
00000070: d052 9a3f 578c 4bbe 620e 1b3f 60fb 2c3f
00000080: 7d66 b73f 1b91 46bf c11d 833e daee 403f
00000090: 0053 763f 6673 e23d 25e8 e1bf c98e 2e3e
000000a0: d4d4 f6be 9adb 2fbf a4af 1dbf a76d b93e
000000b0: 55cb efbe 9181 84bd 5976 673f e932 5dbe

GRU.bias_ih_l4 f4 [12]
0.78503525 0.6103067 -0.31069952 -0.654353 0.9166248 -1.3237005 -1.2458426 -1.0414331
-1.4476839 -0.2361552 0.22839636 0.581852
00000000: 12f8 483f 0f3d 1c3f 0214 9fbe ae83 27bf
00000010: eca7 6a3f 056f a9bf c577 9fbf ae4d 85bf
00000020: b54d b9bf abd2 71be bce0 693e 41f4 143f

GRU.bias_hh_l4 f4 [12]
1.752419 0.08045362 -0.020939354 -1.412484 0.007557 -1.5321938 -1.4997247 -1.0335306
-1.5656935 -0.110353 -0.64413804 0.40117753
00000000: 444f e03f dec4 a43d 0289 abbc 47cc b4bf
00000010: b6a0 f73b ed1e c4bf fbf6 bfbf bb4a 84bf
00000020: a568 c8bf c100 e2bd 3be6 24bf 2467 cd3e

lin3.weight f4 [6, 4]
1.1405122 0.86845326 -1.2832743 -1.2805525 1.3056087 0.8316658 -1.4065404 -0.1636622
1.6919595 -0.0324334 -1.2693555 0.59459025 1.3762585 0.83081305 -1.5596311 0.0656516
1.4697583 0.48382437 -1.002391 -0.29228958 -1.942113 -1.2237055 1.3280445 0.3380013
00000000: 4efc 913f f452 5e3f 5542 a4bf 25e9 a3bf
00000010: 301e a73f 0de8 543f 8409 b4bf 1097 27be
00000020: 2192 d83f e3d8 04bd 3e7a a2bf 1137 183f
00000030: 3d29 b03f 2ab0 543f fea1 c7bf 5974 863d
00000040: 0a21 bc3f d4b7 f73e 594e 80bf fba6 95be
00000050: 2997 f8bf 62a2 9cbf 5dfd a93f 820e ad3e

lin3.bias f4 [6]
0.7585337 -1.1853539 -1.8619963 -1.2124661 -1.9982697 1.4314996
00000000: 442f 423f adb9 97bf e555 eebf 1732 9bbf
00000010: 4dc7 ffbf 613b b73f

exp_avg f4 [4, 7]
1.7167878e-26 0.0 -6.2919048e-09 -1.5705124e-08 -3.775386e-09 0.0 -9.197697e-09 -4.153989e-27
0.0 -3.8917525e-10 -1.2451852e-09 6.451563e-10 0.0 1.3801817e-09 3.1036163e-27 0.0
-3.4355025e-08 -8.5529756e-08 -1.4784554e-08 0.0 -3.6295447e-08 3.1516574e-26 0.0 3.7672944e-08
9.427026e-08 1.4387238e-08 0.0 3.5702524e-08
00000000: be05 aa14 0000 0000 2e30 d8b1 efe7 86b2
00000010: a5b8 81b1 0000 0000 e603 1eb2 748e a493
00000020: 0000 0000 8cf3 d5af 0f23 abb0 d756 3130
00000030: 0000 0000 d4b0 bd30 d1e4 7513 0000 0000
00000040: c08d 13b3 7bac b7b3 28ff 7db2 0000 0000
00000050: 44e3 1bb3 0110 1c15 0000 0000 d7cd 2133
00000060: a071 ca33 be2b 7732 0000 0000 5757 1933

exp_avg_sq f4 [4, 7]
1.8054485e-21 0.0 5.0214364e-08 6.676404e-08 5.1709803e-10 0.0 8.280231e-10 1.0562412e-22
0.0 3.206425e-08 4.7232565e-09 1.814386e-11 0.0 2.8753649e-11 5.904529e-23 0.0
3.892737e-08 5.9649054e-08 1.8765646e-10 0.0 3.0025238e-10 6.0832155e-21 0.0 3.9205297e-08
4.1209485e-09 4.8804644e-11 0.0 8.821188e-11
00000000: 746a 081d 0000 0000 47ab 5733 eb5f 8f33
00000010: 8a23 0e30 0000 0000 f29a 6330 2a62 ff1a
00000020: 0000 0000 04b7 0933 344a a231 5798 9f2d
00000030: 0000 0000 76eb fc2d 44c3 8e1a 0000 0000
00000040: 1931 2733 6a18 8033 9954 4e2f 0000 0000
00000050: c410 a52f 40d1 e51d 0000 0000 ae62 2833
00000060: 3f98 8d31 25a5 562e 0000 0000 e0fa c12e

exp_avg f4 [4]
-3.5326246e-09 8.0198775e-10 -5.419494e-09 4.9719513e-09
00000000: 97c2 72b1 df72 5c30 6036 bab1 bfd5 aa31

exp_avg_sq f4 [4]
3.8247936e-08 2.413031e-07 8.770916e-09 5.0277387e-09
00000000: 0d46 2433 728c 8134 e6ae 1632 75c0 ac31

exp_avg f4 [12, 4]
-2.8012441e-11 2.7260545e-11 -2.3607652e-11 -5.662789e-12 5.8632374e-13 -5.2410376e-13 5.026208e-13 9.900548e-14
-1.0824085e-13 1.0535824e-13 -9.1345754e-14 -2.1855978e-14 6.023873e-12 -5.8646946e-12 5.0769887e-12 1.2202517e-12
-2.655887e-09 2.5849471e-09 -2.2383304e-09 -5.372222e-10 3.3275938e-10 3.3231566e-09 3.6188077e-09 -2.8319238e-09
-9.5756114e-08 5.7076978e-08 4.1030372e-08 2.9522228e-08 2.9777697e-10 -3.0094785e-10 2.449102e-10 7.167676e-11
4.1235995e-10 -4.0124234e-10 3.4751504e-10 8.330748e-11 7.874999e-11 3.7930864e-10 5.500228e-10 -3.2948055e-10
1.3935902e-11 -1.4013374e-11 1.15325475e-11 3.0723512e-12 3.989789e-10 -3.8889603e-10 3.363294e-10 8.127839e-11
00000000: 6966 f6ad 4ac9 ef2d b5a7 cfad de3d c7ac
00000010: 1409 252b a885 13ab a579 0d2b c6f0 de29
00000020: 9abc f3a9 e43e ed29 3eb1 cda9 74dc c4a8
00000030: 39f2 d32c 7958 ceac 73a1 b22c 33bc ab2b
00000040: dc82 36b1 dfa2 3131 20d1 19b1 a7ab 13b0
00000050: b8ef b62f 975d 6431 bdae 7831 bb9b 42b1
00000060: 7ba2 cdb3 cd24 7533 5f39 3033 1198 fd32
00000070: 62b4 a32f a572 a5af 0ca4 862f 6e9e 9d2e
00000080: 81b2 e22f d795 dcaf 650c bf2f f131 b72e
00000090: 4e2c ad2e f286 d02f 6a30 1730 4422 b5af
000000a0: b929 752d a086 76ad fae1 4a2d 8f32 582c
000000b0: 4a57 db2f 40cc d5af 28e6 b82f aabb b22e

exp_avg_sq f4 [12, 4]
1.6999549e-10 1.5410932e-10 2.8334013e-12 1.3883315e-10 6.2745725e-11 7.0720915e-11 9.814555e-12 3.617619e-11
9.098927e-13 8.323869e-13 2.6234213e-14 5.621412e-13 3.23013e-13 2.9671212e-13 9.204936e-14 4.4753733e-13
4.1225188e-09 5.3193943e-08 2.8655844e-08 4.5334503e-10 1.3637414e-11 1.2836014e-11 7.874738e-12 3.1833258e-12
4.7323995e-11 6.5063093e-09 2.2412916e-09 3.5452133e-10 7.554872e-08 2.2373499e-09 6.477515e-08 5.856835e-08
7.627759e-09 6.911652e-09 2.2710352e-10 6.9048807e-09 8.066664e-09 8.597798e-09 8.985141e-10 4.581855e-09
3.5613912e-10 1.4223145e-09 1.0642329e-10 3.4483727e-10 7.405078e-10 6.8163275e-10 4.7236784e-11 1.135032e-09
00000000: 7ae9 3a2f eb71 292f 0562 472c 0fa6 182f
00000010: b4fa 892e 5684 9b2e d4a8 2c2d c51a 1f2e
00000020: 570e 802b cc4b 6a2b fa4b ec28 8b3a 1e2b
00000030: 14d7 b52a b908 a72a d846 cf29 edf0 fb2a
00000040: 0fa6 8d31 5c77 6433 de26 f632 a43a f92f
00000050: 74e9 6f2d 45d0 612d ab88 0a2d b301 602c
00000060: 1522 502e 1a8e df31 3805 1a31 71e6 c22f
00000070: 593d a233 e0bf 1931 841a 8b33 958c 7b33
00000080: 3d0b 0332 897b ed31 f5b3 792f f93f ed31
00000090: 9095 0a32 84b5 1332 4ffb 7630 6c6e 9d31
000000a0: 20ca c32f 3e7b c330 fc06 ea2e 8893 bd2f
000000b0: 9b8c 4b30 a45d 3b30 e4bf 4f2e 63ff 9b30

exp_avg f4 [12, 4]
-2.9975175e-11 -1.29034255e-14 1.712636e-11 3.6270308e-16 6.0338507e-13 -9.450681e-18 5.2662335e-14 -4.0702332e-17
-3.1470396e-13 -1.0058912e-13 9.3658235e-14 7.833118e-14 2.5758432e-11 9.648296e-12 -1.3620089e-11 -8.897396e-12
-3.0122056e-09 -8.728439e-11 2.6935637e-10 4.327834e-11 2.8705535e-10 6.0557646e-13 -3.9575152e-11 -2.0070549e-14
3.885483e-09 4.396814e-11 -2.3896671e-11 -1.8837532e-11 3.252904e-10 3.6913077e-12 -1.117908e-11 -1.4849083e-12
3.0737896e-10 8.931951e-15 -2.0577047e-11 7.0862438e-15 3.760695e-11 3.0700004e-14 -6.183435e-12 -1.526255e-14
1.3901567e-12 5.824647e-14 -1.36654e-13 -4.6089943e-14 5.188227e-11 -5.238173e-12 -1.0549926e-12 4.816704e-12
00000000: 0cd5 03ae 8c72 68a8 22a5 962d 8715 d125
00000010: 7ad6 292b 9455 2ea3 8a2b 6d29 d5b4 3ba4
00000020: 9f29 b1aa ae81 e2a9 4ce6 d229 da62 b029
00000030: d592 e22d 10bc 292d 6e9b 6fad 4f86 1cad
00000040: 48ff 4eb1 bef0 bfae 8a14 942f 1457 3e2e
00000050: 73cf 9d2f 6274 2a2b a90d 2eae 89c7 b4a8
00000060: 1281 8531 ba5f 412e 8532 d2ad 5ab2 a5ad
00000070: 8ed4 b22f 58e0 812c 1aaa 44ad 76fb d0ab
00000080: befb a82f 5be7 2028 64ff b4ad 104f ff27
00000090: a965 252e b242 0a29 6e8f d9ac 0b79 89a8
000000a0: aca5 c32b ce28 8329 d5db 19aa 1692 4fa9
000000b0: 3e2e 642e 454d b8ac 1d7a 94ab 0379 a92c

exp_avg_sq f4 [12, 4]
2.3325515e-09 9.529829e-10 2.3096566e-11 1.9625755e-10 5.2468774e-10 2.1349982e-10 3.8196464e-12 3.996454e-11
1.3702446e-11 6.5114576e-12 8.3202705e-14 7.856135e-13 2.613363e-12 1.4720926e-12 2.907067e-13 6.180674e-13
3.473926e-11 5.1628007e-11 4.162908e-12 2.9382746e-13 6.6499584e-11 9.784342e-11 8.6159534e-12 5.303438e-13
3.9004997e-11 4.0015297e-11 3.6073529e-13 5.966544e-16 7.889614e-12 1.4331819e-12 4.4234554e-14 1.0162494e-14
3.3411933e-08 1.3205577e-08 4.6928467e-10 3.2373872e-09 4.0925762e-08 1.6717149e-08 3.3901554e-10 3.0137608e-09
6.408351e-10 2.958968e-10 4.365998e-12 4.084645e-11 1.895987e-09 7.6661294e-10 1.887573e-10 4.888658e-10
00000000: ae4a 2031 1bfa 8230 d828 cb2d 97c9 572f
00000010: 9e39 1030 dbbe 6a2f 5164 862c 12c4 2f2e
00000020: 550e 712d ff19 e52c 185b bb29 6b21 5d2b
00000030: 2ae6 372c ba2d cf2b 40a7 a32a 73f8 2d2b
00000040: eec8 182e f80f 632e 2478 922c 0069 a52a
00000050: f03b 922e f328 d72e ce92 172d 4c47 152b
00000060: b98b 2b2e 38fd 2f2e 6f13 cb2a 53f9 2b26
00000070: aacb 0a2d d2b3 c92b f836 4729 3b12 3728
00000080: cf80 0f33 bede 6232 f9fe 0030 b878 5e31
00000090: 5ac6 2f33 6699 8f32 3260 ba2f a41a 4f31
000000a0: c326 3030 c6ab a22f 6a9d 992c 04a5 332e
000000b0: 8e4a 0231 97b9 5230 758a 4f2f df60 0630

exp_avg f4 [12]
2.9974963e-11 -6.032526e-13 1.1592982e-13 -6.4509795e-12 2.8426737e-09 -2.8720012e-10 -3.8000185e-09 -3.1812464e-10
-4.4115248e-10 -7.8805906e-11 -1.5049954e-11 -4.281989e-10
00000000: cfd4 032e eecc 29ab 7f86 022a 42f9 e2ac
00000010: d858 4331 d3e3 9daf 5191 82b1 10e4 aeaf
00000020: b186 f2af c84b adae 7c61 84ad a367 ebaf

exp_avg_sq f4 [12]
6.2990715e-09 1.4852509e-09 2.896078e-11 1.2665653e-11 9.061045e-11 1.8472901e-10 3.9347407e-11 8.433751e-12
2.9315893e-07 2.0786783e-07 1.0816368e-08 3.441111e-08
00000000: 386f d831 9f21 cc30 e1bd fe2d 08d1 5e2d
00000010: 2641 c72e 981c 4b2f 3e0d 2d2e 3d5e 142d
00000020: 7563 9d34 4632 5f34 e4d2 3932 6acb 1333

exp_avg f4 [12]
2.9974963e-11 -6.032526e-13 1.1592982e-13 -6.4509795e-12 2.8426737e-09 -2.8720012e-10 -3.8000185e-09 -3.1812464e-10
-3.0738911e-10 -3.755829e-11 -1.2750588e-12 -6.237178e-11
00000000: cfd4 032e eecc 29ab 7f86 022a 42f9 e2ac
00000010: d858 4331 d3e3 9daf 5191 82b1 10e4 aeaf
00000020: 2cfd a8af e02e 25ae d672 b3ab 3128 89ae

exp_avg_sq f4 [12]
6.2990715e-09 1.4852509e-09 2.896078e-11 1.2665653e-11 9.061045e-11 1.8472901e-10 3.9347407e-11 8.433751e-12
1.0307893e-07 1.1270909e-07 1.5627147e-09 7.796033e-09
00000000: 386f d831 9f21 cc30 e1bd fe2d 08d1 5e2d
00000010: 2641 c72e 981c 4b2f 3e0d 2d2e 3d5e 142d
00000020: 3e5c dd33 7a0a f233 23c7 d630 51ef 0532

exp_avg f4 [12, 4]
-5.490596e-08 -2.3756408e-10 1.5514559e-09 2.0594822e-10 4.78656e-09 8.404281e-09 -7.871777e-09 -2.0119564e-09
1.730449e-07 1.1301162e-11 -1.9249071e-09 -4.039396e-12 1.9287969e-08 -5.7144633e-11 6.926403e-10 3.7124217e-11
3.4799246e-09 -1.13990215e-11 4.8452453e-12 8.978128e-12 3.16214e-07 7.132196e-09 -6.9903643e-09 -5.83217e-09
-6.772837e-07 1.9886768e-11 2.3791713e-09 1.5697959e-11 4.539524e-08 4.8932542e-11 -5.2603866e-11 -2.1972155e-11
-2.9823698e-07 3.7998706e-09 5.7236826e-10 -3.4453758e-09 2.9522397e-07 -2.3599691e-08 2.2106734e-08 5.749488e-09
-1.6929647e-06 3.371686e-10 3.7812242e-09 -3.2332553e-10 1.4455526e-06 4.6036577e-11 -1.585246e-08 9.881459e-11
00000000: bed1 6bb3 2c9a 82af 003b d530 4571 622f
00000010: 0777 a431 6b62 1032 713c 07b2 b642 0ab1
00000020: 38ce 3934 e9cf 462d 5347 04b1 a51f 8eac
00000030: b1ae a532 2353 7bae 3a64 3e30 2746 232e
00000040: 7b23 6f31 a188 48ad 177a aa2c e5f1 1d2d
00000050: 1fc4 a934 760f f531 e52f f0b1 4f64 c8b1
00000060: 95ce 35b5 05ed ae2d d37e 2331 a914 8a2d
00000070: 98f8 4233 2535 572e b05a 67ae e544 c1ad
00000080: 611d a0b4 0490 8231 d654 1d30 b1c3 6cb1
00000090: 467f 9e34 45b8 cab2 39e5 bd32 088d c531
000000a0: d339 e3b5 435c b92f 00ec 8131 06c0 b1af
000000b0: cf04 c235 9478 4a2e ee2b 88b2 ab4b d92e

exp_avg_sq f4 [12, 4]
2.2848083e-09 1.1868155e-09 4.7032975e-11 2.2646425e-10 8.216891e-10 7.889331e-10 2.4649359e-11 2.1229696e-12
4.377447e-10 3.9528167e-10 3.6009978e-10 5.5444077e-10 2.1090412e-09 1.8837318e-09 2.2850995e-10 4.3728207e-10
1.0341568e-10 1.13292264e-10 6.9889706e-12 4.1002745e-13 9.241479e-09 9.276486e-09 2.0821202e-11 2.3777879e-12
1.02637454e-10 1.0043809e-10 3.8937343e-11 2.199721e-12 2.4337925e-09 2.5730988e-09 5.7300644e-12 1.9923022e-12
1.9190497e-07 1.3669936e-07 3.3041982e-09 1.2665192e-08 1.4455483e-07 1.205913e-07 2.014418e-09 3.1339125e-09
6.774241e-08 6.368637e-08 1.19193455e-08 1.7999271e-08 8.765223e-07 6.7631845e-07 2.2381137e-08 6.026378e-08
00000000: c602 1d31 5c1d a330 6cda 4e2e 0500 792f
00000010: 3bdd 6130 3bdc 5830 6cd1 d82d 0564 152c
00000020: 17a7 f02f f34e d92f 8af7 c52f 4d67 1830
00000030: a5ee 1031 f672 0131 d53f 7b2f fb65 f02f
00000040: da69 e32e e021 f92e 0de7 f52c 2fd3 e62a
00000050: 74c4 1e32 6b5e 1f32 2e25 b72d 6b52 272c
00000060: c0b3 e12e 9edd dc2e 8d3f 2b2e a7ca 1a2c
00000070: bb3f 2731 6fd2 3031 d59b c92c 2032 0c2c
00000080: 700e 4e34 a2c7 1234 1210 6331 1a96 5932
00000090: ee36 1b34 e27b 0134 046e 0a31 5f5c 5731
000000a0: c979 9133 f4c3 8833 d6c5 4c32 d19c 9a32
000000b0: 274a 6b35 408c 3535 a440 c032 5d6a 8133

exp_avg f4 [12, 4]
5.316015e-08 -5.5464398e-08 -5.4050794e-08 -5.0731288e-08 8.052893e-09 -8.478981e-09 -7.4115003e-09 -7.76194e-09
-1.1829457e-07 1.2295635e-07 1.3396641e-07 1.1222051e-07 1.7021398e-08 -1.77671e-08 -1.7933322e-08 -1.6181412e-08
5.0926663e-12 4.037704e-12 -4.3413584e-12 -5.4348435e-12 -5.9195595e-09 1.9074435e-09 5.972209e-09 5.9814793e-09
-5.7034722e-08 6.033576e-08 2.1524697e-08 5.5812205e-08 8.395441e-12 -2.5304737e-11 -5.275346e-12 -7.486696e-12
5.115169e-08 -5.3454492e-08 -5.2114775e-08 -4.8784823e-08 -1.98785e-08 2.0963117e-08 1.8221428e-08 1.9161323e-08
1.3505021e-07 -1.4041092e-07 -1.5119943e-07 -1.2818565e-07 -1.3263769e-08 1.3878874e-08 1.4047492e-08 1.26010695e-08
00000000: 3452 6433 c037 6eb3 7a25 68b3 a4e3 59b3
00000010: ff58 0a32 f4aa 11b2 3fa8 feb1 6059 05b2
00000020: 2109 feb3 fc05 0434 68d8 0f34 e1fd f033
00000030: 7336 9232 449e 98b2 cb0b 9ab2 4dff 8ab2
00000040: a92e b32c 6810 8e2c 7bbf 98ac b838 bfac
00000050: ff64 cbb1 1a14 0331 1b34 cd31 a685 cd31
00000060: 57f6 74b3 ef91 8133 4fe5 b832 2bb6 6f33
00000070: b4b1 132d 3495 dead 189c b9ac 15b5 03ad
00000080: e1b1 5b33 d695 65b3 cdd4 5fb3 7b87 51b3
00000090: 49c1 aab2 6212 b432 5885 9c32 3298 a432
000000a0: 5202 1134 dcc3 16b4 6259 22b4 67a3 09b4
000000b0: acde 63b2 ef6f 6e32 8655 7132 177c 5832

exp_avg_sq f4 [12, 4]
8.913887e-10 1.1440717e-09 3.0727207e-10 7.1687745e-10 3.441458e-10 6.251173e-10 1.8989268e-10 5.9205146e-10
2.7480367e-09 8.388979e-10 1.0074022e-10 1.6498948e-09 2.0500386e-09 1.6435344e-09 2.5591895e-10 1.885974e-09
2.5649599e-11 3.401669e-11 4.462432e-12 3.6016436e-11 5.828107e-10 2.9067376e-10 3.1107508e-10 7.32349e-10
6.1353256e-11 6.964747e-11 2.0778965e-11 6.778869e-11 4.432673e-11 2.9301228e-11 3.5987185e-11 5.4550496e-11
2.660941e-08 2.5337645e-08 9.801063e-09 1.9272889e-08 2.5207266e-08 4.0060296e-08 1.0346334e-08 3.86392e-08
1.9224533e-08 1.4843552e-08 1.4869246e-09 1.7226109e-08 7.91473e-08 8.0015425e-08 1.9804986e-08 7.086234e-08
00000000: e705 7530 723d 9d30 b3ec a82f c40d 4530
00000010: 3732 bd2f b8d4 2b30 0aca 502f ebbd 2230
00000020: f9d7 3c31 3198 6630 b487 dd2e 83c2 e230
00000030: a9e0 0c31 bae2 e130 64b1 8c2f 689a 0131
00000040: c39d e12d 639b 152e 0402 9d2c e766 1e2e
00000050: a833 2030 b2cc 9f2f ed03 ab2f 7b4e 4930
00000060: d0ea 862e 0a28 992e 12c6 b62d a411 952e
00000070: 76f3 422e 40de 002e f845 1e2e 66ea 6f2e
00000080: b692 e432 12a6 d932 8861 2832 888d a532
00000090: 5d87 d832 c30e 2c33 a8bf 3132 40f4 2533
000000a0: 3223 a532 a202 7f32 825c cc30 9df8 9332
000000b0: b0f7 a933 f2d4 ab33 a01f aa32 fc2c 9833

exp_avg f4 [12]
5.4456574e-08 1.1550015e-08 -1.730407e-07 -1.9355843e-08 -3.492954e-09 -3.0215705e-07 6.7731924e-07 -4.529653e-08
3.0577428e-07 -3.410939e-07 1.6936598e-06 -1.4458342e-06
00000000: a3e3 6933 816d 4632 11cd 39b4 f343 a6b2
00000010: b208 70b1 2638 a2b4 06d1 3535 108c 42b3
00000020: 4c29 a434 971f b7b4 b551 e335 7c0e c2b5

exp_avg_sq f4 [12]
5.103109e-09 9.574787e-10 6.02148e-09 4.7776e-09 1.6089959e-10 9.947714e-09 6.274391e-11 2.8037128e-09
4.1404252e-07 1.9541005e-07 2.5394306e-07 1.5522584e-06
00000000: 6c57 af31 4998 8330 80e5 ce31 3728 a431
00000010: 35e9 302f 82e6 2a32 aef9 892e 70ab 4031
00000020: 9249 de34 e8d1 5134 ab55 8834 3157 d035

exp_avg f4 [12]
5.4456574e-08 1.1550015e-08 -1.730407e-07 -1.9355843e-08 -3.492954e-09 -3.0215705e-07 6.7731924e-07 -4.529653e-08
7.08575e-08 -3.3152685e-07 8.2498303e-07 -1.1798216e-07
00000000: a3e3 6933 816d 4632 11cd 39b4 f343 a6b2
00000010: b208 70b1 2638 a2b4 06d1 3535 108c 42b3
00000020: 532a 9833 b4fc b1b4 6774 5d35 615d fdb3

exp_avg_sq f4 [12]
5.103109e-09 9.574787e-10 6.02148e-09 4.7776e-09 1.6089959e-10 9.947714e-09 6.274391e-11 2.8037128e-09
1.3321477e-07 9.646597e-08 3.968555e-08 2.9757936e-07
00000000: 6c57 af31 4998 8330 80e5 ce31 3728 a431
00000010: 35e9 302f 82e6 2a32 aef9 892e 70ab 4031
00000020: cc09 0f34 ba28 cf33 b972 2a33 ffc2 9f34

exp_avg f4 [12, 4]
2.7287541e-09 -3.368933e-09 -2.4489888e-09 -2.5849556e-09 -1.6977644e-07 1.7340666e-07 4.8027893e-08 1.663572e-07
4.72032e-10 -5.8522975e-10 1.0602908e-10 -4.644683e-10 -1.49186e-08 8.417694e-09 1.3690422e-08 1.6566075e-08
-3.1419713e-06 3.3077642e-06 7.388335e-07 3.0784722e-06 -3.0319836e-07 3.1683498e-07 7.3766e-08 2.9715582e-07
3.312573e-07 -3.4464955e-07 -2.2438594e-07 -3.211116e-07 7.6454467e-07 -8.0463013e-07 -1.7803265e-07 -7.4906035e-07
-2.7288436e-06 2.859406e-06 1.3668613e-06 2.6450864e-06 -2.114231e-06 2.2459762e-06 3.2369095e-07 2.0740888e-06
2.6327604e-07 -2.7725727e-07 -2.0687447e-07 -2.540965e-07 -6.180903e-07 6.764767e-07 8.5801054e-07 5.7733786e-07
00000000: c084 3b31 e582 67b1 114b 28b1 05a3 31b1
00000010: cb4b 36b4 a931 3a34 3a47 4e33 eb9f 3234
00000020: 4dc0 0130 e2dd 20b0 1129 e92e 1a58 ffaf
00000030: 5926 80b2 699d 1032 1d33 6b32 2f4d 8e32
00000040: a8da 52b6 f5fa 5d36 4054 4635 c097 4e36
00000050: 44c7 a2b4 7819 aa34 4a69 9e33 c988 9f34
00000060: a8d7 b134 4608 b9b4 bdee 70b4 3e65 acb4
00000070: 1c3b 4d35 c3fd 57b5 3e29 3fb4 0913 49b5
00000080: 2d21 37b6 39e4 3f36 ff74 b735 3d82 3136
00000090: 36e2 0db6 94b9 1636 bfc7 ad34 9330 0b36
000000a0: 6258 8d34 f3d9 94b4 3921 5eb4 c26a 88b4
000000b0: d8ea 25b5 2097 3535 0952 6635 5bfa 1a35

exp_avg_sq f4 [12, 4]
3.474265e-08 6.578397e-08 1.3412987e-08 6.142622e-08 2.8058864e-08 2.665869e-08 4.34557e-09 2.721717e-08
9.932466e-09 1.6211743e-08 2.7485327e-09 1.5560031e-08 7.1612494e-10 6.4604133e-10 2.1843552e-10 6.919393e-10
1.6506235e-09 8.2651325e-10 5.7265537e-10 3.0446252e-09 1.8342251e-10 3.1312497e-10 9.494725e-11 2.465463e-10
1.8556157e-08 1.9061721e-08 3.6309251e-09 2.4517139e-08 3.049824e-11 1.0349466e-11 1.1030409e-11 4.2985577e-11
4.0745467e-06 6.775781e-06 1.0606855e-06 6.1967758e-06 3.7094342e-06 5.4471934e-06 8.4159615e-07 4.935446e-06
2.600386e-06 4.2486095e-06 4.962048e-07 3.824863e-06 1.6073125e-07 1.217815e-07 5.5528872e-08 1.0917853e-07
00000000: f337 1533 1f45 8d33 f16e 6632 6ce9 8333
00000010: 1806 f132 14ff e432 0a50 9531 31cb e932
00000020: 73a3 2a32 0042 8b32 b3e0 3c31 dfa8 8532
00000030: d0d8 4430 1e95 3130 222c 702f e632 3e30
00000040: 27dc e230 b330 6330 0a69 1d30 9d39 5131
00000050: d9ac 492f 6c24 ac2f 8dca d02e 4f8a 872f
00000060: 6c65 9f32 2bbd a332 e983 7931 c299 d232
00000070: f721 062e da11 362d 8c0c 422d 750d 3d2e
00000080: 17b8 8836 845b e336 e05c 8e35 e6ed cf36
00000090: 98ef 7836 09c7 b636 0cea 6135 299b a536
000000a0: 4b82 2e36 478f 8e36 ef32 0535 5357 8036
000000b0: 7895 2c34 0bc3 0234 a47e 6e33 8875 ea33

exp_avg f4 [12, 4]
-3.1498275e-09 -3.2040228e-09 -2.300858e-11 -3.1881378e-09 3.2989622e-09 3.3279919e-09 -1.2384561e-11 3.3447587e-09
1.7663787e-10 1.7825377e-10 1.0402072e-11 1.7085972e-10 1.2279251e-08 1.11568e-08 4.155734e-08 -1.48436685e-08
4.2885648e-10 3.818688e-10 1.9973342e-11 2.327185e-10 2.5355946e-09 2.2728086e-09 5.679546e-10 1.2307855e-09
-2.1711098e-07 -2.1954602e-07 -5.5389826e-10 -2.1823152e-07 2.981928e-09 3.0789993e-09 3.491685e-09 1.1410212e-09
1.1255812e-09 1.1939562e-09 -1.8533637e-10 1.4128417e-09 -1.4519118e-09 -1.4544385e-09 -1.1187371e-10 -1.3741367e-09
1.7913752e-09 1.7596617e-09 1.6506424e-09 7.167685e-10 1.0730053e-06 1.0916805e-06 -1.01761536e-07 1.157354e-06
00000000: 5a74 58b1 c42d 5cb1 b762 caad 5016 5bb1
00000010: f5b3 6231 a7b2 6431 1bdf 59ad 9ed9 6531
00000020: 2437 422f fafd 432f c5fe 362d bcdc 3b2f
00000030: b8f4 5232 20ac 3f32 c77c 3233 2503 7fb2
00000040: 2fc4 eb2f 41ef d12f f8af af2d 6fe0 7f2f
00000050: a73e 2e31 ac2f 1c31 401e 1c30 6a28 a930
00000060: 031f 69b4 5abc 6bb4 2041 18b0 0653 6ab4
00000070: a2ea 4c31 5496 5331 5ff2 6f31 1dd2 9c30
00000080: deb2 9a30 9918 a430 8dc7 4baf f32d c230
00000090: 9b8c c7b0 81e5 c7b0 4d03 f6ae 23dc bcb0
000000a0: 6934 f630 98d8 f130 d1dc e230 1906 4530
000000b0: 2e04 9035 db85 9235 ff87 dab3 6156 9b35

exp_avg_sq f4 [12, 4]
2.289199e-08 1.25353e-08 1.3786098e-08 1.766503e-08 1.3798218e-08 8.212151e-09 5.1188365e-09 1.2300087e-08
6.0037433e-09 3.3928158e-09 1.8896489e-09 5.563146e-09 5.081837e-10 2.9266822e-10 3.729472e-10 2.609157e-10
6.006366e-09 6.460601e-09 3.0318906e-10 5.815549e-09 3.262093e-10 2.4879374e-10 5.1681236e-11 4.1413328e-10
5.9246554e-09 4.6183692e-09 4.609761e-10 8.216116e-09 4.8234847e-11 5.2347803e-11 1.0450744e-12 4.5746594e-11
1.8247961e-07 1.0873013e-07 8.8855764e-08 1.3593615e-07 9.439476e-07 5.797713e-07 3.1809603e-07 6.967164e-07
2.6697793e-07 1.7712325e-07 5.6686467e-08 2.1507518e-07 4.248799e-08 1.649702e-08 4.45686e-08 1.856442e-08
00000000: 05a4 c432 d55a 5732 e6d7 6c32 d0bd 9732
00000010: 340d 6d32 6c15 0d32 c3e1 af31 5b50 5332
00000020: 7c49 ce31 0c27 6931 0edb 0131 f325 bf31
00000030: 40b0 0b30 64e5 a02f a707 cd2f 9f70 8f2f
00000040: 8e60 ce31 0cfc dd31 11ae a62f 1cd2 c731
00000050: e155 b32f 9bc6 882f e64b 632e 14ac e32f
00000060: d291 cb31 9baf 9e31 9e6c fd2f dc26 0d32
00000070: 9c23 542e 633a 662e c614 932b 1632 492e
00000080: 9def 4334 057f e933 f9d0 be33 d8f5 1134
00000090: 9663 7d35 95a1 1b35 c9c6 aa34 fd05 3b35
000000a0: 2b55 8f34 452f 3e34 6e77 7333 6aef 6634
000000b0: 0a7c 3633 55b5 8d32 b26b 3f33 9777 9f32

exp_avg f4 [12]
3.6977446e-09 -1.7701545e-07 7.0566886e-10 7.6927314e-08 -3.4527002e-06 -3.2657263e-07 3.4296136e-07 8.463691e-07
-2.9501207e-06 -2.3718371e-06 2.8308077e-07 -9.807774e-07
00000000: 691b 7e31 a311 3eb4 08f9 4130 3d33 a533
00000010: f0b4 67b6 cd53 afb4 4020 b834 0b32 6335
00000020: b0fa 45b6 da2b 1fb6 53fa 9734 41a3 83b5

exp_avg_sq f4 [12]
8.909026e-08 7.259119e-08 2.1430052e-08 2.761232e-09 1.3364616e-08 1.1213097e-09 3.624333e-08 1.806818e-10
8.993752e-06 9.587218e-06 4.8878424e-06 6.976905e-07
00000000: e351 bf33 6ee3 9b33 2f15 b832 1bc0 3d31
00000010: 349a 6532 941c 9a30 f6a9 1b33 68a9 462f
00000020: dfe3 1637 cad8 2037 3f02 a436 ed48 3b35

exp_avg f4 [12]
3.6977446e-09 -1.7701545e-07 7.0566886e-10 7.6927314e-08 -3.4527002e-06 -3.2657263e-07 3.4296136e-07 8.463691e-07
-3.74503e-08 -4.08592e-07 3.7155805e-09 -8.978347e-07
00000000: 691b 7e31 a311 3eb4 08f9 4130 3d33 a533
00000010: f0b4 67b6 cd53 afb4 4020 b834 0b32 6335
00000020: 0ad9 20b3 755c dbb4 2f55 7f31 bb02 71b5

exp_avg_sq f4 [12]
8.909026e-08 7.259119e-08 2.1430052e-08 2.761232e-09 1.3364616e-08 1.1213097e-09 3.624333e-08 1.806818e-10
7.5361567e-07 3.293766e-06 7.4378096e-07 3.1151322e-07
00000000: e351 bf33 6ee3 9b33 2f15 b832 1bc0 3d31
00000010: 349a 6532 941c 9a30 f6a9 1b33 68a9 462f
00000020: 134c 4a35 780a 5d36 3da8 4735 0d3e a734

exp_avg f4 [12, 4]
-1.2895728e-07 -1.309542e-07 -1.8726024e-10 -1.3114226e-07 -1.6186119e-06 -1.634448e-06 2.1921716e-08 -1.6551786e-06
1.8494555e-06 1.8772803e-06 1.3803609e-08 1.8731794e-06 -1.9272704e-07 -1.9556916e-07 -3.2668937e-10 -1.9585184e-07
4.075694e-06 4.1315675e-06 3.8155146e-09 4.14363e-06 -8.9547626e-05 -9.124979e-05 -3.134025e-07 -9.041198e-05
2.225005e-07 2.2437558e-07 2.1997548e-09 2.211098e-07 3.4693872e-07 3.5048723e-07 1.575945e-09 3.4773032e-07
1.1524904e-06 1.1697274e-06 3.4564596e-09 1.1708416e-06 -0.00030502793 -0.0003094666 1.0691455e-06 -0.00031094142
0.00011529554 0.0001170365 5.977868e-08 0.00011724819 -6.140454e-05 -6.233099e-05 -1.0125786e-07 -6.240702e-05
00000000: 8277 0ab4 6b9c 0cb4 12e5 4daf 1cd0 0cb4
00000010: 153f d9b5 355f dbb5 5d4e bc32 8127 deb5
00000020: cf3a f835 dcf6 fb35 ea24 6d32 f469 fb35
00000030: 68f0 4eb4 a4fd 51b4 7199 b3af 584b 52b4
00000040: f2c1 8836 e5a1 8a36 9f19 8331 8309 8b36
00000050: 84cb bbb8 5c5d bfb8 b641 a8b4 909b bdb8
00000060: 79e8 6e34 e4eb 7034 7f2a 1731 336a 6d34
00000070: e542 ba34 992a bc34 a398 d830 b1af ba34
00000080: 45af 9a35 87ff 9c35 ae86 6d31 d025 9d35
00000090: 28ec 9fb9 e73f a2b9 8f7f 8f35 da05 a3b9
000000a0: d2ca f138 7e71 f538 ad5f 8033 25e3 f538
000000b0: 50c6 80b8 b2b7 82b8 1973 d9b3 84e0 82b8

exp_avg_sq f4 [12, 4]
2.9498153e-08 1.3423357e-08 2.2179547e-08 2.3341922e-08 1.0082971e-08 7.718607e-09 1.5306725e-10 1.357036e-08
4.652201e-09 2.9856448e-09 1.9795998e-09 2.7601932e-09 3.505255e-08 2.5057643e-08 5.862624e-09 2.9702804e-08
1.0829883e-09 3.969425e-10 5.1797993e-11 2.441095e-10 4.391558e-08 4.50444e-08 6.5409436e-12 4.504259e-08
1.5285161e-09 2.2087174e-09 6.492971e-11 3.1440983e-09 1.6769107e-09 2.5143796e-09 1.25839e-10 6.1620393e-09
5.429527e-06 2.6742825e-06 4.0480627e-06 2.4645608e-06 1.9019419e-06 1.8421673e-06 2.2348587e-07 1.2709819e-06
3.1223638e-06 2.6238592e-06 4.1780993e-07 2.588716e-06 9.253228e-06 5.556388e-06 3.0193269e-06 5.868895e-06
00000000: 2063 fd32 8c9c 6632 5785 be32 6e81 c832
00000010: 6039 2d32 cb9a 0432 9a4c 282f 1323 6932
00000020: 31d9 9f31 052c 4d31 7d09 0831 d5ad 3d31
00000030: b08c 1633 573e d732 3070 c931 2825 ff32
00000040: 43d8 9430 b138 da2f 5bcf 632e 5c33 862f
00000050: b19d 3c33 d776 4133 9523 e62c da74 4133
00000060: e113 d230 2bc8 1731 2dc8 8e2e 900f 5831
00000070: 0d79 e630 6fc9 2c31 885c 0a2f dfb9 d331
00000080: 482f b636 d377 3336 98d4 8736 d564 2536
00000090: 3a46 ff35 6340 f735 54f7 6f34 9b96 aa35
000000a0: cd89 5136 8f15 3036 5c4f e034 cdb9 2d36
000000b0: 503e 1b37 0271 ba36 a49f 4a36 6ded c436

exp_avg f4 [12, 4]
-1.3704582e-07 -8.176345e-08 -1.3313226e-07 1.359552e-07 3.600796e-06 1.7746125e-06 3.4959623e-06 -3.5853116e-06
1.8830402e-06 4.7976897e-07 1.8378811e-06 -1.8848102e-06 -2.0689532e-07 -5.098919e-09 -2.0707432e-07 2.1234695e-07
2.9480367e-07 -1.5524047e-07 3.8802122e-07 -3.858827e-07 -0.000566465 8.1900915e-05 -0.00056050293 0.000577127
-7.501782e-09 -9.800892e-10 -7.762394e-09 7.828376e-09 -9.827861e-09 -5.391108e-09 -9.4410275e-09 9.647474e-09
6.016258e-07 3.8928857e-07 5.8486586e-07 -5.9669645e-07 -0.000171965 -7.097509e-05 -0.00016806724 0.000172364
0.00010445102 3.2222848e-05 0.00010196095 -0.000104573766 -2.064109e-07 -5.4598367e-08 -2.0349145e-07 2.0856343e-07
00000000: de26 13b4 ef95 afb3 1ef3 0eb4 15fb 1134
00000010: 34a5 7136 392f ee35 2d9c 6a36 2f9b 70b6
00000020: c5bc fc35 79c9 0035 1dad f635 96f9 fcb5
00000030: f426 5eb4 9132 afb1 2858 5eb4 7c01 6434
00000040: 8245 9e34 2db0 26b4 3b51 d034 502b cfb4
00000050: d37e 14ba 38c2 ab38 b7ee 12ba 564a 173a
00000060: 30e1 00b2 d3b3 86b0 5f5b 05b2 907d 0632
00000070: 64d7 28b2 b03c b9b1 1432 22b2 0abe 2532
00000080: 697f 2135 6aff d034 adff 1c35 ab2c 20b5
00000090: 8151 34b9 76d8 94b8 353b 30b9 9cbc 3439
000000a0: b70c db38 0527 0738 ded3 d538 9d4e dbb8
000000b0: cca1 5db4 8a7f 6ab3 4e7f 5ab4 7bf1 5f34

exp_avg_sq f4 [12, 4]
4.057286e-08 1.035361e-07 4.975632e-08 1.5430459e-08 2.3771205e-08 4.5361535e-08 1.4501763e-08 1.0736736e-09
1.7926315e-09 1.5163698e-09 2.653106e-09 1.7928398e-09 4.9405244e-08 8.088374e-08 3.7441872e-08 1.0750105e-08
2.2682172e-09 5.179317e-11 1.66436e-09 2.0354611e-09 1.9133199e-07 7.469407e-09 1.7273756e-07 2.0020744e-07
2.4007103e-09 3.7202344e-10 2.2808597e-09 2.8415885e-09 4.1207677e-09 8.811994e-10 4.8796003e-09 5.1228115e-09
4.012458e-07 1.2602412e-06 9.253067e-07 4.3986074e-07 3.8484285e-07 2.363566e-07 3.2796925e-07 2.9909575e-07
8.22012e-07 6.046321e-07 7.3318455e-07 6.582967e-07 7.685779e-07 1.6193558e-06 9.298e-07 3.1105353e-07
00000000: 5542 2e33 9357 de33 a7b3 5533 f08b 8432
00000010: 6f31 cc32 89d3 4233 6e23 7932 8890 9330
00000020: 9d60 f630 8568 d030 ef51 3631 f167 f630
00000030: a431 5433 4eb2 ad33 c6cf 2033 76af 3832
00000040: e6de 1b31 edc9 632e 76bf e430 36e0 0b31
00000050: f070 4d34 cd52 0032 bd79 3934 9af8 5634
00000060: bef9 2431 a585 cc2f 4fbd 1c31 c145 4331
00000070: a896 8d31 e538 7230 6ba9 a731 ba04 b031
00000080: ce6a d734 8f25 a935 9862 7835 0026 ec34
00000090: 669c ce34 35c9 7d34 c013 b034 6893 a034
000000a0: 3ca8 5c35 004e 2235 0fd0 4435 ceb5 3035
000000b0: 4550 4e35 a458 d935 5f97 7935 dffe a634

exp_avg f4 [12]
1.3153081e-07 1.6779627e-06 -1.8609929e-06 1.9661826e-07 -4.1543176e-06 8.966581e-05 -2.0483478e-07 -3.309713e-07
-1.1708547e-06 0.00031368798 -0.000117608804 6.249673e-05
00000000: ea3a 0d34 5c36 e135 3bc7 f9b5 041e 5334
00000010: 5165 8bb6 f70a bc38 8ef0 5bb4 59b0 b1b4
00000020: 4326 9db5 7d76 a439 bfa4 f6b8 ad10 8338

exp_avg_sq f4 [12]
2.260273e-07 6.477043e-08 1.2080739e-08 1.3469186e-07 3.814825e-09 4.5074664e-08 1.3228293e-08 2.5647207e-08
2.4400317e-05 2.710517e-06 7.2944463e-06 2.9782135e-05
00000000: e9b1 7234 ec17 8b33 a78b 4f32 d19f 1034
00000010: 8e13 8331 1e98 4133 a642 6332 ce4e dc32
00000020: 48af cc37 54e6 3536 d1c2 f436 a6d4 f937

exp_avg f4 [12]
1.3153081e-07 1.6779627e-06 -1.8609929e-06 1.9661826e-07 -4.1543176e-06 8.966581e-05 -2.0483478e-07 -3.309713e-07
-8.3002084e-07 0.00029789074 -0.00010717824 3.1595664e-07
00000000: ea3a 0d34 5c36 e135 3bc7 f9b5 041e 5334
00000010: 5165 8bb6 f70a bc38 8ef0 5bb4 59b0 b1b4
00000020: 99ce 5eb5 382e 9c39 e1c4 e0b8 c0a0 a934

exp_avg_sq f4 [12]
2.260273e-07 6.477043e-08 1.2080739e-08 1.3469186e-07 3.814825e-09 4.5074664e-08 1.3228293e-08 2.5647207e-08
4.731627e-06 1.0651944e-06 3.0169306e-06 4.083325e-06
00000000: e9b1 7234 ec17 8b33 a78b 4f32 d19f 1034
00000010: 8e13 8331 1e98 4133 a642 6332 ce4e dc32
00000020: 5ec4 9e36 cdf7 8e35 7976 4a36 7f03 8936

exp_avg f4 [12, 4]
-6.3086304e-07 -2.2296054e-07 -5.9050853e-07 6.070598e-07 -6.9470025e-06 -6.0506472e-06 -6.704187e-06 6.8490513e-06
-3.0272243e-08 -7.0184925e-08 -1.9968923e-08 2.1005524e-08 -4.603081e-06 -5.0386625e-06 -4.559345e-06 4.6581804e-06
-0.0012914477 -0.0005896288 -0.0012471102 0.0012801266 -1.2150142e-06 6.2844424e-07 -1.6310462e-06 1.6138193e-06
-6.372886e-07 3.4575444e-07 -9.2328395e-07 8.968669e-07 -2.0925596e-05 1.1164206e-05 -2.650477e-05 2.6516944e-05
1.2632321e-06 1.5884088e-06 6.8118004e-07 -7.5660625e-07 -0.0002191846 -0.00019732496 -0.0002114909 0.00021593095
2.6913274e-06 2.9552016e-06 2.5120073e-06 -2.569307e-06 5.4240547e-05 7.71728e-05 5.289384e-05 -5.2283922e-05
00000000: 9458 29b5 ed66 6fb4 7083 1eb5 d5f4 2235
00000010: 4c1a e9b6 aa06 cbb6 87f4 e0b6 e7d0 e536
00000020: af04 02b3 92b8 96b3 2088 abb2 a36f b432
00000030: 2a74 9ab6 c811 a9b6 7afc 98b6 774d 9c36
00000040: cb45 a9ba 5291 1aba 1376 a3ba ecc9 a73a
00000050: 9213 a3b5 5cb2 2835 52ea dab5 699a d835
00000060: 2412 2bb5 21a0 b934 97d7 77b5 39c0 7035
00000070: 6089 afb7 e64d 3b37 8f56 deb7 b470 de37
00000080: 538c a935 5031 d535 56da 3635 9619 4bb5
00000090: ebd4 65b9 04e9 4eb9 a8c3 5db9 866b 6239
000000a0: a79c 3436 fa51 4636 f593 2836 5c6c 2cb6
000000b0: 5880 6338 d5d7 a138 54da 5d38 6f4b 5bb8

exp_avg_sq f4 [12, 4]
3.3445613e-07 6.663502e-08 3.7020646e-07 3.46787e-07 8.232741e-08 1.4876052e-07 5.4822475e-08 1.03772555e-08
5.615507e-08 4.141527e-08 8.1201634e-08 4.431344e-08 3.8403724e-07 1.166282e-06 7.1597486e-07 2.994819e-07
1.2333239e-06 3.490313e-07 9.326395e-07 1.2421682e-06 2.5023498e-08 3.161514e-09 1.6775301e-08 3.264955e-08
8.6916545e-09 3.8634787e-10 4.9762914e-09 6.330843e-09 5.6641314e-09 2.9134444e-09 9.264542e-09 5.309228e-09
7.999693e-06 7.871401e-06 8.327522e-06 5.4969764e-06 7.3683077e-06 9.929131e-06 6.645209e-06 3.479638e-06
3.2876776e-06 3.3530898e-06 4.300384e-06 2.3400069e-06 1.4200515e-05 3.3066546e-05 2.8257797e-05 1.4990412e-05
00000000: 4d8f b334 fd18 8f33 cac0 c634 0b2e ba34
00000010: f9cb b033 fbba 1f34 f375 6b33 a747 3232
00000020: 272f 7133 92e0 3133 1261 ae33 2453 3e33
00000030: ad2d ce34 2589 9c35 6b31 4035 7bc8 a034
00000040: b088 a535 7f62 bb34 805a 7a35 93b8 a635
00000050: 41f3 d632 f141 5931 4719 9032 8f3a 0c33
00000060: 4d52 1532 a165 d42f ecfb aa31 af86 d931
00000070: 3a9e c231 db35 4831 e329 1f32 776c b631
00000080: 6b36 0637 690f 0437 6fb6 0b37 ab72 b836
00000090: 483d f736 4b95 2637 e9f9 de36 ba83 6936
000000a0: dfa1 5c36 a505 6136 044c 9036 0309 1d36
000000b0: bf3e 6e37 efb0 0a38 280b ed37 547f 7b37

exp_avg f4 [12, 4]
7.1031394e-07 7.013625e-07 -7.0084036e-07 -7.0010617e-07 -5.044729e-06 6.793117e-06 -6.9686407e-06 -6.5184563e-06
-4.8215977e-08 6.245411e-08 -6.411555e-08 -5.975935e-08 -5.009155e-06 4.116418e-06 -4.261561e-06 -3.7897985e-06
-0.0006186366 0.0012514554 -0.0012729384 -0.0012175861 -5.4912412e-08 -1.2753044e-08 1.2409796e-08 1.4253866e-08
-1.3998853e-07 6.600243e-08 -6.84719e-08 -6.0800744e-08 -2.1263628e-07 3.9155375e-06 -4.0327554e-06 -3.2063715e-06
-2.8987317e-06 -2.0312452e-06 2.0200794e-06 2.0440252e-06 -6.1304286e-06 8.047387e-06 -8.25712e-06 -7.7204195e-06
2.3768084e-06 -3.0451565e-06 3.1269487e-06 2.9135715e-06 1.2392063e-05 -7.691656e-06 8.04628e-06 9.138768e-06
00000000: 67ac 3e35 4445 3c35 6221 3cb5 eeee 3bb5
00000010: e445 a9b6 6ef0 e336 2bd4 e9b6 1db9 dab6
00000020: 0716 4fb3 831e 8633 e5af 89b3 0d55 80b3
00000030: 5014 a8b6 c31f 8a36 88fe 8eb6 3e54 7eb6
00000040: 002c 22ba e007 a43a bad8 a6ba 6997 9fba
00000050: d6d8 6bb3 7b18 5bb2 dc32 5532 2ae1 7432
00000060: c14f 16b4 38bd 8d33 d30a 93b3 9091 82b3
00000070: 0451 64b4 3662 8336 1b51 87b6 0b2d 57b6
00000080: d587 42b6 8750 08b6 b390 0736 162c 0936
00000090: fbb3 cdb6 4403 0737 0f88 0ab7 f386 01b7
000000a0: 4281 1f36 645b 4cb6 92d8 5136 c786 4336
000000b0: 81e7 4f37 690b 01b7 82fe 0637 b652 1937

exp_avg_sq f4 [12, 4]
4.8264912e-08 9.7346344e-08 5.9128655e-07 3.7442626e-07 1.7130878e-08 1.1326249e-08 3.7332523e-08 1.4311107e-07
8.254285e-08 1.2547736e-08 4.8570172e-08 4.832679e-08 1.0943647e-06 2.221479e-07 4.8868316e-07 8.627764e-07
3.3840294e-07 8.162718e-07 8.3833015e-07 6.7729894e-07 3.0592286e-08 3.9670183e-09 1.2099535e-08 8.623023e-09
1.7889887e-08 3.4471943e-09 1.976543e-08 1.3719583e-08 1.67147e-08 3.1695566e-09 1.4500666e-08 9.194475e-09
9.241775e-07 6.311002e-07 3.3556796e-06 3.3313113e-06 8.3894014e-07 3.6533987e-07 1.4129483e-06 2.651646e-06
5.982391e-07 1.17825316e-07 3.8688344e-07 6.441093e-07 5.7490797e-06 1.3642328e-06 2.9446753e-06 4.9512164e-06
00000000: d54b 4f33 b80c d133 e7b8 1e35 c104 c934
00000010: 3327 9332 5f95 4232 8b57 2033 12aa 1934
00000020: 6942 b133 8791 5732 789b 5033 de8f 4f33
00000030: 16e2 9235 8d87 6e34 0d2e 0335 8b99 6735
00000040: bfad b534 c51d 5b35 9c09 6135 a1cf 3535
00000050: 9364 0333 434e 8831 51de 4f32 7524 1432
00000060: 47ac 9932 afe3 6c31 a4c8 a932 5db3 6b32
00000070: 0494 8f32 6ecf 5931 9a1e 7932 bbf5 1d32
00000080: ff14 7835 e068 2935 2332 6136 7e8f 5f36
00000090: 8733 6135 ee23 c434 89a4 bd35 eef2 3136
000000a0: ae96 2035 2707 fd33 dbb4 cf34 dbe6 2c35
000000b0: 38e8 c036 af1a b735 239d 4536 a022 a636

exp_avg f4 [12]
-8.1924037e-07 6.973957e-06 2.7385394e-08 4.733442e-06 0.0013033436 1.7766266e-06 1.2865399e-06 2.712906e-05
6.1818932e-06 0.00021997193 -3.1497552e-06 -5.3773492e-05
00000000: c5e9 5bb5 d601 ea36 1e3d eb32 f5d3 9e36
00000010: f4d4 aa3a 6d74 ee35 2dad ac35 3693 e337
00000020: 0f6e cf36 44a8 6639 6260 53b6 d98a 61b8

exp_avg_sq f4 [12]
7.6846067e-07 2.305883e-07 1.4346685e-07 3.0696342e-06 1.6839181e-06 9.994072e-08 8.22284e-08 5.792455e-08
2.2998818e-05 1.579406e-05 1.0788488e-05 0.00010134434
00000000: 3748 4e35 a197 7734 de0b 1a34 eaff 4d36
00000010: fc02 e235 fe9e d633 8a95 b033 b7c8 7833
00000020: 96ed c037 7c7d 8437 3400 3537 d488 d438

exp_avg f4 [12]
-8.1924037e-07 6.973957e-06 2.7385394e-08 4.733442e-06 0.0013033436 1.7766266e-06 1.2865399e-06 2.712906e-05
5.353395e-06 8.2397655e-06 -2.870671e-06 -5.468261e-06
00000000: c5e9 5bb5 d601 ea36 1e3d eb32 f5d3 9e36
00000010: f4d4 aa3a 6d74 ee35 2dad ac35 3693 e337
00000020: 50a1 b336 863d 0a37 c1a5 40b6 017c b7b6

exp_avg_sq f4 [12]
7.6846067e-07 2.305883e-07 1.4346685e-07 3.0696342e-06 1.6839181e-06 9.994072e-08 8.22284e-08 5.792455e-08
6.7530486e-06 3.6131357e-06 1.6321709e-06 1.6442937e-05
00000000: 3748 4e35 a197 7734 de0b 1a34 eaff 4d36
00000010: fc02 e235 fe9e d633 8a95 b033 b7c8 7833
00000020: 3f98 e236 3379 7236 f710 db35 f0ee 8937

exp_avg f4 [6, 4]
-0.00031588878 -0.00014369204 0.00013830709 0.00010873313 0.00012950227 -2.2664202e-05 1.8647828e-05 5.921809e-05
-2.4461806e-05 1.8794783e-05 -1.8514873e-05 -2.1019905e-05 -0.0010644196 0.0015276769 -0.001560072 -0.0014642649
-2.2839902e-05 7.661415e-06 -5.792981e-06 -1.7616941e-05 0.0012980722 -0.0013878184 0.001427463 0.0013349936
00000000: e09d a5b9 0aac 16b9 8706 1139 a807 e438
00000010: 00cb 0739 011f beb7 e86d 9c37 f160 7838
00000020: 5433 cdb7 7da9 9d37 6350 9bb7 e753 b0b7
00000030: ff83 8bba 553c c83a 547b ccba 94ec bfba
00000040: 5198 bfb7 8789 0037 5461 c2b6 18c8 93b7
00000050: 1324 aa3a 75e7 b5ba b619 bb3a f4fa ae3a

exp_avg_sq f4 [6, 4]
2.0168196e-05 2.3639563e-05 4.0622945e-05 2.9506755e-05 4.4978515e-05 1.4015736e-05 3.0530853e-05 4.6805068e-05
2.362188e-05 4.7719072e-06 1.314473e-05 1.5383019e-05 6.9410544e-06 6.750495e-06 9.5798605e-06 1.6593716e-05
2.8746057e-05 6.192512e-06 1.6653934e-05 1.9912612e-05 0.00034368847 8.013203e-05 0.00023799075 0.00034914017
00000000: df2e a937 934d c637 8e62 2a38 4685 f737
00000010: 50a7 3c38 2125 6b37 410e 0038 8f50 4438
00000020: 9a27 c637 5f1e a036 2f88 5c37 c80a 8137
00000030: 34e7 e836 4f82 e236 30b9 2037 bc32 8b37
00000040: b023 f137 46c9 cf36 0db4 8b37 020a a737
00000050: 1631 b439 8e0c a838 288d 7939 cd0c b739
