aa2_models/model1.pt (torch_old, 18970 bytes, 72 tensors)

lin1.weight f4 [4, 7]
00000000: 15bf 463d 48cc b1be 73f8 5c3e b3a9 aabd
00000010: 7f3f 3fbd b95a 903e d52f f83e 6f4d 18bc
00000020: a7b8 65be 9ee8 24be ad0d ee3d dbed 643e
00000030: 2e0a 563e 20ae 613e 0f24 aebe 8b60 a23e
00000040: f18e da3e 6332 3ebe 96b5 e7bd 7e14 393e
00000050: 6cba 1e3e 3ccb 553e 848f 633d 33c1 f83c
00000060: f089 96be b4b2 e5be b09f 36bd 56cb 1bbd
0.048522074 -0.34726167 0.21579151 -0.08333149 -0.046691414 0.28194216 0.48473993 -0.009295805
-0.2243372 -0.16104361 0.11623702 0.2235636 0.2090232 0.2203908 -0.34011886 0.3171428
0.4268718 -0.18573909 -0.11313932 0.18074223 0.15500802 0.20878309 0.05555679 0.030365562
-0.29402113 -0.44862902 -0.044585884 -0.038035713

lin1.bias f4 [4]
00000000: de84 503e 5089 863e f5fb cd3e 4174 d3be
0.20363185 0.26276636 0.4023129 -0.41299632

GRU.weight_ih_l0 f4 [12, 4]
00000000: 0768 193f 80d7 dabd 6d81 183e 6f8b 7f3d
00000010: 8593 473e 2c4e 433f 8b45 f0bd 37f6 c5be
00000020: 0e64 1a3e 64fb f6be 5461 913d a7f0 8cbd
00000030: ffd3 c4be d38d 04be d95a edbe 0932 823c
00000040: ef97 c43e 98fd 493d 3be5 ad3e 5790 9e3d
00000050: acfb 9f3e f73a cb3e 6843 c3bd 64a9 a5be
00000060: e05d 84bd 3fd6 f83e 6493 353d 814d 573d
00000070: bdb8 fa3e 29d6 dfbd ae16 8dbc 9c9e e8be
00000080: 64b2 c93e b673 64be a73f 193f dfa3 e63d
00000090: 8f60 f3bb f09b cf3c e107 0fbe 6255 9bbe
000000a0: b07d 86bd 5ef6 8ebd bc78 8dbe a8e4 dc3d
000000b0: 5b13 0f3e 2d63 863e fca3 af3e 9326 3bbf
0.5992436 -0.106856346 0.14893122 0.062388834 0.19489868 0.76291156 -0.11732014 -0.3866441
0.1507723 -0.4823867 0.07098642 -0.06881838 -0.3844299 -0.12944727 -0.46358374 0.015893
0.38397166 0.04931411 0.3396395 0.077423744 0.31246698 0.39693424 -0.09534341 -0.32355797
-0.06463218 0.48600957 0.044330016 0.052564148 0.4896907 -0.1092952 -0.017222729 -0.4543351
0.39393914 -0.22309765 0.5986275 0.11261725 -0.007427282 0.025342911 -0.1396785 -0.3033858
-0.06566942 -0.069805846 -0.27631176 0.107858 0.13972227 0.2624754 0.34304798 -0.73105735

GRU.weight_hh_l0 f4 [12, 4]
00000000: 36e5 97bd acbd b8bd bb12 44bf 8614 2cbe
00000010: 1b2b 10bf 7175 bf3e b3d1 b93d 0e86 ce3c
00000020: 6524 17be 4c9e 4bbf 3b87 d8be ba81 a93d
00000030: f5b3 91be 41d6 723e 5ff1 8d3d 5b30 1ebf
00000040: 8927 06bd 2138 633f 029b 083f db53 04be
00000050: e37a 623e f754 3c3e 7c4e 2f3f 8d9e bdbe
00000060: e5db 4e3f a268 033f 62dd 0cbd bcf3 aa3d
00000070: c3be bb3e 14b7 90bc 7d29 e33d 92a6 2ebf
00000080: 6ffa 1dbf 4cca 7a3e ea46 3ebe 7751 463f
00000090: 72f1 2cbe f690 2abe c86e 13bf 6fca d03e
000000a0: feea 87be 20f0 4fbe 7b53 d2be 8f38 76bc
000000b0: 0641 17be 668c 1ebe 387f 403d a271 d33e
-0.074167654 -0.09020552 -0.7659108 -0.16804704 -0.56315774 0.37394288 0.090732 0.025210407
-0.14759977 -0.79538417 -0.42290673 0.082766965 -0.2845761 0.23714544 0.069308035 -0.61792535
-0.032752547 0.8875752 0.53361523 -0.12922613 0.2211719 0.18391787 0.6847913 -0.37035027
0.8080428 0.5133153 -0.034390815 0.0834727 0.36668977 -0.017665423 0.11091898 -0.68222916
-0.61710256 0.24491233 -0.18581739 0.77468055 -0.16888979 -0.1665686 -0.57590914 0.40779445
-0.26546472 -0.20306444 -0.41079316 -0.015028133 -0.14770898 -0.15483245 0.046996325 0.41297632

GRU.bias_ih_l0 f4 [12]
00000000: 2792 6a3e 6662 253f f910 c13e 22d8 09bf
00000010: 1c70 c2be 790c d1bd 623b 4bbf 4811 9dbe
00000020: d4b2 7f3e 0a26 ba3e 6620 43be 947f 9e3e
0.22907315 0.6460327 0.37708262 -0.5384542 -0.37976158 -0.10207457 -0.79387486 -0.30677247
0.24970561 0.36357147 -0.19055328 0.3095671

GRU.bias_hh_l0 f4 [12]
00000000: 99ae 413e 73b8 68bd e295 87bd 54be 313e
00000010: dbbe 21be 995e 31be 1cea aabc 5411 c2be
00000020: d655 783e d76c 7e3e 35e3 26be 72c6 92bd
0.1891426 -0.05681653 -0.06620385 0.1735776 -0.15795462 -0.17321242 -0.020863585 -0.37903845
0.24251494 0.24846207 -0.1629761 -0.07166757

GRU.weight_ih_l1 f4 [12, 4]
00000000: 896f 25bf df01 7c3d 24f8 af3d 8c42 40bf
00000010: ccd9 e8be 3ca0 92be fe61 43be f684 0a3e
00000020: b439 4bbd f94e 0e3e fc41 ad3e 1f4c 34be
00000030: cd70 64be 8ef3 c3bd c737 383e b19b b73d
00000040: 30de 98bd fcb7 313e d7c1 1b3f 5ac7 b9bd
00000050: e66f d5bd 2d4d 2dbf 8559 26bf e612 3cbe
00000060: d07e 42bc 855b 35bd 6073 48bf 8b6a 8abd
00000070: 00db 2f3e 0395 9f3e 79d9 24bf e12d 5d3e
00000080: 81bf b5be ca9c 52bf bbba 04bf bc95 5dbf
00000090: e7d7 b83e 1bcf 2d3f 0b60 cbbe 55c2 b13e
000000a0: e023 3e3c aa03 f7be f45e d23e 6dcb 9fbe
000000b0: db78 803e 8285 0abf efd8 9c3e ddf1 cdbe
-0.64623314 0.061525222 0.08592251 -0.7510154 -0.45478666 -0.28637874 -0.1908035 0.13527283
-0.049615577 0.13897313 0.33839405 -0.17607163 -0.22308655 -0.09567939 0.17990027 0.08965243
-0.07464254 0.1735534 0.6084265 -0.090712264 -0.104217336 -0.67695886 -0.64980346 -0.18366584
-0.011871055 -0.044276733 -0.7830105 -0.06758603 0.17173386 0.31168374 -0.64394337 0.21599533
-0.35497668 -0.8227049 -0.5184743 -0.865566 0.3610222 0.6789414 -0.39721712 0.34718576
0.011605233 -0.48244983 0.41088068 -0.3120989 0.25092205 -0.54109967 0.30634257 -0.4022359

GRU.weight_hh_l1 f4 [12, 4]
00000000: 452f 3b3d eb83 1fbf 86e9 2c3e 13c9 e53e
00000010: a6ff babe a42d 6e3d 9aa5 d93e 53b9 873e
00000020: 5cdb d8bd dd13 123f 26ab 873d 3a4c 413e
00000030: b153 9abe 6720 dc3e a05e 973c bf4b 5e3e
00000040: 7e16 6dbf 2c6e 0b3e a3aa 763e 7daa a73e
00000050: 5ccd dc3e 6433 4dbe 9115 243e 7a48 233e
00000060: 28d3 2b3f 962a 78be e2d4 dfbe 849c 8dbe
00000070: 1a09 db3e db6c 1b3f 3f4d 35bd c14a cbbd
00000080: b24a 223b f44c a93e e38a 96be bb35 acbc
00000090: ea80 933e 92a4 f53e 07de a43e 8d9c 0abf
000000a0: 0d17 7bbe 5a7f d5be 744c 063f b626 093f
000000b0: eef2 f0be 0862 74be bd53 84be 8194 153f
0.045699377 -0.62310666 0.16885957 0.4487997 -0.3652317 0.058148995 0.42509156 0.2650858
-0.105887145 0.5706156 0.06624441 0.18876734 -0.30141976 0.4299347 0.018477738 0.21708582
-0.92612445 0.13616246 0.2408853 0.3274726 0.43125427 -0.20039135 0.16023852 0.15945616
0.67119074 -0.24234995 -0.43717104 -0.27658474 0.4278038 0.60712975 -0.04426312 -0.099263676
0.002476376 0.33066523 -0.29402837 -0.021021714 0.2880929 0.4797712 0.32200643 -0.5414513
-0.24520512 -0.41698724 0.5246041 0.53574693 -0.4706034 -0.23865521 -0.25845137 0.58429724

GRU.bias_ih_l1 f4 [12]
00000000: 0452 913c e3d5 ff3e e7ef fbbd 8b26 4c3e
00000010: 1bd5 69be a1e6 173f d9e7 163f d7d3 e73e
00000020: 9acb 15bd 0544 063b 04f9 60be 1d7f bcbe
0.017739303 0.4996787 -0.12301617 0.19936578 -0.228352 0.59336287 0.5894752 0.45278808
-0.036571123 0.002048732 -0.21969992 -0.3681573

GRU.bias_hh_l1 f4 [12]
00000000: 48e7 17bf 5a9c 9e3d a971 9d3e 1cc4 15bd
00000010: cb50 34bf e75c 8cba fdb5 cb3e a2f0 fc3d
00000020: 45ad 11be 8963 dc3e 43b1 61be 34b9 b2be
-0.5933728 0.077446654 0.30750778 -0.036563978 -0.7043578 -0.0010708839 0.39787284 0.123505846
-0.14226253 0.4304469 -0.22040276 -0.34906924

GRU.weight_ih_l2 f4 [12, 4]
00000000: 849e a1be 3294 973e a61a 853e 11d3 00bf
00000010: a784 d13d dc45 1b3f c840 16bf 3363 8fbe
00000020: 89e1 823e 667c f33e d17b 113e 3109 edbe
00000030: eda2 66be 056b fabe f3cf d3bb 6002 06be
00000040: 3e2c f43e ebfd 573e 33f6 6a3e b7cd 90be
00000050: 6912 e53e ea53 173f 566d d4be 8365 11bf
00000060: 80d1 033f 203d 343f 6902 563d ede4 21bf
00000070: 0813 3e3c 2473 8bbe 847e 593f 9064 5f3f
00000080: 2346 143f fe5d 99be 0435 60be 5c5b 063f
00000090: 038f 3a3c 6179 f93d ffe3 acbe d1aa 1dbe
000000a0: c47b 043e 1a33 0a3f 6f85 6dbe ed10 ac3e
000000b0: c985 3c3f 80a8 c33d b781 053f 022d d9bd
-0.3156625 0.29605252 0.25996894 -0.5032206 0.102303796 0.6065347 -0.586926 -0.2800537
0.25562695 0.47555846 0.14207388 -0.46296075 -0.22523089 -0.48909774 -0.0064639985 -0.13086843
0.47690004 0.21092956 0.2294548 -0.28281948 0.44740608 0.5911242 -0.41489667 -0.5679552
0.51491547 0.7040577 0.052248392 -0.6323994 0.011601217 -0.27236283 0.8495867 0.8726282
0.5791952 -0.29954523 -0.21895224 0.52483153 0.011386636 0.12181354 -0.33767697 -0.15397193
0.12937838 0.53984225 -0.23195432 0.33606663 0.7364164 0.09553623 0.52151054 -0.10604288

GRU.weight_hh_l2 f4 [12, 4]
00000000: 119a 9dbe c963 67be 6cc9 ec3e 4b6f 48be
00000010: ad03 34be da89 2c3d 4148 d9bd db90 4dbd
00000020: e9dd 16bf 029a 773e 92fb 153d 70cb 24bf
00000030: dec4 33be 956d f43c 4d2c cdbb b211 b53e
00000040: ff62 aa3e b261 e83c 56e0 2d3f 2582 84be
00000050: 90b9 773c 1080 d43e 20d6 64be df35 d33d
00000060: d127 59be e9a3 b0bc c309 19be 6eca f7bd
00000070: 7043 c93e f51c 2f3e 0c7c 1ebc ca87 513e
00000080: 1758 8a3e bfd7 e7be b7f0 34be 3064 6ebe
00000090: 541e e0be 50ca 90bd 98a1 dc3e b31f b7be
000000a0: 89a0 11bf f3e0 043f e945 14bc 2baf 98be
000000b0: 0d07 0a3e 2873 a9bd 75ee 343e 9b20 113d
-0.30781606 -0.22596659 0.46247423 -0.19573705 -0.17579527 0.042123653 -0.106094845 -0.050186973
-0.5893236 0.24179843 0.03661687 -0.6437292 -0.17555568 0.029837409 -0.0062613846 0.35365063
0.33278653 0.028366897 0.67920434 -0.25880542 0.015119925 0.41503954 -0.22347307 0.103130095
-0.21206595 -0.021562533 -0.1494513 -0.12099157 0.39309263 0.1710089 -0.00967313 0.20461956
0.27020332 -0.4528179 -0.1766995 -0.23280406 -0.4377314 -0.07069838 0.43092036 -0.35766372
-0.5688558 0.51905745 -0.009049871 -0.29821143 0.13479252 -0.082739174 0.17669089 0.035431486

GRU.bias_ih_l2 f4 [12]
00000000: a7a8 77be e1ac 9d3e 6feb da3e 7d31 0c3e
00000010: b8aa f03c 0ba9 1ebe 75f6 9f3e a859 cbbe
00000020: f702 cbbe b4b7 c5be 8090 973d 0959 a8be
-0.2418543 0.3079596 0.42757747 0.13690753 0.02937828 -0.15494172 0.3124272 -0.3971684
-0.396507 -0.38616717 0.07400608 -0.32880428

GRU.bias_hh_l2 f4 [12]
00000000: 8c0a 893e 82c5 b2bd 6cce a73e cee6 b3be
00000010: 16e6 6abd e95e 983e 6409 2b3e 5136 64be
00000020: 04f1 d53d 50be 4b3d bd60 343e 1400 aebc
0.2676586 -0.08729078 0.32774675 -0.35137028 -0.057348333 0.2975991 0.16702801 -0.22286345
0.10446361 0.049742043 0.17615028 -0.021240272

GRU.weight_ih_l3 f4 [12, 4]
00000000: 434d adbe 2035 c03d ae8e fdbd 14d3 3d3d
00000010: 5c8c bdbe 1563 97bc 8207 7f3d 1e0b 1abe
00000020: 5dc4 5abe dbde dd3e 74c7 733c 2a3a 54bf
00000030: f08b a53e af1c c4bd c9a9 9c3e 72d8 343e
00000040: d717 8c3e 5cea b93e 749e c43e 408c 5f3e
00000050: 0284 cb3e 0e21 c5bb f290 5f3e 35be 63be
00000060: 3b52 b83e 4cb8 f83e 6ad3 b53e 73ff 21be
00000070: bba2 1b3f 2a27 bd3e 05b5 62be dbbe f43e
00000080: 6317 9bbe bff6 aa3e 3a33 d03e 0df5 4fbf
00000090: d2d1 18bf 9a9d 053f e42e 053f 0d86 83bd
000000a0: a04f e63e 3597 14bf 89c8 39bc 3e61 8b3e
000000b0: e359 b03e 4ee3 033e 7b76 a53c bf36 253f
-0.3384801 0.09385133 -0.123807296 0.046343878 -0.37021148 -0.018479863 0.06226302 -0.15043303
-0.21363969 0.43334088 0.014879096 -0.8290125 0.32333326 -0.095757835 0.30598286 0.17660692
0.27361938 0.36311615 0.3840214 0.21830845 0.3974915 -0.0060159033 0.21832636 -0.22240527
0.36000237 0.48578107 0.3551286 -0.15820102 0.6079518 0.36943942 -0.22139366 0.4780186
-0.3029128 0.33391377 0.40664083 -0.8123329 -0.5969516 0.52193606 0.52024674 -0.064220525
0.44982624 -0.58043224 -0.011339315 0.27222627 0.34443578 0.12879679 0.020198097 0.6453666

GRU.weight_hh_l3 f4 [12, 4]
00000000: 0c4d 93bd 612a dbbd 7028 263d 984c 843e
00000010: 5fa8 3f3e 53aa d23e 8854 e9be f6e4 b63e
00000020: 273d 233f 5a88 5c3e 4173 33bf a567 e8be
00000030: 8ece 3b3e 906d 0e3f 5b9f 02bd 557f ab3e
00000040: f02f 203d 6c05 4bbc 170e 92be 63b4 ff3d
00000050: 0827 cb3e f7cd debe e1be c5be 391d 023f
00000060: 29ae 94be 80aa 2fbe e998 43be 5658 743e
00000070: 8d9a debe 67c0 f73d 9427 40be ae6e a0be
00000080: 3490 173f c8d0 113e 9289 343e abed 283e
00000090: a2a1 d23e fd5a 0fbe c43a a2be a08a dfbc
000000a0: 3708 38bf 3a75 bdbd bea0 bb3e 0e02 483d
000000b0: a460 2ebe aec7 82be ef96 123f b540 9b3c
-0.0719243 -0.107014425 0.040565908 0.25839686 0.18716572 0.41145572 -0.45572305 0.35721558
0.63765186 0.21536389 -0.7009774 -0.45391575 0.18340513 0.5563593 -0.031890254 0.33495584
0.039108217 -0.012391429 -0.28526375 0.12485578 0.39678216 -0.43516514 -0.38622192 0.5082584
-0.29039124 -0.17154884 -0.191013 0.23861822 -0.43477288 0.12097245 -0.18765098 -0.31334442
0.5920441 0.142398 0.17630604 0.16496913 0.4113894 -0.13999553 -0.3168546 -0.027287781
-0.71887535 -0.09250875 0.36646074 0.048830085 -0.17029053 -0.2554297 0.57261556 0.018951753

GRU.bias_ih_l3 f4 [12]
00000000: 8a39 abbe f96d 253e 7b84 3dbe 11d2 793e
00000010: acbe 93be 11fd 91bd 4e45 18be 87ac e9be
00000020: 0dce 343b 08fc 063c 6041 453e 5d65 b13e
-0.33442336 0.16155232 -0.18507569 0.2439654 -0.2885641 -0.07128347 -0.14870188 -0.4563944
0.0027588636 0.0082388 0.1926322 0.34647647

GRU.bias_hh_l3 f4 [12]
00000000: 34db e03e a176 85bd 8f25 393e a242 6a3e
00000010: ac55 b93e 208d a6be 944e 083f 6bbd f8bd
00000020: 3566 9ebe cc16 293f 286c 48be 9b30 d93e
0.4391724 -0.06516767 0.18080734 0.22876981 0.36198175 -0.32529545 0.532449 -0.121455036
-0.30937353 0.6605041 -0.19572508 0.42419896

GRU.weight_ih_l4 f4 [12, 4]
00000000: c164 d5bd 6930 973e c371 3a3f 9140 fcba
00000010: 7f35 e0bc 0375 edbe ebed 92bd 1d5b b6be
00000020: 36ab 98be e942 cfbd 88a8 92bd e3f0 38be
00000030: c242 333f 05fd 993e 8502 abbc fea0 893e
00000040: c064 11be f7fb dc3e 3762 c1be 596b c53d
00000050: cacd 5fbb a1df 53be 5f1c 0f3f 1c51 c939
00000060: e48a 003e 6bf4 813e 5f44 0d3e 7ec9 513e
00000070: a665 02bd 9330 3abe 04cf c6be d001 14be
00000080: 57c9 e63e e22e 3b3e d3c4 57bf 3bcf 17bf
00000090: 52cb 0fbf 618f b6be 75c1 c93e cf6c f33d
000000a0: a538 4a3f ef53 853e e93d bebe c9ec a1be
000000b0: f477 4cbe 976a e43e 4250 eabd 31ff 083f
-0.10419608 0.29529122 0.72829837 -0.0019245317 -0.027369259 -0.46378335 -0.071742855 -0.3561639
-0.29818124 -0.10120184 -0.07161051 -0.18060641 0.7002374 0.3007585 -0.020875225 0.2688064
-0.1419859 0.43160984 -0.37770244 0.096396156 -0.003414976 -0.20690776 0.55902666 0.0003839814
0.12552983 0.2538179 0.13795613 0.2048702 -0.03183522 -0.18182592 -0.38829815 -0.14453816
0.45075485 0.18279603 -0.84284705 -0.59300584 -0.5616962 -0.35656264 0.39405409 0.11885988
0.7899268 0.260406 -0.3715661 -0.31625965 -0.19967633 0.44612572 -0.11441089 0.5351439

GRU.weight_hh_l4 f4 [12, 4]
00000000: 6d43 213e 9fd5 0b3f f7b0 e1be 97b6 00bf
00000010: 00b9 c2be e29e a13e 4ba4 c1be 106a 833e
00000020: 7650 fcbd 7009 9ebe ee00 8c3c adb4 863d
00000030: d3cf a53e 9392 afbe 1a15 40bd d797 d83e
00000040: bc70 023e 987f c43d 7d2a bbbd 9a75 18be
00000050: 7801 01be ca20 5b3f 5e0f 8c3e 0414 1ebf
00000060: ffe5 b63e 0607 0e3f 0efc 053e 6e5b d2bd
00000070: 950d 7ebd 1113 b0be ad58 fa3e c763 13bf
00000080: f73e 653e ebf0 a2be 8934 8abe e215 babd
00000090: 9997 4dbe 1d7b 43be bfc7 98bd 6ca9 88be
000000a0: 81ca e3bd 0bc8 02bf e48d 033f 9ee7 7fbd
000000b0: 5ee5 ba3e 3540 f9bd 9610 37be 4e36 f33e
0.15748377 0.54622835 -0.44080326 -0.5027861 -0.3803177 0.3156653 -0.37820658 0.25666857
-0.12320034 -0.30866575 0.017090287 0.0657743 0.3238512 -0.34291515 -0.046895124 0.42303345
0.12738317 0.09594649 -0.09138963 -0.14888611 -0.12598217 0.8559691 0.27355474 -0.6174929
0.35722348 0.55479467 0.13084432 -0.10271345 -0.06202467 -0.34389547 0.4889578 -0.57574123
0.223873 -0.3182443 -0.26993206 -0.09086205 -0.20077361 -0.19089933 -0.074599735 -0.2669176
-0.11122609 -0.5108649 0.5138838 -0.062476747 0.36503118 -0.1217045 -0.17877421 0.4750237

GRU.bias_ih_l4 f4 [12]
00000000: f982 0abf eb35 edbe 8d9f 9a3e a714 ef3e
00000010: 2d28 04bf 1a27 dabd 688d ccbe 70ba f6be
00000020: 1772 1dbe 6180 76be 0f00 1bbd 4ea0 cd3e
-0.541061 -0.463302 0.30199853 0.46695444 -0.51623803 -0.10651989 -0.39951634 -0.48189116
-0.15375553 -0.2407241 -0.037841853 0.40161365

GRU.bias_hh_l4 f4 [12]
00000000: ae66 ee3d 5f43 57be 7965 093f bae1 193e
00000010: 83bc 04bf ab3c 2fbf 9156 b63c 1d18 5ebd
00000020: b67c c8be 3fbe 0f3d 2485 24bd 0fd5 413f
0.11640678 -0.21021794 0.5367046 0.15027514 -0.51850146 -0.68451947 0.022258075 -0.054222215
-0.39157647 0.035093542 -0.040166035 0.75715727

lin3.weight f4 [6, 4]
00000000: 5ff0 17bf 5cfd 113f 610d bcbe a3fb b23e
00000010: c31e 153e 557c 5a3f 09b6 b2be 8de5 acbd
00000020: 9e92 9fbd 26e7 5d3f 0b52 4a3c eaa5 c4be
00000030: 5ef5 3a3e f23d 423f 783a c2be e113 f23d
00000040: 0cad 383e bb79 113f 6fe3 0f3e 1b87 1abf
00000050: 19ea 093f 1cdf 493d d87d 443f e805 143f
-0.5935115 0.5702722 -0.36728957 0.3495761 0.14562516 0.85345966 -0.34904507 -0.08442221
-0.07791637 0.8668083 0.012348662 -0.38407832 0.18257663 0.7587577 -0.37935233 0.11820198
0.18034762 0.5682637 0.14051603 -0.60362405 0.5387283 0.04928504 0.7675452 0.5782151

lin3.bias f4 [6]
00000000: e3f9 ee3d 1b0d 13bf 4961 0bbf 9a24 1abf
00000010: 66ca 253e 5e7c 813c
0.11668756 -0.5744187 -0.5444532 -0.602121 0.1619049 0.015806373

exp_avg f4 [4, 7]
00000000: 0c09 7d32 db06 e72a 27cd 76ba 911d 0bba
00000010: 3452 a2ba 0000 0000 b34a 42ba 943c a132
00000020: 4636 59ac 2c22 b039 14ea 39ba 7431 47ba
00000030: 0000 0000 7989 88b9 14b1 9bb1 d499 9eaa
00000040: 907d 02ba 53d2 e138 ff70 4239 0000 0000
00000050: 7949 a3b8 026b 83b2 b60d bcaa 87ef 13ba
00000060: 0263 2e39 82c5 943a 0000 0000 1bc2 063a
1.4728595e-08 4.10386e-13 -0.00094147254 -0.0005306835 -0.0012384118 0.0 -0.0007411644 1.8770415e-08
-3.0867683e-12 0.00033594796 -0.00070920703 -0.00075986166 0.0 -0.00026042367 -4.531225e-09 -2.8173178e-13
-0.0004977817 0.00010768012 0.00018543376 0.0 -7.786131e-05 -1.5299069e-08 -3.3405022e-13 -0.00056432973
0.00016630816 0.0011350366 0.0 0.00051406183

exp_avg_sq f4 [4, 7]
00000000: c6e5 8c2b b356 cd23 f4cc 5a39 8bae 1b39
00000010: 9250 fa35 0000 0000 e67a 6735 a3c8 f02b
00000020: c6df 2127 ee5d 9039 aa65 ca38 9fca fa34
00000030: 0000 0000 891d cf33 1dcd ee29 a9ce b024
00000040: c462 4f38 2fb8 cc38 0863 8e33 0000 0000
00000050: 98cc 7232 7047 922b cbbd 8724 4769 3a39
00000060: 349a 4a38 f40a c035 0000 0000 c52c 0a35
1.0011373e-12 2.2262863e-17 0.00020866451 0.00014846974 1.86499e-06 0.0 8.6233047e-07 1.7108714e-12
2.2464546e-15 0.00027535803 9.651047e-05 4.6713555e-07 0.0 9.644561e-08 1.0604905e-13 7.667793e-17
4.944463e-05 9.761785e-05 6.630404e-08 0.0 1.4132773e-08 1.0393752e-12 5.886844e-17 0.00017777561
4.8304166e-05 1.4308303e-06 0.0 5.1474154e-07

exp_avg f4 [4]
00000000: 535d 2038 0ff1 dfb8 1c64 e8b9 c1ce 943a
3.8233888e-05 -0.00010678369 -0.00044325076 0.0011353121

exp_avg_sq f4 [4]
00000000: dee5 6f34 dd48 cc33 bf11 a134 4076 8736
2.2342235e-07 9.512744e-08 3.00015e-07 4.0370796e-06

exp_avg f4 [12, 4]
00000000: 7094 9cb6 a0f5 8ab5 9723 7db7 d672 22b8
00000010: 1c07 be38 9e49 d6b8 361c 1e39 1f08 0938
00000020: 484d f2b4 c19c 9d35 e422 7bb7 bf5d 22b7
00000030: 4155 03b7 e50f 28b7 a54f 80b7 1716 8437
00000040: 9061 85b9 ae23 ffb8 f90e 59b9 6ae4 713a
00000050: ed97 adb8 dbbf e6b9 720e f839 4a92 1e3a
00000060: c02c 1136 b6d1 11b8 157e 2538 d4ed eb38
00000070: 82d2 18ba 5f96 33b9 e4c2 06ba d566 2e3a
00000080: 9162 0cb7 7d8d ba37 e330 b7b8 2277 1eba
00000090: 5a20 2a3a c7d3 28ba 0af4 883a 6021 2c39
000000a0: 5322 f8b8 4a3a e0b8 8735 c4b9 dd9e b238
000000b0: 7aa3 b8b9 41f0 ebb9 2ceb 33ba 0456 393a
-4.6664427e-06 -1.0353288e-06 -1.50882615e-05 -3.873076e-05 9.06123e-05 -0.000102180275 0.00015078564 3.267091e-05
-4.5132242e-07 1.1743033e-06 -1.4968889e-05 -9.677779e-06 -7.828058e-06 -1.0017281e-05 -1.5295876e-05 1.5745913e-05
-0.00025440427 -0.000121659934 -0.0002070031 0.0009227457 -8.277581e-05 -0.00044011962 0.0004731301 0.00060490204
2.1632732e-06 -3.4766002e-05 3.945649e-05 0.00011249972 -0.0005829708 -0.00017126788 -0.00051407353 0.00066528964
-8.3676e-06 2.2238813e-05 -8.735226e-05 -0.0006044974 0.0006489806 -0.00064402487 0.0010448706 0.00016415631
-0.00011831955 -0.000106920095 -0.00037423914 8.517292e-05 -0.00035217014 -0.00045001696 -0.00068633514 0.0007070007

exp_avg_sq f4 [12, 4]
00000000: 3f19 932f eb92 d12f d7a3 2130 7ca4 8532
00000010: 7fab 9332 2ed0 0732 f7be 5b33 cf5c e031
00000020: bfaa 252f f345 862f f045 8e2f a308 f82f
00000030: 9bc5 9e31 1c3b e131 ebb0 c631 91e9 5f31
00000040: 46d9 3435 2580 9434 f587 f135 eee0 7738
00000050: c40a 3038 3c7b ca37 657f 4139 cb5d b837
00000060: e664 fc34 4f4d 1335 f5d4 7536 1d3d 2d37
00000070: 8880 2735 1ba4 3234 8be6 0c35 3f2e a835
00000080: 4239 2133 d4e2 5a33 268e 9a33 25bc f335
00000090: df38 f335 2ed1 a235 c6f0 bc36 5a51 1d35
000000a0: 3a5e cd33 3960 bc33 c713 bb34 bab6 4b35
000000b0: 66e0 2935 8446 7a35 9c37 8335 d721 5d35
2.6757083e-10 3.812127e-10 5.880429e-10 1.5558037e-08 1.719104e-08 7.905369e-09 5.1163592e-08 6.529809e-09
1.5067324e-10 2.442416e-10 2.5879343e-10 4.5117074e-10 4.6208704e-09 6.555082e-09 5.7826717e-09 3.2583538e-09
6.73714e-07 2.7660386e-07 1.7995468e-06 5.909887e-05 4.1971696e-05 2.4137662e-05 0.00018453372 2.1978185e-05
4.701207e-07 5.4874266e-07 3.6631802e-06 1.0325833e-05 6.2399386e-07 1.6637243e-07 5.248955e-07 1.2530435e-06
3.753781e-08 5.096338e-08 7.1970405e-08 1.8159668e-06 1.8121463e-06 1.213082e-06 5.6308663e-06 5.860544e-07
9.563196e-08 8.771935e-08 3.4845854e-07 7.5889295e-07 6.328395e-07 9.323487e-07 9.776445e-07 8.237816e-07

exp_avg f4 [12, 4]
00000000: 078f ca37 647b d837 e566 1f38 ef8b 33b7
00000010: 87a8 a338 7e93 aa38 a591 0439 491f 0ab8
00000020: b44a 9538 2425 9238 ec40 7138 b7e2 4037
00000030: 1ea2 2138 2f18 2238 d737 2038 aaae 94b4
00000040: f0c2 4ab9 90a5 4bb9 4387 4cb9 076a 7d36
00000050: 82b3 39ba 66ff 2eba 14c8 39ba 9649 cf37
00000060: 2919 04b9 57ea f8b8 5018 c7b8 4efa f9b7
00000070: f616 84b9 6d12 68b9 f069 6fb9 c160 8d37
00000080: ca88 3839 9c25 4439 c163 8339 0294 74b8
00000090: 5a95 1c39 aaa8 3739 9f83 f239 2002 75b9
000000a0: 0246 f039 c695 fa39 6407 103a 4d5e 95b8
000000b0: 8c9e 8139 b3d6 8939 254d cb39 e311 d6b8
2.4146879e-05 2.5806665e-05 3.8004382e-05 -1.0701812e-05 7.803836e-05 8.133704e-05 0.00012642758 -3.29309e-05
7.118788e-05 6.9687405e-05 5.751934e-05 1.1496878e-05 3.8536375e-05 3.8646333e-05 3.8198978e-05 -2.7694233e-07
-0.00019336841 -0.00019421265 -0.00019505345 3.7761654e-06 -0.00070839387 -0.00066756306 -0.0007087004 2.4710589e-05
-0.00012597874 -0.00011869211 -9.493588e-05 -2.979967e-05 -0.0002519411 -0.00022132108 -0.00022832281 1.6853564e-05
0.00017598565 0.00018706027 0.0002506059 -5.8311976e-05 0.00014932957 0.00017515072 0.00046255902 -0.00023365812
0.00045828527 0.00047795306 0.00054942654 -7.1224385e-05 0.00024722924 0.0002629064 0.00038776654 -0.00010207647

exp_avg_sq f4 [12, 4]
00000000: 23e3 212f 2f1e 772f 13a3 7b30 4b1d 932f
00000010: 9cf8 4531 dcca 8831 6689 e132 6644 8731
00000020: dc77 6a30 0573 8330 2e2a c230 63d2 092f
00000030: 8757 ee2f 0be4 6231 a542 1a33 f9ac a930
00000040: f889 5c32 a3b2 5832 4824 8832 0103 082f
00000050: d1bb a234 84f6 9d34 d62b c434 cd54 0931
00000060: dd2a 9431 352a 8f31 4f5b 6e31 e5a8 852e
00000070: bb3d 9e33 03fd a433 2165 bd33 1b33 b22f
00000080: 8fdc 5b32 d168 6432 ce1c 8033 c5fc e831
00000090: fc3d 9832 11c6 e933 70c1 5c35 6bf9 1634
000000a0: 51ef 7c33 bc6a 8f33 be4a a234 4d6a 8e32
000000b0: a43a a532 f812 c233 d9f7 5235 94be 8f33
1.472356e-10 2.2475243e-10 9.154501e-10 2.6759958e-10 2.880859e-09 3.9811834e-09 2.6255929e-08 3.936793e-09
8.5299035e-10 9.564195e-10 1.4127346e-09 1.2534822e-10 4.335414e-10 3.3016956e-09 3.5916532e-08 1.234553e-09
1.2837056e-08 1.2613472e-08 1.5848983e-08 1.2370195e-10 3.0311506e-07 2.9422893e-07 3.653974e-07 1.9984328e-09
4.31224e-09 4.166646e-09 3.4685461e-09 6.0781415e-11 7.368677e-08 7.682868e-08 8.8193936e-08 3.2414324e-10
1.2797627e-08 1.3295179e-08 5.965704e-08 6.7808252e-09 1.7723316e-08 1.0885936e-07 8.2237875e-07 1.4060576e-07
5.889098e-08 6.678371e-08 3.0229234e-07 1.6579316e-08 1.9235195e-08 9.0372794e-08 7.859176e-07 6.6936224e-08

exp_avg f4 [12]
00000000: b866 5bb8 5475 2bb9 7606 21b8 253a 21b8
00000010: b645 5439 38aa 443a bfaf 1938 7500 8b39
00000020: 04c0 eab9 d82f 86ba 7794 66ba 6099 e2ba
-5.2309333e-05 -0.00016351539 -3.839141e-05 -3.8439543e-05 0.00020243865 0.0007502171 3.664172e-05 0.00026512487
-0.0004477502 -0.0010237647 -0.00087959267 -0.0017288141

exp_avg_sq f4 [12]
00000000: 7473 1131 791e 6833 b3ba 2f31 d5e4 b433
00000010: 719c a432 7df7 e634 015f 3531 8c4f d233
00000020: 0650 ad34 6233 fc36 e749 b535 91f6 5137
2.1165905e-09 5.4044424e-08 2.5571978e-09 8.4235275e-08 1.9163254e-08 4.302091e-07 2.639297e-09 9.7933565e-08
3.2281986e-07 7.516167e-06 1.3507059e-06 1.2514779e-05

exp_avg f4 [12]
00000000: b866 5bb8 5475 2bb9 7606 21b8 253a 21b8
00000010: b645 5439 38aa 443a bfaf 1938 7500 8b39
00000020: dda2 adb9 19e0 48ba fcab 2aba 075a 07ba
-5.2309333e-05 -0.00016351539 -3.839141e-05 -3.8439543e-05 0.00020243865 0.0007502171 3.664172e-05 0.00026512487
-0.00033118474 -0.00076627877 -0.0006510613 -0.00051632564

exp_avg_sq f4 [12]
00000000: 7473 1131 791e 6833 b3ba 2f31 d5e4 b433
00000010: 719c a432 7df7 e634 015f 3531 8c4f d233
00000020: db16 f033 4080 0536 32f6 1d35 a702 f535
2.1165905e-09 5.4044424e-08 2.5571978e-09 8.4235275e-08 1.9163254e-08 4.302091e-07 2.639297e-09 9.7933565e-08
1.1180028e-07 1.9893196e-06 5.884532e-07 1.8254694e-06

exp_avg f4 [12, 4]
00000000: 55fd 2038 a75c 3fb6 55be d3b8 6272 2637
00000010: 4efd c138 9052 8d39 e0e2 0039 44cc 9437
00000020: 9f4c a838 9360 8a38 47d0 a238 ea4f 86b8
00000030: b271 263a b82f 483a 18a0 393a a9f0 df33
00000040: fa55 2c3a 1296 fd34 ff14 3dba 2729 373a
00000050: f9e7 31b8 5a5a 9bb9 f6db bb39 9cd1 9e38
00000060: 0807 90b9 5c7e a5b9 561d 0c39 e95b 8a39
00000070: dd3f 68ba 2035 95ba fa25 32ba d787 a737
00000080: a33c 383b 4d07 893b c4e3 c13b 1433 083b
00000090: 618b 9e3a 6cef 2b3b cf2b ca3a b9f0 b838
000000a0: d38e 66ba f64a 23ba 1bdf 56b9 9630 8b39
000000b0: ffe1 22bb 2df1 55bb f1c9 3abb accb d437
3.8382906e-05 -2.8515149e-06 -0.00010096716 9.921003e-06 9.250139e-05 0.0002695513 0.00012291549 1.7738093e-05
8.025136e-05 6.598341e-05 7.763557e-05 -6.404503e-05 0.00063493394 0.0007636505 0.0007081046 1.04280225e-07
0.0006574091 4.7234113e-07 -0.00072129065 0.0006987028 -4.241613e-05 -0.0002963122 0.00035831303 7.57307e-05
-0.0002747106 -0.00031565398 0.00013362369 0.0002638989 -0.0008859614 -0.001138363 -0.000679582 1.9971207e-05
0.0028112314 0.0041817785 0.0059170444 0.0020782398 0.0012095982 0.0026235236 0.0015424433 8.818642e-05
-0.0008795086 -0.00062291266 -0.00020491744 0.00026548345 -0.0024853942 -0.0032644973 -0.0028501714 2.5367211e-05

exp_avg_sq f4 [12, 4]
00000000: b0e8 2832 b776 d731 939b 8f33 793b 8e31
00000010: 9b2a 0f36 35d8 2036 18cf 2836 0e19 2031
00000020: af1d 9434 e2f9 bb34 cf15 e034 463a 3832
00000030: cc72 5c35 3031 8335 b2b5 8535 1b7e 4a30
00000040: a471 2933 07a6 f233 e145 d134 6b61 8f33
00000050: 9aba 5233 f946 2034 549d 7534 5e9f 3930
00000060: deaf 0c35 e348 8335 dadf a035 a176 5f32
00000070: bd95 cd34 ab2c 3a35 5bfd 3e35 d60d 9b2f
00000080: 1f4c 4637 0270 ae37 7d1f 8c37 6261 6036
00000090: 5803 6a38 94f9 8c38 e540 9438 b6c2 5733
000000a0: db9c ab36 1a13 0537 934c 1037 ca2d d733
000000b0: d86a 5437 5ea6 9237 3cff 9537 3220 5532
9.831794e-09 6.27082e-09 6.687255e-08 4.139505e-09 2.133346e-06 2.3967707e-06 2.5154495e-06 2.3297306e-09
2.7588746e-07 3.5013278e-07 4.173912e-07 1.07234595e-08 8.212344e-07 9.774576e-07 9.962152e-07 7.366638e-10
3.9451734e-08 1.1299203e-07 3.8980127e-07 6.6766766e-08 4.906415e-08 1.4926981e-07 2.2874639e-07 6.752908e-10
5.2409985e-07 9.781473e-07 1.1986078e-06 1.30072815e-08 3.8293174e-07 6.93554e-07 7.1149196e-07 2.8204167e-10
1.1819443e-05 2.0794574e-05 1.6703963e-05 3.3435285e-06 5.579306e-05 6.722208e-05 7.0692775e-05 5.0235677e-08
5.1144575e-06 7.931865e-06 8.600898e-06 1.0020047e-07 1.2661061e-05 1.7482027e-05 1.7881037e-05 1.2405552e-08

exp_avg f4 [12, 4]
00000000: d69d 16b8 6d82 5a37 f220 32b6 bc5b ec36
00000010: 1fd5 41b9 e24c 0539 4fc6 8ab9 4b29 f6b8
00000020: b79b 26b9 f58c c837 c575 1cb7 a28d 1139
00000030: 4828 36ba 2283 4638 82cd fd36 a793 a539
00000040: 1f24 913a 6c76 1e39 291e eeb9 c5e1 72ba
00000050: fef3 9239 f588 bdb7 3f20 46b8 0b5d 24b9
00000060: 1251 203a 018b 94b7 fcdb 3cb9 a34c 13ba
00000070: 927b 713a 8bfc 7eb8 4538 bcb8 f22e c3b9
00000080: ae4e 60b9 7a64 1eb9 398f 0238 5e98 2cb9
00000090: 4585 adba e137 de39 4a34 51ba db2f 01b9
000000a0: 520c df39 55d8 12b8 60c7 3cb8 b81c bdb9
000000b0: 36c8 a83a bd29 b3b8 416f c5b7 a71b 16ba
-3.5909783e-05 1.302418e-05 -2.6543244e-06 7.0440274e-06 -0.00018485308 0.0001271251 -0.00026469163 -0.000117378855
-0.00015889002 2.3907496e-05 -9.325745e-06 0.0001388104 -0.00069487514 4.7329006e-05 7.563912e-06 0.00031581262
0.0011073387 0.0001511217 -0.00045417369 -0.00092652097 0.00028029078 -2.2594331e-05 -4.723691e-05 -0.0001567492
0.0006115596 -1.7707704e-05 -0.00018011028 -0.0005619025 0.0009211834 -6.0793518e-05 -8.9750196e-05 -0.00037228275
-0.00021391615 -0.00015105485 3.11278e-05 -0.0001645996 -0.001323857 0.00042384773 -0.0007980509 -0.00012320226
0.00042543054 -3.5010587e-05 -4.5008375e-05 -0.00036070286 0.001287705 -8.5431595e-05 -2.3536037e-05 -0.00057261664

exp_avg_sq f4 [12, 4]
00000000: d0ee 5932 ab22 8533 a754 a333 9ee7 9d33
00000010: 514e 0136 a7bf 6d33 130b 9e34 a492 6c35
00000020: c9a7 8c34 aa6b 4734 38e5 8934 6cb5 a434
00000030: 86c4 4b35 5f35 8032 4e34 d133 eaf6 a634
00000040: 52cb 1834 678b b632 d376 3533 5997 1034
00000050: a0db b233 a209 d830 e3fe b331 8270 c332
00000060: be44 0335 19ae 5733 acae 7933 c13e 5d34
00000070: e9ab ce34 36f1 a731 0ac3 3b32 a0f5 8033
00000080: aa81 8835 5d27 5635 4448 8435 2a3f 8935
00000090: 5854 de37 96e6 fa34 c053 6136 8343 3737
000000a0: bc86 6335 e18e ce34 cebb 1435 960f 3e35
000000b0: 0591 2f36 ce49 8733 c935 ae34 0fc2 8735
1.2685362e-08 6.199601e-08 7.605677e-08 7.353013e-08 1.9268084e-06 5.535517e-08 2.943785e-07 8.813024e-07
2.6199112e-07 1.8572487e-07 2.5685017e-07 3.0679382e-07 7.590937e-07 1.4925432e-08 9.741835e-08 3.1099563e-07
1.423007e-07 2.1250981e-08 4.2250416e-08 1.3466105e-07 8.3287205e-08 1.5718806e-09 5.238563e-09 2.275215e-08
4.8901336e-07 5.021693e-08 5.8133693e-08 2.0605059e-07 3.849557e-07 4.887762e-09 1.0929179e-08 6.0051434e-08
1.0170527e-06 7.9778494e-07 9.855798e-07 1.0225679e-06 2.6503738e-05 4.6733902e-07 3.3576362e-06 1.0923369e-05
8.4760154e-07 3.8474448e-07 5.540759e-07 7.0803196e-07 2.6161445e-06 6.2998524e-08 3.244916e-07 1.0114762e-06

exp_avg f4 [12]
00000000: af02 e238 dce6 25b9 012e 54b9 0872 43ba
00000010: 9be5 073b b5bf 52b9 8650 a639 0031 3d3a
00000020: 7e47 19bb dce5 ddba fe6e 3c3a f76b 453b
0.000107770196 -0.00015821628 -0.00020235033 -0.00074556516 0.002073622 -0.00020098577 0.00031721982 0.00072170794
-0.002338856 -0.0016929465 0.000718817 0.0030124167

exp_avg_sq f4 [12]
00000000: 4ec0 2434 cc85 2b36 4649 2335 bc66 8735
00000010: d575 6f35 100a 7434 a3e2 9f35 31b9 4135
00000020: a2bb e637 3af2 9538 5807 3037 7d26 9837
1.534365e-07 2.5558866e-06 6.082886e-07 1.0088183e-06 8.9205906e-07 2.2727932e-07 1.1912383e-06 7.216759e-07
2.750551e-05 7.149992e-05 1.0492127e-05 1.8137735e-05

exp_avg f4 [12]
00000000: af02 e238 dce6 25b9 012e 54b9 0872 43ba
00000010: 9be5 073b b5bf 52b9 8650 a639 0031 3d3a
00000020: 538f baba f67d b4ba 2af0 8939 7633 b93a
0.000107770196 -0.00015821628 -0.00020235033 -0.00074556516 0.002073622 -0.00020098577 0.00031721982 0.00072170794
-0.0014233388 -0.001377045 0.00026309612 0.0014129716

exp_avg_sq f4 [12]
00000000: 4ec0 2434 cc85 2b36 4649 2335 bc66 8735
00000010: d575 6f35 100a 7434 a3e2 9f35 31b9 4135
00000020: a296 2d36 335f 1c38 2492 ef35 bb58 8636
1.534365e-07 2.5558866e-06 6.082886e-07 1.0088183e-06 8.9205906e-07 2.2727932e-07 1.1912383e-06 7.216759e-07
2.5866689e-06 3.728196e-05 1.784942e-06 4.003841e-06

exp_avg f4 [12, 4]
00000000: af2d b739 f9f7 7537 db60 0bb9 9444 a5b9
00000010: 98af 033a 5f44 32b8 29fa c4b7 0fa7 acb8
00000020: 1771 7b39 4c47 9d37 db12 6ab8 3d94 c2b8
00000030: d765 5838 0c3f 86b8 8745 7f38 d482 9b38
00000040: 7c88 c3ba ca4c 973a f014 9eba a89a 09bb
00000050: 7a3f e039 dc7e 6039 8874 6bb9 40e5 e0b9
00000060: cb06 20ba c334 a3b8 b891 9038 0fc2 1939
00000070: cc4e 14ba 25f5 253a cbb7 30ba 256d 9fba
00000080: 5bb6 84ba 99c6 bb38 420f aeba a55d bebb
00000090: 3679 4b3b 0718 2b39 dd0d d839 ad1e 503b
000000a0: b86a 8db9 8f09 c139 e7ee dc38 b2fc 053b
000000b0: 8755 a4bc ffbe 043b 9fb1 d1b9 9cee 1bba
0.00034938517 1.4660874e-05 -0.00013292154 -0.00031522347 0.0005023419 -4.2502183e-05 -2.348151e-05 -8.232716e-05
0.00023979355 1.8749059e-05 -5.5807508e-05 -9.2782524e-05 5.159326e-05 -6.401361e-05 6.086149e-05 7.4153446e-05
-0.0014917995 0.0011543271 -0.0012060683 -0.0020996723 0.00042771903 0.00021409563 -0.00022454758 -0.00042895414
-0.0006104528 -7.782273e-05 6.893597e-05 0.0001466351 -0.00056574936 0.000633078 -0.00067412545 -0.0012163265
-0.0010125147 8.9538466e-05 -0.0013279694 -0.005809503 0.003104759 0.00016316782 0.0004120906 0.0031756565
-0.00026973127 0.0003681895 0.000105349165 0.0020444808 -0.020060314 0.0020255444 -0.00039995924 -0.00059483363

exp_avg_sq f4 [12, 4]
00000000: 5037 8f33 0dce 2333 d526 4d33 dc84 7e33
00000010: af95 6f34 ebfc ad34 7f44 cf34 7f63 d034
00000020: 4b6f 1d33 487d 8432 45e3 d332 bfff 0233
00000030: adab ce32 2290 b933 9fb0 d933 04c1 ce33
00000040: 66bf 8a35 a6f5 ff34 34b5 c834 15a3 8a35
00000050: a3ca 3834 65d2 1d33 124e 1a33 d81b f433
00000060: 08b8 8c34 f561 9632 20a5 8832 c161 6733
00000070: 6851 b932 8045 7a33 7b64 7733 b732 3434
00000080: 3172 1c39 763c 8c37 efbc 0838 a92d 9138
00000090: 8ccd c638 1e46 9837 e334 ff37 d4b6 5a38
000000a0: 3c54 0238 176e 5636 a193 fb36 7602 8437
000000b0: ca1d 6739 bfde 9038 dcbe b338 97d5 c138
6.669018e-08 3.8138797e-08 4.77656e-08 5.925982e-08 2.2313064e-07 3.2407783e-07 3.8606592e-07 3.8815412e-07
3.665563e-08 1.5423794e-08 2.4666983e-08 3.0500583e-08 2.4059625e-08 8.6409514e-08 1.0136977e-07 9.627732e-08
1.0337506e-06 4.7676184e-07 3.7384746e-07 1.0329264e-06 1.7210054e-07 3.6745764e-08 3.5926924e-08 1.13672e-07
2.6210932e-07 1.7506844e-08 1.5907574e-08 5.3872785e-08 2.1573854e-08 5.827087e-08 5.7600555e-08 1.6782256e-07
0.00014919859 1.6717455e-05 3.2600885e-05 6.922644e-05 9.479662e-05 1.8152463e-05 3.0422996e-05 5.2145522e-05
3.1072865e-05 3.1952566e-06 7.497569e-06 1.5736772e-05 0.00022040974 6.907945e-05 8.5709355e-05 9.242741e-05

exp_avg f4 [12, 4]
00000000: 92ee 0db8 1918 c0b8 9abe 3938 4e0a 2339
00000010: 7f68 2e38 44b5 78b8 e109 c237 21af 1639
00000020: 60fe 79b7 e5e3 3eb7 95f4 2938 c927 2138
00000030: e4b6 7438 7e08 8eb7 0848 2fb8 6822 4638
00000040: e61b 21ba f20c bcb9 ca69 df39 b9aa 7e39
00000050: 1ba4 0bb9 e4b2 acb8 36b7 3138 6758 5db8
00000060: adfe 1236 ccac 7438 8205 73b8 3d8b 98b8
00000070: 21fb 8ab9 bbdc 6fb9 383c 8839 e7e0 a439
00000080: 4346 bfb9 e5fa cfba 60e3 21ba 4948 8c3a
00000090: 5f86 7238 7809 a13a 57dd 493a a942 63ba
000000a0: 9ae8 4bb9 0c0e 8e3a c169 153a 9707 88ba
000000b0: 7897 0fba 8020 a6b8 3075 31ba 343b 80ba
-3.3839206e-05 -9.159762e-05 4.428495e-05 0.0001554873 4.1582152e-05 -5.9296624e-05 2.3131202e-05 0.00014370355
-1.4900783e-05 -1.1377943e-05 4.0520525e-05 3.8422444e-05 5.8344463e-05 -1.6931674e-05 -4.1790336e-05 4.7238922e-05
-0.000614582 -0.000358678 0.00042612694 0.00024286927 -0.00013317207 -8.23492e-05 4.2370717e-05 -5.2772837e-05
2.1903936e-06 5.8335063e-05 -5.7940844e-05 -7.27386e-05 -0.00026508517 -0.00022875045 0.00025984808 0.00031448083
-0.00036482708 -0.0015867619 -0.0006175544 0.0010702695 5.782244e-05 0.0012286147 0.0007700524 -0.0008669296
-0.0001944624 0.0010837927 0.00056996575 -0.0010378239 -0.00054775877 -7.9215504e-05 -0.00067694765 -0.0009783269

exp_avg_sq f4 [12, 4]
00000000: 6c59 3233 3453 5132 f8ce 4c33 b5a4 8132
00000010: c52e ca34 ada3 1834 ba2b e334 3749 b433
00000020: 74fa a432 327e 4831 cf00 c932 4dff 4931
00000030: 9d55 c033 64a7 3b32 6e6b d833 076c 4e32
00000040: 3893 3734 3abc d332 bb1a 8234 038d 4c33
00000050: b228 ca32 e644 1f31 0181 5433 6721 1032
00000060: afcb ce31 9158 0530 3ea7 9532 48d9 d530
00000070: 7fdc 5b32 4233 cf31 aa5e d932 7b61 a331
00000080: 1d24 e836 c6c2 a935 fd5b 3737 c2c9 0936
00000090: d89a 3a37 6dd1 9236 32e6 7637 b257 5a36
000000a0: 4832 4736 811f 3435 c4a1 9236 367b 7c35
000000b0: 7656 8137 fe04 3c36 b704 9d37 d059 7436
4.1525183e-08 1.2184319e-08 4.768569e-08 1.5092477e-08 3.765946e-07 1.4215648e-07 4.231386e-07 8.395221e-08
1.9206006e-08 2.9175564e-09 2.3399847e-08 2.9394471e-09 8.95627e-08 1.0922893e-08 1.0077825e-07 1.2015341e-08
1.7096761e-07 2.4649228e-08 2.4233836e-07 4.76257e-08 2.3534401e-08 2.317671e-09 4.9477425e-08 8.389498e-09
6.018545e-09 4.851098e-10 1.7421936e-08 1.5559545e-09 1.2797613e-08 6.0303202e-09 2.5305173e-08 4.7550066e-09
6.918343e-06 1.2648168e-06 1.0929068e-05 2.053203e-06 1.1122516e-05 4.3755194e-06 1.4716339e-05 3.2535577e-06
2.9682578e-06 6.710107e-07 4.369971e-06 9.405661e-07 1.541826e-05 2.801709e-06 1.8718054e-05 3.641111e-06

exp_avg f4 [12]
00000000: 7592 b539 d2c6 8c39 3af4 7939 5b5f a3b8
00000010: 3fb3 3b3b 11c2 ae3a ca0c 52ba 316b 073b
00000020: e4d6 533b 03be 9939 da1d 6dba 97f8 15bc
0.0003463213 0.00026851014 0.00023837472 -7.790207e-05 0.0028640775 0.0013332983 -0.000801277 0.0020663256
0.003232413 0.00029324004 -0.0009045281 -0.009153507

exp_avg_sq f4 [12]
00000000: c5fe 0034 df54 2a35 936b 9e33 bc5a 4d34
00000010: 9c81 4a36 d89a e834 da3e 1a35 73c3 0a35
00000020: 3f6d 5b39 9760 1239 3fbd 4038 fa12 6b39
1.2013614e-07 6.345344e-07 7.377016e-08 1.9125122e-07 3.0175788e-06 4.332603e-07 5.746093e-07 5.169342e-07
0.00020926165 0.00013959628 4.5952616e-05 0.00022418416

exp_avg f4 [12]
00000000: 7592 b539 d2c6 8c39 3af4 7939 5b5f a3b8
00000010: 3fb3 3b3b 11c2 ae3a ca0c 52ba 316b 073b
00000020: 8059 123b 4f8d 0238 cf1c feb9 122a 5ebb
0.0003463213 0.00026851014 0.00023837472 -7.790207e-05 0.0028640775 0.0013332983 -0.000801277 0.0020663256
0.0022331178 3.112602e-05 -0.0004846812 -0.0033899588

exp_avg_sq f4 [12]
00000000: c5fe 0034 df54 2a35 936b 9e33 bc5a 4d34
00000010: 9c81 4a36 d89a e834 da3e 1a35 73c3 0a35
00000020: ac3f 9838 e734 8a38 bdad fb37 5ed1 4638
1.2013614e-07 6.345344e-07 7.377016e-08 1.9125122e-07 3.0175788e-06 4.332603e-07 5.746093e-07 5.169342e-07
7.2597846e-05 6.5902066e-05 3.0002435e-05 4.7401867e-05

exp_avg f4 [12, 4]
00000000: a0dc 48b9 94d6 97b8 d43a 1cb9 9fe2 a3b9
00000010: dda1 9a39 7b22 e2b8 0b24 72b8 a2da ca39
00000020: db6e b838 eb20 f6b8 647a cbb7 5239 4b39
00000030: 7f26 14b8 0573 45b9 7dcf b4b9 00be eeb9
00000040: 5702 38bb 507d 7db9 4eb2 973a 16b9 3abb
00000050: 2a84 dfb9 d17e e837 d24f 0a39 1865 feb9
00000060: 9d4c 0fbb effb b038 4933 8b3a b729 0ebb
00000070: 9ccc fbb9 afeb deb8 665b 8439 6fb8 e1b9
00000080: 3dd9 fa3b 4119 32bb 7d12 96ba 25e9 383c
00000090: 4cae 283b fd5e 9ab9 7076 d3b9 0298 403b
000000a0: 7c6b a3bb d9be 1a3b f197 61b8 8842 1fbc
000000b0: 0806 00bc 6be6 803b ed50 663b 0864 37bc
-0.00019155676 -7.2402094e-05 -0.00014899235 -0.0003125863 0.00029493766 -0.00010782942 -5.7730864e-05 0.00038691337
8.794452e-05 -0.000117363255 -2.4256478e-05 0.00019380942 -3.5321802e-05 -0.00018830232 -0.00034486866 -0.00045536458
-0.0028077567 -0.00024174643 0.0011573525 -0.0028491667 -0.00042632344 2.7715609e-05 0.00013190441 -0.00048521976
-0.0021865733 8.43926e-05 0.0010620143 -0.0021692344 -0.00048026897 -0.000106296844 0.000252451 -0.00043052758
0.0076552914 -0.0027175697 -0.0011449602 0.011286055 0.0025738655 -0.0002944394 -0.000403333 0.0029387479
-0.0049871784 0.002361229 -5.3785687e-05 -0.009720452 -0.007813938 0.003933718 0.003514345 -0.011193283

exp_avg_sq f4 [12, 4]
00000000: 3737 8e35 6e9c 2b34 8602 ac35 00fd 1834
00000010: 9247 7c34 73f9 d833 f742 8134 b8d6 a333
00000020: 0782 a334 6863 d033 b99a b934 ea79 5e34
00000030: 0ac9 db33 7725 ab32 58d4 2d34 6eeb af32
00000040: 2810 f235 9959 9434 a86d a435 b215 0336
00000050: 5f2d fd32 b942 f430 ff77 7532 6ae8 1533
00000060: 19de ee35 527e ae34 cbfc e335 4976 c135
00000070: 57bd 0233 a504 d930 3336 d732 492d de32
00000080: 457e 9b39 b2e3 c038 097f aa39 dea6 bf38
00000090: 47a9 5837 193f 9636 85a8 5f37 e8a1 7836
000000a0: b169 4f38 28c8 6e37 19b1 5b38 57fe 1c38
000000b0: 90a1 8c38 c523 9c37 ec5b 8938 6ac2 3138
1.0595894e-06 1.5982525e-07 1.2815733e-06 1.4248144e-07 2.3495366e-07 1.0103658e-07 2.4076846e-07 7.629336e-08
3.0455723e-07 9.703837e-08 3.457151e-07 2.0719713e-07 1.0234551e-07 1.9924057e-08 1.6189131e-07 2.0479742e-08
1.8035107e-06 2.763234e-07 1.2250866e-06 1.953315e-06 2.9473709e-08 1.77723e-09 1.4288161e-08 3.4903145e-08
1.7797021e-06 3.2501936e-07 1.698639e-06 1.4414046e-06 3.0440187e-08 1.5790148e-09 2.5053941e-08 2.5864795e-08
0.00029657982 9.197685e-05 0.00032519575 9.138671e-05 1.2914016e-05 4.477694e-06 1.3331072e-05 3.7049122e-06
4.945108e-05 1.4232508e-05 5.2378604e-05 3.743017e-05 6.7058136e-05 1.8613306e-05 6.549791e-05 4.238115e-05

exp_avg f4 [12, 4]
00000000: 5d90 b6b9 f749 feb8 c97b bd39 7964 ce39
00000010: a625 e836 5f34 d3b8 f224 23b8 aff7 98b8
00000020: a401 33b9 98d9 98b7 6f02 0039 a304 8339
00000030: 5db2 83b9 5491 b1b9 6236 bc39 0bc9 0739
00000040: 0a31 23ba 275d 023b 5817 8c3a 0ea3 383b
00000050: e18c 79b8 8540 8e39 db5b 1939 a46d b439
00000060: 86ce 4439 d85a e53a d8de a639 1632 b33a
00000070: 4c47 e4b8 2b4a c839 c91c 4439 228a 0b3a
00000080: 07f2 9639 319b 35ba 4c22 23ba 48ec 18ba
00000090: 3900 013a 91c7 26ba 09bb 27ba 8b24 9bba
000000a0: 3289 b73a 6dbb b53a b7e3 50ba 78e0 88ba
000000b0: 92f6 593b aa03 383b c3ac 27bb 3f7d 32bb
-0.00034821304 -0.00012125441 0.00036141116 0.0003936624 6.9185216e-06 -0.00010071019 -3.8896636e-05 -7.2940595e-05
-0.00017071381 -1.8221137e-05 0.00012207938 0.00024989722 -0.00025119158 -0.0003386835 0.00035898673 0.00012949498
-0.0006225264 0.001989195 0.0010688109 0.002817336 -5.949743e-05 0.0002713242 0.00014625436 0.00034413964
0.00018768953 0.0017498387 0.0003182802 0.0013671543 -0.00010885167 0.00038202232 0.0001870274 0.00053230126
0.00028790554 -0.00069277274 -0.0006223067 -0.00058335485 0.00049209927 -0.0006362135 -0.0006398415 -0.0011836452
0.0014002679 0.0013865061 -0.00079685025 -0.0010442873 0.003325854 0.0028078356 -0.0025585152 -0.0027235297

exp_avg_sq f4 [12, 4]
00000000: 6b32 8c34 8764 5335 ca6c 9934 cb32 6c34
00000010: 9727 d533 51cb 6334 207e 1834 ef34 8f32
00000020: 0295 4834 08e1 9934 760b 4834 2a4f fb33
00000030: e653 d932 1457 e833 fb82 0f33 74a7 0833
00000040: b9c4 e534 4ed7 dd35 611a f934 641e 9d35
00000050: 1dbd 2c31 f3cf b632 2df2 0331 9437 8132
00000060: 4e12 e834 5fee 0a36 d797 ae34 5e9f 1935
00000070: 8f95 d030 15ac f332 0b18 4231 6fe1 0633
00000080: 2765 e737 3989 8438 3dcd 0638 983b 9f37
00000090: 02ba fd35 a2be 8c36 39a0 3536 8fb9 1335
000000a0: d079 9937 aef6 b137 7301 9d37 24bb b036
000000b0: bdd5 0837 671e 7137 8e2f fb36 1db2 b136
2.6113716e-07 7.874991e-07 2.8577625e-07 2.1997691e-07 9.925787e-08 2.1214989e-07 1.4201987e-07 1.6671462e-08
1.868066e-07 2.8662203e-07 1.8630621e-07 1.1702498e-07 2.5300277e-08 1.0819181e-07 3.3413908e-08 3.1817265e-08
4.2797708e-07 1.6528445e-06 4.6399057e-07 1.1706256e-06 2.5136793e-09 2.1282153e-08 1.920067e-09 1.504285e-08
4.3226686e-07 2.0702353e-06 3.2520504e-07 5.722885e-07 1.5176499e-09 2.8367177e-08 2.8244382e-09 3.1404337e-08
2.7584449e-05 6.31981e-05 3.2139233e-05 1.8982028e-05 1.8904104e-06 4.1945177e-06 2.7064364e-06 5.503179e-07
1.8295745e-05 2.1214913e-05 1.8716533e-05 5.266995e-06 8.1559965e-06 1.4371798e-05 7.485919e-06 5.295746e-06

exp_avg f4 [12]
00000000: e5b4 39b9 cc04 0b38 64b2 a239 a600 1dba
00000010: fe6c cd3b 4881 fc39 6057 943b e824 d33a
00000020: 3149 313a 6f77 f3ba 6160 c0bb 06c5 173b
-0.00017710363 3.314465e-05 0.0003103196 -0.00059891713 0.0062690964 0.00048161508 0.0045270175 0.0016109021
0.00067629205 -0.0018575023 -0.0058708643 0.0023158207

exp_avg_sq f4 [12]
00000000: 45c0 1b36 1a8d a634 1a39 2535 5403 bd34
00000010: f839 0537 2d8b b333 0d36 d136 853b d134
00000020: 4cec 073a f289 a637 1c25 da38 e337 d138
2.3208715e-06 3.1022574e-07 6.1550384e-07 3.5206415e-07 7.940915e-06 8.360653e-08 6.2349777e-06 3.897259e-07
0.0005185052 1.9852978e-05 0.00010401962 9.976306e-05

exp_avg f4 [12]
00000000: e5b4 39b9 cc04 0b38 64b2 a239 a600 1dba
00000010: fe6c cd3b 4881 fc39 6057 943b e824 d33a
00000020: d5f2 27b9 d9f7 b2ba 6556 36b9 ba08 903a
-0.00017710363 3.314465e-05 0.0003103196 -0.00059891713 0.0062690964 0.00048161508 0.0045270175 0.0016109021
-0.00016016823 -0.0013654187 -0.00017389057 0.0010988929

exp_avg_sq f4 [12]
00000000: 45c0 1b36 1a8d a634 1a39 2535 5403 bd34
00000010: f839 0537 2d8b b333 0d36 d136 853b d134
00000020: 48a6 2939 dd77 e636 2389 0d38 b1d5 0538
2.3208715e-06 3.1022574e-07 6.1550384e-07 3.5206415e-07 7.940915e-06 8.360653e-08 6.2349777e-06 3.897259e-07
0.0001617904 6.868488e-06 3.3744738e-05 3.1908687e-05

exp_avg f4 [12, 4]
00000000: 56da 923a fed4 2f39 91ba 69ba c00c cfba
00000010: fe85 18ba ac93 21ba cd00 1e3a ce66 d139
00000020: 052e a3ba 3c6f c7ba 5530 bd3a 5263 413a
00000030: 8752 acba 8498 0cbb 4c9c aa3a ff6b 7a39
00000040: a656 3a3a a6d2 c93a 2f50 a6b9 724b b139
00000050: 5790 3139 033d cc39 8b73 0238 1fce 0339
00000060: dfca ae3a 3b6d 2d3b c74f f9b9 f773 e039
00000070: fe56 67b8 0c2d 2f39 8765 0338 98cf 8139
00000080: e9fa b5bc 6e04 6fbc 9f3b a53c 396c b63c
00000090: 4e6e 8a3c 7656 a83c 7950 77bc 502d 10bc
000000a0: c91c 8bbc 6f44 2fbc 71f3 633c 8a7f 8c3c
000000b0: 833c 4dbc 5696 8abc 620c 4f3c fe8d ae3b
0.0011203985 0.00016768646 -0.0008916045 -0.0015796646 -0.0005818306 -0.00061636674 0.0006027341 0.00039940182
-0.0012449628 -0.0015215646 0.001443396 0.00073771656 -0.0013147154 -0.002145321 0.0013016551 0.0002388209
0.00071082485 0.0015397861 -0.0003172173 0.00033816282 0.00016933806 0.0003895537 3.1102023e-05 0.0001256992
0.0013335607 0.0026462812 -0.0004755242 0.0004281101 -5.515571e-05 0.00016706082 3.132739e-05 0.00024759467
-0.02221437 -0.014588458 0.020170031 0.022268401 0.0168983 0.02054904 -0.01509487 -0.008799866
-0.0169815 -0.010697468 0.013913021 0.01715066 -0.012526634 -0.016917389 0.01263723 0.0053269854

exp_avg_sq f4 [12, 4]
00000000: 66ad 8436 6451 a736 ba03 8e36 6948 4735
00000010: 2bfd bd34 9e72 2435 90e1 fb34 02e0 4333
00000020: fef9 4f36 c0b2 a736 dd39 6536 eca6 2b35
00000030: e8be 3b37 0f49 d537 bbcd 8837 522d 7535
00000040: 6e93 3234 140c 1435 5712 de33 cb0c 5433
00000050: 4409 c331 02d0 d232 7caf 5130 257a 8631
00000060: 53b6 2035 2a59 ea35 9993 7834 cfbd 1234
00000070: 5b26 4330 125a a932 e007 5d30 8bf7 d232
00000080: 2a5a f639 3e2a dc39 b363 f539 ff28 fe38
00000090: e11b b539 f03f 073a 9442 cd39 213d ec37
000000a0: 0726 923a ce72 f93a d19f b23a 9133 3c39
000000b0: 268a 473a 4179 d83a c76c 8f3a 6838 7138
3.954093e-06 4.986463e-06 4.2323636e-06 7.423865e-07 3.5388197e-07 6.126155e-07 4.6916512e-07 4.560571e-08
3.0990918e-06 4.997797e-06 3.415734e-06 6.394537e-07 1.1190517e-05 2.54256e-05 1.6308264e-05 9.133556e-07
1.6631176e-07 5.515187e-07 1.03410166e-07 4.937173e-08 5.6763003e-09 2.4541809e-08 7.6283135e-10 3.9137995e-09
5.986996e-07 1.7460309e-06 2.3150496e-07 1.3666362e-07 7.0995093e-10 1.9715149e-08 8.041052e-10 2.4559787e-08
0.00046987954 0.00041993143 0.00046804323 0.000121193 0.00034543782 0.0005159369 0.00039150252 2.8161858e-05
0.0011150249 0.0019031407 0.0013627951 0.00017948287 0.0007611833 0.0016515629 0.0010942452 5.751141e-05

exp_avg f4 [12, 4]
00000000: f243 a53a 0dc2 d0b9 4ee0 7b3a 34e6 3aba
00000010: c57a 15ba 61b1 163a a372 1dba b8e4 17ba
00000020: 7c31 b6ba 5ce3 c03a c867 c4ba 0652 d5ba
00000030: 3aee feb9 6815 cd3a 32a3 55ba 4fbe 3fbb
00000040: 1190 3bba d820 54ba 40bc 67b9 8509 093b
00000050: 916d 08ba d63f adb8 100f ceb9 0f04 433a
00000060: 2f86 ddba 520c aaba 14b9 58ba 18d1 813b
00000070: a20c 36b8 67ad 7fb8 3862 4337 5cdc 1c39
00000080: ed61 97bb 116e e83a c54c 71bb 35d5 013b
00000090: f595 83ba de8a 18bb d7d0 08ba 8d4d d93b
000000a0: be5f 16bc d363 e13b 6daf fbbb bc24 85bb
000000b0: 1664 0dbc f4cd 4c3c ec40 27bc 8a0c 8dbc
0.001260875 -0.0003981743 0.0009608314 -0.000712964 -0.0005702193 0.00057484774 -0.0006006157 -0.00057942746
-0.0013900246 0.0014716196 -0.0014984543 -0.0016275055 -0.00048624148 0.0015646638 -0.0008149623 -0.002925772
-0.00071549515 -0.00080920523 -0.00022100005 0.0020910215 -0.0005204315 -8.261173e-05 -0.00039302604 0.00074392644
-0.0016900952 -0.0012973642 -0.0008267325 0.0039616935 -4.3403947e-05 -6.095823e-05 1.1645774e-05 0.0001495941
-0.004619828 0.0017732998 -0.003681944 0.001981092 -0.0010039198 -0.002327613 -0.0005219108 0.006631559
-0.0091781 0.006878355 -0.0076808245 -0.004063217 -0.008629819 0.012500275 -0.01020835 -0.017217893

exp_avg_sq f4 [12, 4]
00000000: 1f9c 2636 a7b5 9135 5ca2 4636 5cce 2836
00000010: bcbe 1934 bf30 1334 a8d4 8b34 60d0 e434
00000020: 5310 4636 f43e 1636 ecc9 6136 93f1 a536
00000030: 8fce 2936 d610 6136 4c7f c636 04b2 8337
00000040: e6b8 3433 d46f 4a34 eed2 5833 5852 6f35
00000050: 2a79 d532 6bce 7731 629e 4532 9e72 a633
00000060: 4750 b134 84f4 1935 1310 2234 7a45 6236
00000070: f08b 1732 76b6 4230 e4d0 6431 94b1 0d32
00000080: 41d2 c537 5f85 cd36 8f66 a237 2553 a837
00000090: 15a6 f836 e492 c636 543f 1d37 0997 c937
000000a0: ee79 6439 5e7d 9038 a1b5 3639 12f6 9939
000000b0: c643 d138 2cdf 2139 8ebd 8639 3725 0e3a
2.4826802e-06 1.085621e-06 2.9598805e-06 2.5154068e-06 1.4318624e-07 1.3708176e-07 2.6045495e-07 4.2619922e-07
2.95138e-06 2.2388385e-06 3.3645147e-06 4.945506e-06 2.5303195e-06 3.3537412e-06 5.915679e-06 1.5699312e-05
4.207768e-08 1.8853399e-07 5.048326e-08 8.9154264e-07 2.4851563e-08 3.6060566e-09 1.1502921e-08 7.750826e-08
3.302723e-07 5.735276e-07 1.5093273e-07 3.3717065e-06 8.821175e-09 7.083608e-10 3.3297107e-09 8.247657e-09
2.3582137e-05 6.1250025e-06 1.9359662e-05 2.0065878e-05 7.4103104e-06 5.91796e-06 9.372674e-06 2.4031398e-05
0.00021789197 6.8898065e-05 0.00017424535 0.0002936577 9.9785204e-05 0.00015437294 0.000256997 0.00054224156

exp_avg f4 [12]
00000000: e77d 95ba 71ad 24ba bd44 e9ba 94b8 55bb
00000010: 10ec 463b 8384 423a 6f2b 9e3b c82c 323a
00000020: f406 5dbb 43f7 cc3c 0c18 faba 6c81 b7bc
-0.001140532 -0.00062819483 -0.0017796975 -0.0032611238 0.0030353107 0.00074202585 0.004826955 0.0006796834
-0.0033726068 0.025020247 -0.0019080653 -0.02240058

exp_avg_sq f4 [12]
00000000: ea47 0637 262d 6235 427f 1d37 d981 1f38
00000010: 99a4 d535 6896 ad33 f06b 9d36 d75b 9234
00000020: 9a8b 0c3a 46b8 333a dbdb 533b 7495 1c3b
8.003766e-06 8.425726e-07 9.387559e-06 3.8029484e-05 1.5917641e-06 8.083299e-08 4.69153e-06 2.7261441e-07
0.00053613784 0.0006855767 0.003232709 0.0023892792

exp_avg f4 [12]
00000000: e77d 95ba 71ad 24ba bd44 e9ba 94b8 55bb
00000010: 10ec 463b 8384 423a 6f2b 9e3b c82c 323a
00000020: 0f31 713b d3b0 d93b 350b 9fba f1a6 9abc
-0.001140532 -0.00062819483 -0.0017796975 -0.0032611238 0.0030353107 0.00074202585 0.004826955 0.0006796834
0.0036802923 0.0066433935 -0.0012134077 -0.018878432

exp_avg_sq f4 [12]
00000000: ea47 0637 262d 6235 427f 1d37 d981 1f38
00000010: 99a4 d535 6896 ad33 f06b 9d36 d75b 9234
00000020: 057a 9038 5b85 3738 c716 5c3a 87be 983a
8.003766e-06 8.425726e-07 9.387559e-06 3.8029484e-05 1.5917641e-06 8.083299e-08 4.69153e-06 2.7261441e-07
6.889183e-05 4.3754797e-05 0.0008395728 0.0011653461

exp_avg f4 [6, 4]
00000000: 4461 b53d af93 2fbd ab90 a03d 8d47 8ebc
00000010: cdbd 323c 7d21 a3bc bcb8 663c 8e11 003d
00000020: ff5a ba3b 6871 8fbc b8a9 1c3c fead 043d
00000030: c6ff 803c 52d5 d3bc 77e2 9f3c 768d 1d3d
00000040: e019 253d f28a 62bd a92e 413d 9c18 973d
00000050: c515 25be b054 253e 77c6 2cbe a356 22be
0.088564426 -0.04286545 0.07840093 -0.017368102 0.01090951 -0.01991343 0.01408213 0.03126674
0.005687117 -0.017510131 0.0095619485 0.032392494 0.015746962 -0.025858555 0.019517167 0.038464986
0.04030788 -0.05530829 0.04716364 0.07377741 -0.16121586 0.16145587 -0.16872583 -0.15853362
