aa2_models/model8.pt (torch_old, 22385 bytes, 102 tensors)

lin1.weight f4 [3, 7]
0.24789882 0.042252302 0.25378942 0.22590412 0.16474749 -0.12635192 0.14256339 0.21718648
-0.36916873 -0.3147359 -0.23274297 0.046473075 0.14525661 -0.29562378 -0.20169815 0.23996904
-0.06471199 0.29823038 -0.37211418 0.004855603 -0.22277221
00000000: 30d9 7d3e c010 2d3d b0f0 813e 6953 673e
00000010: 91b3 283e 6662 01be 23fc 113e 2266 5e3e
00000020: af03 bdbe 1025 a1be 2c54 6ebe 8d5a 3e3d
00000030: 26be 143e 005c 97be f689 4ebe 72ba 753e
00000040: b887 84bd a7b1 983e c085 bebe c01b 9f3b
00000050: 661e 64be

lin1.bias f4 [3]
0.11190603 0.1258738 0.35446674
00000000: fd2e e53d 10e5 003e aa7c b53e

lin2.weight f4 [3, 3]
0.11905964 -0.39985397 -0.4620048 -0.084164865 0.42390263 -0.40958902 -0.08076111 0.38402832
0.15063335
00000000: 8ad5 f33d a9b9 ccbe e58b ecbe a15e acbd
00000010: c409 d93e a7b5 d1be 1566 a5bd 5c9f c43e
00000020: a13f 1a3e

lin2.bias f4 [3]
0.45545623 0.058992777 0.20207922
00000000: 8f31 e93e 69a2 713d dbed 4e3e

GRU.weight_ih_l0 f4 [9, 3]
0.55588907 0.370768 -0.22315201 0.51684046 0.5740391 -0.38375637 -0.028463444 -0.23201707
0.39889696 -0.11704481 0.43415815 -0.4509028 0.10368107 0.22176567 -0.26172924 -0.12797275
-0.13296841 -0.5533511 0.4079648 0.34842736 -0.020947006 0.5285672 0.43453777 -0.22623281
-0.5642251 0.3075888 -0.21556355
00000000: bf4e 0e3f 4ed5 bd3e f681 64be a84f 043f
00000010: 3af4 123f b77b c4be 2b2c e9bc e295 6dbe
00000020: 393c cc3e 30b5 efbd fa49 de3e bbdc e6be
00000030: be56 d43d 8a16 633e 6001 86be 4a0b 03be
00000040: df28 08be 6ba8 0dbf c3e0 d03e 1265 b23e
00000050: 0e99 abbc 2e50 073f bc7b de3e 93a9 67be
00000060: 0e71 10bf 477c 9d3e b1bc 5cbe

GRU.weight_hh_l0 f4 [9, 3]
-0.46396527 -0.12034967 0.20956948 -0.20501241 -0.10785428 0.417602 0.31434458 0.054513875
0.29897892 -0.13412438 -0.04407382 0.089618765 0.035865795 -0.29170284 -0.12054685 0.25099537
-0.4735555 -0.21796937 0.55124676 -0.5147851 0.42383462 -0.5455783 -0.51010615 -0.4990785
0.32611036 -0.29251817 -0.31322494
00000000: db8c edbe e379 f6bd 6299 563e c6ee 51be
00000010: b4e2 dcbd eecf d53e c6f1 a03e f149 5f3d
00000020: c413 993e e757 09be c086 34bd 0b8a b73d
00000030: 03e8 123d 135a 95be 44e1 f6bd 7782 803e
00000040: de75 f2be 5d33 5fbe 821e 0d3f f5c8 03bf
00000050: da00 d93e 05ab 0bbf 5196 02bf 3887 ffbe
00000060: f0f7 a63e f1c4 95be 055f a0be

GRU.bias_ih_l0 f4 [9]
-0.4974807 0.46269596 -0.36779216 -0.1587768 -0.4590304 0.50689447 -0.55322593 0.057219476
0.040761486
00000000: cab5 febe 7ce6 ec3e 414f bcbe 6396 22be
00000010: 0806 ebbe d6c3 013f 37a0 0dbf f85e 6a3d
00000020: 84f5 263d

GRU.bias_hh_l0 f4 [9]
0.12587811 -0.14395466 0.13646793 0.49442074 -0.23628448 -0.047149964 0.37148803 0.5365608
-0.08450957
00000000: 31e6 003e da68 13be 40be 0b3e b724 fd3e
00000010: 8ff4 71be 5220 41bd ae33 be3e 0c5c 093f
00000020: 5a13 adbd

GRU.weight_ih_l1 f4 [9, 3]
0.5113133 0.36849344 0.13210133 -0.063253164 0.42424276 -0.1590794 0.51362807 -0.16597195
-0.057050556 -0.49699304 -0.15532973 -0.33030948 -0.4146972 0.5035982 0.3958041 -0.30523914
-0.5453059 -0.14289379 0.41731876 -0.052071307 0.15582259 -0.5514414 -0.37035608 0.55944824
0.488171 -0.46780464 0.081590496
00000000: 6ee5 023f 2cab bc3e 9245 073e e08a 81bd
00000010: 5936 d93e b6e5 22be 217d 033f 8df4 29be
00000020: d8ad 69bd df75 febe c20e 1fbe 531e a9be
00000030: 3153 d4be d0eb 003f d6a6 ca3e 4e48 9cbe
00000040: 2b99 0bbf c052 12be ceaa d53e b948 55bd
00000050: f58f 1f3e 432b 0dbf 509f bdbe 0038 0f3f
00000060: 8df1 f93e 1784 efbe eb18 a73d

GRU.weight_hh_l1 f4 [9, 3]
0.15341875 0.15299036 0.489597 0.3132438 -0.15944433 -0.16279553 -0.17759472 0.45641804
-0.19435172 -0.40928552 0.45607123 -0.2451996 -0.4627014 -0.3738401 -0.15260807 -0.31702086
-0.15732156 -0.44786048 -0.033513926 0.06465009 0.47436145 0.19637853 0.3207004 -0.45223603
-0.37445968 -0.07986465 0.42159668
00000000: ce19 1d3e 81a9 1c3e 75ac fa3e 7e61 a03e
00000010: 6045 23be dfb3 26be 64db 35be a0af e93e
00000020: 2304 47be df8d d1be 2b82 e93e 9b15 7bbe
00000030: 33e7 ecbe f867 bfbe 4a45 1cbe 8f50 a2be
00000040: e718 21be f84d e5be e645 09bd 4467 843d
00000050: 81df f23e 7417 493e d832 a43e 7b8b e7be
00000060: 2eb9 bfbe 1490 a3bd 85db d73e

GRU.bias_ih_l1 f4 [9]
-0.44493386 0.24736048 0.11543502 0.30736753 -0.010876869 0.5074882 -0.47948837 0.24329816
0.41191635
00000000: 5fce e3be 114c 7d3e 3269 ec3d 475f 9d3e
00000010: e534 32bc bfea 013f 807f f5be 2723 793e
00000020: b3e6 d23e

GRU.bias_hh_l1 f4 [9]
-0.47407094 -0.263401 -0.5734808 -0.30333525 -0.30759472 0.34795177 0.2845523 0.2935156
-0.30816874
00000000: 6db9 f2be 7fdc 86be a3cf 12bf c24e 9bbe
00000010: 0e7d 9dbe bc26 b23e d7b0 913e ad47 963e
00000020: 4bc8 9dbe

GRU.weight_ih_l2 f4 [9, 3]
0.39375365 -0.12196971 -0.47021735 0.57696176 -0.5624282 0.093887866 -0.53472054 0.0005407342
-0.49045655 0.5565691 -0.38129148 0.1362338 0.17311794 -0.24261914 0.46146286 -0.43799216
-0.5139144 0.060214397 -0.08240487 0.294958 -0.56122774 0.2608531 -0.09384218 0.12498492
-0.3446178 -0.32472062 0.15399072
00000000: 149a c93e 41cb f9bd 54c0 f0be c4b3 133f
00000010: 4bfb 0fbf 4848 c03d 72e3 08bf 0fc0 0d3a
00000020: 1f1d fbbe 507b 0e3f a338 c3be e080 0b3e
00000030: d445 313e 2771 78be dc44 ec3e 8240 e0be
00000040: e58f 03bf 5fa3 763d e2c3 a8bd bc04 973e
00000050: 9fac 0fbf 8a8e 853e 5430 c0bd 18f8 ff3d
00000060: bf71 b0be c841 a6be beaf 1d3e

GRU.weight_hh_l2 f4 [9, 3]
0.33844087 -0.25347033 0.5850005 0.15963519 0.423214 -0.2103486 -0.11432528 -0.11486114
-0.08212961 -0.053690482 0.36906174 0.23466028 0.29443017 0.40605512 -0.3590191 -0.347151
-0.23191474 0.18682237 0.45598298 -0.26964423 -0.4644622 -0.26201043 0.18434438 0.46668455
0.2797924 -0.17345586 -0.19847846
00000000: 1f48 ad3e ddc6 81be 98c2 153f 6877 233e
00000010: 81af d83e a065 57be 5f23 eabd 513c ebbd
00000020: 9233 a8bd 8dea 5bbd a9f5 bc3e c94a 703e
00000030: 8dbf 963e 75e6 cf3e 5ad1 b7be c7bd b1be
00000040: 0f7b 6dbe 5d4e 3f3e 9a76 e93e cf0e 8abe
00000050: fdcd edbe 3b26 86be c6c4 3c3e 47f1 ee3e
00000060: f340 8f3e 6a9e 31be f03d 4bbe

GRU.bias_ih_l2 f4 [9]
-0.4506915 -0.33358726 -0.3027136 -0.105502814 -0.5052446 -0.16249038 0.38915682 -0.14105764
-0.39590076
00000000: 09c1 e6be f3cb aabe 47fd 9abe dc11 d8bd
00000010: b657 01bf e163 26be 903f c73e 6a71 10be
00000020: 81b3 cabe

GRU.bias_hh_l2 f4 [9]
-0.32995677 -0.2974571 0.10989764 -0.110690266 0.090692505 -0.076011 0.3426269 -0.053080127
-0.54346
00000000: 18f0 a8be 4c4c 98be 0412 e13d 94b1 e2bd
00000010: febc b93d a8ab 9bbd cb6c af3e 8c6a 59bd
00000020: 3220 0bbf

GRU.weight_ih_l3 f4 [9, 3]
0.2021706 0.1707301 -0.17591402 0.079037786 -0.016306525 -0.061715964 -0.32579753 -0.10332441
0.49384752 0.48013932 0.49349886 -0.034721363 -0.18282449 -0.24984533 0.01594372 0.549223
0.529733 0.16689417 -0.027295947 -0.21163727 0.5494176 -0.20918144 -0.40253046 0.43706238
-0.51921 -0.46804172 0.03465383
00000000: cf05 4f3e dfd3 2e3e ce22 34be 90de a13d
00000010: 4395 85bc e1c9 7cbd efce a6be c09b d3bd
00000020: 95d9 fc3e d2d4 f53e e2ab fc3e fd37 0ebd
00000030: 5836 3bbe 74d7 7fbe 679c 823c e199 0c3f
00000040: 959c 073f 4ee6 2a3e c09b dfbc 71b7 58be
00000050: a2a6 0c3f a933 56be 7918 cebe a4c6 df3e
00000060: f2ea 04bf 2aa3 efbe 2df1 0d3d

GRU.weight_hh_l3 f4 [9, 3]
-0.17638722 -0.3580938 0.011388996 0.21928702 -0.48980537 0.40849507 0.35422736 -0.5428632
-0.23207943 0.50757104 0.24468103 -0.4452773 -0.27419892 -0.24675977 -0.3246548 0.25021476
-0.0035120533 -0.22703177 0.116431 -0.17807549 -0.45248878 -0.5058876 -0.19548559 -0.03897127
0.19107883 -0.050342213 -0.47760403
00000000: da9e 34be 1258 b7be e998 3a3c c78c 603e
00000010: c5c7 fabe 4426 d13e 4a5d b53e 15f9 0abf
00000020: 3ba6 6dbe 2df0 013f aa8d 7a3e 63fb e3be
00000030: cd63 8cbe 98ae 7cbe 2739 a6be 261c 803e
00000040: 7a2a 66bb 047b 68be 6073 ee3d 6c59 36be
00000050: 9cac e7be da81 01bf 602d 48be 57a0 1fbd
00000060: 2baa 433e a333 4ebd 8488 f4be

GRU.bias_ih_l3 f4 [9]
0.32760188 0.41471037 -0.2515232 -0.50289214 0.010335478 -0.05674534 -0.27080956 0.059830293
0.5108823
00000000: 6fbb a73e eb54 d43e a6c7 80be 8abd 00bf
00000010: 2356 293c cd6d 68bd 8da7 8abe 9c10 753d
00000020: 2fc9 023f

GRU.bias_hh_l3 f4 [9]
0.3492814 0.31725064 0.014621367 0.03211066 0.084521666 -0.20920585 -0.15274441 0.09443305
0.2114296
00000000: 03d5 b23e ad6e a23e 758e 6f3c 7886 033d
00000010: b219 ad3d 0f3a 56be 0869 1cbe 1d66 c13d
00000020: 0081 583e

GRU.weight_ih_l4 f4 [9, 3]
-0.010389128 -0.51338625 -0.01795554 0.04601034 0.05453084 -0.324248 -0.34005848 0.18166518
-0.12629694 -0.5117164 0.2677437 -0.49068907 -0.07175143 0.31725475 -0.2138448 -0.3633732
0.22831121 -0.030765774 -0.13177043 -0.35611954 0.49287945 0.059901204 -0.50913996 0.39634705
0.02388776 0.093138546 -0.050837632
00000000: 2937 2abc 486d 03bf 7f17 93bc 5775 3c3d
00000010: bb5b 5f3d d503 a6be 251c aebe 7006 3a3e
00000020: fc53 01be d9ff 02bf b415 893e 993b fbbe
00000030: 6af2 92bd 376f a23e 22fa 5abe 0d0c babe
00000040: 6aca 693e 8108 fcbc d4ee 06be 4d55 b6be
00000050: b25a fc3e f75a 753d ff56 02bf 00ee ca3e
00000060: 43b0 c33c 6cbf be3d 1f3b 50bd

GRU.weight_hh_l4 f4 [9, 3]
-0.06422884 0.43794602 -0.32610387 0.1342711 0.19186732 0.12976405 0.4327687 0.5226581
-0.028131366 -0.072742045 -0.07229378 -0.16807649 -0.08763309 0.5317291 -0.46858147 0.14094417
0.5215754 0.024271913 -0.5610168 -0.3724883 -0.31821215 0.07604101 0.0468813 0.23751575
-0.5253717 -0.118627414 0.03148973
00000000: 698a 83bd 763a e03e 16f7 a6be 5d7e 093e
00000010: de78 443e dee0 043e dc93 dd3e eccc 053f
00000020: c073 e6bc c8f9 94bd c30e 94bd 3e1c 2cbe
00000030: fa78 b3bd 661f 083f e9e9 efbe ab53 103e
00000040: f785 053f e4d5 c63c cc9e 0fbf c9b6 bebe
00000050: b4ec a2be 64bb 9b3d 9b06 403d 5437 733e
00000060: c27e 06bf eef2 f2bd 60fb 003d

GRU.bias_ih_l4 f4 [9]
0.2917337 -0.5154402 -0.50220805 0.538336 0.5619233 0.18119743 0.069911204 0.31354916
0.37924775
00000000: 1f5e 953e e4f3 03bf b590 00bf 63d0 093f
00000010: 35da 0f3f d28b 393e 9b2d 8f3d 8489 a03e
00000020: c32c c23e

GRU.bias_hh_l4 f4 [9]
0.4971756 0.018940406 -0.48034835 0.43710214 0.07374556 -0.12686083 0.35638583 0.29371417
0.30121386
00000000: cd8d fe3e e928 9b3c 38f0 f5be dacb df3e
00000010: ea07 973d cee7 01be 3478 b63e b461 963e
00000020: b438 9a3e

GRU.weight_ih_l5 f4 [9, 3]
0.5172325 0.5010389 0.1718489 -0.3058233 0.5141497 -0.21097894 -0.45791405 0.25458845
0.35743427 -0.5864535 0.23879187 0.550393 -0.059841458 -0.44331545 0.16581261 0.5297379
0.05425277 -0.20498286 -0.11618479 -0.44832513 0.0071910904 -0.032153357 -0.09546572 -0.030513968
-0.017135134 -0.10559681 -0.39834347
00000000: 5969 043f 1644 003f 28f9 2f3e df94 9cbe
00000010: 519f 033f dd0a 58be b673 eabe 6b59 823e
00000020: a001 b73e d121 16bf db85 743e 8ee6 0c3f
00000030: 511c 75bd 3efa e2be c8ca 293e e79c 073f
00000040: 2738 5e3d 07e7 51be 4bf2 edbd df8a e5be
00000050: 3da3 eb3b 3db3 03bd 8883 c3bd 6ef8 f9bc
00000060: fb5e 8cbc 2443 d8bd adf3 cbbe

GRU.weight_hh_l5 f4 [9, 3]
-0.46193206 0.23600416 -0.057221413 0.326337 -0.00019431945 -0.24524838 -0.08221939 0.107424766
-0.0965403 -0.5546017 -0.42051125 -0.06552303 0.56046945 0.28487343 -0.50725 0.17908755
-0.15073787 -0.5826459 0.2913998 0.34916884 0.33293277 0.40921333 0.18079534 0.46131814
0.11561128 0.32394186 -0.18607265
00000000: 5c82 ecbe 13ab 713e 0061 6abd a515 a73e
00000010: 3bc2 4bb9 6422 7bbe a462 a8bd 8401 dc3d
00000020: ecb6 c5bd 61fa 0dbf 404d d7be f030 86bd
00000030: ed7a 0f3f eeda 913e 23db 01bf ba62 373e
00000040: 075b 1abe 4828 15bf 5b32 953e 42c6 b23e
00000050: 2a76 aa3e 6984 d13e 6a22 393e e431 ec3e
00000060: 9bc5 ec3d b5db a53e d489 3ebe

GRU.bias_ih_l5 f4 [9]
0.4045873 0.00605294 0.13333106 0.5537301 -0.38479507 -0.073116705 -0.023805762 0.30368716
0.27287033
00000000: 1126 cf3e be57 c63b f087 083e 41c1 0d3f
00000010: dc03 c5be 36be 95bd 4d04 c3bc e27c 9b3e
00000020: a9b5 8b3e

GRU.bias_hh_l5 f4 [9]
-0.026182387 0.25565282 0.13260722 -0.4613485 -0.30468708 0.12301992 -0.022906542 0.12954399
-0.366936
00000000: 727c d6bc ede4 823e 30ca 073e df35 ecbe
00000010: f2ff 9bbe def1 fb3d 80a6 bbbc 2ea7 043e
00000020: 09df bbbe

GRU.weight_ih_l6 f4 [9, 3]
-0.5526839 -0.42471364 0.03254732 0.21294577 -0.107829556 -0.27429968 -0.08907238 0.032271925
-0.16962747 0.35224605 0.21418579 -0.052080672 0.3389591 0.09698758 -0.44692823 0.33482674
-0.4358578 -0.033102814 0.37917396 0.12460929 -0.4361286 -0.5262566 -0.039448462 0.2524029
0.06771262 -0.41668528 -0.17582068
00000000: b17c 0dbf 1174 d9be 5750 053d 750e 5a3e
00000010: bed5 dcbd 0271 8cbe 946b b6bd 912f 043d
00000020: d3b2 2dbe 9859 b43e 8553 5b3e 8b52 55bd
00000030: 0c8c ad3e 6da1 c63d c7d3 e4be 696e ab3e
00000040: c128 dfbe d196 07bd 1723 c23e 2833 ff3d
00000050: 3f4c dfbe c1b8 06bf b694 21bd f43a 813e
00000060: eaac 8a3d c657 d5be 560a 34be

GRU.weight_hh_l6 f4 [9, 3]
-0.5219985 0.007311755 0.18544465 0.5296998 -0.094678454 0.35685623 0.24050446 0.32041612
-0.08514105 0.0065076076 0.3212453 -0.4727613 -0.31835377 0.055695362 -0.39037934 0.5197162
0.065620735 0.46667102 -0.072266996 -0.38315496 0.24846572 -0.047592614 0.037855275 -0.20355
0.17314816 -0.49917117 0.027273528
00000000: b2a1 05bf 7297 ef3b 34e5 3d3e 689a 073f
00000010: c7e6 c1bd dcb5 b63e cd46 763e 950d a43e
00000020: 6e5e aebd c53d d53b 447a a43e c50d f2be
00000030: 44ff a2be d220 643d cddf c7be 1f0c 053f
00000040: 2a64 863d 81ef ee3e b800 94bd e32c c4be
00000050: cc6d 7e3e 79f0 42bd 220e 1b3d 696f 50be
00000060: c04d 313e 5d93 ffbe bc6c df3c

GRU.bias_ih_l6 f4 [9]
0.28279957 0.3890401 -0.21702653 -0.37883475 0.1756072 0.011959043 0.4040472 -0.56071275
0.3623565
00000000: 1bcb 903e 4430 c73e 343c 5ebe a1f6 c1be
00000010: 60d2 333e ddef 433c 46df ce3e df8a 0fbf
00000020: cb86 b93e

GRU.bias_hh_l6 f4 [9]
0.14385656 -0.20677699 0.13997996 0.1563471 0.48127127 0.08929318 -0.39934367 0.41577685
0.4021699
00000000: 224f 133e 59bd 53be e856 0f3e 7419 203e
00000010: 3069 f63e 58df b63d c676 ccbe b4e0 d43e
00000020: 37e9 cd3e

lin3.weight f4 [5, 3]
-0.41431028 0.5304734 0.32702473 0.17876346 0.18266211 0.55448973 0.49809518 -0.23522581
0.49995166 -0.20058073 0.21423677 0.09688486 0.3109521 0.3766257 0.063471906
00000000: 7a20 d4be 1bcd 073f c96f a73e c50d 373e
00000010: c70b 3b3e 0af3 0d3f 5506 ff3e 09df 70be
00000020: aaf9 ff3e 0965 4dbe e260 5b3e 926b c63d
00000030: 1d35 9f3e 15d5 c03e 8ffd 813d

lin3.bias f4 [5]
-0.112370424 -0.54933834 -0.2036864 -0.21972866 0.12679237
00000000: 7722 e6bd 70a1 0cbf 2b93 50be 8d00 61be
00000010: dcd5 013e

exp_avg f4 [3, 7]
2.5511482e-10 0.0 -0.0001524016 -3.7377966e-05 -7.0175574e-06 0.0 -8.3142495e-06 -1.2964662e-09
0.0 0.00025863093 4.012518e-05 2.7618744e-05 0.0 3.0296933e-05 -2.1732063e-09 0.0
0.0017728575 0.00067930034 5.480323e-06 0.0 1.9707028e-05
00000000: 3840 8c2f 0000 0000 fecd 1fb9 49c6 1cb8
00000010: 5c78 ebb6 0000 0000 6e7d 0bb7 592f b2b0
00000020: 0000 0000 db98 8739 154c 2838 cdae e737
00000030: 0000 0000 2b26 fe37 7357 15b1 0000 0000
00000040: 3a5f e83a 1313 323a 9ee3 b736 0000 0000
00000050: 8550 a537

exp_avg_sq f4 [3, 7]
2.5868598e-17 0.0 3.751707e-08 1.6106133e-08 3.2786933e-11 0.0 5.416679e-11 4.511442e-17
0.0 1.8996317e-07 1.0864367e-07 5.1246707e-10 0.0 7.0636574e-10 7.098747e-15 0.0
6.5976483e-06 1.9353063e-06 1.5309363e-10 0.0 7.8136014e-10
00000000: 8098 ee23 0000 0000 7422 2133 c359 8a32
00000010: ce32 102e 0000 0000 623a 6e2e b50d 5024
00000020: 0000 0000 aef8 4b34 7d4f e933 aadd 0c30
00000030: 0000 0000 122a 4230 62c2 ff27 0000 0000
00000040: 5e61 dd36 4fe0 0136 0754 282f 0000 0000
00000050: 55c7 5630

exp_avg f4 [3]
0.00023454822 -0.000852549 -0.00056132104
00000000: 0ff1 7539 987d 5fba 9e25 13ba

exp_avg_sq f4 [3]
2.9735459e-08 3.9678085e-07 1.5017356e-07
00000000: f76c ff32 2505 d534 653f 2134

exp_avg f4 [3, 3]
-0.00064925634 0.001204856 0.0005646598 -0.00060885446 0.000597025 -0.00031596082 -3.4860812e-05 5.9786133e-05
9.325181e-05
00000000: db32 2aba 42ec 9d3a ad05 143a 889b 1fba
00000010: ab81 1c3a 8ba7 a5b9 8337 12b8 dfc2 7a38
00000020: 2f90 c338

exp_avg_sq f4 [3, 3]
1.1018424e-06 1.7354629e-06 4.48121e-07 9.970083e-07 1.2837231e-06 1.1991435e-07 2.8850064e-07 3.8144486e-07
6.025573e-08
00000000: 04e3 9335 0dee e835 4895 f034 f2d0 8535
00000010: 644c ac35 cec1 0034 3ae3 9a34 62c9 cc34
00000020: f065 8133

exp_avg f4 [3]
0.00164938 -0.00047982656 2.6746795e-05
00000000: 0230 d83a 3b91 fbb9 4e5e e037

exp_avg_sq f4 [3]
1.4254804e-06 1.4727944e-07 5.158172e-10
00000000: 2253 bf35 dd23 1e34 69c9 0d30

exp_avg f4 [9, 3]
2.1846301e-05 -1.4041784e-06 2.9780327e-05 0.00010830177 -3.9414106e-05 9.5352036e-05 3.8913426e-05 -6.4638634e-06
4.499977e-05 0.00039982563 -0.00027336163 -0.00038045453 -0.00055370544 0.00076374144 0.00053417915 -4.3936423e-05
2.1813694e-05 2.435428e-05 -0.0019320338 0.0016838127 0.00051160017 0.00080426666 -0.0005456919 0.00035619753
-0.0005776649 9.640762e-05 -0.00066518533
00000000: 9342 b737 3477 bcb5 c4d0 f937 1220 e338
00000010: 9350 25b8 bcf7 c738 f936 2338 2ae4 d8b6
00000020: 23be 3c38 b09f d139 fa51 8fb9 be77 c7b9
00000030: 8b26 11ba d235 483a 2808 0c3a 6048 38b8
00000040: 8dfc b637 6b4c cc37 4c3c fdba 61b3 dc3a
00000050: e81c 063a 6cd5 523a c30c 0fba 06c0 ba39
00000060: 6f6e 17ba 722e ca38 d55f 2eba

exp_avg_sq f4 [9, 3]
3.8699932e-10 6.706659e-12 6.563542e-10 7.1024635e-09 1.2267708e-09 4.9758073e-09 9.100518e-10 2.8918968e-11
1.1569758e-09 1.4652646e-07 7.039155e-08 1.2531468e-07 2.3861871e-06 6.337709e-06 2.7525668e-06 1.6186644e-09
4.1721485e-10 5.398648e-10 3.3402175e-06 3.12863e-06 9.996145e-07 1.6033591e-06 3.1306377e-06 6.532545e-07
1.8645413e-07 5.948529e-09 2.3535442e-07
00000000: 50c1 d42f 37f8 eb2c d26a 3430 ee09 f431
00000010: 299b a830 aaf7 aa31 3427 7a30 ba5f fe2d
00000020: 7803 9f30 e354 1d34 2a2a 9733 3d8e 0634
00000030: 6222 2036 81a8 d436 bdb8 3836 b177 de30
00000040: c55d e52f 9c65 1430 8028 6036 74f5 5136
00000050: 7e2a 8635 0033 d735 f217 5236 4f5b 2f35
00000060: 1f34 4834 d063 cc31 bbb5 7c34

exp_avg f4 [9, 3]
-0.00011987353 0.0001026942 -4.324808e-05 -0.0001759196 0.00016107263 -0.000103527556 -8.7287124e-05 7.850043e-05
-4.5922476e-05 -8.3126426e-05 1.6919503e-05 8.452509e-06 -1.60546e-05 4.9528608e-05 2.2697866e-06 8.4688245e-06
1.9192012e-06 1.3532258e-06 0.0004629157 -0.00042601634 0.00029167565 -0.0005307603 0.00050151534 -0.00032567605
0.00043681418 -0.00040423594 0.0002612332
00000000: 9d64 fbb8 875d d738 4665 35b8 0f77 38b9
00000010: 9be5 2839 ef1c d9b8 eb0d b7b8 99a0 a438
00000020: e29c 40b8 2954 aeb8 5bee 8d37 40cf 0d37
00000030: feac 86b7 f0bc 4f38 a352 1836 5315 0e37
00000040: a0cb 0036 7ca0 b535 7eb3 f239 f25a dfb9
00000050: 0bec 9839 b922 0bba 2078 033a 80bf aab9
00000060: 3504 e539 a1ef d3b9 20f6 8839

exp_avg_sq f4 [9, 3]
9.916889e-09 7.4149975e-09 1.4358418e-09 1.7791018e-08 1.5073153e-08 6.575701e-09 4.4568766e-09 3.646558e-09
1.3185644e-09 4.551083e-09 1.6622292e-10 5.418192e-11 1.5006507e-10 1.7261231e-09 5.3541446e-12 5.803798e-11
9.864919e-12 1.3715064e-12 1.2804664e-07 1.1033846e-07 5.51485e-08 1.563833e-07 1.4160932e-07 6.309124e-08
1.0522645e-07 9.1149325e-08 4.010749e-08
00000000: f05e 2a32 02c7 fe31 3157 c530 ddd2 9832
00000010: 377a 8132 7af0 e131 1a23 9931 ed96 7a31
00000020: dc38 b530 c05f 9c31 98c3 362f 6b4b 6e2e
00000030: 90ff 242f 8f3c ed30 d961 bc2c f540 7f2e
00000040: a58b 2d2d ba05 c12b 317d 0934 36f3 ec33
00000050: 6bdc 6c33 50ea 2734 460d 1834 c77c 8733
00000060: daf8 e133 dfbd c333 a742 2c33

exp_avg f4 [9]
9.4025665e-05 0.00037418914 0.00015263828 -0.00012294993 -6.992646e-05 -1.8593839e-05 -0.0025281324 0.0021836017
-0.0022600342
00000000: a52f c538 d12e c439 870d 2039 1fec 00b9
00000010: 7ba5 92b8 f7f9 9bb7 06af 25bb c21a 0f3b
00000020: 151d 14bb

exp_avg_sq f4 [9]
6.498945e-09 7.7420964e-08 1.3123994e-08 9.066387e-09 3.3707916e-09 2.31784e-10 3.6901422e-06 2.5512493e-06
2.6803157e-06
00000000: 534d df31 a042 a633 f077 6132 64c2 1b32
00000010: 98a3 6731 65d9 7e2f 29a4 7736 2136 2b36
00000020: 79df 3336

exp_avg f4 [9]
9.4025665e-05 0.00037418914 0.00015263828 -0.00012294993 -6.992646e-05 -1.8593839e-05 -0.0011279739 0.0012232848
-0.00095187494
00000000: a52f c538 d12e c439 870d 2039 1fec 00b9
00000010: 7ba5 92b8 f7f9 9bb7 86d8 93ba a056 a03a
00000020: 3f87 79ba

exp_avg_sq f4 [9]
6.498945e-09 7.7420964e-08 1.3123994e-08 9.066387e-09 3.3707916e-09 2.31784e-10 7.469086e-07 8.04418e-07
4.798666e-07
00000000: 534d df31 a042 a633 f077 6132 64c2 1b32
00000010: 98a3 6731 65d9 7e2f 2b7f 4835 2fef 5735
00000020: 2fd0 0035

exp_avg f4 [9, 3]
2.872894e-05 2.0604268e-05 4.7073787e-05 9.582737e-05 -8.3916806e-05 5.6310328e-05 -6.858817e-05 5.1280924e-05
-3.8658123e-05 0.0003398315 6.625038e-05 1.3066575e-05 -3.6021644e-05 -3.5195674e-06 -2.0133753e-06 0.00043340903
-0.00012367446 2.4444751e-05 0.001312296 -0.00061177055 0.0009179441 0.0010259396 -0.0008793886 0.0006451561
0.002186437 -0.00070255296 0.001026923
00000000: eefe f037 54d7 ac37 1871 4538 edf6 c838
00000010: 7efc afb8 c12e 6c38 fed6 8fb8 7916 5738
00000020: d824 22b8 692b b239 e7ef 8a38 8338 5b37
00000030: f215 17b8 b531 6cb6 861d 07b6 2d3b e339
00000040: 9cae 01b9 b40e cd37 5901 ac3a 3a5f 20ba
00000050: 30a2 703a d278 863a c586 66ba b11f 293a
00000060: 534a 0f3b 882b 38ba d199 863a

exp_avg_sq f4 [9, 3]
3.8520379e-10 3.6272643e-10 1.2089465e-09 4.5740274e-09 3.5584886e-09 1.6341525e-09 3.0883038e-09 1.584059e-09
1.0029072e-09 7.222843e-08 2.4348814e-09 1.2007545e-10 4.5962315e-10 2.8937753e-12 1.9800665e-12 1.1555142e-07
1.288368e-08 4.140228e-10 1.0360183e-06 2.3430476e-07 5.318076e-07 5.531249e-07 4.1837038e-07 2.1977797e-07
2.7619235e-06 2.9147208e-07 6.357511e-07
00000000: 9dc4 d32f 3569 c72f 0628 a630 9229 9d31
00000010: 9889 7431 a198 e030 043a 5431 1fb6 d930
00000020: a9d6 8930 001c 9b33 e352 2731 3c06 042f
00000030: 35ae fc2f 9fa1 4b2c b555 0b2c 1125 f833
00000040: 0657 5d32 879c e32f 510d 8b35 3495 7b34
00000050: 8ac1 0e35 747a 1435 639c e034 1cfc 6b34
00000060: 7c59 3936 9e7b 9c34 7ca8 2a35

exp_avg f4 [9, 3]
0.00011160873 -0.00010416176 -5.8133945e-05 0.00011700031 -7.1937706e-05 2.429135e-05 -7.9944795e-05 4.9846607e-05
-1.0210292e-05 1.861e-06 3.7568923e-06 -6.7468085e-05 -6.605804e-07 -2.745142e-06 3.277757e-06 -6.358857e-06
4.9151782e-05 -1.90064e-05 0.0004969525 -0.00039323998 -0.00010938131 0.0006789423 -0.0004199034 0.000108631044
0.0008491762 -0.0006478305 -0.00012724249
00000000: 7b0f ea38 6b71 dab8 d9d4 73b8 105e f538
00000010: 43dd 96b8 47c5 cb37 09a8 a7b8 6312 5138
00000020: df4c 2bb7 79c7 f935 eb1e 7c36 a77d 8db8
00000030: bd52 31b5 2e39 38b6 70f7 5b36 2a5e d5b6
00000040: 5328 4e38 ef6f 9fb7 eb45 023a c72b ceb9
00000050: a563 e5b8 0cfb 313a 7b26 dcb9 d9d0 e338
00000060: 409b 5e3a 2bd3 29ba 656c 05b9

exp_avg_sq f4 [9, 3]
6.5983823e-09 5.425889e-09 1.7032482e-09 6.6523653e-09 2.1972624e-09 4.083209e-10 4.108509e-09 1.443623e-09
8.866265e-11 1.0081093e-11 1.5839398e-11 2.644027e-09 8.07636e-13 2.6859673e-12 2.4801797e-12 4.2269948e-11
1.6973145e-09 2.3830593e-10 1.4270597e-07 8.117501e-08 5.1847717e-09 2.2842447e-07 7.5728565e-08 1.0275469e-08
4.2053097e-07 2.2318771e-07 7.067214e-09
00000000: fcb7 e231 a06e ba31 b817 ea30 d392 e431
00000010: a6fe 1631 0f7a e02f d42a 8d31 f868 c630
00000020: a2f8 c22e 3559 312d 2753 8b2d 37b2 3531
00000030: 4f54 632b 1602 3d2c f286 2e2c bbe7 392e
00000040: f246 e930 9402 832f b83a 1934 6f52 ae33
00000050: bc25 b231 d744 7534 38a0 a233 fe87 3032
00000060: 56c5 e134 5fa5 6f34 dfd3 f231

exp_avg f4 [9]
-0.00029514346 -0.00019899353 0.00015489636 -0.00014780322 1.2287839e-05 2.0275598e-05 -0.004335831 -0.0024134615
-0.004842491
00000000: 7cbd 9ab9 eba8 50b9 ad6b 2239 a0fb 1ab9
00000010: de27 4e37 8415 aa37 9613 8ebb 2a2b 1ebb
00000020: c2ad 9ebb

exp_avg_sq f4 [9]
4.5181213e-08 1.8267842e-08 1.5002508e-08 1.3500401e-08 5.420127e-11 2.0660702e-10 1.0801615e-05 2.6855287e-06
1.3089119e-05
00000000: 450d 4233 69eb 9c32 ddde 8032 64ef 6732
00000010: 3461 6e2e b52a 632f 9538 3537 0839 3436
00000020: 5799 5b37

exp_avg f4 [9]
-0.00029514346 -0.00019899353 0.00015489636 -0.00014780322 1.2287839e-05 2.0275598e-05 -0.0011506125 -0.0012012336
-0.0018586096
00000000: 7cbd 9ab9 eba8 50b9 ad6b 2239 a0fb 1ab9
00000010: de27 4e37 8415 aa37 26d0 96ba b672 9dba
00000020: 979c f3ba

exp_avg_sq f4 [9]
4.5181213e-08 1.8267842e-08 1.5002508e-08 1.3500401e-08 5.420127e-11 2.0660702e-10 7.334488e-07 6.6768854e-07
1.9453396e-06
00000000: 450d 4233 69eb 9c32 ddde 8032 64ef 6732
00000010: 3461 6e2e b52a 632f 38e2 4435 353b 3335
00000020: ae8c 0236

exp_avg f4 [9, 3]
-0.0011257957 0.0008298646 8.019838e-05 -0.00013836802 0.0001091913 2.4325938e-05 0.00046427903 -0.00036267954
-8.1874874e-05 3.868532e-05 -4.0618204e-05 6.28633e-06 8.0531245e-06 -1.0414392e-05 -1.9678612e-06 -9.008985e-06
1.709887e-05 9.218781e-06 -0.005848119 0.0046285805 0.0011043339 0.001544283 -0.0012479713 -0.00032055925
-0.009519603 0.006892364 0.00034660567
00000000: 6f8f 93ba 458b 593a 2d30 a838 e216 11b9
00000010: a2fd e438 8e0f cc37 7a6a f339 0626 beb9
00000020: 3db4 abb8 0c42 2238 775d 2ab8 2aef d236
00000030: e81b 0737 79b9 2eb7 990f 04b6 4c25 17b7
00000040: 8b6f 8f37 5daa 1a37 94a1 bfbb 59ab 973b
00000050: 4cbf 903a 8a69 ca3a f892 a3ba bc10 a8b9
00000060: 1cf8 1bbc 57d9 e13b a0b8 b539

exp_avg_sq f4 [9, 3]
7.4054105e-07 3.6284683e-07 2.4214653e-09 2.3472788e-08 1.2121009e-08 2.485701e-10 1.0810278e-07 5.972044e-08
2.3805264e-09 8.503127e-10 8.6803625e-10 3.5913626e-11 6.353892e-11 9.639525e-11 2.3846858e-12 4.122444e-11
1.4853807e-10 3.443534e-11 1.9052119e-05 1.0792976e-05 5.001672e-07 2.8089028e-06 1.5150895e-06 4.4949513e-08
5.074169e-05 2.3756946e-05 8.6495994e-08
00000000: 98c9 4635 4acd c234 de66 2631 35a1 c932
00000010: c33c 5032 22a7 882f 2226 e833 a93f 8033
00000020: aa96 2331 70bb 6930 9f9a 6e30 26f3 1d2e
00000030: 3bb9 8b2e b4f9 d32e aece 272c 984e 352e
00000040: c051 232f bf72 172e 1dd2 9f37 7b13 3537
00000050: 3a43 0635 9580 3c36 145a cb35 830e 4133
00000060: 7ad3 5438 a749 c737 adbf b933

exp_avg f4 [9, 3]
0.0014216797 -0.000887425 -0.00094958424 0.00017742938 -0.000111768255 -0.0001246606 -0.0005897296 0.000371167
0.00041562124 -9.520326e-06 4.9843165e-06 1.1314292e-05 -4.521624e-06 2.4788073e-06 5.311026e-06 -2.8281365e-06
2.8479756e-06 -2.2139795e-06 0.002096261 -0.0013116216 -0.0014227966 -0.00048642626 0.0003090878 0.00036082574
0.0063204337 -0.0039145434 -0.0040352955
00000000: a857 ba3a 15a2 68ba 85ed 78ba 560c 3a39
00000010: 2065 eab8 53b7 02b9 1598 1aba 3199 c239
00000020: bde7 d939 7db9 1fb7 f43e a736 84d2 3d37
00000030: 74b8 97b6 9659 2636 5e35 b236 04cb 3db6
00000040: d91f 3f36 e193 14b6 6c61 093b b8ea abba
00000050: 227d baba 0707 ffb9 100d a239 362d bd39
00000060: a41b cf3b 9245 80bb 833a 84bb

exp_avg_sq f4 [9, 3]
1.1815737e-06 4.6417384e-07 4.7393783e-07 3.8005403e-08 1.5092924e-08 1.5637134e-08 1.7361795e-07 6.919711e-08
7.781087e-08 4.8925978e-11 1.3253392e-11 6.40742e-11 1.9740586e-11 5.9524586e-12 2.3980538e-11 6.4649852e-12
5.724872e-12 1.4211224e-12 2.5718966e-06 1.0145723e-06 1.061596e-06 2.7569715e-07 1.110867e-07 1.252154e-07
2.2173617e-05 8.562195e-06 8.074468e-06
00000000: 9096 9e35 9133 f934 8571 fe34 623b 2333
00000010: b1a5 8132 6c52 8632 bd6b 3a34 8399 9433
00000020: fa18 a733 c12d 572e f927 692d 91e6 8c2e
00000030: d9a3 ad2d fb6e d12c 5fef d22d 6977 e32c
00000040: 106d c92c 5501 c82b d998 2c36 702c 8835
00000050: 297c 8e35 8703 9434 8f8e ee33 f272 0634
00000060: 7b01 ba37 59a6 0f37 9377 0737

exp_avg f4 [9]
0.0022772048 0.00029611442 -0.0010102927 -6.823258e-05 -1.762944e-05 6.552596e-05 0.012704767 -0.0033944433
0.018891785
00000000: 283d 153b ce3f 9b39 cc6b 84ba 1618 8fb8
00000010: efe2 93b7 fb6a 8938 a827 503c 4f75 5ebb
00000020: f2c2 9a3c

exp_avg_sq f4 [9]
2.919382e-06 9.685942e-08 4.9019866e-07 2.539002e-09 2.9534764e-10 2.053472e-09 8.6280525e-05 1.2146706e-05
0.00019037518
00000000: 9aea 4336 0701 d033 3296 0335 987a 2e31
00000010: 7c5e a22f 101d 0d31 81f1 b438 b4c9 4b37
00000020: 739f 4739

exp_avg f4 [9]
0.0022772048 0.00029611442 -0.0010102927 -6.823258e-05 -1.762944e-05 6.552596e-05 0.0034435606 -0.00087597995
0.009798987
00000000: 283d 153b ce3f 9b39 cc6b 84ba 1618 8fb8
00000010: efe2 93b7 fb6a 8938 5cad 613b 05a2 65ba
00000020: ee8b 203c

exp_avg_sq f4 [9]
2.919382e-06 9.685942e-08 4.9019866e-07 2.539002e-09 2.9534764e-10 2.053472e-09 6.6568737e-06 8.058694e-07
5.1150193e-05
00000000: 9aea 4336 0701 d033 3296 0335 987a 2e31
00000010: 7c5e a22f 101d 0d31 1c5e df36 ec52 5835
00000020: 1a8a 5638

exp_avg f4 [9, 3]
0.0012706316 -0.0007911696 -0.0008318899 0.0047822543 -0.002981992 -0.0031446563 0.0005265352 -0.00033501355
-0.0003632459 -4.0994837e-05 1.8823375e-05 5.676919e-05 -6.341834e-05 4.1251627e-05 7.494796e-05 2.2376385e-05
-7.1337895e-06 -5.3119653e-05 -0.015696585 0.00973792 0.010214842 0.06101505 -0.037938923 -0.040066436
-0.044194013 0.027462509 0.028826026
00000000: 528b a63a 7e66 4fba 3013 5aba 75b4 9c3b
00000010: 866d 43bb 9416 4ebb 2e07 0a3a c2a4 afb9
00000020: 0a72 beb9 dff1 2bb8 e4e6 9d37 741b 6e38
00000030: 76ff 84b8 9905 2d38 612d 9d38 ecb4 bb37
00000040: c95e efb6 cbcc 5eb8 2096 80bc cc8b 1f3c
00000050: 275c 273c ebea 793d d865 1bbd b41c 24bd
00000060: c804 35bd 0ef9 e03c 8f24 ec3c

exp_avg_sq f4 [9, 3]
1.0983335e-06 4.2873123e-07 4.1480934e-07 1.4350648e-05 5.6162626e-06 5.5022438e-06 1.8265115e-07 7.4123136e-08
7.626064e-08 1.0743271e-09 2.352763e-10 1.8489333e-09 3.3286875e-09 1.3469603e-09 3.8842294e-09 2.4104677e-10
2.4982785e-11 1.3629635e-09 0.00016314894 6.324504e-05 6.1027826e-05 0.002273223 0.0008847628 0.0008703104
0.0011225359 0.0004363562 0.0004256963
00000000: 746a 9335 5f2c e634 f6b2 de34 90c3 7037
00000010: 5473 bc36 ea9f b836 c41e 4434 a02d 9f33
00000020: bbc4 a333 86a7 9330 3258 812f 8f1d fe30
00000030: e4be 6431 f41f b930 0b76 8531 5184 842f
00000040: 3bc0 db2d 0453 bb30 f612 2b39 6ca2 8438
00000050: 21f8 7f38 5afa 143b 6def 673a 8b25 643a
00000060: 0e22 933a bdc6 e439 fd2f df39

exp_avg f4 [9, 3]
-0.0012047646 0.0002869952 0.0006360746 -0.0045612864 0.0010834954 0.00240778 -0.0005424263 0.0001284921
0.00029006394 2.30094e-05 6.4514506e-07 -1.9626908e-05 9.4012685e-05 -9.579164e-06 -5.7091245e-05 3.870853e-06
-5.2849646e-06 1.7605385e-06 0.010351575 -0.0024641322 -0.005453289 -0.03907011 0.0092641115 0.020635482
0.011363735 -0.0026943828 -0.006001465
00000000: 31e9 9dba d877 9639 3ebe 263a d876 95bb
00000010: 1304 8e3a d8cb 1d3b 9d31 0eba d6bb 0639
00000020: b913 9839 4f04 c137 082e 2d35 77a4 a4b7
00000030: ad28 c538 32b6 20b7 4275 6fb8 60e2 8136
00000040: 8055 b1b6 a44b ec35 a799 293c 477d 21bb
00000050: 81b1 b2bb fb07 20bd 80c8 173c be0b a93c
00000060: f62e 3a3c 3e94 30bb f0a7 c4bb

exp_avg_sq f4 [9, 3]
9.477986e-07 6.9998265e-08 2.4399293e-07 1.2557437e-05 9.1386585e-07 3.242261e-06 1.8358483e-07 1.3281308e-08
4.8613146e-08 3.1387568e-10 9.770234e-14 2.1583836e-10 6.0113314e-09 9.815504e-11 2.0963644e-09 1.6804811e-11
1.7737527e-11 6.0391286e-13 6.8559995e-05 5.049067e-06 1.7582035e-05 0.00089834025 6.503442e-05 0.00023236143
7.272811e-05 5.242059e-06 1.883617e-05
00000000: 396c 7e35 f451 9633 22fe 8234 c8ad 5237
00000010: 6250 7535 9f95 5936 6a1f 4534 cf2b 6432
00000020: b8ca 5033 138e ac2f 9001 dc29 1951 6d2f
00000030: 3b8c ce31 60d8 d72e a20f 1031 12d1 932d
00000040: 5c05 9c2d 82fc 292b dec7 8f38 286b a936
00000050: 227d 9337 987e 6b3a 1763 8838 0ca6 7339
00000060: 9b85 9838 f2e4 af36 5e02 9e37

exp_avg f4 [9]
0.0019974909 0.0075208494 0.00084827404 -0.00015987841 -0.00016449128 0.00018128105 -0.02463611 0.09620903
-0.0692433
00000000: 56e8 023b 7571 f63b b55e 5e3a 09a5 27b9
00000010: 4b7b 2cb9 4316 3e39 abd1 c9bc 3d09 c53d
00000020: 6ecf 8dbd

exp_avg_sq f4 [9]
2.5854563e-06 3.3911583e-05 4.500453e-07 1.4975381e-08 1.9904904e-08 1.6212207e-08 0.00038322806 0.005401223
0.0026391775
00000000: cd81 2d36 493c 0e38 c19d f134 36a3 8032
00000010: 59fb aa32 0543 8b32 00ec c839 befc b03b
00000020: 0df6 2c3b

exp_avg f4 [9]
0.0019974909 0.0075208494 0.00084827404 -0.00015987841 -0.00016449128 0.00018128105 -0.017359076 0.06519219
-0.019004919
00000000: 56e8 023b 7571 f63b b55e 5e3a 09a5 27b9
00000010: 4b7b 2cb9 4316 3e39 9f34 8ebc 7c83 853d
00000020: 34b0 9bbc

exp_avg_sq f4 [9]
2.5854563e-06 3.3911583e-05 4.500453e-07 1.4975381e-08 1.9904904e-08 1.6212207e-08 0.00019113436 0.0024833032
0.00020190902
00000000: cd81 2d36 493c 0e38 c19d f134 36a3 8032
00000010: 59fb aa32 0543 8b32 3d6b 4839 eabe 223b
00000020: 8ab7 5339

exp_avg f4 [9, 3]
-0.0004178 0.00010723242 0.00021366568 0.010522704 -0.0025171044 -0.0055339164 -0.0009813346 0.00023236402
0.0005165455 -0.00014719303 -4.291304e-06 0.000119405995 -0.0007797473 5.4058255e-05 0.00053099304 0.0001302524
-1.0425226e-05 -8.9251225e-05 0.03616101 -0.008585714 -0.019078862 0.10468853 -0.024951838 -0.05515006
-0.02781388 0.006615972 0.014635179
00000000: 2b0c dbb9 f8e1 e038 720b 6039 6b67 2c3c
00000010: 01f6 24bb db55 b5bb 20a0 80ba bea6 7339
00000020: c868 073a d457 1ab9 05fe 8fb6 9b69 fa38
00000030: f567 4cba 9cbc 6238 5732 0b3a 5d94 0839
00000040: 01e8 2eb7 632c bbb8 911d 143d 18ab 0cbc
00000050: 464b 9cbc f166 d63d cc67 ccbc 08e5 61bd
00000060: efd9 e3bc ccca d83b 64c8 6f3c

exp_avg_sq f4 [9, 3]
8.0293866e-08 6.5779298e-09 1.9613703e-08 6.2197294e-05 4.5555676e-06 1.5973292e-05 8.880549e-07 6.729508e-08
2.2456932e-07 9.567198e-09 9.013788e-12 6.2519234e-09 3.0984094e-07 2.3448001e-09 1.3629757e-07 1.3219597e-08
1.5017378e-10 5.7472667e-09 0.0007057721 5.0749353e-05 0.00018273834 0.006384419 0.00046628225 0.0016431697
0.0005562767 4.1376275e-05 0.00014183937
00000000: 056e ac33 1504 e231 fd7a a832 eb6f 8238
00000010: 07dc 9836 62fe 8537 ab62 6e35 dd83 9033
00000020: 2521 7134 fb5c 2432 7e92 1e2d 80d0 d631
00000030: 3758 a634 2922 2131 3159 1234 671c 6332
00000040: 291e 252f 7e79 c531 9003 393a b4db 5438
00000050: 739d 3f39 6334 d13b 5877 f439 a05f d73a
00000060: 19d3 113a 708b 2d38 b7ba 1439

exp_avg f4 [9, 3]
0.0001518931 0.00032500655 0.0002796587 -0.003653768 -0.00775295 -0.00674466 0.00033781823 0.0007172937
0.000626213 1.9933721e-05 1.8364337e-05 2.6082982e-05 0.0001985232 0.00029781734 0.0002897636 -3.1961994e-05
-5.0668314e-05 -4.8374113e-05 -0.008567632 -0.0181271 -0.015774844 -0.014084277 -0.029874079 -0.02599659
0.00369961 0.007845768 0.006832397
00000000: 7e45 1f39 a465 aa39 289f 9239 0e74 6fbb
00000010: 750c febb 4f02 ddbb 321d b139 c408 3c3a
00000020: 7128 243a 5737 a737 1d0d 9a37 c7cc da37
00000030: aa2a 5039 5e24 9c39 69eb 9739 ee0e 06b8
00000040: b084 54b8 4fe5 4ab8 415f 0cbc 497f 94bc
00000050: 3f3a 81bc bdc1 66bc 7cba f4bc cdf6 d4bc
00000060: 2875 723b 898b 003c 4de2 df3b

exp_avg_sq f4 [9, 3]
9.303395e-09 4.4819306e-08 3.8156514e-08 6.4410046e-06 3.0681862e-05 2.7123633e-05 8.7532214e-08 4.2328023e-07
3.8928422e-07 1.3469778e-10 8.135654e-11 2.1008875e-10 1.7987977e-08 4.057354e-08 4.2839012e-08 7.1296263e-10
1.8373911e-09 1.910729e-09 3.403822e-05 0.00016092516 0.0001418427 9.737182e-05 0.0004636701 0.00041067242
8.312707e-06 3.9815983e-05 3.5883673e-05
00000000: c4d4 1f32 597f 4033 88e1 2333 cf1f d836
00000010: 66b0 0038 8f87 e337 58f9 bb33 313f e334
00000020: d1fe d034 0e1a 142f a9e7 b22e bafe 662f
00000030: fb83 9a32 1443 2e33 fefd 3733 49fa 4330
00000040: 7487 fc30 e64d 0331 43c4 0e38 05be 2839
00000050: 9cbb 1439 1934 cc38 bf18 f339 854f d739
00000060: ce76 0b37 1600 2738 cd81 1638

exp_avg f4 [9]
0.0006530781 -0.017306136 0.0016280457 0.00039559547 0.0016436677 -0.00028166707 -0.05960615 -0.17246991
0.04587595
00000000: 5433 2b3a 99c5 8dbc 2664 d53a ed67 cf39
00000010: 5670 d73a b7ac 93b9 9425 74bd f49b 30be
00000020: 6ce8 3b3d

exp_avg_sq f4 [9]
1.9403377e-07 0.00016714951 2.4191386e-06 7.190954e-08 1.3729262e-06 6.0478236e-08 0.001905331 0.017212
0.001502528
00000000: 9957 5034 db44 2f39 7c58 2236 b06c 9a33
00000010: 6345 b835 43e0 8133 4dbc f93a 2e00 8d3c
00000020: 79f0 c43a

exp_avg f4 [9]
0.0006530781 -0.017306136 0.0016280457 0.00039559547 0.0016436677 -0.00028166707 -0.040755443 -0.06689151
0.017565936
00000000: 5433 2b3a 99c5 8dbc 2664 d53a ed67 cf39
00000010: 5670 d73a b7ac 93b9 2eef 26bd 6afe 88bd
00000020: 70e6 8f3c

exp_avg_sq f4 [9]
1.9403377e-07 0.00016714951 2.4191386e-06 7.190954e-08 1.3729262e-06 6.0478236e-08 0.0008876521 0.0025435379
0.00022051207
00000000: 9957 5034 db44 2f39 7c58 2236 b06c 9a33
00000010: 6345 b835 43e0 8133 53b1 683a 7cb1 263b
00000020: 4239 6739

exp_avg f4 [9, 3]
-0.0012684249 -0.0027483213 -0.0023888573 4.3866574e-05 6.499151e-05 5.9946953e-05 0.0021852904 0.0046554855
0.004056672 0.0003797113 0.0006420632 0.0005687345 -1.8970832e-05 -2.124108e-05 -2.8863738e-05 -3.568571e-05
-6.182226e-05 -5.413858e-05 0.10851502 0.23017654 0.20038337 0.035410874 0.0751939 0.065440536
-0.030882303 -0.06578037 -0.05731051
00000000: 4741 a6ba 2e1d 34bb 608e 1cbb 60fd 3738
00000010: 0d4c 8838 8d6f 7b38 1737 0f3b 0b8d 983b
00000020: d5ed 843b fd13 c739 2250 283a 2017 153a
00000030: 8d23 9fb7 df2e b2b7 6820 f2b7 3dad 15b8
00000040: 93a6 81b8 dc12 63b8 1f3d de3d 66b3 6b3e
00000050: 4c31 4d3e fe0a 113d 42ff 993d b005 863d
00000060: e2fc fcbc dcb7 86bd 6dbe 6abd

exp_avg_sq f4 [9, 3]
4.588848e-07 2.2606923e-06 1.900286e-06 2.0840973e-08 9.2555034e-08 9.145165e-08 2.532488e-06 1.2193056e-05
1.0901754e-05 6.005755e-08 1.755451e-07 1.5484436e-07 2.5565172e-10 3.575586e-10 6.3823036e-10 7.757823e-10
2.3571958e-09 2.1179716e-09 0.005895661 0.028103808 0.024954787 0.0006118846 0.0029196823 0.0025860767
0.00052745116 0.002543117 0.0022804642
00000000: a65c f634 66b6 1736 540d ff35 c905 b332
00000010: abc2 c633 1464 c433 d0f3 2936 c790 4c37
00000020: ade6 3637 fdf8 8033 787d 3c34 4b43 2634
00000030: c88b 8c2f e691 c42f 786f 2f30 d43e 5530
00000040: 3afc 2131 c08b 1131 6430 c13b f539 e63c
00000050: fb6d cc3c e166 203a 2458 3f3b 2b7b 293b
00000060: a644 0a3a 6caa 263b d773 153b

exp_avg f4 [9, 3]
0.0017448497 -0.0014113047 0.0007438313 -1.15039875e-05 4.9815924e-05 -3.1835943e-06 -0.0028721483 0.0024507416
-0.0012199722 -0.00024032204 0.00040500142 -9.132463e-05 -7.2886123e-06 1.8643915e-08 -3.2054284e-06 2.5026298e-05
-3.9480383e-05 9.630965e-06 -0.10268645 0.088222936 -0.043544743 -0.02639951 0.022622861 -0.011196479
0.025125358 -0.021467019 0.010672287
00000000: 71b3 e43a 87fb b8ba acfd 423a 4001 41b7
00000010: 71f1 5038 bca5 55b6 a73a 3cbb 9f9c 203b
00000020: 79e7 9fba f5fe 7bb9 5f56 d439 8a85 bfb8
00000030: b490 f4b6 6726 a032 d71c 57b6 91ef d137
00000040: bd97 25b8 ae94 2137 464d d2bd 3aae b43d
00000050: f95b 32bd c943 d8bc 9453 b93c 7071 37bc
00000060: b2d3 cd3c 9adb afbc d1da 2e3c

exp_avg_sq f4 [9, 3]
8.523366e-07 6.951492e-07 1.9470109e-07 2.3591351e-08 4.064706e-08 7.591007e-09 4.0913214e-06 4.320607e-06
1.0516893e-06 2.1669337e-08 8.006506e-08 4.6533226e-09 1.7568572e-11 4.151252e-12 4.5715363e-12 3.1554578e-10
1.134849e-09 7.346073e-11 0.004853862 0.0051076654 0.0012276996 0.00032157893 0.00033737483 8.1405386e-05
0.0003310636 0.00035373186 8.595554e-05
00000000: 20cc 6435 4a9a 3a35 070f 5134 eea5 ca32
00000010: ea93 2e33 9a69 0232 2f48 8936 bbf9 9036
00000020: c527 8d35 6023 ba32 3bf0 ab33 0fe3 9f31
00000030: e888 9a2d 270f 922c bdd8 a02c 1f79 ad2f
00000040: f3f8 9b30 b78a a12e 250d 9f3b 345e a73b
00000050: c3ea a03a 9899 a839 afe1 b039 2fb8 aa38
00000060: 9b92 ad39 1675 b939 0743 b438

exp_avg f4 [9]
-0.0060158456 0.00020575321 0.010338792 0.0017636783 -0.00016886774 -0.00016108713 0.51178175 0.1669723
-0.1459675
00000000: 9220 c5bb 75bf 5739 0964 293c 392b e73a
00000010: 1712 31b9 7fe9 28b9 2104 033f c9fa 2a3e
00000020: 8178 15be

exp_avg_sq f4 [9]
1.14624645e-05 5.826944e-07 6.613771e-05 1.4214007e-06 1.9122194e-08 1.8293397e-08 0.15217017 0.015759194
0.0137913795
00000000: e94e 4037 746a 1c35 6ab3 8a38 f5c6 be35
00000010: 2642 a432 9b23 9d32 7fd2 1b3e 6d19 813c
00000020: 3df5 613c

exp_avg f4 [9]
-0.0060158456 0.00020575321 0.010338792 0.0017636783 -0.00016886774 -0.00016108713 0.3711071 0.09526702
-0.090316236
00000000: 9220 c5bb 75bf 5739 0964 293c 392b e73a
00000010: 1712 31b9 7fe9 28b9 c001 be3e 5b1b c33d
00000020: b8f7 b8bd

exp_avg_sq f4 [9]
1.14624645e-05 5.826944e-07 6.613771e-05 1.4214007e-06 1.9122194e-08 1.8293397e-08 0.07818586 0.0051729153
0.005363364
00000000: e94e 4037 746a 1c35 6ab3 8a38 f5c6 be35
00000010: 2642 a432 9b23 9d32 e81f a03d 8f81 a93b
00000020: 28bf af3b

exp_avg f4 [9, 3]
0.006381048 -0.0055636177 0.0027042835 0.008420447 -0.0072526587 0.003571932 -0.0029466043 0.0025266875
-0.001249946 8.201922e-05 -0.0002339232 2.7673106e-05 0.00016934275 -0.00049056136 5.6891804e-05 5.907974e-05
-0.0001367871 2.116296e-05 -0.13806555 0.11835267 -0.058607012 0.12140753 -0.103827186 0.05153659
-0.019985279 0.017229982 -0.0084732985
00000000: 1c18 d13b 024f b6bb 593a 313b eaf5 093c
00000010: b6a7 edbb 1317 6a3b d11b 41bb c896 253b
00000020: 3ad5 a3ba bc01 ac38 4849 75b9 8b23 e837
00000030: 9991 3139 0499 00ba 1c9f 6e38 63cc 7738
00000040: 826e 0fb9 1c87 b137 0e61 0dbe e262 f23d
00000050: e80d 70bd 83a4 f83d 59a3 d4bd 0818 533d
00000060: 2bb8 a3bc e425 8d3c 97d3 0abc

exp_avg_sq f4 [9, 3]
1.6356751e-05 1.733998e-05 4.0263917e-06 3.0750838e-05 3.2237065e-05 7.698075e-06 5.1544803e-06 5.6422996e-06
1.3623587e-06 4.432356e-09 4.3528434e-08 9.830458e-10 1.8797428e-08 1.8487448e-07 4.178413e-09 2.03936e-09
1.44613415e-08 4.6186244e-10 0.0089594275 0.009439878 0.0022797142 0.006943527 0.0072855186 0.0017670956
0.00021741423 0.00023716883 5.659233e-05
00000000: db35 8937 5375 9137 711a 8736 76fa 0038
00000010: 4936 0738 fb26 0137 a6f4 ac36 fc52 bd36
00000020: 4ada b635 6a4b 9831 05f4 3a33 d91b 8730
00000030: fb77 a132 e981 4634 b691 8f31 cd24 0c31
00000040: a771 7832 5ce9 fd2f 90ca 123c b8a9 1a3c
00000050: 4267 153b 8786 e33b 5cbb ee3b e49d e73a
00000060: b0f9 6339 86b0 7839 8d5d 6d38

exp_avg f4 [9, 3]
-0.005741936 0.0059417924 -0.011162148 -0.00757413 0.007837678 -0.014727639 0.0026530065 -0.0027455853
0.0051564807 -7.531583e-05 7.826273e-05 -0.00014329904 -0.00015858862 0.00016466672 -0.00029861578 -5.464741e-05
5.692731e-05 -0.00010087693 0.07537445 -0.077993274 0.1465955 -0.067064986 0.06939622 -0.13043109
0.008593534 -0.008893442 0.016704729
00000000: da26 bcbb 5eb3 c23b 71e1 36bc 6830 f8bb
00000010: 9b69 003c 324c 71bc 10de 2d3b 47ef 33bb
00000020: b2f7 a83b e1f2 9db8 fc20 a438 8b42 16b9
00000030: cf4a 26b9 63aa 2c39 888f 9cb9 3635 65b8
00000040: 3cc5 6e38 e48d d3b8 eb5d 9a3d f0ba 9fbd
00000050: 211d 163e 5e59 89bd 9b1f 8e3d ba8f 05be
00000060: e5cb 0c3c cdb5 11bc 5bd8 883c

exp_avg_sq f4 [9, 3]
2.0194064e-05 2.0708037e-05 6.334473e-05 3.872947e-05 3.964794e-05 0.00012050097 6.9675334e-06 7.092848e-06
2.1079088e-05 5.906701e-09 5.9573444e-09 1.8363155e-08 2.6184798e-08 2.6380032e-08 7.985329e-08 2.7065155e-09
2.7566767e-09 7.937264e-09 0.0040447707 0.004136836 0.012532924 0.0034152148 0.0034895104 0.010530077
6.657853e-05 6.786411e-05 0.00020277701
00000000: 6c66 a937 2cb6 ad37 f1d7 8438 7471 2238
00000010: a74b 2638 77b5 fc38 a8ca e936 1aff ed36
00000020: ffd2 b037 e4f3 ca31 5bb1 cc31 01bd 9d32
00000030: fbec e032 4e9a e232 cf7b ab33 86fd 3931
00000040: f86f 3d31 755c 0832 ff89 843b 4c8e 873b
00000050: e556 4d3c ccd1 5f3b 45b0 643b 5886 2c3c
00000060: 13a0 8b38 4452 8e38 8aa0 5439

exp_avg f4 [9]
-0.023180548 -0.030281667 0.010552189 -0.0008594065 -0.0017970935 -0.0005145815 0.49452752 -0.43405613
0.071911186
00000000: 22e5 bdbc 4211 f8bc 17e3 2c3c cb49 61ba
00000010: 748c ebba fbe4 06ba b632 fd3e 9b3c debe
00000020: 2c46 933d

exp_avg_sq f4 [9]
0.0002633118 0.00048824007 8.3743216e-05 5.4988436e-07 2.3220575e-06 1.8957918e-07 0.14229424 0.10988611
0.003536565
00000000: 1d0d 8a39 79fa ff39 4c9f af38 c49b 1335
00000010: a5d4 1b36 218f 4b34 95b5 113e f80b e13d
00000020: b7c5 673b

exp_avg f4 [9]
-0.023180548 -0.030281667 0.010552189 -0.0008594065 -0.0017970935 -0.0005145815 0.2999262 -0.26623178
0.03436677
00000000: 22e5 bdbc 4211 f8bc 17e3 2c3c cb49 61ba
00000010: 748c ebba fbe4 06ba ed8f 993e 884f 88be
00000020: 2cc4 0c3d

exp_avg_sq f4 [9]
0.0002633118 0.00048824007 8.3743216e-05 5.4988436e-07 2.3220575e-06 1.8957918e-07 0.050173026 0.04187391
0.0008164226
00000000: 1d0d 8a39 79fa ff39 4c9f af38 c49b 1335
00000010: a5d4 1b36 218f 4b34 3b82 4d3d fa83 2b3d
00000020: 3105 563a

exp_avg f4 [5, 3]
-0.20366402 0.21071951 -0.3960559 0.038302913 -0.03962312 0.07453124 0.06713312 -0.069470316
0.13048494 0.03751992 -0.038806874 0.07303114 0.060708076 -0.06281915 0.11800858
00000000: 4d8d 50be dbc6 573e d7c7 cabe 84e3 1c3d
00000010: da4b 22bd d6a3 983d 177d 893d 7446 8ebd
00000020: d89d 053e 7dae 193d f5f3 1ebd 5a91 953d
00000030: 08a9 783d 54a7 80bd 7bae f13d

exp_avg_sq f4 [5, 3]
0.030909415 0.031584635 0.09539778 0.0010852949 0.0011087892 0.003353649 0.0035142847 0.0035894837
0.010804214 0.0010013018 0.0010234684 0.003104179 0.002700265 0.0027604955 0.008342027
00000000: be35 fd3c e45e 013d e95f c33d 7440 8e3a
00000010: cb54 913a e5c8 5b3b ea4f 663b 8b3d 6b3b
00000020: 2804 313c 1d3e 833a e725 863a 7b6f 4b3b
00000030: eef6 303b 6ee9 343b ffac 083c

exp_avg f4 [5]
-0.80318385 0.1508675 0.26483786 0.147642 0.2398365
00000000: 759d 4dbf 037d 1a3e d498 873e 772f 173e
00000010: b397 753e

exp_avg_sq f4 [5]
0.37464413 0.013110444 0.042449046 0.012136454 0.032928713
00000000: 5bd1 bf3e 30cd 563c 0ddf 2d3d fad7 463c
00000010: 42e0 063d
