aa2_models/model3.pt (torch_old, 18909 bytes, 72 tensors)

lin1.weight f4 [4, 7]
-0.1278109 -0.25527486 -1.1951717 -1.5441378 -1.3797112 -0.33638746 -1.0379368 -0.009657204
0.0031782687 -0.641996 -0.331801 0.082984045 0.05375293 -0.19174707 -0.064915195 0.3255901
0.34980044 1.8876264 -0.3342908 0.26516196 -0.16615826 -0.23715635 -0.26363662 0.03401327
-0.32313722 0.29105976 -0.34883678 0.122980386
00000000: dce0 02be 63b3 82be 63fb 98bf 4fa6 c5bf
00000010: 609a b0bf fa3a acbe 1ddb 84bf 4039 1ebc
00000020: 804a 503b da59 24bf d2e1 a9be 8af3 a93d
00000030: 082c 5c3d 5859 44be 42f2 84bd bfb3 a63e
00000040: 0b19 b33e be9d f13f 2a28 abbe 4fc3 873e
00000050: 6425 2abe 1dd9 72be 61fb 86be 8051 0b3d
00000060: 3e72 a5be c905 953e bc9a b2be 24dd fb3d

lin1.bias f4 [4]
-0.32015508 0.27440217 -1.2605903 1.1110349
00000000: 5eeb a3be 717e 8c3e 065b a1bf 6436 8e3f

GRU.weight_ih_l0 f4 [12, 4]
-1.1738871 -0.3591024 -0.052637413 1.073368 -0.7409638 1.1918465 1.7133048 -2.2887034
-0.22186753 0.30459794 1.3289901 -1.5494887 -0.999992 -1.102915 0.018328452 0.39458844
0.94155866 -0.44175658 0.84541667 -0.5112936 0.6504603 1.6817954 1.279633 -0.7688574
1.546057 1.8306898 0.33921883 -1.766835 0.2847538 0.9490391 -0.5562161 -0.43169525
0.1008842 0.4819395 -1.443691 -0.14472516 1.0443137 0.20039028 -1.9152063 1.0234853
1.1113272 0.8137861 -1.0847721 -0.014017214 1.6535733 0.6635415 0.0054690246 -1.4666085
00000000: ef41 96bf 45dc b7be 549a 57bd 1f64 893f
00000010: ceaf 3dbf 6d8e 983f 924d db3f 1e7a 12c0
00000020: 3e31 63be 43f4 9b3e 591c aa3f a555 c6bf
00000030: 7aff 7fbf 522c 8dbf 8d25 963c 7f07 ca3e
00000040: fd09 713f eb2d e2be 3a6d 583f 23e4 02bf
00000050: 9184 263f 1245 d73f 04cb a33f d7d3 44bf
00000060: 32e5 c53f 0b54 ea3f 17ae ad3e a627 e2bf
00000070: 40cb 913e 3af4 723f 2e64 0ebf 2907 ddbe
00000080: 609c ce3d c6c0 f63e deca b8bf d532 14be
00000090: 12ac 853f 1c33 4d3e 7b25 f5bf 9101 833f
000000a0: f83f 8e3f 4954 503f d0d9 8abf 75a8 65bc
000000b0: 4aa8 d33f dbdd 293f 8135 b33b d4b9 bbbf

GRU.weight_hh_l0 f4 [12, 4]
-1.0241028 -0.11091096 0.28151155 -0.79747844 -1.171439 -0.010955259 -0.55099094 -0.5073689
-0.22215056 -0.24218236 0.548143 0.03832087 0.07769564 2.8463569 1.9079236 -1.291548
0.662789 0.71845615 1.1295537 1.1026859 2.2802823 2.0856614 0.529522 0.038131956
0.32615066 -0.912404 1.7312654 0.22556505 0.7843589 0.24460731 -1.1460617 0.2563169
-0.08630076 -0.12491795 -0.28425768 -0.6405868 1.0056351 -0.1039259 -0.57945836 0.11367698
0.46724355 0.050477944 -0.14736238 -0.51019305 -0.79760695 -1.1088077 -0.31031394 0.36677536
00000000: cd15 83bf 4925 e3bd 4822 903e 8c27 4cbf
00000010: b7f1 95bf b07d 33bc be0d 0dbf eee2 01bf
00000020: 707b 63be a7fe 77be 1a53 0c3f 58f6 1c3d
00000030: e41e 9f3d b62a 3640 d736 f43f 7251 a5bf
00000040: 8aac 293f beec 373f 3795 903f d024 8d3f
00000050: 25f0 1140 7a7b 0540 c18e 073f 4130 1c3d
00000060: 38fd a63e 4f93 69bf 1b9a dd3f 86fa 663e
00000070: bfcb 483f 577a 7a3e 26b2 92bf f83b 833e
00000080: 74be b0bd fbd4 ffbd 398a 91be 7ffd 23bf
00000090: a7b8 803f 1ad7 d4bd 6257 14bf 7acf e83d
000000a0: 8c3a ef3e f6c1 4e3d 2ae6 16be 039c 02bf
000000b0: f82f 4cbf 69ed 8dbf 78e1 9ebe fbc9 bb3e

GRU.bias_ih_l0 f4 [12]
-1.0742328 -1.7938508 -1.4188645 -0.5674921 -0.8928717 -1.7573706 -0.76211065 -1.1150436
0.40083915 0.7652794 0.97434556 -0.17956543
00000000: 7680 89bf e79c e5bf 5a9d b5bf 2a47 11bf
00000010: 3d93 64bf 85f1 e0bf af19 43bf c0b9 8ebf
00000020: ca3a cd3e 5ae9 433f b66e 793f 00e0 37be

GRU.bias_hh_l0 f4 [12]
-0.90182835 -1.6668464 -1.5390865 -0.029712794 -0.32716238 -1.6565202 -0.5076394 -1.0348004
0.1678203 0.4865366 0.83494097 -0.4817839
00000000: 39de 66bf 395b d5bf c900 c5bf 3f68 f3bc
00000010: d481 a7be db08 d4bf a8f4 01bf 5774 84bf
00000020: 16d9 2b3e 531b f93e b1be 553f 61ac f6be

GRU.weight_ih_l1 f4 [12, 4]
-0.4703268 1.0394117 1.9081877 -1.4045613 -0.58263254 1.1349227 -0.33468 -0.36462113
-0.22782812 0.73742986 -0.8861297 0.24128705 1.1043435 -0.48895583 -0.5586179 1.4062299
-1.3553289 -2.7211053 -0.5417031 0.24396874 -1.0675645 -2.4294415 1.3414607 1.9093373
-0.3611399 -1.212002 0.27597758 1.2934285 -1.3172964 -0.62247634 -0.84244 -0.1858172
-0.6041523 -0.5122715 -0.84054846 0.9384468 -0.3773404 -0.27450278 -1.3961653 0.10277252
0.60314846 1.060272 0.9841391 -0.74298686 -0.43881923 0.45207575 0.8762479 -0.532001
00000000: adce f0be 710b 853f 7f3f f43f aac8 b3bf
00000010: 6827 15bf 2645 913f 2d5b abbe 9faf babe
00000020: c64b 69be 34c8 3c3f 65d9 62bf f413 773e
00000030: 215b 8d3f 6b58 fabe 9501 0fbf 57ff b33f
00000040: 6b7b adbf 9726 2ec0 0ead 0abf f1d2 793e
00000050: f4a5 88bf f87b 1bc0 fcb4 ab3f 2a65 f43f
00000060: 54e7 b8be e222 9bbf ef4c 8d3e 118f a53f
00000070: 2b9d a8bf 9c5a 1fbf 26aa 57bf dd46 3ebe
00000080: baa9 1abf 3a24 03bf 2f2e 57bf 0d3e 703f
00000090: c332 c1be a18b 8cbe 8bb5 b2bf 667a d23d
000000a0: f067 1a3f feb6 873f 8af0 7b3f 6334 3ebf
000000b0: eaac e0be 7976 e73e c851 603f 3831 08bf

GRU.weight_hh_l1 f4 [12, 4]
-0.7056048 -0.5227437 0.33544046 -1.7367953 0.3229461 -0.89622295 0.7356852 -1.4943659
0.45218518 0.09687862 0.8875058 -0.4236973 -0.38584813 0.58986145 0.15563694 2.3865755
0.069505505 -0.42459488 0.124905646 -0.1445558 0.18064056 -1.8388704 0.4327462 0.013642226
0.09749133 -1.15469 1.4272541 -0.093303755 -0.74317735 2.0001383 -2.3571768 -2.5112
0.08061801 0.42707992 -0.2516061 1.4165018 1.0287069 -0.10292587 0.074829325 0.0069405544
-1.0661465 -0.18994945 -0.58541465 -0.11711713 0.4009189 -0.550793 0.5296627 -1.6472442
00000000: 84a2 34bf 88d2 05bf dabe ab3e 4f4f debf
00000010: 3159 a53e de6e 65bf de55 3c3f 6247 bfbf
00000020: d184 e73e 4c68 c63d 9533 633f daee d8be
00000030: e38d c5be 2901 173f 4a5f 1f3e a7bd 1840
00000040: e758 8e3d 8064 d9be 88ce ff3d 7006 14be
00000050: d7f9 383e 1b60 ebbf e990 dd3e a583 5f3c
00000060: 89a9 c73d e2cc 93bf 43b0 b63f 0a16 bfbd
00000070: df40 3ebf 4402 0040 fcdb 16c0 80b7 20c0
00000080: 0e1b a53d 38aa da3e 84d2 80be ee4f b53f
00000090: abac 833f ccca d2bd 1e40 993d 976d e33b
000000a0: 7d77 88bf 1c82 42be bcdd 15bf 1bdb efbd
000000b0: 3e45 cd3e c500 0dbf fa97 073f e6d8 d2bf

GRU.bias_ih_l1 f4 [12]
-0.039817773 0.11877447 -0.20018333 -0.6009862 0.41598174 -0.93302536 -1.5636202 1.6390133
-0.05676314 -0.24973403 -0.43317366 -0.14045
00000000: f617 23bd 0840 f33d dcfc 4cbe 3bda 19bf
00000010: 8ffb d43e c0da 6ebf b524 c8bf 30cb d13f
00000020: 7780 68bd 47ba 7fbe f0c8 ddbe 20d2 0fbe

GRU.bias_hh_l1 f4 [12]
0.23360889 -0.42450643 -0.61553395 -0.65863115 0.42275676 -1.6077667 -1.9731733 1.3676631
-0.46239796 -0.2814862 -0.2529017 -0.32304338
00000000: 2b37 6f3e e858 d9be a293 1dbf 0d9c 28bf
00000010: 9373 d83e 4dcb cdbf f190 fcbf 960f af3f
00000020: 6dbf ecbe f61e 90be 557c 81be f165 a5be

GRU.weight_ih_l2 f4 [12, 4]
0.2802743 -0.22951391 0.8241496 0.89880687 0.6557395 -0.8811269 -0.016107127 0.072691396
0.22925477 -0.6921324 0.5580159 -0.8132524 0.8466035 -0.2191039 0.2548245 -0.7291519
2.7448525 -0.53158647 0.1217854 -0.7171138 1.7645768 1.7175242 -1.8790123 1.0436631
4.2293806 1.2328682 0.5557758 -1.9360214 -1.4832269 -2.2869654 1.274195 -0.31558633
-0.9299474 -0.8366854 0.95352685 0.5644336 -1.2328576 -0.04358802 -0.34777665 0.121721424
0.46328273 1.0367376 -1.0264275 0.82201666 -0.6777927 0.62434787 0.067546226 0.57488644
00000000: 1d80 8f3e b205 6bbe 78fb 523f 3518 663f
00000010: 8bde 273f 8891 61bf 18f3 83bc 3adf 943d
00000020: c3c1 6a3e 972f 31bf 21da 0e3f 4f31 50bf
00000030: 02bb 583f c65c 60be 5b78 823e b3a9 3abf
00000040: aaab 2f40 0d16 08bf a06a f93d c594 37bf
00000050: a7dd e13f d5d7 db3f 7a83 f0bf c196 853f
00000060: 1657 8740 a0ce 9d3f 5347 0e3f 8dcf f7bf
00000070: 61da bdbf a45d 12c0 d218 a33f 8894 a1be
00000080: 0811 6ebf 0431 56bf 561a 743f b87e 103f
00000090: 47ce 9dbf 5a89 32bd c80f b2be 1549 f93d
000000a0: 6533 ed3e d1b3 843f fa61 83bf af6f 523f
000000b0: d383 2dbf 43d5 1f3f ad55 8a3d c22b 133f

GRU.weight_hh_l2 f4 [12, 4]
-0.92253953 -0.77851826 -0.9937575 -0.8798248 0.7052933 0.7327296 -0.48200086 0.9805653
1.7094395 1.4188217 -0.53874457 0.9506098 0.09128403 0.73679036 -0.05775288 1.0612272
0.70991135 -3.3207996 -2.4823673 -1.3471227 -0.6236421 -0.8527573 0.62959784 -1.8072951
-0.7056602 -2.3927655 -1.2847649 0.043428447 2.7790785 2.0708148 -1.1510704 -0.48945248
-0.5182919 0.08626321 -0.56136096 -0.2516034 -0.2963084 -0.5278352 0.24800684 -0.5351634
-0.84398437 -1.176554 0.011288971 -1.2347981 -0.367631 -0.28435525 0.43890393 -0.77082485
00000000: 8d2b 6cbf f94c 47bf e466 7ebf 333c 61bf
00000010: 1a8e 343f 2b94 3b3f d1c8 f6be 5406 7b3f
00000020: eace da3f f39b b53f 2aeb 09bf 2a5b 733f
00000030: 1ff3 ba3d 4b9e 3c3f 498e 6cbd 4bd6 873f
00000040: c0bc 353f fb87 54c0 1bdf 1ec0 846e acbf
00000050: 02a7 1fbf 4d4e 5abf 532d 213f 7255 e7bf
00000060: 26a6 34bf 1223 19c0 2d73 a4bf 07e2 313d
00000070: 6cdc 3140 3b88 0440 4656 93bf 8499 fabe
00000080: c7ae 04bf c4aa b03d 5ab5 0fbf 29d2 80be
00000090: bcb5 97be 3520 07bf 81f5 7d3e 7800 09bf
000000a0: 5c0f 58bf 5299 96bf 60f5 383c dd0d 9ebf
000000b0: 213a bcbe 0397 91be 04b8 e03e c754 45bf

GRU.bias_ih_l2 f4 [12]
-0.4829157 -0.5104501 0.43848586 -0.014393813 -2.0139277 0.6408977 -1.2198682 0.39953193
-0.124825075 0.9130099 0.5770005 0.7031494
00000000: ba40 f7be dcac 02bf 3881 e03e 07d4 6bbc
00000010: 31e4 00c0 df11 243f a424 9cbf 738f cc3e
00000020: 4aa4 ffbd 04bb 693f 4eb6 133f 9901 343f

GRU.bias_hh_l2 f4 [12]
-0.3915378 -0.25310805 -0.0020423734 -0.44723883 -1.8295995 0.68736845 -1.777525 0.29856658
-0.173991 0.07986016 -0.04740545 -0.03220959
00000000: a477 c8be 6197 81be 57d9 05bb 7dfc e4be
00000010: 5130 eabf 61f7 2f3f f085 e3bf b8dd 983e
00000020: b22a 32be b98d a33d 382c 42bd 34ee 03bd

GRU.weight_ih_l3 f4 [12, 4]
1.5298669 0.91204554 -0.5219692 0.12390108 -0.046583954 0.13663556 0.8054783 -0.004119765
-1.9537823 -1.6121433 1.1431394 -0.95943063 -0.27380013 0.32663158 -0.6650205 0.02254978
-0.27487636 -2.3033395 0.09583431 -3.6274395 -2.530822 0.23296206 0.41640106 1.2556654
-1.4783335 -0.70970094 -0.26617786 0.7194362 0.9677507 -1.315475 -1.4092911 -0.43121204
-1.0299662 -0.8206834 1.1624058 -0.21824753 -0.35978377 0.105471306 0.9137525 0.08283944
0.35404095 0.2141236 -0.9845746 -0.19329348 -1.0458318 -0.6911927 0.87112725 -0.11360412
00000000: aed2 c33f d17b 693f c69f 05bf d9bf fd3d
00000010: d1ce 3ebd 31ea 0b3e d333 4e3f 18ff 86bb
00000020: 8a15 fabf b65a cebf 6452 923f 3f9d 75bf
00000030: 882f 8cbe 413c a73e c93e 2abf 51ba b83c
00000040: 98bc 8cbe ea69 13c0 c744 c43d f827 68c0
00000050: fdf8 21c0 9b8d 6e3e 8532 d53e a5b9 a03f
00000060: 083a bdbf f6ae 35bf 7748 88be f92c 383f
00000070: 83be 773f 7c61 a8bf a763 b4bf d3c7 dcbe
00000080: efd5 83bf 4f18 52bf b7c9 943f 487c 5fbe
00000090: 9435 b8be 5701 d83d afeb 693f b9a7 a93d
000000a0: db44 b53e 3843 5b3e 150d 7cbf baee 45be
000000b0: d1dd 85bf 01f2 30bf 3202 5f3f 47a9 e8bd

GRU.weight_hh_l3 f4 [12, 4]
0.67647386 -0.29313794 0.8004321 -1.2396691 -1.0347733 0.75117904 -0.45184234 0.6437277
-0.39821127 -0.40950736 0.2906294 1.2176459 0.8280523 -1.2274528 1.3407509 -0.9237837
-0.8146739 -1.0056295 0.2924179 -0.12080947 -3.1746233 -2.324685 3.2633462 -3.9768317
-0.8530156 -1.320641 1.4539621 -2.3502479 0.17224377 -1.6873727 1.547008 -1.7954599
-0.6953599 -0.34582362 0.41768304 0.4388731 -0.66786677 1.1406946 -1.1760166 -0.08681139
0.3844239 -0.83248353 0.8139598 -0.8120004 0.16785865 1.1514376 -0.49421826 -0.090967275
00000000: 642d 2d3f 2d16 96be 1ee9 4c3f 7aad 9ebf
00000010: 7473 84bf 454d 403f e157 e7be 57cb 243f
00000020: 59e2 cbbe f3aa d1be 60cd 943e d2db 9b3f
00000030: 3cfb 533f 2c1d 9dbf ba9d ab3f 177d 6cbf
00000040: 788e 50bf 78b8 80bf cdb7 953e f56a f7bd
00000050: 072d 4bc0 a4c7 14c0 aada 5040 6984 7ec0
00000060: 3b5f 5abf c40a a9bf 6e1b ba3f 766a 16c0
00000070: ac60 303e d4fb d7bf 5c04 c63f a1d1 e5bf
00000080: 1b03 32bf cb0f b1be 8dda d53e fab3 e03e
00000090: 51f9 2abf 4802 923f b687 96bf 2cca b1bd
000000a0: 36d3 c43e a41d 55bf ab5f 503f 42df 4fbf
000000b0: 23e3 2b3e 4f62 933f 2d0a fdbe 0d4d babd

GRU.bias_ih_l3 f4 [12]
-0.42283803 0.6737332 -0.17594168 -1.1374072 -0.7254367 -0.37022737 -0.41898826 -1.1442018
0.115059465 1.2401679 -1.3302982 1.0788139
00000000: 3a7e d8be c779 2c3f 0e2a 34be 8f96 91bf
00000010: 38b6 39bf 718e bdbe a185 d6be 3475 92bf
00000020: 4ca4 eb3d d2bd 9e3f 3647 aabf 9316 8a3f

GRU.bias_hh_l3 f4 [12]
-0.7298794 0.9508235 -0.14567284 -0.65378916 0.10235336 -0.31069162 -0.93217283 -1.4344008
-0.33533368 1.1481868 -0.790352 0.38727
00000000: 60d9 3abf 2b69 733f 432b 15be ba5e 27bf
00000010: a39e d13d f912 9fbe e1a2 6ebf 729a b7bf
00000020: dbb0 abbe c9f7 923f 8254 4abf 4148 c63e

GRU.weight_ih_l4 f4 [12, 4]
0.21564223 -0.5218593 0.73693305 -0.015809555 -0.62179285 -0.2964939 -0.26012814 1.521264
-0.4742468 0.13702187 0.24843681 -0.10982935 -0.5402851 1.1145582 -0.7014135 0.45000866
2.1174242 0.833392 -0.9061187 1.8456653 1.9439319 0.33104414 -1.1461519 1.9584455
3.291989 1.0731789 -2.0027137 2.3307462 -0.15122893 -0.7539036 0.46773958 -0.21521434
0.6116599 -0.88719 1.2988118 -0.58270735 -0.4509237 1.1641396 -1.1180419 0.7707153
0.73886114 -1.3320292 1.0336566 -1.1127719 0.7263714 -0.97090566 1.1601324 -0.35266426
00000000: 51d1 5c3e 9298 05bf a5a7 3c3f 0a83 81bc
00000010: d12d 1fbf 0cce 97be 842f 85be c7b8 c23f
00000020: 7ad0 f2be 764f 0c3e 3866 7e3e 36ee e0bd
00000030: 2050 0abf d8a9 8e3f d68f 33bf 8967 e63e
00000040: e183 0740 2e59 553f 65f7 67bf c33e ec3f
00000050: c3d2 f83f 9e7e a93e 1bb5 92bf 58ae fa3f
00000060: f3af 5240 ed5d 893f 762c 00c0 f22a 1540
00000070: c2db 1abe d4ff 40bf 907b ef3e 2661 5cbe
00000080: be95 1c3f e21e 63bf 773f a63f 4f2c 15bf
00000090: 79df e6be 8702 953f ff1b 8fbf 994d 453f
000000a0: 0126 3d3f ef7f aabf dc4e 843f 4f6f 8ebf
000000b0: 7af3 393f 468d 78bf 387f 943f 6990 b4be

GRU.weight_hh_l4 f4 [12, 4]
0.40067998 -1.3431607 0.9530075 0.8548778 -0.8292313 0.05178468 -0.8284285 -0.92827696
0.2583673 0.64614224 -0.15085089 -0.1366696 -0.6350731 0.969498 -0.65076286 -0.96514785
0.9195001 -0.73402363 0.20655283 -0.16492596 0.42101663 -0.61586237 0.22632393 -0.30855227
-0.7267452 0.8458383 -0.92511964 -0.18876679 0.71519256 -0.5510679 0.31859526 1.7041458
0.5513394 -0.6075473 0.460554 1.1667677 -1.0261077 0.9705709 -0.81252885 -0.42873982
0.84113336 -0.95369744 0.4470229 1.0046548 1.2519542 -1.1708556 0.44240797 0.99015784
00000000: ed25 cd3e b1ec abbf 4df8 733f 46d9 5a3f
00000010: 8148 54bf 2c1c 543d e413 54bf 8fa3 6dbf
00000020: b848 843e 9469 253f a878 1abe 1ef3 0bbe
00000030: 2794 22bf 0531 783f 6598 26bf ee13 77bf
00000040: 5c64 6b3f f9e8 3bbf 9682 533e 5ae2 28be
00000050: 7e8f d73e 28a9 1dbf 76c1 673e 90fa 9dbe
00000060: f90b 3abf dc88 583f a4d4 6cbf 154c 41be
00000070: dc16 373f c912 0dbf eb1e a33e 7321 da3f
00000080: 9424 0d3f 3888 1bbf bccd eb3e a558 953f
00000090: 7f57 83bf 5677 783f e401 50bf c983 dbbe
000000a0: 8454 573f 8425 74bf 30e0 e43e 8798 803f
000000b0: 0940 a03f 99de 95bf 4c83 e23e fc7a 7d3f

GRU.bias_ih_l4 f4 [12]
-0.58501744 -0.14456983 -0.5955347 0.6784667 0.5155685 0.78418255 1.0227627 -0.77239466
-1.4856282 0.89877784 -1.1748345 -0.82401407
00000000: b4c3 15bf 1d0a 14be f674 18bf feaf 2d3f
00000010: 4cfc 033f 30c0 483f e3e9 823f a8bb 45bf
00000020: 1129 bebf 4e16 663f fa60 96bf 96f2 52bf

GRU.bias_hh_l4 f4 [12]
-0.87058663 0.4950205 0.011047224 0.7646774 0.9342069 1.0785824 0.71914196 -1.2081404
-0.41643932 0.97091264 -0.63882613 -0.6557877
00000000: c4de 5ebf 5473 fd3e 6aff 343c e6c1 433f
00000010: 2f28 6f3f fd0e 8a3f b019 383f 58a4 9abf
00000020: 8937 d5be bb8d 783f 1c8a 23bf b4e1 27bf

lin3.weight f4 [5, 4]
-1.258551 1.4290485 -1.2901965 -1.1780734 1.2949164 -1.4020835 0.5628694 0.047501184
1.0910133 -1.3386941 0.99497074 2.0435908 1.2475816 -0.9320235 0.6432192 0.25254652
1.1703962 -0.9996958 0.95766944 1.3528409
00000000: 3318 a1bf 10eb b63f 2925 a5bf 1ccb 96bf
00000010: d2bf a53f 7977 b3bf 3618 103f 9a90 423d
00000020: 53a6 8b3f 545a abbf 67b6 7e3f 31ca 0240
00000030: c1b0 9f3f 1899 6ebf 03aa 243f c74d 813e
00000040: 8bcf 953f 10ec 7fbf d329 753f e429 ad3f

lin3.bias f4 [5]
0.8660364 -0.90736574 -1.4363045 -0.4319956 -1.0925629
00000000: 90b4 5d3f 1f49 68bf d3d8 b7bf 872e ddbe
00000010: 1ad9 8bbf

exp_avg f4 [4, 7]
-3.0594926e-22 3.7148827e-34 -2.3004707e-14 -3.2657446e-15 -6.623071e-15 0.0 -2.3230336e-14 4.848084e-22
-5.7953166e-34 -1.09883416e-13 -1.5602842e-14 -3.163875e-14 0.0 -1.1097213e-13 -2.8159515e-22 3.2483002e-34
3.2917487e-13 4.6740867e-14 9.4775967e-14 0.0 3.3242438e-13 -4.791846e-22 5.8557462e-34 3.3002545e-14
4.695611e-15 9.501674e-15 0.0 3.3326437e-14
00000000: 5bef b89b 74e5 f607 3e35 cfa8 5b52 6ba7
00000010: 0c9f eea7 0000 0000 823d d1a8 3c86 121c
00000020: 1a95 4088 7a6f f7a9 b489 8ca8 ff7c 0ea9
00000030: 0000 0000 14e3 f9a9 bd36 aa9b f7e2 d707
00000040: 194f b92a 8d80 5229 a06a d529 0000 0000
00000050: 6723 bb2a 1dd3 109c 2e97 4208 58a1 1429
00000060: 5e2d a927 bd2a 2b28 0000 0000 c416 1629

exp_avg_sq f4 [4, 7]
1.4033582e-17 7e-43 3.411546e-08 9.515651e-09 3.0561553e-11 0.0 4.4144844e-11 4.2282112e-19
1.984e-42 1.0367336e-08 3.7257666e-10 2.9036229e-12 0.0 4.395066e-12 3.2559106e-17 7e-43
2.6703754e-08 1.2451431e-08 2.8670798e-11 0.0 4.235399e-11 3.2196947e-17 2.012e-42 9.810384e-08
1.068858e-07 1.0588543e-10 0.0 1.5122274e-10
00000000: dc6f 8123 f401 0000 5886 1233 477a 2332
00000010: 4069 062e 0000 0000 ad26 422e ec96 f920
00000020: 8805 0000 071c 3232 81d3 cc2f 0553 4c2c
00000030: 0000 0000 3ca3 9a2c 0227 1624 f401 0000
00000040: 2d62 e532 f9e9 5532 e630 fc2d 0000 0000
00000050: 5a46 3a2e 727b 1424 9c05 0000 28ad d233
00000060: 1789 e533 33d8 e82e 0000 0000 6b45 262f

exp_avg f4 [4]
2.1230402e-09 1.0094704e-09 1.3829414e-09 -2.2307771e-09
00000000: ebe4 1131 95bd 8a30 ed11 be30 3f4c 19b1

exp_avg_sq f4 [4]
1.560571e-08 4.1259054e-09 1.3545165e-08 5.178773e-08
00000000: 520d 8632 d9c3 8d31 44b4 6832 366d 5e33

exp_avg f4 [12, 4]
2.4301653e-11 -2.0830107e-11 9.568874e-11 -8.433631e-11 2.6086696e-15 -2.2360596e-15 1.02717475e-14 -9.053072e-15
-9.217806e-13 7.90104e-13 -3.629552e-12 3.1989448e-12 -9.440774e-12 8.0921285e-12 -3.7173403e-11 3.2763174e-11
-1.6748474e-11 1.4355901e-11 -6.5947775e-11 5.8123784e-11 -6.486264e-13 5.559677e-13 -2.5539913e-12 2.2509876e-12
-1.6094294e-10 1.3795169e-10 -6.3371913e-10 5.585351e-10 1.8588896e-11 -1.5933423e-11 7.3194575e-11 -6.451082e-11
2.0326564e-10 -1.7347404e-10 7.977187e-10 -7.0319395e-10 5.5199426e-12 -4.731381e-12 2.173495e-11 -1.915634e-11
5.1165162e-11 -4.385521e-11 2.0146323e-10 -1.7756188e-10 -2.9279143e-10 2.5096517e-10 -1.152878e-09 1.0161011e-09
00000000: 75c2 d52d 3b39 b7ad f96b d22e 1f75 b9ae
00000010: 76f9 3b27 0520 21a7 130a 3928 ed15 23a8
00000020: a5ba 81ab fe64 5e2b 3268 7fac 111b 612c
00000030: 7715 26ad b55b 0e2d 887d 23ae 0e18 102e
00000040: 3652 93ad 3b8d 7c2d 4c05 91ae 90a1 7f2e
00000050: 7592 36ab b27d 1c2b 9eb8 33ac 3066 1e2c
00000060: 69f5 30af f3ad 172f 0532 2eb0 6a87 1930
00000070: 7982 a32d e126 8cad e2f4 a02e 5ddc 8dae
00000080: 317e 5f2f 9abc 3eaf 7746 5b30 e04a 41b0
00000090: 3937 c22c 7e78 a6ac c22e bf2d 3e80 a8ad
000000a0: da06 612e 94e0 40ae dc82 5d2f 3a3b 43af
000000b0: bbf6 a0af 35f8 892f 4a73 9eb0 e1a6 8b30

exp_avg_sq f4 [12, 4]
1.5510664e-11 1.8669755e-12 7.680096e-12 1.0600897e-12 3.3474649e-12 8.6151155e-13 1.8700475e-12 2.594271e-12
1.1563034e-11 1.8233108e-12 5.7095145e-12 2.95876e-12 3.875922e-12 2.1442709e-12 2.5034697e-12 7.2114866e-12
2.1840658e-10 8.012494e-14 6.0938633e-12 2.1052923e-10 5.154472e-13 8.61476e-15 3.2731996e-14 3.871718e-13
1.4144345e-12 2.2584577e-12 2.5596983e-12 5.8017367e-12 2.7623934e-10 2.3131406e-09 1.0096363e-08 2.410269e-12
4.7320814e-09 1.3260299e-08 2.5417957e-09 7.4003808e-09 2.1378044e-09 1.880349e-09 4.9504306e-10 1.6159907e-09
2.876544e-07 1.0342321e-07 1.954022e-07 8.984408e-08 6.8787265e-10 2.457402e-08 6.6057417e-09 7.904069e-09
00000000: e96e 882d 7160 032c 141c 072d c231 952b
00000010: 918e 6b2c 737e 722b c897 032c 3b8e 362c
00000020: 476b 4b2d d94d 002c bce2 c82c 4834 502c
00000030: 345f 882c c0e3 162c 802a 302c 4cbb fd2c
00000040: fd23 702f e26c b429 a468 d62c b67a 672f
00000050: e315 112b 9130 1b28 6c69 1329 56f5 d92a
00000060: 6010 c72b c2ec 1e2c 6d1f 342c 6621 cc2c
00000070: 3bdd 972f 33f5 1e31 4674 2d32 8c9b 292c
00000080: d497 a231 69cf 6332 beab 2e31 7046 fe31
00000090: a7e8 1231 7337 0131 8f13 0830 9e19 de30
000000a0: eb6e 9a34 8319 de33 bfcf 5134 4ef0 c033
000000b0: bc14 3d30 d716 d332 b8f8 e231 77ca 0732

exp_avg f4 [12, 4]
7.658001e-12 6.946097e-12 7.7465204e-12 7.594287e-11 1.4613983e-14 1.4681004e-14 1.4604823e-14 8.145832e-15
9.28637e-12 9.414409e-12 9.272731e-12 -2.8872473e-12 -2.9423772e-11 -2.9423096e-11 -2.9423877e-11 -2.9489047e-11
-5.0272918e-11 -5.0267134e-11 -5.0304066e-11 -5.2291657e-11 -1.9987794e-12 -1.9987074e-12 -1.9992048e-12 -2.0257138e-12
-4.9972115e-10 -4.997136e-10 -4.997684e-10 -5.0268273e-10 6.328714e-11 6.330163e-11 6.3206884e-11 5.8124845e-11
-3.114058e-11 -3.4719547e-11 -3.070178e-11 3.1184935e-10 2.312813e-13 2.3137858e-13 2.3126772e-13 2.2187547e-13
6.8870066e-12 6.962065e-12 6.8790225e-12 -2.4876198e-13 -2.5987955e-11 -2.6069943e-11 -2.5976114e-11 -1.8043353e-11
00000000: 92b8 062d e164 f42c 3a47 082d 0900 a72e
00000010: 8da1 8328 173c 8428 6e8c 8328 05be 1228
00000020: 185e 232d bb9e 252d ab20 232d 062c 4bac
00000030: 3968 01ae 7667 01ae 5768 01ae b7b1 01ae
00000040: 461a 5dae c313 5dae 583d 5dae 2cfb 65ae
00000050: cfa6 0cac 83a5 0cac 79ae 0cac 048c 0eac
00000060: c05c 09b0 385c 09b0 1360 09b0 272d 0ab0
00000070: 7e2b 8b2e a633 8b2e 50fe 8a2e c2a2 7f2e
00000080: 2df5 08ae bcb2 18ae 2207 07ae e570 ab2f
00000090: 2633 822a 2b41 822a 3131 822a 40cf 792a
000000a0: a450 f22c b5f4 f42c ba08 f22c 610a 8caa
000000b0: ac97 e4ad 4b50 e5ad 027d e4ad 05b6 9ead

exp_avg_sq f4 [12, 4]
9.998412e-12 7.6133275e-12 2.1584222e-11 1.7092078e-11 1.1862557e-12 2.919604e-12 5.5771715e-12 1.2068958e-11
2.342051e-13 7.691199e-12 1.5777588e-11 1.15336065e-11 2.6693558e-12 8.353475e-12 6.2314385e-12 2.4836628e-11
1.4584448e-11 1.3647051e-11 8.140903e-12 1.2714939e-11 6.5850334e-14 8.601896e-14 8.442053e-14 1.1483577e-13
1.1968219e-11 7.808979e-12 1.0041786e-11 1.4287459e-11 7.8391384e-13 2.6805747e-12 2.30948e-12 3.0419731e-12
8.517407e-10 5.5821187e-10 1.4474785e-09 2.8459268e-09 5.511986e-11 1.128452e-11 3.227281e-11 1.5209947e-10
1.4175665e-11 2.2288207e-10 3.8626352e-10 3.26395e-10 1.1510087e-09 1.1719546e-10 3.721381e-10 2.9164997e-09
00000000: d8e4 2f2d 61ef 052d 59db bd2d f057 962d
00000010: 5ef3 a62b e972 4d2c b23a c42c c151 542d
00000020: 83d8 832a 154e 072d f8c7 8a2d bfe6 4a2d
00000030: d7d6 3b2c b5f4 122d cf3f db2c 1d77 da2d
00000040: 4249 802d db14 702d 5e37 0f2d ffae 5f2d
00000050: 2248 9429 8eb2 c129 1f19 be29 284b 012a
00000060: 118c 522d 8460 092d 2fa8 302d ff58 7b2d
00000070: f2a6 5c2b f1a0 3c2c e583 222c 510f 562c
00000080: ec1f 6a30 ab70 1930 9ff0 c630 1392 4331
00000090: 726b 722e f684 462d f4ef 0d2e 323c 272f
000000a0: 8561 792d ba0f 752f c259 d42f 0370 b32f
000000b0: 8531 9e30 97db 002f c895 cc2f 9b6b 4831

exp_avg f4 [12]
-7.590828e-11 -8.148297e-15 2.8792632e-12 2.948903e-11 5.2315256e-11 2.0260378e-12 5.0271853e-10 -5.8064054e-11
-6.3288086e-10 -1.7241968e-11 -1.5981716e-10 9.145583e-10
00000000: 90ec a6ae 63c9 12a8 329c 4a2c b2b1 012e
00000010: be15 662e da91 0e2c ac2f 0a30 505e 7fae
00000020: 08f7 2db0 76a9 97ad 88b8 2faf 5264 7b30

exp_avg_sq f4 [12]
1.586851e-10 5.0874808e-11 1.0747339e-10 7.84109e-11 3.490094e-11 1.2971372e-13 2.783338e-11 4.298612e-12
1.5489705e-07 2.0609846e-08 4.3050786e-08 9.014625e-08
00000000: e379 2e2f f1bf 5f2e 2456 ec2e 6a6d ac2e
00000010: f77e 192e 6f0b 122a 33d3 f42d 743e 972c
00000020: c751 2634 8809 b132 d7e6 3833 6d96 c133

exp_avg f4 [12]
-7.590828e-11 -8.148297e-15 2.8792632e-12 2.948903e-11 5.2315256e-11 2.0260378e-12 5.0271853e-10 -5.8064054e-11
-3.1167052e-10 -2.2187912e-13 2.440716e-13 1.8046026e-11
00000000: 90ec a6ae 63c9 12a8 329c 4a2c b2b1 012e
00000010: be15 662e da91 0e2c ac2f 0a30 505e 7fae
00000020: ba57 abaf 4dd0 79aa 6d66 892a 0abc 9e2d

exp_avg_sq f4 [12]
1.586851e-10 5.0874808e-11 1.0747339e-10 7.84109e-11 3.490094e-11 1.2971372e-13 2.783338e-11 4.298612e-12
1.8240998e-08 7.306503e-10 3.070127e-09 1.29917765e-08
00000000: e379 2e2f f1bf 5f2e 2456 ec2e 6a6d ac2e
00000010: f77e 192e 6f0b 122a 33d3 f42d 743e 972c
00000020: 61b0 9c32 f2d6 4830 3ffa 5231 7032 5f32

exp_avg f4 [12, 4]
-3.491686e-10 -3.4457645e-10 -7.1587397e-10 -9.406871e-10 -9.879169e-08 -9.878179e-08 -1.0020675e-07 -9.842251e-08
5.8993215e-09 5.8973892e-09 5.8019745e-09 6.096502e-09 -6.283946e-09 -6.4100036e-09 -5.2587428e-09 6.3386825e-09
-1.7849771e-08 -1.780452e-08 -1.8527459e-08 -3.4423984e-08 -7.642926e-07 -7.642918e-07 -7.6430166e-07 -7.646098e-07
-1.1198991e-07 -1.1198896e-07 -1.1200459e-07 -1.1234399e-07 1.0884373e-10 1.11208355e-10 -3.4756664e-10 2.286758e-09
1.0243546e-08 9.9416715e-09 2.1026738e-08 2.3054511e-08 1.4452555e-06 1.4452668e-06 1.4516805e-06 1.420951e-06
-1.6786738e-07 -1.6793845e-07 -1.6892079e-07 -1.5246744e-07 3.265595e-08 3.3274112e-08 2.8015258e-08 -2.9306655e-08
00000000: 1df5 bfaf d36e bdaf 27c7 44b0 7c49 81b0
00000010: 4e27 d4b3 dd21 d4b3 3e31 d7b3 595c d3b3
00000020: fbb2 ca31 fca1 ca31 b55a c731 6679 d131
00000030: 2cea d7b1 fd3e dcb1 64b0 b4b1 a4cb d931
00000040: 1054 99b2 8ef0 98b2 5026 9fb2 92d9 13b3
00000050: ca29 4db5 bc29 4db5 692a 4db5 963f 4db5
00000060: 1b7f f0b3 957e f0b3 2d87 f0b3 c341 f1b3
00000070: 9359 ef2e bd8c f42e a813 bfaf 1225 1d31
00000080: 97fb 2f32 efcb 2a32 499e b432 6809 c632
00000090: 9afa c135 fdfa c135 5dd7 c235 81b7 be35
000000a0: 093f 34b4 9252 34b4 9860 35b4 eeb5 23b4
000000b0: 9941 0c33 46e9 0e33 34a6 f032 04be fbb2

exp_avg_sq f4 [12, 4]
8.638003e-11 2.2695065e-11 2.3785236e-11 2.2425514e-10 8.023838e-10 2.1644786e-10 4.6144664e-11 5.40479e-10
2.478885e-10 4.5922172e-11 2.9955424e-11 2.233707e-10 6.25517e-11 6.207883e-11 2.3925483e-11 6.895009e-11
2.0888202e-09 2.8131605e-10 2.1220696e-10 1.1630445e-09 2.4220703e-10 2.6597083e-10 3.446846e-10 2.3159774e-10
2.9529607e-10 1.734452e-10 1.3324214e-10 5.1494353e-10 1.1232246e-10 1.937939e-11 1.8603107e-11 1.5055095e-10
1.0972344e-08 2.2742952e-08 6.6666934e-09 2.7771216e-08 6.371291e-08 4.8690982e-08 2.0799135e-08 1.5107446e-08
5.947478e-08 1.1001765e-07 2.2640974e-08 2.606924e-08 4.2175636e-09 3.5276007e-09 1.1418051e-09 3.76935e-09
00000000: a2f3 bd2e bea0 c72d 9737 d12d 3692 762f
00000010: be8e 5c30 a8fc 6d2f 46f2 4a2e d490 1430
00000020: 3447 882f c5f7 492e cfbe 032e 4399 752f
00000030: 7a8d 892e 4683 882e 6673 d22d 739f 972e
00000040: ea8a 0f31 b7a7 9a2f f352 692f fed8 9f30
00000050: 9c27 852f 1138 922f 0b7e bd2f f8a4 7e2f
00000060: 3a57 a22f 7cb4 3e2f 5480 122f ee8b 0d30
00000070: ecff f62e 8276 aa2d 79a2 a32d 5388 252f
00000080: e180 3c32 485c c332 db10 e531 8d8d ee32
00000090: 8bd2 8833 4d20 5133 c8a9 b232 a0c5 8132
000000a0: 3671 7f33 d842 ec33 077c c232 ddee df32
000000b0: 15ea 9031 356a 7231 b2ed 9c30 8e83 8131

exp_avg f4 [12, 4]
-1.5023718e-10 -2.5931873e-10 2.6847893e-10 1.5799667e-10 -4.956059e-10 4.8163966e-09 -5.1441833e-09 5.25635e-10
1.222746e-10 7.795259e-10 -8.2245977e-10 -8.2817066e-11 6.2536216e-09 6.1846017e-09 -6.1768617e-09 -4.752122e-09
-1.6691797e-09 2.1354804e-08 -2.3116922e-08 1.3031336e-10 1.8082586e-11 1.5096539e-10 -1.612975e-10 1.1492561e-12
1.7566898e-11 1.6257659e-10 -1.7232206e-10 3.215242e-12 -7.537845e-10 -2.0828652e-09 2.1729654e-09 1.9969328e-10
1.7217591e-08 2.4626724e-08 -2.5078151e-08 -1.20341355e-08 2.071571e-09 -1.2776277e-08 1.36941605e-08 -1.9376936e-09
2.7956948e-10 6.700417e-09 -7.111646e-09 -1.858502e-10 -1.0190164e-08 -1.0130319e-08 1.0118939e-08 7.903278e-09
00000000: 0230 25af de8f 8eaf 0d99 932f 1cb8 2d2f
00000010: 2a3b 08b0 797d a531 b7c0 b0b1 467c 1030
00000020: 3d71 062f 4246 5630 7613 62b0 dd1d b6ae
00000030: 70df d631 5580 d431 403c d4b1 1b48 a3b1
00000040: 0a69 e5b0 b66f b732 a692 c6b2 f347 0f2f
00000050: 5d0e 9f2d fbfc 252f 3659 31af 51be a12b
00000060: 2385 9a2d 3ec1 322f 5978 3daf a740 622c
00000070: de32 4fb0 2722 0fb1 3653 1531 a990 5b2f
00000080: e2e5 9332 bd8a d332 706b d7b2 b0be 4eb2
00000090: 765b 0e31 a97e 5bb2 8e43 6b32 4428 05b1
000000a0: e8b1 992f 7e39 e631 b35a f4b1 2e58 4caf
000000b0: d110 2fb2 9d09 2eb2 90d7 2d32 fcc6 0732

exp_avg_sq f4 [12, 4]
3.109109e-11 3.2457836e-10 5.620079e-10 3.012685e-11 2.0500988e-10 1.6778766e-09 3.6389287e-09 2.0566979e-11
7.2301255e-11 6.158855e-10 1.2340329e-09 7.652245e-12 4.0035992e-11 6.352473e-11 1.8510736e-10 3.795197e-11
4.8454192e-11 2.3234765e-11 4.267991e-11 2.5229662e-11 3.219684e-11 1.6358278e-11 6.034302e-11 8.678671e-12
1.5709767e-11 1.2537165e-11 2.5784168e-11 1.4148723e-11 1.0417271e-11 6.557064e-12 1.28214115e-11 5.6486643e-12
8.578554e-09 1.7875436e-08 3.776678e-08 5.784699e-09 6.920671e-09 2.9236134e-08 7.1448994e-08 1.7718229e-09
1.6083739e-08 3.8252185e-08 9.688342e-08 9.076966e-09 1.8941641e-10 4.5916554e-10 1.2265703e-09 1.5278828e-10
00000000: 75bd 082e 5870 b22f ca7b 1a30 d17f 042e
00000010: 2769 612f 099b e630 b610 7a31 b8e8 b42d
00000020: fdfd 9e2e 174b 2930 ac9a a930 a69e 062d
00000030: 8514 302e 3eb1 8b2e 1787 4b2f 1fea 262e
00000040: 921a 552e 0a60 cc2d 4fb5 3b2e 26ec dd2d
00000050: 6b9a 0d2e 91e3 8f2d 1ab2 842e 42ad 182d
00000060: 402f 8a2d 5f8e 5c2d c9cc e22d 2fe8 782d
00000070: 3843 372d c8b4 e62c 818e 612d a5be c62c
00000080: e160 1332 808c 9932 0435 2233 c0c2 c631
00000090: deca ed31 f022 fb32 806f 9933 7a84 f330
000000a0: 8428 8a32 b94a 2433 390e d033 ebf0 1b32
000000b0: fb43 502f ce6d fc2f 1b94 a830 14fe 272f

exp_avg f4 [12]
9.429025e-10 9.8400356e-08 -6.0966316e-09 -6.34118e-09 3.462116e-08 7.6461276e-07 1.12348125e-07 -2.3261453e-09
-2.2774516e-08 -1.420532e-06 1.523316e-07 2.9320162e-08
00000000: 6f97 8130 2b50 d333 8a7a d1b1 9ce1 d9b1
00000010: 5eb2 1433 ca3f 4d35 0944 f133 fbd9 1fb1
00000020: b1a1 c3b2 1ca9 beb5 9790 2334 b8db fb32

exp_avg_sq f4 [12]
9.52583e-10 6.148401e-09 2.0781152e-09 4.7157567e-10 2.9207942e-10 2.717073e-10 1.9388743e-10 3.7684206e-11
2.5487213e-07 4.9621536e-07 8.4345857e-07 4.195484e-08
00000000: 09ec 8230 e841 d331 97ce 0e31 30a0 0130
00000010: 8692 a02f 675f 952f 762e 552f a5bc 252e
00000020: 5cd5 8834 a933 0535 086a 6235 d631 3433

exp_avg f4 [12]
9.429025e-10 9.8400356e-08 -6.0966316e-09 -6.34118e-09 3.462116e-08 7.6461276e-07 1.12348125e-07 -2.3261453e-09
-8.496514e-09 -6.268438e-07 4.708379e-08 1.0192362e-08
00000000: 6f97 8130 2b50 d333 8a7a d1b1 9ce1 d9b1
00000010: 5eb2 1433 ca3f 4d35 0944 f133 fbd9 1fb1
00000020: 10f8 11b2 6144 28b5 2d39 4a33 7b1a 2f32

exp_avg_sq f4 [12]
9.52583e-10 6.148401e-09 2.0781152e-09 4.7157567e-10 2.9207942e-10 2.717073e-10 1.9388743e-10 3.7684206e-11
8.982784e-08 1.3649654e-07 2.1885404e-07 2.8504745e-09
00000000: 09ec 8230 e841 d331 97ce 0e31 30a0 0130
00000010: 8692 a02f 675f 952f 762e 552f a5bc 252e
00000020: 61e7 c033 e28f 1234 24fe 6a34 14e2 4331

exp_avg f4 [12, 4]
-6.199312e-09 -6.709256e-08 7.6865874e-08 -1.7477573e-09 1.356042e-07 1.3623249e-07 -1.3743923e-07 -9.673705e-08
3.4917193e-08 3.9256605e-08 -3.9769848e-08 -4.977971e-11 4.417973e-10 3.0249954e-08 -3.515723e-08 6.9263145e-10
1.3102379e-09 3.2807114e-07 -3.832724e-07 -4.9268956e-10 -3.1874833e-08 -4.1675233e-07 4.489861e-07 6.991583e-10
-3.1024137e-09 -2.401915e-07 2.7278375e-07 3.5515535e-10 2.8088838e-08 9.4404845e-07 -1.1034764e-06 -2.4540614e-09
7.944452e-08 3.0168555e-06 -3.491044e-06 2.2132587e-08 -7.5646744e-07 -5.8542e-07 5.7541246e-07 7.190718e-07
-3.242978e-07 -3.3699814e-07 3.3247508e-07 -7.0472104e-09 5.9777875e-08 -3.5249136e-06 4.199326e-06 2.9929696e-09
00000000: ba01 d5b1 8614 90b3 7611 a533 be35 f0b0
00000010: 999a 1134 4d47 1234 0293 13b4 c1bd cfb3
00000020: dcf7 1533 189b 2833 69cf 2ab3 f9ee 5aae
00000030: 71e1 f22f 2dec 0133 c8ff 16b3 9b63 3e30
00000040: e613 b430 c121 b034 8fc4 cdb4 f26d 07b0
00000050: c0e6 08b3 01be dfb4 2e0c f134 e42e 4030
00000060: 3d32 55b1 abf3 80b4 1d73 9234 ac3f c32f
00000070: 0248 f132 846a 7d35 291b 94b5 4ea4 28b1
00000080: 169b aa33 2f75 4a36 ae47 6ab6 131e be32
00000090: 0c10 4bb5 c225 1db5 0b76 1a35 3d06 4135
000000a0: 261b aeb4 acec b4b4 077f b234 eb23 f2b1
000000b0: 3c5f 8033 8e8d 6cb6 f0e7 8c36 e1ac 4d31

exp_avg_sq f4 [12, 4]
5.9870393e-09 2.4708975e-09 9.744274e-09 3.4304888e-09 7.3876216e-09 6.385803e-08 1.3379857e-07 4.5584334e-10
3.7456557e-10 1.0668151e-09 2.3441773e-09 1.221284e-10 1.8542287e-09 1.8599698e-08 3.768587e-08 2.1570082e-10
1.3046577e-12 4.759563e-12 1.37183615e-11 7.6930487e-13 5.141782e-10 8.466984e-10 1.870305e-09 1.305631e-10
1.2700745e-11 2.8531585e-11 1.2778242e-10 3.9448254e-12 3.033021e-11 1.3165866e-10 2.2253348e-10 7.088407e-12
5.954928e-07 3.3012677e-07 1.2636497e-06 3.743913e-07 2.694402e-07 1.997244e-06 4.3669015e-06 2.5051873e-08
9.3214595e-08 5.8575034e-07 1.281301e-06 2.1051916e-08 2.790411e-07 1.5335283e-06 3.3434017e-06 9.226457e-08
00000000: 8eb6 cd31 7dcc 2931 c567 2732 ccbd 6b31
00000010: 35d6 fd31 5322 8933 45aa 0f34 3f9a fa2f
00000020: 6beb cd2f 389f 9230 3417 2131 1748 062f
00000030: dfd7 fe30 2bc5 9f32 0ddc 2133 622a 6d2f
00000040: 3f9d b72b 5576 a72c 0256 712d 428a 582b
00000050: 1356 0d30 1abd 6830 c186 0031 3f8e 0f2f
00000060: 126f 5f2d 6bf7 fa2d 8e7f 0c2f d4cb 8a2c
00000070: c864 052e 9ec2 102f 9bad 742f b266 f92c
00000080: f4d9 1f35 473c b134 ac9a a935 f3ff c834
00000090: 94a7 9034 6408 0636 6687 9236 a731 d732
000000a0: 442d c833 753c 1d35 2bf9 ab35 a7d5 b432
000000b0: 1ecf 9534 a2d3 cd35 345f 6036 fc22 c633

exp_avg f4 [12, 4]
-3.1907141e-09 -1.4021662e-09 3.1314267e-09 -2.2768507e-09 -1.299965e-07 -8.879871e-08 1.3078346e-07 -1.0884994e-07
2.873116e-08 -4.835747e-09 -2.9453956e-08 -2.4003796e-08 -1.9138302e-10 9.5043286e-11 1.296936e-10 1.9009603e-09
-1.4634774e-10 3.513094e-11 1.5066988e-10 1.4920842e-10 2.9658548e-07 -3.1167012e-08 -3.0435578e-07 -2.610218e-07
-2.6631521e-09 3.28645e-10 2.701305e-09 2.2629347e-09 2.1104603e-08 -4.1540043e-09 -2.1711148e-08 -2.0209706e-08
2.343905e-08 8.480923e-09 -2.3516876e-08 7.208238e-09 8.9619846e-07 5.605229e-07 -9.0287875e-07 6.527594e-07
-1.8134855e-07 2.0328393e-08 1.8583239e-07 1.3446588e-07 -2.7714278e-09 -1.2659252e-08 1.8820143e-09 3.7132466e-09
00000000: a343 5bb1 56b6 c0b0 a430 5731 c876 1cb1
00000010: 2a95 0bb4 9bb1 beb3 7c6d 0c34 e3c0 e9b3
00000020: 7dcc f632 ae27 a6b1 ef01 fdb2 e830 ceb2
00000030: 886d 52af 9d00 d12e 8199 0e2f 0ca2 0231
00000040: 3ae9 20af ec81 1a2e cda9 252f 700e 242f
00000050: 663a 9f34 7edc 05b3 5766 a3b4 9022 8cb4
00000060: ab02 37b1 acac b42f dca1 3931 f881 1b31
00000070: 8349 b532 02bb 8eb1 527f bab2 9d99 adb2
00000080: 0457 c932 7eb3 1132 2802 cab2 55ac f731
00000090: 4a92 7035 d776 1635 5b5d 72b5 4939 2f35
000000a0: b6b8 42b4 9c9e ae32 3889 4734 b361 1034
000000b0: 7973 3eb1 fb7b 59b2 bf54 0131 202c 7f31

exp_avg_sq f4 [12, 4]
1.4875554e-09 6.645187e-10 1.1937251e-08 4.8212576e-09 3.913356e-08 3.000264e-08 3.6790357e-08 2.7194206e-08
6.596561e-10 4.719818e-10 9.838722e-10 5.5710553e-10 1.1147196e-08 8.796039e-09 1.0349052e-08 7.3775177e-09
7.233763e-13 4.707289e-13 1.6274018e-12 6.1287087e-13 1.0112599e-09 2.867299e-10 1.7358311e-09 7.205839e-11
6.106265e-12 5.04699e-12 3.6318275e-12 2.5631804e-12 1.2643915e-10 1.4901726e-11 1.6981731e-10 5.472092e-12
7.264703e-08 3.4734708e-08 4.7703264e-07 1.8953297e-07 4.3779167e-07 3.2721022e-07 4.3097876e-07 3.2070716e-07
1.3940495e-07 1.0641281e-07 1.4905918e-07 1.0228083e-07 4.890743e-07 3.752565e-07 5.520336e-07 3.658549e-07
00000000: b472 cc30 59a9 3630 9614 4d32 3ba8 a531
00000010: ce13 2833 40dc 0033 6d03 1e33 b198 e932
00000020: 2c53 3530 c4bc 0130 ed38 8730 d122 1930
00000030: e381 3f32 631d 1732 9dcb 3132 557d fd31
00000040: c19c 4b2b 987f 042b 5409 e52b 0082 2c2b
00000050: 8bfc 8a30 a5a1 9d2f 2192 ee30 4475 9e2e
00000060: 58d8 d62c 3f93 b12c 3091 7f2c 275e 342c
00000070: 7505 0b2f b413 832d 53b7 3a2f 3988 c02c
00000080: 2102 9c33 372f 1533 6f0d 0035 6d82 4b34
00000090: a109 eb34 6eab af34 4561 e734 a82d ac34
000000a0: 57af 1534 1085 e433 130d 2034 7ba5 db33
000000b0: ee48 0335 dc76 c934 762f 1435 b76a c434

exp_avg f4 [12]
-6.82378e-08 -1.3455929e-07 -3.0646703e-08 3.462373e-08 4.0144644e-07 -4.154688e-07 -2.8074243e-07 1.1052514e-06
3.526791e-06 9.4896996e-07 3.23065e-07 -4.6239543e-06
00000000: 218a 92b3 607b 10b4 68a0 03b3 32b5 1433
00000010: 6186 d734 990d dfb4 f2b8 96b4 2658 9435
00000020: cfad 6c36 b8bc 7e35 b771 ad34 7727 9bb6

exp_avg_sq f4 [12]
3.667694e-08 2.2407909e-07 4.6072555e-09 6.249862e-08 2.5015186e-11 3.8914583e-09 3.2740144e-10 4.726952e-10
4.3805167e-06 7.4851478e-06 2.257229e-06 6.08063e-06
00000000: b986 1d33 649a 7034 d94d 9e31 fb36 8633
00000010: 3109 dc2d a1b5 8531 a8fd b32f f8ee 0130
00000020: 5afc 9236 ee28 fb36 e67a 1736 3708 cc36

exp_avg f4 [12]
-6.82378e-08 -1.3455929e-07 -3.0646703e-08 3.462373e-08 4.0144644e-07 -4.154688e-07 -2.8074243e-07 1.1052514e-06
4.4606318e-07 8.173105e-07 2.0751185e-07 -1.3649003e-06
00000000: 218a 92b3 607b 10b4 68a0 03b3 32b5 1433
00000010: 6186 d734 990d dfb4 f2b8 96b4 2658 9435
00000020: 757a ef34 2665 5b35 6cd0 5e34 9e31 b7b5

exp_avg_sq f4 [12]
3.667694e-08 2.2407909e-07 4.6072555e-09 6.249862e-08 2.5015186e-11 3.8914583e-09 3.2740144e-10 4.726952e-10
1.5649765e-06 2.6688278e-06 8.8742297e-07 3.0809276e-06
00000000: b986 1d33 649a 7034 d94d 9e31 fb36 8633
00000010: 3109 dc2d a1b5 8531 a8fd b32f f8ee 0130
00000020: 2f0c d235 1d1a 3336 3e37 6e35 efc1 4e36

exp_avg f4 [12, 4]
-9.4755954e-08 -2.4503248e-09 9.556066e-08 6.206734e-08 -5.2877946e-09 2.1650346e-09 5.6301355e-09 -3.4328753e-09
2.359731e-08 4.102355e-08 -2.3097757e-08 4.1508294e-08 -1.800906e-08 2.2177775e-09 1.915289e-08 -2.2229056e-08
-1.3491235e-06 1.8351576e-08 1.3170051e-06 1.0708046e-06 3.2364812e-06 -2.8757617e-08 -3.1683617e-06 -2.5646953e-06
1.3826058e-05 -1.2860197e-07 -1.3531607e-05 -1.0924219e-05 7.113437e-08 1.681908e-08 -7.0137745e-08 -2.8375565e-08
5.834945e-06 -4.4471045e-07 -5.9103268e-06 -4.836711e-06 -2.838032e-08 -1.3668603e-09 2.9026292e-08 -1.8363782e-08
3.7069535e-06 1.1111392e-06 -3.8160374e-06 2.737862e-06 1.115454e-06 8.3750365e-07 -1.110644e-06 2.0063347e-07
00000000: a37c cbb3 9262 28b1 0737 cd33 e249 8533
00000010: efaf b5b1 b1c7 1431 3273 c131 c8e7 6bb1
00000020: 09b3 ca32 df31 3033 8168 c6b2 da46 3233
00000030: 57b2 9ab2 8e67 1831 a785 a432 36f2 beb2
00000040: 8813 b5b5 8ba3 9d32 f3c3 b035 91b8 8f35
00000050: 5332 5936 ab06 f7b2 0aa0 54b6 211d 2cb6
00000060: 78f6 6737 d715 0ab4 cf05 63b7 2a47 37b7
00000070: 89c2 9833 8c79 9032 a29e 96b3 87be f3b2
00000080: ccc9 c336 8ac0 eeb4 5251 c6b6 084b a2b6
00000090: fcc8 f3b2 1fdc bbb0 7e55 f932 62be 9db2
000000a0: fac4 7836 7422 9535 830b 80b6 1cbc 3736
000000b0: b5b6 9535 d0d0 6035 7011 95b5 b56d 5734

exp_avg_sq f4 [12, 4]
1.4108918e-09 9.533413e-10 2.0283257e-09 6.904151e-10 5.7355862e-08 4.3964206e-08 6.064883e-08 4.1230948e-08
1.2213071e-08 8.254106e-09 1.2923305e-08 6.8333343e-09 3.4095738e-08 2.5022587e-08 5.9333296e-08 3.2031984e-08
2.9582434e-09 9.8330656e-11 4.8640976e-09 8.5977794e-11 1.7725112e-10 2.8530583e-12 2.955806e-10 4.564028e-11
1.0720063e-09 3.4728203e-11 1.4846604e-09 7.066792e-10 3.6635073e-10 5.465054e-11 1.4919638e-09 6.545226e-11
1.324499e-07 7.687803e-08 2.118021e-07 3.6151466e-08 2.7216547e-06 2.1061198e-06 2.8003635e-06 1.9282877e-06
5.219929e-06 3.8343437e-06 6.9259427e-06 4.335528e-06 2.3157554e-06 1.3795932e-06 8.466376e-06 3.7206507e-06
00000000: 58e9 c130 b706 8330 af62 0b31 a5c7 3d30
00000010: 7057 7633 28d3 3c33 0c3e 8233 e815 3133
00000020: a8d1 5132 f1cd 0d32 4c05 5e32 a5ca ea31
00000030: a970 1233 40f1 d632 a6d5 7e33 8a93 0933
00000040: f849 4b31 3d3b d82e 0e21 a731 3211 bd2e
00000050: c1e3 422f 21c4 482c 457f a22f 63ba 482e
00000060: de55 9330 7bbc 182e d80c cc30 2140 4230
00000070: 4867 c92f 0a5b 702e cf0d cd30 59ee 8f2e
00000080: 8d37 0e34 2518 a533 b86b 6334 f544 1b33
00000090: aca5 3636 dd56 0d36 e1ed 3b36 bb67 0136
000000a0: d926 af36 c3a8 8036 6565 e836 e779 9136
000000b0: 6068 1b36 762a b935 cf0a 0e37 4bb0 7936

exp_avg f4 [12, 4]
4.5398494e-08 4.2381785e-08 -4.419544e-08 4.724793e-08 4.45084e-08 -4.58029e-09 -2.0389813e-08 4.1613514e-08
7.4774405e-08 3.748457e-08 -5.7258234e-08 7.3879825e-08 1.5720174e-07 -3.0660654e-08 -6.42683e-08 1.4511465e-07
5.6241833e-09 5.2116556e-09 -5.3488978e-09 5.8708416e-09 2.1874502e-08 3.3534586e-09 -4.850963e-09 2.4022624e-08
1.9235075e-07 1.0150368e-08 -3.6994884e-08 2.0601493e-07 2.4338453e-08 1.6984123e-08 -2.1138538e-08 2.4676174e-08
-6.3851715e-08 1.0367744e-08 2.610959e-08 -6.0370226e-08 1.1763848e-07 -2.5038696e-08 -4.8959013e-08 1.0813239e-07
-3.187254e-08 -3.295218e-09 1.8268603e-08 -3.0216253e-08 1.0104815e-07 -4.045527e-08 -3.105805e-08 9.129163e-08
00000000: 2cfc 4233 4407 3633 66d1 3db3 a6ed 4a33
00000010: 8129 3f33 a860 9db1 ac25 afb2 8bba 3233
00000020: aa93 a033 b8fe 2033 18ec 75b3 dda7 9e33
00000030: 49cb 2834 bfaf 03b3 df03 8ab3 d0d0 1b34
00000040: d73e c131 3512 b331 67c9 b7b1 78b8 c931
00000050: 8ae6 bb32 ab72 6631 86ad a6b1 4f5a ce32
00000060: f988 4e34 ca61 2e32 4ee4 1eb3 f434 5d34
00000070: d310 d132 7be4 9132 2394 b5b2 7bf7 d332
00000080: da1e 89b3 d21d 3232 9847 e032 e2a4 81b3
00000090: 70a0 fc33 ad14 d7b2 0147 52b3 6936 e833
000000a0: 3ae4 08b3 1772 62b1 15ed 9c32 1fc7 01b3
000000b0: cfff d833 0ac1 2db3 b064 05b3 1b0c c433

exp_avg_sq f4 [12, 4]
1.071349e-09 2.4527622e-09 2.5754154e-09 1.5117959e-09 6.17246e-08 6.909839e-08 8.499495e-08 2.9030986e-08
1.2605847e-08 1.7758582e-08 1.8061156e-08 6.9150174e-09 3.3828766e-08 8.017781e-08 6.534571e-08 1.5643478e-08
1.0457566e-10 1.6909484e-09 1.7601498e-09 1.6248374e-09 7.309367e-12 2.1261471e-12 2.2333613e-12 1.0073379e-11
6.1272785e-11 3.6627415e-10 1.2183489e-10 3.9928113e-11 3.6071476e-12 2.4150848e-10 1.9087591e-10 7.7569104e-11
7.516082e-09 1.74141e-08 1.787056e-08 1.0148503e-08 5.246422e-07 5.611118e-07 7.0623884e-07 2.4415542e-07
5.809733e-07 7.3463156e-07 8.321877e-07 2.7477307e-07 3.0463744e-07 2.7698657e-06 1.5257147e-06 1.6531483e-07
00000000: be3e 9330 738d 2831 30fb 3031 97c7 cf30
00000010: 758d 8433 3e63 9433 7886 b633 d05f f932
00000020: 1a91 5832 898b 9832 e724 9b32 2399 ed31
00000030: 1f4b 1133 382e ac33 2f54 8c33 5f60 8632
00000040: ddf6 e52e f566 e830 c4e9 f130 e250 df30
00000050: 7696 002d 439d 152c a928 1d2c 7736 312d
00000060: 83bd 862e 815c c92f 79f5 052f 0f9b 2f2e
00000070: 98d4 7d2c 4cc5 842f cbde 512f 8693 aa2e
00000080: 1420 0132 0396 9532 c781 9932 9759 2e32
00000090: 23d5 0c35 4f9f 1635 5d94 3d35 7714 8334
000000a0: 2ef4 1b35 7f33 4535 8163 5f35 8684 9334
000000b0: 0d8d a334 eee1 3936 28c7 cc35 6581 3134

exp_avg f4 [12]
7.803865e-08 -4.109109e-09 5.287494e-08 -2.6333446e-08 1.4686963e-06 -3.4857476e-06 -1.49290445e-05 -4.2341934e-08
-6.033301e-06 -2.104523e-08 3.3798758e-06 2.98052e-07
00000000: 3496 a733 1b30 8db1 9d18 6333 dc33 e2b2
00000010: 0520 c535 b0ec 69b6 c277 7ab7 73db 35b3
00000020: a971 cab6 f3c6 b4b2 d3d1 6236 f403 a034

exp_avg_sq f4 [12]
7.2239956e-09 3.4142798e-07 6.3688546e-08 2.6257152e-07 6.0621534e-09 6.612252e-10 5.291989e-09 3.6920071e-09
5.263538e-07 1.6021075e-05 3.6169993e-05 2.9761812e-05
00000000: f036 f831 814d b734 26c5 8833 8ef7 8c34
00000010: 444b d031 96c1 3530 d4d4 b531 7ab6 7d31
00000020: c24a 0d35 ff64 8637 3cb5 1738 01a9 f937

exp_avg f4 [12]
7.803865e-08 -4.109109e-09 5.287494e-08 -2.6333446e-08 1.4686963e-06 -3.4857476e-06 -1.49290445e-05 -4.2341934e-08
-9.9054404e-08 -2.0749207e-08 -1.4246247e-07 -2.599367e-08
00000000: 3496 a733 1b30 8db1 9d18 6333 dc33 e2b2
00000010: 0520 c535 b0ec 69b6 c277 7ab7 73db 35b3
00000020: bcb7 d4b3 fd3b b2b2 c9f7 18b4 af48 dfb2

exp_avg_sq f4 [12]
7.2239956e-09 3.4142798e-07 6.3688546e-08 2.6257152e-07 6.0621534e-09 6.612252e-10 5.291989e-09 3.6920071e-09
5.3534865e-08 2.8975387e-06 3.4023537e-06 6.069263e-06
00000000: f036 f831 814d b734 26c5 8833 8ef7 8c34
00000010: 444b d031 96c1 3530 d4d4 b531 7ab6 7d31
00000020: 35ee 6533 5673 4236 fe53 6436 92a6 cb36

exp_avg f4 [12, 4]
1.0860045e-07 -8.820452e-08 -5.1616187e-09 9.7964374e-08 8.983434e-08 -7.6714045e-08 -3.4692078e-09 8.290476e-08
6.6166585e-08 -6.399061e-08 -7.0312683e-10 5.8550373e-08 1.3833077e-06 1.8610419e-07 -1.8434029e-06 1.5415745e-06
-1.6154463e-05 -9.766195e-06 1.2730163e-05 -1.679907e-05 -1.2683873e-05 -7.263033e-06 9.838759e-06 -1.3078842e-05
-1.4465943e-06 1.0066587e-06 1.9464873e-07 -1.3532155e-06 -2.1475504e-05 -1.0294569e-06 1.3178104e-05 -2.331483e-05
-7.5836274e-06 7.229431e-06 6.992771e-08 -6.583982e-06 2.897467e-07 -2.1018377e-07 -1.9195122e-08 2.7408208e-07
-1.2940801e-07 1.1403008e-07 4.2543995e-09 -1.17616516e-07 -2.5807121e-05 -2.6118212e-06 2.4850948e-05 -2.8360226e-05
00000000: bb37 e933 f36a bdb3 145a b1b1 7c60 d233
00000010: f3ea c033 febd a4b3 f366 6eb1 6009 b233
00000020: 7717 8e33 366b 89b3 2746 41b0 d178 7b33
00000030: 17aa b935 eed3 4734 d76a f7b5 19e8 ce35
00000040: 7283 87b7 7dd9 23b7 a293 5537 baeb 8cb7
00000050: d2cc 54b7 fab4 f3b6 2611 2537 336d 5bb7
00000060: 9a28 c2b5 881c 8735 a300 5134 21a0 b5b5
00000070: 4b26 b4b7 df2b 8ab5 8717 5d37 3794 c3b7
00000080: dd76 feb6 5794 f236 2a2b 9633 faeb dcb6
00000090: 7c8e 9b34 e0ae 61b4 85e2 a4b2 8e25 9334
000000a0: 67f3 0ab4 b3e0 f433 182e 9231 5d94 fcb3
000000b0: 5f7c d8b7 bf46 2fb6 0177 d037 1fe7 edb7

exp_avg_sq f4 [12, 4]
1.5379084e-07 5.742674e-07 3.928612e-07 7.470054e-08 4.1103005e-09 3.8241872e-08 2.489016e-08 7.3986794e-09
3.24119e-10 2.3899809e-09 1.6784573e-09 6.0172634e-10 1.1371738e-08 1.08318075e-08 1.4704157e-08 5.58475e-09
6.288608e-08 3.918534e-07 3.9956169e-07 3.750816e-07 7.1282265e-08 3.5001074e-07 3.564413e-07 3.3783996e-07
3.835767e-09 1.9615965e-07 1.9103375e-07 1.4915709e-07 5.214247e-09 3.6599424e-08 3.9068592e-08 3.8422893e-08
8.183472e-06 2.9440484e-05 2.0590765e-05 4.2278607e-06 1.1366507e-05 4.0690604e-05 2.8392422e-05 5.687037e-06
6.9922487e-07 1.0055368e-06 1.1075153e-06 3.9747977e-07 6.4253885e-07 6.5693746e-07 8.2414397e-07 3.0940984e-07
00000000: b421 2534 5b27 1a35 6fea d234 0e6b a033
00000010: 963a 8d31 623f 2433 0ace d532 7937 fe31
00000020: b22f b22f fd3c 2431 77af e630 ba66 2530
00000030: 6f5d 4332 cb16 3a32 919d 7c32 fbe3 bf31
00000040: fd0b 8733 ec5f d234 5783 d634 d35e c934
00000050: d713 9933 1ce9 bb34 eb5c bf34 5f60 b534
00000060: c3cb 8331 f49f 5234 f51e 4d34 fd27 2034
00000070: 0029 b331 7e31 1d33 5fcc 2733 6b06 2533
00000080: bf4b 0937 f5f6 f637 55ba ac37 0cdd 8d36
00000090: c7b2 3e37 34ab 2a38 432c ee37 47d3 be36
000000a0: 5eb2 3b35 fbf5 8635 f0a5 9435 3465 d534
000000b0: ef7a 2c35 6658 3035 be3a 5d35 f71c a634

exp_avg f4 [12, 4]
7.296704e-08 -7.384035e-08 7.376824e-08 8.9636714e-08 8.485392e-09 -8.245815e-09 7.3036976e-09 7.806957e-08
3.3748957e-08 -3.402404e-08 3.3720355e-08 6.4715e-08 -1.8988539e-10 1.2894696e-10 7.2670424e-12 -1.2069745e-09
1.0920746e-07 -5.8370457e-08 -3.8315648e-08 9.408504e-06 6.825293e-08 -2.1508004e-08 -8.7750145e-08 7.030264e-06
-2.4446936e-07 2.3901606e-07 -2.438618e-07 -1.0351168e-06 -2.1131707e-09 1.4112348e-09 -2.2777488e-10 -4.2013633e-07
-2.3062046e-08 2.3310958e-08 -2.3219709e-08 -3.351116e-08 1.6315115e-08 -1.5983561e-08 1.4522987e-08 1.2526357e-07
-2.8233691e-08 2.838236e-08 -2.7904026e-08 -7.042651e-08 6.2555205e-09 -4.05742e-09 -7.574041e-10 1.0270073e-07
00000000: 0eb2 9c33 2992 9eb3 856a 9e33 4e7e c033
00000010: 26c7 1132 7aa9 0db2 01f4 fa31 33a7 a733
00000020: 5ff3 1033 d421 12b3 ecd3 1033 73f9 8a33
00000030: fcc7 50af 58c7 0d2f b3af ff2c a4e2 a5b0
00000040: 7085 ea33 ffb2 7ab3 8090 24b3 38d9 1d37
00000050: 7292 9233 9ac0 b8b2 2771 bcb3 82e5 eb36
00000060: 9d3f 83b4 1e52 8034 1cec 82b4 58ee 8ab5
00000070: 4b37 11b1 69f5 c130 ee70 7aaf 198f e1b4
00000080: fa19 c6b2 573d c832 ae74 c7b2 e9ed 0fb3
00000090: 5125 8c32 394c 89b2 c680 7932 3080 0634
000000a0: 8b86 f2b2 78cd f332 9ab1 efb2 623d 97b3
000000b0: 24f0 d631 7269 8bb1 9331 50b0 538c dc33

exp_avg_sq f4 [12, 4]
2.4456045e-07 1.8916272e-07 3.366983e-07 4.7558464e-07 1.994663e-08 1.9012518e-08 2.3025756e-08 3.0109515e-08
1.5991899e-09 1.5256587e-09 1.8253822e-09 2.280482e-09 1.719902e-08 1.2922341e-08 2.295862e-08 2.947799e-08
2.5433277e-08 1.4340698e-07 1.3705613e-09 2.8829584e-07 6.3995715e-09 4.9751378e-08 3.664251e-10 2.1076055e-07
7.5786346e-08 1.0662168e-07 2.205909e-08 1.2239248e-07 2.8721364e-11 2.214298e-10 1.9583803e-11 2.423946e-09
3.820931e-06 2.989684e-06 5.268206e-06 7.584909e-06 4.596601e-06 3.5861794e-06 6.271989e-06 8.888314e-06
1.8808423e-07 1.4249943e-07 2.5017155e-07 3.2650468e-07 3.858442e-07 2.8910026e-07 5.195076e-07 6.6273526e-07
00000000: 224c 8334 a71c 4b34 76c3 b434 db53 ff34
00000010: 1a57 ab32 f850 a332 2cca c532 c351 0133
00000020: 7eca db30 58af d130 ede0 fa30 aab6 1c31
00000030: 0cbd 9332 0f01 5e32 8a36 c532 c936 fd32
00000040: 5e78 da32 69fb 1934 575e bc30 14c7 9a34
00000050: 3ae3 db31 38ae 5533 c071 c92f 6b4d 6234
00000060: fcbf a233 e3f7 e433 747c bd32 fd6a 0334
00000070: c3a2 fc2d f376 732f ce42 ac2d 8292 2631
00000080: 8c35 8036 61a2 4836 8cc5 b036 df81 fe36
00000090: 803c 9a36 18aa 7036 fa73 d236 051f 1537
000000a0: 33f4 4934 f201 1934 514f 8634 764a af34
000000b0: 0626 cf34 a335 9b34 4a74 0b35 d2e6 3135

exp_avg f4 [12]
-7.139974e-08 -6.574741e-08 -6.298161e-08 1.5621774e-06 -1.344369e-05 -9.189919e-06 7.819648e-07 -2.363805e-05
7.012707e-06 -1.3861552e-07 1.0073609e-07 -2.8730094e-05
00000000: 6c54 99b3 0531 8db3 8240 87b3 02ac d135
00000010: 358c 61b7 672e 1ab7 36e8 5135 534a c6b7
00000020: b24e eb36 58d6 14b4 4054 d833 6801 f1b7

exp_avg_sq f4 [12]
1.5517965e-06 7.30117e-08 4.6675717e-09 5.763582e-08 4.1862427e-07 3.7398118e-07 2.1652264e-07 4.4886505e-08
8.02787e-05 0.00011168993 4.1053936e-06 3.412966e-06
00000000: 5247 d035 9bca 9c33 6560 a031 418b 7733
00000010: 48bf e034 95c7 c834 4a7d 6834 3cc9 4033
00000020: 4d5b a838 133b ea38 10c1 8936 4f0a 6536

exp_avg f4 [12]
-7.139974e-08 -6.574741e-08 -6.298161e-08 1.5621774e-06 -1.344369e-05 -9.189919e-06 7.819648e-07 -2.363805e-05
-2.0638254e-08 -6.460891e-08 6.685778e-08 -2.7005644e-05
00000000: 6c54 99b3 0531 8db3 8240 87b3 02ac d135
00000010: 358c 61b7 672e 1ab7 36e8 5135 534a c6b7
00000020: 0048 b1b2 20bf 8ab3 7493 8f33 2e8a e2b7

exp_avg_sq f4 [12]
1.5517965e-06 7.30117e-08 4.6675717e-09 5.763582e-08 4.1862427e-07 3.7398118e-07 2.1652264e-07 4.4886505e-08
2.6666516e-05 2.9319102e-05 7.3040894e-07 1.4147746e-06
00000000: 5247 d035 9bca 9c33 6560 a031 418b 7733
00000010: 48bf e034 95c7 c834 4a7d 6834 3cc9 4033
00000020: e8b1 df37 4bf2 f537 5211 4435 49e3 bd35

exp_avg f4 [5, 4]
0.00010022762 -0.000103494654 0.0001079435 -0.00014970877 -2.8495242e-05 3.0022242e-05 -3.346874e-05 -0.00047075373
-1.3683044e-06 1.5535145e-06 -2.1050744e-06 1.5550826e-05 -6.1468534e-05 6.3080035e-05 -6.435806e-05 0.00049429515
-8.9519535e-06 8.896078e-06 -8.068814e-06 0.00011056235
00000000: 4b31 d238 450b d9b8 ba5f e238 24fb 1cb9
00000010: 1109 efb7 46d8 fb37 c960 0cb8 7fcf f6b9
00000020: 95a6 b7b5 5a82 d035 e744 0db6 2573 8237
00000030: abe8 80b8 d649 8438 f8f7 86b8 9693 013a
00000040: 5930 16b7 5d40 1537 4b5f 07b7 b6dd e738

exp_avg_sq f4 [5, 4]
0.000106040854 9.133684e-05 0.00013647584 0.00020143804 2.7467331e-06 2.7120673e-06 3.243772e-06 8.83416e-06
5.845406e-06 5.0071294e-06 7.6767665e-06 1.1009959e-05 2.7019005e-05 2.334403e-05 3.387443e-05 4.8881848e-05
1.7463342e-06 1.4996117e-06 2.3593263e-06 3.7986847e-06
00000000: 4062 de38 188c bf38 f41a 0f39 1d39 5339
00000010: 8454 3836 f600 3636 94af 5936 6e36 1437
00000020: a823 c436 ea02 a836 76cb 0037 6ab7 3837
00000030: dfa6 e237 ecd2 c337 6414 0e38 7c06 4d38
00000040: 9663 ea35 4446 c935 eb54 1e36 e8ec 7e36

exp_avg f4 [5]
0.00017985959 0.00047619702 -1.3461008e-05 -0.00053419225 -0.00010834838
00000000: b198 3c39 15aa f939 97d6 61b7 0909 0cba
00000010: 1839 e3b8
