aa2_models/model1.pt (torch_old, 18909 bytes, 72 tensors)

lin1.weight f4 [4, 7]
0	0x3ec16b91	0.3777738
1	0x3e92e05a	0.28686792
2	0x3da5fe56	0.08105151
3	0xbe237a3b	-0.15964596
4	0x3ee03cb2	0.43796307
5	0x3e2ec292	0.1706641
6	0xbe5ddbf4	-0.21665937
7	0xbe8ccdb0	-0.27500677
8	0x3d834855	0.064102806
9	0x3e3ab650	0.18233609
10	0x3e81dac1	0.25362208
11	0xbe629b57	-0.2212957
12	0x3c4c83e0	0.012482613
13	0xbe8b36f9	-0.27190378
14	0xbd8c9194	-0.06863704
15	0xbe997e2c	-0.29979074
16	0x3d6f490f	0.058419283
17	0xbe78be4a	-0.2429134
18	0xbb53c360	-0.0032312497
19	0x3e9929a1	0.29914573
20	0x3e57119b	0.2100281
21	0x3e1c0c87	0.15239154
22	0x3e76f2ad	0.24116011
23	0x3e55e640	0.20888615
24	0xbe793177	-0.24335276
25	0xbe582a80	-0.21109962
26	0xbe91255e	-0.2834882
27	0xbdcdd49d	-0.100503184

lin1.bias f4 [4]
0	0x3e4b0183	0.19824795
1	0x3ee583db	0.4482716
2	0x3e902fbe	0.28161424
3	0x3d9960e2	0.07489182

GRU.weight_ih_l0 f4 [12, 4]
0	0x3dfd5bec	0.12371048
1	0xbd1a6274	-0.03769155
2	0x3f202ea8	0.6257119
3	0x3ea32bfb	0.31869492
4	0x3e7c5c0e	0.24644491
5	0x3eab4e05	0.33457962
6	0xbd9ad98b	-0.07561024
7	0xbe8427ef	-0.25811717
8	0xbe2ef803	-0.17086796
9	0x3e0a7ea0	0.13524866
10	0xbed0061c	-0.4062966
11	0x3d5bcb63	0.05366076
12	0xbeabea79	-0.33577326
13	0xbd906c82	-0.07051946
14	0x3ed7bdf2	0.42137104
15	0x3bbad552	0.0057016993
16	0x3d31843c	0.043339
17	0x3dc8cde7	0.09804898
18	0x3e03b560	0.12862158
19	0xbeaa14ae	-0.33218902
20	0xbee596dd	-0.44841662
21	0xbcfac9fe	-0.030613896
22	0x3e209f2a	0.15685716
23	0x3e973b6a	0.29537517
24	0x3eb6624f	0.35621879
25	0xbf174bd8	-0.59100103
26	0xbf1b042e	-0.6055325
27	0x3e82d40c	0.25552404
28	0xbe61dc5b	-0.22056715
29	0x3e217bd7	0.15769897
30	0xbebaab0d	-0.36458626
31	0xbe38a180	-0.18030357
32	0xbf188768	-0.59581614
33	0xbe8d6ed5	-0.2762362
34	0x3ea286d5	0.31743494
35	0x3e426de2	0.1898723
36	0x3e66bf45	0.22533901
37	0x3d10e637	0.0353758
38	0xbe078212	-0.13233212
39	0xbdb03f08	-0.08605772
40	0x3dd108a9	0.1020673
41	0x3d204b20	0.039134145
42	0x3dbe319a	0.092868045
43	0x3de4c7bd	0.111709096
44	0xbeedca85	-0.46443573
45	0xbf113940	-0.5672798
46	0xbe965935	-0.29364935
47	0x3cb2fd70	0.021849364

GRU.weight_hh_l0 f4 [12, 4]
0	0xbe849452	-0.2589441
1	0xbd5a83c9	-0.053348336
2	0xbf06abda	-0.52605975
3	0x3e4ae81c	0.19815105
4	0x3ea69f40	0.32543373
5	0x3ca157b7	0.019695146
6	0x3e27df3d	0.16393752
7	0x3f08356f	0.53206533
8	0x3d94f595	0.072734036
9	0x3d9a70d1	0.07541049
10	0xbed4217a	-0.4143179
11	0x3e337686	0.17525682
12	0xbeccfe4d	-0.40037766
13	0xbef48931	-0.4776092
14	0xbda18a16	-0.07887666
15	0xbf12bfef	-0.5732412
16	0xbee69e81	-0.45042804
17	0x3d361b1b	0.044459444
18	0xbe3dc9b4	-0.18533975
19	0xbe93eb45	-0.28890434
20	0xbefab635	-0.48967138
21	0x3ebb873c	0.36626613
22	0x3edb3d3c	0.42820156
23	0xbf030407	-0.5117802
24	0xbc4917f9	-0.012273782
25	0xbeb52413	-0.35379085
26	0x3cca6496	0.024706166
27	0x3ebed60d	0.37272683
28	0xbead714a	-0.33875495
29	0x3ea53211	0.3226476
30	0x3e382902	0.17984393
31	0xbe10797c	-0.14108843
32	0x3f05ec93	0.5231411
33	0xbe8e446f	-0.27786586
34	0x3edd0255	0.43165842
35	0x3e9ccfae	0.30627197
36	0x3d0d376a	0.034476675
37	0x3eb1dbaa	0.34737903
38	0x3e52776c	0.20553368
39	0x3e263464	0.16230923
40	0xbe96581e	-0.29364103
41	0x3ed5d5d3	0.41764697
42	0x3ea751b3	0.3267952
43	0x3c81bf5e	0.015838321
44	0x3e1621b9	0.14661302
45	0xbebea593	-0.37235698
46	0x3f142b08	0.5787816
47	0xbe8603b3	-0.26174697

GRU.bias_ih_l0 f4 [12]
0	0x3946e982	0.0001896974
1	0xbd62ec04	-0.055400863
2	0x3e1c4897	0.15262066
3	0xbc17fc56	-0.00927647
4	0xbf0b0b2f	-0.5431394
5	0xbc9177f7	-0.017757399
6	0x3b9db549	0.0048128706
7	0xbf0148ff	-0.5050201
8	0xbdf06140	-0.11737299
9	0xbebc91ca	-0.36829978
10	0xbea39144	-0.31946766
11	0x3e1e7b15	0.1547664

GRU.bias_hh_l0 f4 [12]
0	0x3eb58b41	0.35457805
1	0xbe6edda0	-0.2332673
2	0xbe47b089	-0.19500937
3	0x3df0c96f	0.117571704
4	0xbecd3b62	-0.40084368
5	0xbe0b50eb	-0.13605087
6	0xbe8c3e65	-0.27391353
7	0x3d0b6e3b	0.03404067
8	0xbf0c9098	-0.5490813
9	0xbe465610	-0.19368768
10	0xbeb3bf05	-0.35106674
11	0xbec7a5d0	-0.38993692

GRU.weight_ih_l1 f4 [12, 4]
0	0xbe93ec34	-0.28891146
1	0xbe4fabc1	-0.20280363
2	0xbedceeb6	-0.43150872
3	0xbe977651	-0.29582456
4	0xbc75448d	-0.014969957
5	0xbd73f3a6	-0.059558533
6	0xbe078918	-0.13235891
7	0x3ea3b9c6	0.3197767
8	0xbeadcc30	-0.33944845
9	0x3d860868	0.06544572
10	0xbf196aec	-0.59928775
11	0xbe59179e	-0.21200415
12	0xbf08ced0	-0.5344057
13	0xbe0d5777	-0.13802896
14	0x3e8ad325	0.27114215
15	0xbed06061	-0.4069853
16	0x3db0e4d5	0.08637396
17	0x3e3726f4	0.17885953
18	0xbeb13d35	-0.3461701
19	0x3e5d4759	0.21609248
20	0x3d8f41d5	0.06994978
21	0x3c37beb5	0.011214902
22	0xbe139a7f	-0.14414404
23	0x3eb26b80	0.3484764
24	0x3f1d3815	0.614137
25	0x3e87d2a6	0.265279
26	0xbed1d1a5	-0.4098026
27	0x3f25193f	0.6449165
28	0xbe7c16a9	-0.24618019
29	0x3eba5870	0.36395597
30	0xbe03359a	-0.12813416
31	0xbe729a1a	-0.23691598
32	0xbeedc444	-0.464388
33	0x3e8d951b	0.2765282
34	0x3eb26ca6	0.34848517
35	0x3e2f2ef2	0.17107752
36	0xbed3e5fa	-0.41386396
37	0x3ebf8a46	0.37410182
38	0xbefb9693	-0.49138317
39	0xbf24be19	-0.64352566
40	0x3ec759f1	0.38935807
41	0x3ecc011c	0.39844596
42	0x3d05303a	0.032516696
43	0x3ed9b363	0.42519674
44	0xbe08dfd0	-0.13366628
45	0x3eec2657	0.46123
46	0xbe9dea9c	-0.30843055
47	0xbe37898c	-0.17923564

GRU.weight_hh_l1 f4 [12, 4]
0	0xbe654d60	-0.22392797
1	0x3ef34cd1	0.47519544
2	0xbcf12828	-0.029438093
3	0x3ec8d54a	0.39225227
4	0xbe9f2bb0	-0.31088018
5	0x3e2c3f98	0.16821134
6	0xbee7b0d1	-0.45252088
7	0x3f022bb1	0.5084792
8	0xbd619d7f	-0.05508184
9	0x3e86a1b6	0.2629525
10	0x3d6004ce	0.054692082
11	0x3e3db202	0.18524936
12	0xbeee1420	-0.4649973
13	0xbe8027c5	-0.25030342
14	0xbd841987	-0.064501815
15	0xbdc5f42a	-0.09665711
16	0xbe4e9311	-0.20173289
17	0xbe69e662	-0.2284179
18	0xbf13cfd5	-0.57739
19	0x3ef6e2c3	0.4821988
20	0x3ea2754c	0.31730115
21	0xbe854500	-0.26029205
22	0x3c2ad3c3	0.0104264645
23	0xbeb631dc	-0.35584915
24	0xbeb2ed0a	-0.3494647
25	0x3ead963a	0.33903676
26	0x3f020703	0.5079195
27	0x3d703b7f	0.05865049
28	0xbe636878	-0.2220782
29	0x3e9c7824	0.3056041
30	0x3e48688c	0.19571131
31	0x3edf7ac3	0.43648347
32	0x3d354430	0.04425448
33	0x3e2abb25	0.16672952
34	0xbe8757a2	-0.26434046
35	0x3e3026bb	0.17202275
36	0xbe910c38	-0.28329635
37	0x3f207c05	0.6268924
38	0xbe49273e	-0.19643876
39	0xbe417363	-0.18891673
40	0x3df4c9b4	0.11952534
41	0xbec6a9be	-0.38801378
42	0x3e85bfd7	0.26122925
43	0xbf0acc80	-0.5421829
44	0x3ee51719	0.44744185
45	0x3d17683f	0.03696465
46	0xbd1fc3c0	-0.03900504
47	0xbef2bbd7	-0.47408935

GRU.bias_ih_l1 f4 [12]
0	0x3e661150	0.22467542
1	0x3e71c7fe	0.23611447
2	0x3e87c469	0.26517037
3	0xbd74e01e	-0.059784047
4	0x3d457bb5	0.04821368
5	0xbeca5df0	-0.39524794
6	0xbea98b52	-0.33114105
7	0x3f14f013	0.58178824
8	0xbe4506fb	-0.19240944
9	0x3dbcc69c	0.09217569
10	0xbf18246c	-0.59430575
11	0x3e0517f1	0.12997414

GRU.bias_hh_l1 f4 [12]
0	0x3cc4e58f	0.024035243
1	0xbe641b52	-0.22276047
2	0x3eb88d59	0.3604534
3	0x3ee91051	0.4552026
4	0x3edfef2c	0.4373716
5	0xbc8aec16	-0.016958278
6	0x3c8411ae	0.016121712
7	0xbdbe48c0	-0.0929122
8	0x3e182388	0.14857304
9	0x3ead63a7	0.3386509
10	0x3e7a1449	0.244218
11	0xbe42860c	-0.18996447

GRU.weight_ih_l2 f4 [12, 4]
0	0xbe044948	-0.1291858
1	0xbe4fce24	-0.2029348
2	0xbe866761	-0.26250747
3	0x3f010fa6	0.504145
4	0x3db6c827	0.08924895
5	0xbe7dcf96	-0.24786219
6	0xbd9f8616	-0.07789247
7	0xbe227aed	-0.15867205
8	0x3d78ad03	0.06071187
9	0x3ed0223e	0.40651125
10	0x3e01a924	0.12662178
11	0x3efebece	0.49754947
12	0xbe1df84c	-0.15426749
13	0x3e7ac842	0.24490455
14	0x3e9d0b49	0.30672672
15	0xbecc4edb	-0.39903912
16	0xbf095641	-0.5364724
17	0xbeaf8987	-0.34284613
18	0x3eda9033	0.4268814
19	0x3ea47c83	0.32126245
20	0xbe525aa0	-0.20542383
21	0x3cb3e55f	0.021959959
22	0x3e89fc29	0.26950195
23	0x3ebf0a16	0.37312382
24	0xbf4b0998	-0.79311514
25	0xbf028b1a	-0.509935
26	0x3f5f99fa	0.87344325
27	0x3e92574b	0.28582224
28	0xbf265347	-0.6497082
29	0xbeb7c683	-0.3589364
30	0x3e4e8eea	0.20171705
31	0xbeb65a89	-0.35615948
32	0x3e9a67e6	0.30157393
33	0x3ed14af4	0.40877497
34	0xbdb3b160	-0.08774066
35	0xbe9490bd	-0.29016677
36	0xbec4686f	-0.38360927
37	0xbe3abb45	-0.182355
38	0x3f1413ab	0.5784251
39	0xbd9ddc38	-0.07708019
40	0x3ed46766	0.41485137
41	0xbd833e93	-0.064084195
42	0xbe695f54	-0.22790271
43	0xbed2dcec	-0.41184175
44	0xbec142c2	-0.37746245
45	0xbef26115	-0.47339693
46	0x3e504c7f	0.20341681
47	0xbf0363ff	-0.51324457

GRU.weight_hh_l2 f4 [12, 4]
0	0xbe70d4f8	-0.23518741
1	0x3da06742	0.07832195
2	0x3e0893ef	0.13337682
3	0xbd22ac62	-0.03971518
4	0xbf1e601e	-0.61865413
5	0x3dd18658	0.10230702
6	0xbf127e0c	-0.5722358
7	0x3d9edc1b	0.077568255
8	0xbec056ef	-0.37566325
9	0xbc694751	-0.014238195
10	0xbec33d96	-0.38132924
11	0xbea7e4ea	-0.32791835
12	0xbe621447	-0.22078048
13	0xbee90024	-0.4550792
14	0xbd94efaf	-0.072722785
15	0xbeacb19b	-0.33729252
16	0x3e0848e4	0.13309056
17	0x3ec57d27	0.38572046
18	0xbe8fa7ab	-0.28057608
19	0x3f0780e8	0.5293107
20	0xbd950038	-0.07275432
21	0x3e9323c2	0.2873822
22	0x3e80e480	0.25174332
23	0x3ec9a849	0.39386204
24	0x3ebf00ab	0.37305197
25	0xbe9a8d35	-0.30185857
26	0xbe08edb9	-0.13371934
27	0x3eadeb3d	0.33968535
28	0xbd7924e4	-0.060826197
29	0xbeaaaa91	-0.33333257
30	0x3e52ebcb	0.2059776
31	0x3ce3a5b9	0.027788984
32	0x3d469cec	0.048489496
33	0x3df49f4d	0.11944447
34	0x3d776a43	0.060404073
35	0xbed04df6	-0.4068448
36	0x3e19b879	0.15011777
37	0xbd6c0eac	-0.05763118
38	0xbea21016	-0.31652898
39	0xbdbb3abb	-0.09142061
40	0x3e334196	0.17505488
41	0x3df1cc69	0.11806566
42	0x3ec66be2	0.38754183
43	0xbed3f3c8	-0.41396928
44	0xbdcf44a8	-0.10120517
45	0x3ee06785	0.4382898
46	0x3e3e1bc9	0.18565287
47	0xbd130054	-0.035888985

GRU.bias_ih_l2 f4 [12]
0	0xbe12fac9	-0.1435348
1	0x3dd24ec6	0.10268931
2	0x3df39b79	0.118948884
3	0xbd38e046	-0.04513576
4	0xbe8e869a	-0.27837068
5	0xbf654b25	-0.89567786
6	0xbf23a75f	-0.63927263
7	0xbef7597b	-0.48310456
8	0x3ec0ff29	0.37694672
9	0xbe878488	-0.264683
10	0x3edd9beb	0.43283018
11	0xbe80881a	-0.25103837

GRU.bias_hh_l2 f4 [12]
0	0x3e86dbb8	0.26339507
1	0x3e965599	0.2936218
2	0x3ede518e	0.43421596
3	0x3ec05725	0.37566486
4	0xbf4f78a7	-0.81043476
5	0xbede3f8e	-0.43407863
6	0xbee456ec	-0.44597566
7	0xbf09135a	-0.53545153
8	0xbe86a78d	-0.26299706
9	0x3d5c6581	0.05380774
10	0x3eaedb83	0.3415185
11	0xbeb8cbdb	-0.3609303

GRU.weight_ih_l3 f4 [12, 4]
0	0x3b029b85	0.0019929123
1	0xbf0adf69	-0.54247147
2	0xbeb12573	-0.34598884
3	0x3d91538b	0.07096013
4	0x3eb09716	0.3449027
5	0xbef77ecc	-0.48338926
6	0xbea495cf	-0.32145545
7	0x3e3b5a26	0.18296108
8	0x3e46da8a	0.19419304
9	0xbf244e80	-0.6418228
10	0x3e949a5c	0.29024017
11	0x3e117fe8	0.14208949
12	0xbea8d7de	-0.32977194
13	0x3ef55f03	0.4792405
14	0xbd4c2dc5	-0.049848337
15	0xbdaabcfa	-0.08336826
16	0xbed7a09b	-0.4211472
17	0x3f242552	0.64119446
18	0xbefae028	-0.48999143
19	0x3e8a9996	0.27070302
20	0xbef4ea3c	-0.47834957
21	0x3f03ca98	0.5148101
22	0xbe96c7d9	-0.29449347
23	0x3efdb996	0.49555653
24	0xbeeb2393	-0.45925578
25	0x3f4d75c1	0.80257803
26	0x3db1c1e3	0.08679559
27	0x3e9d86fe	0.30767053
28	0xbf706ce1	-0.93916136
29	0x3da89ab1	0.0823263
30	0xbf2de415	-0.6792615
31	0x3da464a4	0.08027008
32	0x3f016c12	0.5055553
33	0xbe40d424	-0.18830925
34	0xbe7b4da9	-0.24541344
35	0xbdf19c69	-0.11797411
36	0x3f0f1ba3	0.55901545
37	0x3e801f3c	0.2502383
38	0x3f0036aa	0.5008341
39	0xbe36ec46	-0.17863569
40	0xbcc06425	-0.023485253
41	0x3b488f45	0.0030602973
42	0xbf01a2e2	-0.50639164
43	0x3e18c966	0.14920577
44	0xbed99122	-0.4249354
45	0x3f26025b	0.64847344
46	0x3dea9000	0.11453247
47	0x3f1247e8	0.5714097

GRU.weight_hh_l3 f4 [12, 4]
0	0x3d599a6e	0.05312579
1	0x3e2b1b6b	0.16709678
2	0xbe923cdc	-0.28562057
3	0xba607bdc	-0.00085633784
4	0x3f22587f	0.63416284
5	0x3e9e43a5	0.30910984
6	0xbecf8580	-0.4053154
7	0xbcc2ad84	-0.02376438
8	0xbe75edbf	-0.24016474
9	0x3f1bd30e	0.6086892
10	0x3e01a221	0.12659504
11	0xbeb44762	-0.3521071
12	0xbe8ae4b1	-0.27127603
13	0xbe72618e	-0.23670027
14	0x3ec1d147	0.37854978
15	0x3e9f128d	0.3106884
16	0xbea468fc	-0.32111347
17	0xbe63b024	-0.22235161
18	0x3d49fe26	0.04931464
19	0x3dbb782c	0.0915378
20	0xbd02cb1c	-0.03193198
21	0x3e2b6410	0.1673739
22	0x3eec43cb	0.46145472
23	0x3ec06d9f	0.37583634
24	0x3e8323e6	0.25613326
25	0xbda50533	-0.08057632
26	0x3e7aaccf	0.24479984
27	0x3f0725c5	0.52792007
28	0xbec1c1df	-0.37843224
29	0x3ce010b7	0.02735172
30	0x3e4f1842	0.20224097
31	0xbe9c596e	-0.3053698
32	0x3e14be5b	0.1452574
33	0xbccaf528	-0.024775103
34	0xbef10f6e	-0.47082084
35	0xbeb0ee13	-0.34556636
36	0xbe678945	-0.22610958
37	0xbe9a116a	-0.3009141
38	0xbf2754de	-0.6536387
39	0x3dd21070	0.102570415
40	0xbe93a967	-0.2884018
41	0xbf1a5ac3	-0.6029474
42	0x3e7021ee	0.23450443
43	0x3f14de59	0.58151776
44	0x3ea29e90	0.317616
45	0x3dc222ca	0.09479292
46	0xbe723eec	-0.23656815
47	0x3ea8ef85	0.3299524

GRU.bias_ih_l3 f4 [12]
0	0x3d82a561	0.063792
1	0xbcb5bd65	-0.022185037
2	0xbe4a0529	-0.19728531
3	0x3de5c5ab	0.11219343
4	0xbdd0e2b7	-0.101994924
5	0xbbda8e5e	-0.0066698035
6	0xbf51b8c4	-0.81922555
7	0xbf594f76	-0.8488687
8	0x3f26d1ed	0.6516407
9	0x3ec56397	0.38552544
10	0xbf043e9d	-0.5165804
11	0xbea76ba5	-0.32699314

GRU.bias_hh_l3 f4 [12]
0	0x3e7770e9	0.24164166
1	0x3e8634e1	0.26212218
2	0x3e1bbc63	0.15208583
3	0xbe975e6a	-0.2956422
4	0x3daf1de9	0.08550627
5	0xbf015f12	-0.5053569
6	0xbde068f2	-0.10957517
7	0xbebdb2be	-0.37050432
8	0xbe071418	-0.13191259
9	0x3eca565c	0.39519012
10	0x3e1156c4	0.14193255
11	0xbe42d9f6	-0.19028458

GRU.weight_ih_l4 f4 [12, 4]
0	0x3e30c131	0.17261197
1	0xbb9e0191	-0.004821964
2	0xbdd5c698	-0.104382694
3	0x3e79e00a	0.2440187
4	0x3df059fe	0.11735915
5	0x3f1c3cdc	0.61030364
6	0xbf05a9a3	-0.5221197
7	0xbf0e6fc9	-0.5563932
8	0xbdca582b	-0.09880098
9	0x3f26e5aa	0.6519419
10	0x3df4e229	0.11957199
11	0xbf27da0c	-0.6556709
12	0xbdf9703d	-0.12179611
13	0xbd2425ec	-0.040075228
14	0xbe81d0dd	-0.25354663
15	0xbde4ee0d	-0.11178217
16	0xbf35db93	-0.7103817
17	0xbcc64e23	-0.02420718
18	0x3db37361	0.08762241
19	0x3f76f1eb	0.9646289
20	0xbe73f530	-0.23824
21	0xbeb0f050	-0.34558344
22	0x3dfece6e	0.12441717
23	0x3eed80f3	0.46387443
24	0xbd4c0588	-0.049809963
25	0xbf11f942	-0.5702096
26	0xbdabaa01	-0.08382035
27	0x3ec7c5e3	0.39018163
28	0xbe9655af	-0.29362246
29	0xbf54fc55	-0.8319753
30	0x3f25ef11	0.6481791
31	0x3f155e2d	0.58346826
32	0xbf1aeca2	-0.60517323
33	0xbe1736ca	-0.14766994
34	0x3ca6f586	0.020380747
35	0x3ecd109a	0.40051728
36	0x3f07ee42	0.5309793
37	0x3e8f3b16	0.27974766
38	0xbf165e5e	-0.5873774
39	0xbe3caf24	-0.18426186
40	0xbf024ffd	-0.509033
41	0xbefc6b65	-0.49300686
42	0x3eae86f8	0.34087348
43	0x3f2322da	0.63725054
44	0xbded7b5f	-0.11595797
45	0x3e449cd2	0.19200447
46	0xbf2e5e87	-0.6811299
47	0xbe314535	-0.17311557

GRU.weight_hh_l4 f4 [12, 4]
0	0xbe27bfce	-0.16381761
1	0x3f01ea76	0.50748384
2	0xbf345b10	-0.7045145
3	0x3eb163ac	0.34646356
4	0xbf25fd98	-0.6484008
5	0x3e6bfc94	0.2304557
6	0xbf1e8a22	-0.61929524
7	0x3f17a33d	0.59233457
8	0xbef5dfec	-0.480224
9	0x3e469129	0.19391312
10	0xbe813e06	-0.25242633
11	0x3d8490fa	0.064729646
12	0x3d2d9f83	0.04238845
13	0x3ecb16f1	0.3966594
14	0x3b5733aa	0.003283719
15	0x3ea3f401	0.32022098
16	0x3e173f39	0.14770211
17	0xbd4c7b6c	-0.04992239
18	0x3edba58b	0.42899737
19	0x3e1e247d	0.15443607
20	0xbdf02b7a	-0.117270425
21	0xbe9ee486	-0.31033725
22	0x3de34492	0.11097063
23	0xbebb9903	-0.36640176
24	0x3e5e27f7	0.21694933
25	0xbd76adb5	-0.060224254
26	0xbdac3a9c	-0.08409616
27	0xbf00a2ff	-0.5024871
28	0xbdd7559e	-0.10514377
29	0xbe748aa6	-0.23881015
30	0xbbdf30cb	-0.0068112365
31	0xbf20a170	-0.62746334
32	0x3eb082f9	0.34474924
33	0xbe4a928d	-0.19782467
34	0x3e9f6577	0.311321
35	0x3d16b7e1	0.036796454
36	0xbe3d9ae6	-0.1851612
37	0x3e7d8c0a	0.24760452
38	0xbe6d2f47	-0.23162566
39	0x3f079ddf	0.5297527
40	0x3eced343	0.40395555
41	0xbedd907a	-0.4327429
42	0x3e995da7	0.29954264
43	0xbf1c599b	-0.6107423
44	0xbf2b9d75	-0.67037135
45	0x3eb5701a	0.3543709
46	0xbf1d513d	-0.61452085
47	0x3e60e05e	0.2196059

GRU.bias_ih_l4 f4 [12]
0	0x3d91fe4c	0.071285814
1	0xbe8e19a1	-0.27753928
2	0xbeaebaf0	-0.34126997
3	0xbe3ebe30	-0.18627238
4	0xbf21cfe7	-0.6320786
5	0xbf17c3f8	-0.592834
6	0x3e0055ae	0.12532684
7	0xbeb428ee	-0.35187477
8	0xbed66bd0	-0.4187913
9	0x3ed5affe	0.41735834
10	0x3ebbbae1	0.36666015
11	0x3d601087	0.05470326

GRU.bias_hh_l4 f4 [12]
0	0xbeacb19d	-0.33729258
1	0x3e99fdf3	0.3007656
2	0xbd0ff88a	-0.035149135
3	0x3f0327d3	0.5123264
4	0xbec694f9	-0.38785532
5	0xbd9dc8b9	-0.077043004
6	0xbf480a79	-0.7814098
7	0xbf305d25	-0.6889213
8	0x3d3fe17b	0.046845894
9	0x3dfbc231	0.122928984
10	0x3e1ad861	0.15121605
11	0x3d8ed4a7	0.06974154

lin3.weight f4 [5, 4]
0	0xbf70778e	-0.93932426
1	0x3e7bc73f	0.24587725
2	0xbf48b2de	-0.7839793
3	0x3f4bb0b6	0.79566514
4	0x3f048ae9	0.5177446
5	0x3d209034	0.039200023
6	0x3f1a8889	0.60364586
7	0xbecb181d	-0.39666834
8	0x3f56edfd	0.8395689
9	0xbee3e35e	-0.44509405
10	0x3e6bc7ab	0.23025386
11	0xbf54aae2	-0.83073246
12	0x3e793189	0.24335302
13	0xbef0fd59	-0.4706829
14	0x3e2c9997	0.16855465
15	0xbf567e7c	-0.8378675
16	0x3f2c1bbb	0.67229813
17	0xbea0a858	-0.31378436
18	0x3f4b20c2	0.7934686
19	0xbdc85362	-0.09781529

lin3.bias f4 [5]
0	0xbd6fc751	-0.058539692
1	0xbecbb8ef	-0.3978953
2	0x3e2a77e9	0.16647305
3	0x3e59a937	0.21255957
4	0xbdcdcd13	-0.100488804

exp_avg f4 [4, 7]
0	0xb32f2395	-4.0777724e-08
1	0x80000009	-1.3e-44
2	0xb9f6e9db	-0.00047095012
3	0xb94e8c8d	-0.0001969805
4	0x34b839ba	3.4314672e-07
5	0x00000000	0.0
6	0x34e26ac7	4.217347e-07
7	0x327cdf0d	1.4719046e-08
8	0x0000000e	2e-44
9	0x3932cc05	0.00017051406
10	0x37e4b628	2.7264541e-05
11	0x33ee8049	1.11060736e-07
12	0x00000000	0.0
13	0x339939ea	7.135152e-08
14	0xb2ed5695	-2.7629804e-08
15	0x00000004	6e-45
16	0xb9a2d353	-0.00031056497
17	0xb7bcebae	-2.2521093e-05
18	0x351ceafa	5.8456465e-07
19	0x00000000	0.0
20	0x34f2d2e7	4.5229464e-07
21	0xb14c4ed6	-2.973072e-09
22	0x00000004	6e-45
23	0xb7cb09e8	-2.4204099e-05
24	0x388d988a	6.7518165e-05
25	0x349ab311	2.8815023e-07
26	0x00000000	0.0
27	0x34a2620d	3.0246193e-07

exp_avg_sq f4 [4, 7]
0	0x290be55d	3.106314e-14
1	0x2a991ddd	2.7198981e-13
2	0x388fdf00	6.860308e-05
3	0x3886278f	6.396986e-05
4	0x33712152	5.614249e-08
5	0x00000000	0.0
6	0x345fb54e	2.0834452e-07
7	0x28c793f4	2.2157603e-14
8	0x26cefc6b	1.4362539e-15
9	0x370a779e	8.2532915e-06
10	0x359c6adb	1.1654005e-06
11	0x32b1f71a	2.071788e-08
12	0x00000000	0.0
13	0x33e33bbe	1.0581378e-07
14	0x29152c73	3.31232e-14
15	0x28a206a7	1.7988498e-14
16	0x372ccbea	1.0299476e-05
17	0x36a79db6	4.995348e-06
18	0x32f9ced1	2.9081464e-08
19	0x00000000	0.0
20	0x32e0d00c	2.617164e-08
21	0x29ef8ed3	1.0638508e-13
22	0x29e06142	9.96447e-14
23	0x3871ac97	5.7619614e-05
24	0x380d40b3	3.3677275e-05
25	0x3260465c	1.3054514e-08
26	0x00000000	0.0
27	0x32a43838	1.9117678e-08

exp_avg f4 [4]
0	0xb80603f4	-3.195177e-05
1	0xb7848067	-1.5795418e-05
2	0x36d559e4	6.3583593e-06
3	0x36d8bf40	6.459566e-06

exp_avg_sq f4 [4]
0	0x37977a8c	1.8057668e-05
1	0x361caeeb	2.3347627e-06
2	0x37264c54	9.912143e-06
3	0x3699a049	4.578415e-06

exp_avg f4 [12, 4]
0	0xb5d530c2	-1.5883927e-06
1	0xb67230a5	-3.6089125e-06
2	0xb61787b6	-2.2579748e-06
3	0xb52428aa	-6.1153935e-07
4	0x35639a73	8.4788843e-07
5	0x360134ee	1.9253307e-06
6	0x35a2e8a0	1.2137643e-06
7	0x34b21231	3.316832e-07
8	0xb41a7476	-1.4384736e-07
9	0xb4aec24e	-3.25514e-07
10	0xb45c3499	-2.0508232e-07
11	0xb36e1796	-5.5435144e-08
12	0xb46a2c76	-2.1809123e-07
13	0xb508882d	-5.086211e-07
14	0xb4a7c34b	-3.1248268e-07
15	0xb3c94454	-9.372221e-08
16	0x324738da	1.1596251e-08
17	0xb480496d	-2.3895282e-07
18	0x31ec0046	6.868535e-09
19	0xb2b3de3a	-2.09394e-08
20	0xb747d5cb	-1.1911102e-05
21	0x39423a81	0.00018523076
22	0xb85d3e3e	-5.2748474e-05
23	0x37f36ec8	2.9019444e-05
24	0xb3972b66	-7.0393796e-08
25	0xb01a7aa2	-5.6199145e-10
26	0xb1869f8e	-3.9180525e-09
27	0x3228817e	9.80833e-09
28	0x385bb707	5.2384126e-05
29	0x3987d470	0.00025907485
30	0x36c0ac36	5.742094e-06
31	0x3938c368	0.00017620402
32	0x36da0477	6.497426e-06
33	0x37767eba	1.4692248e-05
34	0x371a8c0b	9.211722e-06
35	0x362308e2	2.4294063e-06
36	0xb6ee92e1	-7.1100517e-06
37	0xb7858422	-1.5916365e-05
38	0xb72d71e5	-1.0338122e-05
39	0xb64a28a1	-3.0123995e-06
40	0xb3bad8be	-8.700725e-08
41	0x3793775f	1.7579352e-05
42	0xb649076e	-2.9955659e-06
43	0x358bf61e	1.0427937e-06
44	0x362bda9e	2.5608238e-06
45	0x36c63c4e	5.90788e-06
46	0x3675fdef	3.6655654e-06
47	0x358b155f	1.0362527e-06

exp_avg_sq f4 [12, 4]
0	0x32470845	1.1585205e-08
1	0x33e3b307	1.0603076e-07
2	0x33c0b6f8	8.9739785e-08
3	0x31f8927c	7.2344033e-09
4	0x32204d99	9.330869e-09
5	0x33bada6b	8.70103e-08
6	0x33ada451	8.085829e-08
7	0x325d47ab	1.28801885e-08
8	0x31277030	2.436547e-09
9	0x32cf2d5c	2.4118599e-08
10	0x32c6ffbd	2.316653e-08
11	0x31819972	3.771839e-09
12	0x2e9396eb	6.7115945e-11
13	0x304d3bc2	7.4663487e-10
14	0x30b9ce19	1.3519098e-09
15	0x2f4fc4a9	1.8896408e-10
16	0x35a7c838	1.2500741e-06
17	0x37bc7b3c	2.2468732e-05
18	0x35adbe11	1.2944821e-06
19	0x3700547d	7.649066e-06
20	0x3702468a	7.7650275e-06
21	0x3937d5f3	0.00017531942
22	0x368f15b7	4.26426e-06
23	0x36e735e0	6.8906083e-06
24	0x2dffdb20	2.9087455e-11
25	0x2f860212	2.437593e-10
26	0x2f73ce21	2.2173953e-10
27	0x2db1b24b	2.0201748e-11
28	0x33aaefb5	7.959844e-08
29	0x3583c74d	9.818265e-07
30	0x32d42230	2.4695595e-08
31	0x352be499	6.403512e-07
32	0x350e8e46	5.310616e-07
33	0x36c7354f	5.936868e-06
34	0x36c00268	5.722326e-06
35	0x35071754	5.0325366e-07
36	0x36ca3847	6.0266207e-06
37	0x38a0d9cb	7.6699616e-05
38	0x368aa2b5	4.131662e-06
39	0x36f81478	7.393359e-06
40	0x35722002	9.01986e-07
41	0x374fc716	1.2384515e-05
42	0x360f5f43	2.136411e-06
43	0x359cef65	1.1692579e-06
44	0x33248f0f	3.8314337e-08
45	0x34fff644	4.7676633e-07
46	0x3519d5cb	5.730805e-07
47	0x334f7eb2	4.8311172e-08

exp_avg f4 [12, 4]
0	0x36d8f194	6.465425e-06
1	0x3660b1d0	3.3482102e-06
2	0x3652f254	3.1433492e-06
3	0x3693024c	4.381209e-06
4	0xb6675876	-3.4473173e-06
5	0xb6086800	-2.0326115e-06
6	0xb5f79935	-1.8447523e-06
7	0xb61a226f	-2.2967831e-06
8	0x351c3824	5.8196224e-07
9	0x34c34d5c	3.6377867e-07
10	0x34b06378	3.2854928e-07
11	0x34ce060f	3.8374898e-07
12	0x35717d7f	8.9962117e-07
13	0x34fcc3d6	4.7081147e-07
14	0x34f08e9f	4.4807254e-07
15	0x3522bb11	6.062192e-07
16	0x3403995c	1.2256118e-07
17	0xb3f34ec6	-1.1329898e-07
18	0xb3dabff0	-1.0186329e-07
19	0x33fee02a	1.1868572e-07
20	0x3587039d	1.0059335e-06
21	0xb4fbd7c3	-4.690938e-07
22	0xb41f9903	-1.4863694e-07
23	0x3559ae69	8.10926e-07
24	0xb2c765de	-2.3212973e-08
25	0x30c2c860	1.4172308e-09
26	0x32ee3176	2.7729339e-08
27	0xb28d878e	-1.6476204e-08
28	0x348aa93d	2.582764e-07
29	0xb40272b0	-1.2148917e-07
30	0xb473d5ed	-2.2708964e-07
31	0x3409f2fb	1.2847515e-07
32	0xb79d1f42	-1.8730414e-05
33	0xb72ac7ff	-1.0179355e-05
34	0xb71ea11f	-9.455048e-06
35	0xb753a313	-1.2614549e-05
36	0x371b386a	9.251855e-06
37	0x36acc9d6	5.1494962e-06
38	0x369e787e	4.722794e-06
39	0x36d00b83	6.200223e-06
40	0xb63245ca	-2.656469e-06
41	0xb5a9a5a6	-1.2639691e-06
42	0xb5b31987	-1.3343969e-06
43	0xb5f2db23	-1.8094182e-06
44	0xb700b93c	-7.672523e-06
45	0xb68700fd	-4.0234286e-06
46	0xb67bf4ce	-3.754441e-06
47	0xb6ae29e7	-5.190482e-06

exp_avg_sq f4 [12, 4]
0	0x340c8959	1.3088483e-07
1	0x347b7611	2.3419149e-07
2	0x33a9bb8a	7.903789e-08
3	0x33408574	4.482486e-08
4	0x33a39bcf	7.6186204e-08
5	0x34b1d9de	3.3127338e-07
6	0x33cb884e	9.477718e-08
7	0x32da4e50	2.5414153e-08
8	0x32926662	1.7043195e-08
9	0x33c76e1d	9.286689e-08
10	0x32d77e9a	2.5086866e-08
11	0x31bfa02b	5.5770406e-09
12	0x305775ec	7.838412e-10
13	0x30ce42d4	1.5007466e-09
14	0x304203cc	7.0582185e-10
15	0x2f8dedbf	2.581668e-10
16	0x2e8aa745	6.3052265e-11
17	0x3167e423	3.3744605e-09
18	0x30385ef2	6.7073735e-10
19	0x2e2b891d	3.900268e-11
20	0x30c5d68b	1.4394613e-09
21	0x331a5396	3.593194e-08
22	0x31df142b	6.492447e-09
23	0x305d7b46	8.0574514e-10
24	0x2e808cc3	5.8457704e-11
25	0x2fca8750	3.683973e-10
26	0x2fc59840	3.594227e-10
27	0x2dc99482	2.2917005e-11
28	0x2e131e62	3.3450916e-11
29	0x309ed1be	1.1555625e-09
30	0x2f573f3f	1.9576606e-10
31	0x2dd7eb2a	2.4547104e-11
32	0x3602be93	1.9482438e-06
33	0x36b617b5	5.4267825e-06
34	0x35d16f3e	1.5604089e-06
35	0x3530c737	6.5855005e-07
36	0x3507bd29	5.0566683e-07
37	0x35f84ff2	1.8500707e-06
38	0x35047835	4.9348756e-07
39	0x34378cc1	1.7094409e-07
40	0x34670d2d	2.1518345e-07
41	0x357d09a7	9.426389e-07
42	0x3483dae8	2.4559927e-07
43	0x3398bcaf	7.112373e-08
44	0x340056d5	1.1952518e-07
45	0x35023a66	4.8513755e-07
46	0x3406f3c8	1.256841e-07
47	0x332d3f78	4.0337426e-08

exp_avg f4 [12]
0	0xb706c473	-8.032762e-06
1	0x36907164	4.304735e-06
2	0xb543b678	-7.290869e-07
3	0xb5968549	-1.1214662e-06
4	0xb40b6e13	-1.2985429e-07
5	0xb59988c9	-1.1439198e-06
6	0x32fce9f2	2.9443047e-08
7	0xb4378138	-1.7090213e-07
8	0x3809d586	3.2862205e-05
9	0xb817b051	-3.6165413e-05
10	0x36edfa29	7.092273e-06
11	0x375b7fb6	1.3083152e-05

exp_avg_sq f4 [12]
0	0x354e9169	7.695258e-07
1	0x353b372f	6.974323e-07
2	0x3453ae53	1.9714325e-07
3	0x31f37bb8	7.086296e-09
4	0x31cb09aa	5.9091763e-09
5	0x33dd445f	1.0303551e-07
6	0x3104e913	1.9341015e-09
7	0x30d2f3dd	1.5348821e-09
8	0x383b871f	4.4710116e-05
9	0x37de04d1	2.6466705e-05
10	0x3768f51a	1.3885345e-05
11	0x368b2074	4.146301e-06

exp_avg f4 [12]
0	0xb706c473	-8.032762e-06
1	0x36907164	4.304735e-06
2	0xb543b678	-7.290869e-07
3	0xb5968549	-1.1214662e-06
4	0xb40b6e13	-1.2985429e-07
5	0xb59988c9	-1.1439198e-06
6	0x32fce9f2	2.9443047e-08
7	0xb4378138	-1.7090213e-07
8	0x37c39553	2.3315346e-05
9	0xb7419da2	-1.1540398e-05
10	0x365d0621	3.2935134e-06
11	0x372003c7	9.537623e-06

exp_avg_sq f4 [12]
0	0x354e9169	7.695258e-07
1	0x353b372f	6.974323e-07
2	0x3453ae53	1.9714325e-07
3	0x31f37bb8	7.086296e-09
4	0x31cb09aa	5.9091763e-09
5	0x33dd445f	1.0303551e-07
6	0x3104e913	1.9341015e-09
7	0x30d2f3dd	1.5348821e-09
8	0x378652c8	1.6012593e-05
9	0x36c90b78	5.991602e-06
10	0x361f210f	2.371209e-06
11	0x35b62036	1.3569431e-06

exp_avg f4 [12, 4]
0	0x370a7d26	8.254579e-06
1	0x36ce92e0	6.156377e-06
2	0x35f06ed1	1.7913645e-06
3	0x36c35fa4	5.822587e-06
4	0x3714b00a	8.862475e-06
5	0x369d269b	4.683459e-06
6	0x35167b22	5.6058536e-07
7	0x36fa8128	7.4656164e-06
8	0xb4f82863	-4.6222985e-07
9	0x351f9605	5.9450423e-07
10	0x35f82b94	1.8490123e-06
11	0xb564c98e	-8.522992e-07
12	0x345c070f	2.0491665e-07
13	0x32846309	1.5411858e-08
14	0xb4cc16d4	-3.801457e-07
15	0x34521df2	1.9568668e-07
16	0xb74bc692	-1.2145976e-05
17	0x33e7befa	1.0791514e-07
18	0x373ca530	1.1244134e-05
19	0xb76eccf8	-1.42336285e-05
20	0xb7470054	-1.1861401e-05
21	0xb692a80f	-4.3707037e-06
22	0x379258be	1.744588e-05
23	0xb76054ba	-1.3371167e-05
24	0xb6dd42f6	-6.5941085e-06
25	0xb5002957	-4.7743873e-07
26	0x36e5116a	6.826759e-06
27	0xb6ea420a	-6.9814314e-06
28	0xb5a3ea6a	-1.221267e-06
29	0x359ec784	1.1829984e-06
30	0xb57be5a3	-9.383895e-07
31	0xb5725d94	-9.02882e-07
32	0x38f8af27	0.00011858186
33	0x388da407	6.7539564e-05
34	0xb794af99	-1.7724744e-05
35	0x38c5f4d5	9.4392955e-05
36	0x3883be1d	6.281978e-05
37	0x37bd1fbc	2.2545333e-05
38	0xb7ca2330	-2.4096662e-05
39	0x387e580a	6.0640312e-05
40	0xb7cee2a1	-2.4662646e-05
41	0xb79fb386	-1.9037874e-05
42	0x37a7e63b	2.001516e-05
43	0xb7d3bc3e	-2.5240817e-05
44	0xb6c8bf2e	-5.9827207e-06
45	0xb4d49033	-3.9592996e-07
46	0x376948fb	1.3904874e-05
47	0xb6d864f5	-6.4490546e-06

exp_avg_sq f4 [12, 4]
0	0x336a4427	5.4544355e-08
1	0x330c98b2	3.2735166e-08
2	0x3298d5c5	1.779234e-08
3	0x32a51d6f	1.9221913e-08
4	0x34f36bdd	4.5340758e-07
5	0x3598cc08	1.1384263e-06
6	0x348634ff	2.4998005e-07
7	0x3427f822	1.5643357e-07
8	0x30c8087d	1.4554328e-09
9	0x32254b65	9.621407e-09
10	0x315b548d	3.1916756e-09
11	0x30185f8e	5.543307e-10
12	0x2f8c49f9	2.5518412e-10
13	0x31320761	2.5906604e-09
14	0x3000c949	4.685217e-10
15	0x2ec582d6	8.981764e-11
16	0x326f8467	1.3941736e-08
17	0x325f4187	1.2995208e-08
18	0x355c94ac	8.217273e-07
19	0x319f53e1	4.637045e-09
20	0x31868bae	3.915793e-09
21	0x334991c2	4.6931525e-08
22	0x35214f36	6.009244e-07
23	0x3118751d	2.2185482e-09
24	0x3165eb1c	3.345753e-09
25	0x30db2c1e	1.5946886e-09
26	0x319e98ce	4.615777e-09
27	0x309d6dad	1.1454425e-09
28	0x2e229ec1	3.6975537e-11
29	0x2fd88fdc	3.939239e-10
30	0x3143e4f9	2.850639e-09
31	0x2d9e592e	1.8002124e-11
32	0x3790d811	1.7266751e-05
33	0x37896d14	1.6382466e-05
34	0x36be2aa0	5.6674035e-06
35	0x36ce9e64	6.1577175e-06
36	0x374e79fa	1.2306957e-05
37	0x37e58347	2.7360058e-05
38	0x3674da40	3.6485872e-06
39	0x369064cf	4.30327e-06
40	0x35d26ced	1.5677921e-06
41	0x35ebddca	1.7573414e-06
42	0x34991ca5	2.8519312e-07
43	0x351a217e	5.741821e-07
44	0x33b43c63	8.3928875e-08
45	0x3517cc4e	5.6549186e-07
46	0x3412f2ca	1.3685636e-07
47	0x32f82fba	2.8892703e-08

exp_avg f4 [12, 4]
0	0xb60c23b4	-2.0882408e-06
1	0xb7005718	-7.649673e-06
2	0x37078deb	8.07967e-06
3	0xb5c876ff	-1.4935794e-06
4	0xb60a270e	-2.0586335e-06
5	0xb6e590de	-6.8415966e-06
6	0x36f09ac1	7.170573e-06
7	0xb5c77545	-1.4860785e-06
8	0xb461806f	-2.1001482e-07
9	0xb54048c0	-7.163144e-07
10	0x35608460	8.3639134e-07
11	0xb3c984ff	-9.383984e-08
12	0x33443378	4.5681617e-08
13	0x33f25f50	1.12863404e-07
14	0xb3e75a3b	-1.07731886e-07
15	0x332e98dc	4.0651557e-08
16	0xb5252fd2	-6.153688e-07
17	0xb5e501fe	-1.7062409e-06
18	0x35d55d8f	1.5896966e-06
19	0xb50b546b	-5.190438e-07
20	0xb53c9b79	-7.02617e-07
21	0xb513f3c2	-5.511648e-07
22	0x359469b3	1.1057622e-06
23	0xb35c071f	-5.1229218e-08
24	0xb30bdaf2	-3.256259e-08
25	0xb49cd62c	-2.9213095e-07
26	0x33bec6a0	8.883694e-08
27	0xb3f34157	-1.13274545e-07
28	0x350268f8	4.8581524e-07
29	0x353576e1	6.7600746e-07
30	0xb53e2c27	-7.0844766e-07
31	0x34993c2e	2.8542257e-07
32	0xb793ac0d	-1.7603883e-05
33	0xb8881bd7	-6.490171e-05
34	0x388fdbd4	6.8597175e-05
35	0xb752814a	-1.2547078e-05
36	0xb6bd5aa4	-5.643191e-06
37	0xb7a09d63	-1.9146775e-05
38	0x37a5e9c5	1.977839e-05
39	0xb69027ec	-4.296182e-06
40	0x35a2a897	1.2119007e-06
41	0x37064054	8.002e-06
42	0xb70a9758	-8.260678e-06
43	0x35a135ff	1.201115e-06
44	0xb5d5c245	-1.5926277e-06
45	0xb66f86e8	-3.56923e-06
46	0x3678331a	3.6984625e-06
47	0xb59d2437	-1.1707951e-06

exp_avg_sq f4 [12, 4]
0	0x327d2e9e	1.4737138e-08
1	0x33c9ac1c	9.3910984e-08
2	0x33f47655	1.138366e-07
3	0x319e9b11	4.616034e-09
4	0x35722252	9.020197e-07
5	0x35875e04	1.0085646e-06
6	0x35e6ec43	1.7205097e-06
7	0x33ce93b5	9.61949e-08
8	0x31dce1a1	6.4284937e-09
9	0x3182fafd	3.812032e-09
10	0x3200da3a	7.5002e-09
11	0x30b0a650	1.2852954e-09
12	0x31154e3b	2.1726823e-09
13	0x30071ca8	4.9153437e-10
14	0x31026ca2	1.897924e-09
15	0x2fcd57c4	3.7351644e-10
16	0x30304b7b	6.413569e-10
17	0x310243ff	1.895614e-09
18	0x3244fa90	1.1465673e-08
19	0x30a1aabb	1.1762816e-09
20	0x3145a998	2.8763676e-09
21	0x3138af0d	2.6875029e-09
22	0x308a4439	1.0060212e-09
23	0x300559f5	4.8512955e-10
24	0x2e8dfa6e	6.456423e-11
25	0x30e3e013	1.658011e-09
26	0x2fd9f33a	3.9644893e-10
27	0x3058fa21	7.8935797e-10
28	0x2d8707ce	1.5351189e-11
29	0x2f4d6747	1.8681333e-10
30	0x2d850c19	1.5125722e-11
31	0x2e975063	6.8809645e-11
32	0x36b8cd2d	5.507513e-06
33	0x37549a2e	1.2672082e-05
34	0x3795fefa	1.7880917e-05
35	0x354ccd44	7.6294623e-07
36	0x3706a7e2	8.026111e-06
37	0x3719ce99	9.167613e-06
38	0x377daadf	1.5119759e-05
39	0x35854f83	9.932413e-07
40	0x358c73dc	1.0464532e-06
41	0x360f9e0e	2.140066e-06
42	0x3636e06a	2.725074e-06
43	0x348e138f	2.6463792e-07
44	0x3468f41a	2.1695487e-07
45	0x33855217	6.208227e-08
46	0x34651722	2.1335703e-07
47	0x332b7776	3.992269e-08

exp_avg f4 [12]
0	0xb72a070b	-1.0134429e-05
1	0xb72f1442	-1.04355295e-05
2	0x340e2e04	1.3241521e-07
3	0xb453d653	-1.9728877e-07
4	0x3759ddb8	1.2985831e-05
5	0x37178c25	9.032931e-06
6	0x36dac6bc	6.520042e-06
7	0x35cc2da3	1.5212466e-06
8	0xb90efc9f	-0.00013636284
9	0xb89157f1	-6.930519e-05
10	0x37cbe0bf	2.4304141e-05
11	0x36b5f5af	5.4228217e-06

exp_avg_sq f4 [12]
0	0x346eb1f1	2.2230212e-07
1	0x36991c1f	4.563029e-06
2	0x332856f5	3.9194635e-08
3	0x320e8d51	8.2976195e-09
4	0x339efc89	7.403384e-08
5	0x331a1462	3.5874457e-08
6	0x32518967	1.2196643e-08
7	0x2ffb955e	4.5762766e-10
8	0x393dbdc1	0.00018095133
9	0x3954ecc5	0.00020306099
10	0x380a211e	3.2932607e-05
11	0x36085d17	2.0319765e-06

exp_avg f4 [12]
0	0xb72a070b	-1.0134429e-05
1	0xb72f1442	-1.04355295e-05
2	0x340e2e04	1.3241521e-07
3	0xb453d653	-1.9728877e-07
4	0x3759ddb8	1.2985831e-05
5	0x37178c25	9.032931e-06
6	0x36dac6bc	6.520042e-06
7	0x35cc2da3	1.5212466e-06
8	0xb8d1cd91	-0.00010004186
9	0xb8119605	-3.471041e-05
10	0x3789ba67	1.6418473e-05
11	0x36b92e8b	5.518848e-06

exp_avg_sq f4 [12]
0	0x346eb1f1	2.2230212e-07
1	0x36991c1f	4.563029e-06
2	0x332856f5	3.9194635e-08
3	0x320e8d51	8.2976195e-09
4	0x339efc89	7.403384e-08
5	0x331a1462	3.5874457e-08
6	0x32518967	1.2196643e-08
7	0x2ffb955e	4.5762766e-10
8	0x385eb6a8	5.3099036e-05
9	0x38626286	5.3974356e-05
10	0x377fab8e	1.5239128e-05
11	0x357d3b2d	9.4335957e-07

exp_avg f4 [12, 4]
0	0x35f79046	1.8444923e-06
1	0x35797cf6	9.294157e-07
2	0xb65e0f27	-3.3089398e-06
3	0xb4dd5753	-4.1227995e-07
4	0x34929646	2.7303957e-07
5	0x350f25a5	5.332643e-07
6	0xb5598956	-8.103865e-07
7	0xb1a98f06	-4.9348072e-09
8	0xb5474c6b	-7.424448e-07
9	0xb5cd40c5	-1.5292541e-06
10	0x3633168b	2.66862e-06
11	0x34811e82	2.405032e-07
12	0xb6303cae	-2.6261364e-06
13	0xb7049b02	-7.903904e-06
14	0x37246cb1	9.800468e-06
15	0xb54ad2b9	-7.5557506e-07
16	0x368025fb	3.819119e-06
17	0x36cf6b27	6.181555e-06
18	0xb731b68b	-1.0592524e-05
19	0xb4d8631e	-4.0305252e-07
20	0x365ac580	3.2599492e-06
21	0x36b6ff5c	5.4537504e-06
22	0xb71a7609	-9.2065975e-06
23	0xb4bbad28	-3.4957452e-07
24	0x35f4ce44	1.8239448e-06
25	0x363cb656	2.8120317e-06
26	0xb6a52443	-4.9216046e-06
27	0xb45e0417	-2.0676849e-07
28	0x367383b1	3.6286476e-06
29	0x36c54a3d	5.8797e-06
30	0xb72e8c0b	-1.04038145e-05
31	0xb51406a2	-5.514395e-07
32	0xb87209d1	-5.770644e-05
33	0xb93c4940	-0.00017956365
34	0x397494a0	0.0002332502
35	0xb6ce81ae	-6.154375e-06
36	0x37fef838	3.0394745e-05
37	0x38c09ef6	9.184882e-05
38	0xb8f63d7f	-0.000117416486
39	0x36d537c6	6.3543876e-06
40	0xb73c5fd7	-1.1227988e-05
41	0xb79e4456	-1.886689e-05
42	0x380b291c	3.317847e-05
43	0x360769a9	2.017807e-06
44	0x37cb315c	2.422247e-05
45	0x388a454e	6.593262e-05
46	0xb8b3a112	-8.565387e-05
47	0x36ac74dd	5.139604e-06

exp_avg_sq f4 [12, 4]
0	0x35481157	7.453104e-07
1	0x3524efe0	6.1443825e-07
2	0x35a1720b	1.2028626e-06
3	0x33c919b0	9.3644644e-08
4	0x31cb4fce	5.9171503e-09
5	0x32cadc7b	2.3616158e-08
6	0x32fcca6a	2.9428708e-08
7	0x30c730f9	1.4493075e-09
8	0x33cffbeb	9.685012e-08
9	0x32ec5f68	2.7517402e-08
10	0x33c4890c	9.15189e-08
11	0x32683a66	1.3517456e-08
12	0x338324ba	6.1068434e-08
13	0x34105f84	1.3445793e-07
14	0x345c360c	2.0508759e-07
15	0x32254469	9.619819e-09
16	0x2ffdfe6d	4.6201212e-10
17	0x3027bc7c	6.10221e-10
18	0x310d6395	2.0574806e-09
19	0x2dd1069e	2.3763488e-11
20	0x2fca4e18	3.6799075e-10
21	0x300688fb	4.8943577e-10
22	0x30fc8a1f	1.837467e-09
23	0x2e2b0e9c	3.8893874e-11
24	0x2f503f28	1.8939927e-10
25	0x2f914f59	2.6431726e-10
26	0x30571618	7.824794e-10
27	0x2de3a92a	2.5882036e-11
28	0x30972bc4	1.0999135e-09
29	0x3082087f	9.46116e-10
30	0x318fd17a	4.1856625e-09
31	0x30102f7c	5.2454374e-10
32	0x38a3bc16	7.8074794e-05
33	0x38fc3bb0	0.00012027414
34	0x3943d41e	0.00018675669
35	0x373710a2	1.0911523e-05
36	0x3802dc19	3.1199397e-05
37	0x383226da	4.247469e-05
38	0x388f7baa	6.8418056e-05
39	0x36940c13	4.4121493e-06
40	0x36b3fde0	5.3641706e-06
41	0x359be13a	1.161395e-06
42	0x369adfb9	4.6156024e-06
43	0x3565b7e7	8.557676e-07
44	0x3847e58e	4.7659087e-05
45	0x386ed946	5.6945973e-05
46	0x38cee189	9.864855e-05
47	0x36ba6579	5.555045e-06

exp_avg f4 [12, 4]
0	0xb62891e4	-2.511887e-06
1	0x363b3ee8	2.7901788e-06
2	0xb653ade1	-3.154266e-06
3	0x36538079	3.151623e-06
4	0x343f3ef7	1.7811168e-07
5	0xb45a5899	-2.0335064e-07
6	0x34747ce8	2.2769711e-07
7	0xb46b03fb	-2.1887529e-07
8	0xb3e3ee16	-1.0613819e-07
9	0x33b297c9	8.3163805e-08
10	0xb2ecc266	-2.7562418e-08
11	0x338fa5fa	6.6891474e-08
12	0xb6a0a6b1	-4.787777e-06
13	0x36afa3db	5.2344817e-06
14	0xb6bcf5b3	-5.6314398e-06
15	0x36c54ee3	5.880241e-06
16	0xb4a500ac	-3.0734134e-07
17	0x34cb7fdd	3.790473e-07
18	0xb51613c6	-5.590813e-07
19	0x3504b0db	4.943119e-07
20	0xb4b5da93	-3.387291e-07
21	0x34d8dbc5	4.039304e-07
22	0xb518a3ad	-5.686259e-07
23	0x350e0d28	5.2918267e-07
24	0xb3ae9263	-8.129134e-08
25	0x33cf2905	9.64665e-08
26	0xb41a1531	-1.4350077e-07
27	0x3410c1b5	1.3481515e-07
28	0xb51113db	-5.40456e-07
29	0x35367e5e	6.798417e-07
30	0xb57a59e3	-9.326306e-07
31	0x3557cabb	8.0388753e-07
32	0xb85fd83b	-5.3368723e-05
33	0x38730812	5.794323e-05
34	0xb88312a1	-6.250037e-05
35	0x38881c36	6.49024e-05
36	0x378b1b1b	1.6582713e-05
37	0xb7974e48	-1.8037055e-05
38	0x379fd254	1.9052219e-05
39	0xb7a7feae	-2.0026546e-05
40	0x3382c8e2	6.090137e-08
41	0xb4395f33	-1.7264101e-07
42	0x34f26e49	4.5156256e-07
43	0xb4b98eaf	-3.456275e-07
44	0x37bfcde8	2.2864857e-05
45	0xb7d198eb	-2.498595e-05
46	0x37e03200	2.6726164e-05
47	0xb7eac960	-2.7988746e-05

exp_avg_sq f4 [12, 4]
0	0x33884629	6.3457556e-08
1	0x34888432	2.542816e-07
2	0x360235cc	1.9402823e-06
3	0x34b634d3	3.3938576e-07
4	0x311e629b	2.3048077e-09
5	0x3233ba6c	1.0461559e-08
6	0x3321bbef	3.765666e-08
7	0x32a0196e	1.8638016e-08
8	0x31da81c5	6.359388e-09
9	0x323c07a7	1.094478e-08
10	0x3465911f	2.1380082e-07
11	0x3204a246	7.720308e-09
12	0x329f0d58	1.8516104e-08
13	0x338c2571	6.5260686e-08
14	0x346c1147	2.1985498e-07
15	0x33d67586	9.986529e-08
16	0x2e13987d	3.3559367e-11
17	0x2ed30a4d	9.596999e-11
18	0x300d4a2b	5.14009e-10
19	0x2f22352c	1.4752705e-10
20	0x2e992f9e	6.966093e-11
21	0x2f380407	1.6736133e-10
22	0x304c7af5	7.43895e-10
23	0x2fe5838f	4.1748335e-10
24	0x2c0b6410	1.9808634e-12
25	0x2c44011d	2.7853893e-12
26	0x2dd18db6	2.3823481e-11
27	0x2d51d766	1.1928103e-11
28	0x2f06f207	1.2273214e-10
29	0x2fa89815	3.0667083e-10
30	0x312b9d6d	2.4973261e-09
31	0x3016da31	5.487975e-10
32	0x36bc0a3b	5.6040276e-06
33	0x37b19951	2.1171438e-05
34	0x38e7e133	0.00011056885
35	0x380482d4	3.1593096e-05
36	0x35a70ce6	1.2446224e-06
37	0x36b096b5	5.2627533e-06
38	0x38109288	3.4468743e-05
39	0x3700ca39	7.676478e-06
40	0x33f75dbc	1.1518884e-07
41	0x3433be7b	1.673997e-07
42	0x366c6fc9	3.5231808e-06
43	0x33f3575a	1.13314584e-07
44	0x35ad4e32	1.2912262e-06
45	0x36be5898	5.672755e-06
46	0x38063c7a	3.2004413e-05
47	0x370bb762	8.327743e-06

exp_avg f4 [12]
0	0x36adb1dc	5.1765073e-06
1	0x35876922	1.0088881e-06
2	0xb64c3c0f	-3.0433328e-06
3	0xb7343fb1	-1.0743665e-05
4	0x3766cd13	1.3756816e-05
5	0x374aaf66	1.2080976e-05
6	0x36d00de8	6.200502e-06
7	0x37540b8e	1.2638875e-05
8	0xb98a9a99	-0.00026436595
9	0x39066726	0.00012817662
10	0xb8278eee	-3.9949016e-05
11	0x38c79185	9.5161646e-05

exp_avg_sq f4 [12]
0	0x3694695f	4.4230105e-06
1	0x33aed985	8.142073e-08
2	0x35035ab7	4.893331e-07
3	0x3506c9f4	5.021277e-07
4	0x322e4c9f	1.0145555e-08
5	0x323ce568	1.0995201e-08
6	0x31be0afa	5.5309757e-09
7	0x32dc7b52	2.566745e-08
8	0x3a1f7b0b	0.00060837035
9	0x397c519b	0.00024062993
10	0x37c50f11	2.3491246e-05
11	0x39aa58db	0.0003249113

exp_avg f4 [12]
0	0x36adb1dc	5.1765073e-06
1	0x35876922	1.0088881e-06
2	0xb64c3c0f	-3.0433328e-06
3	0xb7343fb1	-1.0743665e-05
4	0x3766cd13	1.3756816e-05
5	0x374aaf66	1.2080976e-05
6	0x36d00de8	6.200502e-06
7	0x37540b8e	1.2638875e-05
8	0xb9153669	-0.00014230017
9	0x3860c5bd	5.358992e-05
10	0xb7db0fe5	-2.6114236e-05
11	0x386d2653	5.6540895e-05

exp_avg_sq f4 [12]
0	0x3694695f	4.4230105e-06
1	0x33aed985	8.142073e-08
2	0x35035ab7	4.893331e-07
3	0x3506c9f4	5.021277e-07
4	0x322e4c9f	1.0145555e-08
5	0x323ce568	1.0995201e-08
6	0x31be0afa	5.5309757e-09
7	0x32dc7b52	2.566745e-08
8	0x397fd5f8	0.00024398405
9	0x38a64d90	7.929944e-05
10	0x3709f093	8.221849e-06
11	0x3898ce1c	7.286316e-05

exp_avg f4 [12, 4]
0	0xb7be7f63	-2.2709084e-05
1	0x37cd6a1a	2.4487312e-05
2	0xb7e1e3cd	-2.6928168e-05
3	0x37e92ed6	2.7797574e-05
4	0xb7027b9d	-7.777385e-06
5	0x37197605	9.146989e-06
6	0xb72a4dd3	-1.01509095e-05
7	0x37256771	9.858851e-06
8	0xb6e70c01	-6.885734e-06
9	0x36ee1405	7.0952833e-06
10	0xb7006b05	-7.654312e-06
11	0x3709abde	8.205852e-06
12	0x3533faf5	6.7047887e-07
13	0xb49d4e3c	-2.9300452e-07
14	0x348f974a	2.6745903e-07
15	0xb529c8e0	-6.324972e-07
16	0x377bdfe2	1.5012893e-05
17	0xb7a9590e	-2.018784e-05
18	0x37beab84	2.2729633e-05
19	0xb7aa26b6	-2.0283605e-05
20	0x3759c759	1.2980622e-05
21	0xb790d856	-1.7266877e-05
22	0x37a3b209	1.9514018e-05
23	0xb792960c	-1.7474427e-05
24	0x3726d3fd	9.943728e-06
25	0xb760baad	-1.3394904e-05
26	0x377a2a0a	1.4910949e-05
27	0xb75f1303	-1.3296262e-05
28	0x374fbf58	1.2382712e-05
29	0xb789dff8	-1.6435966e-05
30	0x379c761b	1.8651646e-05
31	0xb78c0575	-1.6691842e-05
32	0xb9574824	-0.00020530872
33	0x397825b3	0.00023665167
34	0xb98a1073	-0.00026333667
35	0x3987d773	0.0002590973
36	0xb8f0636f	-0.00011462613
37	0x390a5970	0.00013194024
38	0xb91961a7	-0.00014627595
39	0x3916fdb0	0.0001439962
40	0x38bca41c	8.995106e-05
41	0xb8e830a6	-0.000110716835
42	0x390196d8	0.00012358592
43	0xb8f37aea	-0.000116100375
44	0x395e478a	0.0002119822
45	0xb97e07e2	-0.00024226264
46	0x398cacac	0.0002683153
47	0xb98b5734	-0.00026577117

exp_avg_sq f4 [12, 4]
0	0x33e47526	1.06383865e-07
1	0x344ff4e0	1.9367462e-07
2	0x35169981	5.610273e-07
3	0x34916495	2.7081538e-07
4	0x33111362	3.3778072e-08
5	0x3408752d	1.2708615e-07
6	0x350fb628	5.3536723e-07
7	0x34501c43	1.9381791e-07
8	0x346eba34	2.2233218e-07
9	0x3553f0ea	7.89542e-07
10	0x36128ca2	2.1837554e-06
11	0x35aed5f7	1.3026282e-06
12	0x338604d7	6.2407416e-08
13	0x34588c34	2.0167573e-07
14	0x360e4708	2.1200995e-06
15	0x347f99ec	2.3804722e-07
16	0x31c7dc22	5.8166885e-09
17	0x325c9a58	1.2840779e-08
18	0x331cdb3b	3.652097e-08
19	0x329cf0c1	1.8270272e-08
20	0x319e0927	4.5994457e-09
21	0x32335bda	1.0440056e-08
22	0x33051d23	3.0992975e-08
23	0x327339ad	1.4157576e-08
24	0x31b73cf1	5.332929e-09
25	0x325969f6	1.2655155e-08
26	0x3347d837	4.6529944e-08
27	0x329aadb4	1.800695e-08
28	0x31ba05a0	5.413952e-09
29	0x3255ccb9	1.244478e-08
30	0x331800df	3.539105e-08
31	0x32988f64	1.7760335e-08
32	0x37efabae	2.8570965e-05
33	0x38c969fe	9.6041695e-05
34	0x39ce35bc	0.00039331417
35	0x391b15b5	0.00014790038
36	0x3720cfc6	9.585119e-06
37	0x382ae104	4.074072e-05
38	0x3934bbd1	0.00017236105
39	0x3883a5d5	6.2774554e-05
40	0x371cc3dc	9.343927e-06
41	0x3843e024	4.670037e-05
42	0x39749435	0.00023324865
43	0x389264c0	6.980589e-05
44	0x3860eff6	5.3629243e-05
45	0x396a1e5e	0.00022327292
46	0x3ab76cba	0.0013994195
47	0x39a866d1	0.0003212006

exp_avg f4 [12, 4]
0	0xb80699ac	-3.2091208e-05
1	0xb804e69e	-3.168603e-05
2	0x380e6f02	3.3958822e-05
3	0x380391a0	3.1368458e-05
4	0xb6db0436	-6.527199e-06
5	0xb6d1d0af	-6.2529793e-06
6	0x36e49d71	6.813258e-06
7	0x36cda151	6.128256e-06
8	0xb746ffb4	-1.1861255e-05
9	0xb7408e0c	-1.1477165e-05
10	0x3750b148	1.2439043e-05
11	0x373d4734	1.1281856e-05
12	0x3662e26f	3.3808426e-06
13	0x36674fdf	3.4468173e-06
14	0xb6739f4b	-3.6302542e-06
15	0xb6673ae0	-3.4455952e-06
16	0xb60882bd	-2.034168e-06
17	0xb63de003	-2.8293587e-06
18	0x362bdc40	2.5609188e-06
19	0x364c4cd1	3.0443082e-06
20	0xb5851505	-9.91539e-07
21	0xb5bcec50	-1.4075868e-06
22	0x35a8aa41	1.2566526e-06
23	0x35cc9fb7	1.5245668e-06
24	0xb5b6d329	-1.3621512e-06
25	0xb6011afc	-1.9238205e-06
26	0x35e71ce9	1.7219255e-06
27	0x360bcf5d	2.0833315e-06
28	0xb552bbb3	-7.8504235e-07
29	0xb5932165	-1.0962073e-06
30	0x358449be	9.856228e-07
31	0x359eeae1	1.1840276e-06
32	0xb912db2d	-0.00014005294
33	0xb91010fb	-0.00013739236
34	0x391af276	0.00014776908
35	0x390e55cb	0.00013574136
36	0xb8c900c8	-9.5845724e-05
37	0xb8c370d5	-9.319341e-05
38	0x38d3376d	0.00010071588
39	0x38c07086	9.1762326e-05
40	0x3817a1da	3.615194e-05
41	0x3810d217	3.4527937e-05
42	0xb81e1bbb	-3.769596e-05
43	0xb80dba33	-3.379043e-05
44	0x37ed6b40	2.8302544e-05
45	0x37e360ab	2.7105523e-05
46	0xb7f7d333	-2.9543042e-05
47	0xb7defb9d	-2.6581629e-05

exp_avg_sq f4 [12, 4]
0	0x3452324f	1.9576076e-07
1	0x34da29af	4.0635993e-07
2	0x351cb67f	5.8380095e-07
3	0x349f81a7	2.9710392e-07
4	0x33dcc3ef	1.02801884e-07
5	0x34aec3e9	3.255257e-07
6	0x350d9e0b	5.2756576e-07
7	0x345ff1ac	2.0856413e-07
8	0x3535bc9f	6.7702234e-07
9	0x35d47fa0	1.5832375e-06
10	0x362d2f1d	2.5806432e-06
11	0x35c0b7cc	1.4358607e-06
12	0x3432773b	1.6620918e-07
13	0x359ac0fd	1.1530061e-06
14	0x35f39e7e	1.8151038e-06
15	0x3490f8da	2.7003153e-07
16	0x30f00ee8	1.7466535e-09
17	0x31b1ee7e	5.1784914e-09
18	0x31eb7f83	6.8538966e-09
19	0x31aba8f2	4.995962e-09
20	0x3049cd64	7.341525e-10
21	0x313193b0	2.584084e-09
22	0x3160dc97	3.272168e-09
23	0x312d1bb3	2.5190559e-09
24	0x30c5c6d2	1.4390145e-09
25	0x31b4709c	5.2514917e-09
26	0x31eafcaf	6.839023e-09
27	0x31a7161e	4.862854e-09
28	0x3084f1b8	9.672965e-10
29	0x316337cc	3.3064564e-09
30	0x319b50e4	4.52029e-09
31	0x313c1f74	2.737548e-09
32	0x373004bd	1.0491521e-05
33	0x38138170	3.516808e-05
34	0x38694d7d	5.5623696e-05
35	0x37a27912	1.9368283e-05
36	0x37428b2b	1.1595704e-05
37	0x3809db71	3.2867716e-05
38	0x38600a04	5.341509e-05
39	0x37c69cb8	2.3676417e-05
40	0x37295c17	1.0094626e-05
41	0x3809f1da	3.2888587e-05
42	0x3861f2f5	5.387045e-05
43	0x37af03d5	2.086341e-05
44	0x378ddfbc	1.6912694e-05
45	0x38cc4ab7	9.741395e-05
46	0x39223ddd	0.0001547257
47	0x37ffa42b	3.0474816e-05

exp_avg f4 [12]
0	0xb7facb61	-2.9897028e-05
1	0xb75e4106	-1.3247371e-05
2	0xb6ff039b	-7.600012e-06
3	0xb5531d6a	-7.864643e-07
4	0x3815ab62	3.568398e-05
5	0x37fdbc94	3.0247764e-05
6	0x37c15d4a	2.3050834e-05
7	0x37f282ff	2.8909648e-05
8	0xb9aeebd0	-0.0003336356
9	0xb9418173	-0.00018454138
10	0x3933daa7	0.00017152225
11	0x39ae8d82	0.00033293298

exp_avg_sq f4 [12]
0	0x358eca27	1.0638659e-06
1	0x35997aab	1.1435089e-06
2	0x368c68fc	4.184547e-06
3	0x369e1f5f	4.712419e-06
4	0x340845cb	1.2691378e-07
5	0x33fb4aed	1.1701727e-07
6	0x343a5ae8	1.7355671e-07
7	0x34157492	1.3919114e-07
8	0x3a5812bf	0.00082425395
9	0x39bff930	0.00036616018
10	0x3a061354	0.00051145745
11	0x3b49dd8c	0.0030802218

exp_avg f4 [12]
0	0xb7facb61	-2.9897028e-05
1	0xb75e4106	-1.3247371e-05
2	0xb6ff039b	-7.600012e-06
3	0xb5531d6a	-7.864643e-07
4	0x3815ab62	3.568398e-05
5	0x37fdbc94	3.0247764e-05
6	0x37c15d4a	2.3050834e-05
7	0x37f282ff	2.8909648e-05
8	0xb966c7cc	-0.0002200894
9	0xb91232f4	-0.00013942627
10	0x38f0e1c5	0.00011486145
11	0x388a35ce	6.590375e-05

exp_avg_sq f4 [12]
0	0x358eca27	1.0638659e-06
1	0x35997aab	1.1435089e-06
2	0x368c68fc	4.184547e-06
3	0x369e1f5f	4.712419e-06
4	0x340845cb	1.2691378e-07
5	0x33fb4aed	1.1701727e-07
6	0x343a5ae8	1.7355671e-07
7	0x34157492	1.3919114e-07
8	0x39059299	0.0001273848
9	0x38e18199	0.000107529755
10	0x38f9df71	0.000119148644
11	0x39d8929a	0.00041307957

exp_avg f4 [12, 4]
0	0xb95fbb6b	-0.00021336756
1	0xb95e091c	-0.00021174963
2	0x396d2cfd	0.00022618841
3	0x395c0254	0.00020981702
4	0xb63f4c2d	-2.8505558e-06
5	0xb6450a9b	-2.936146e-06
6	0x364c5d3c	3.0452638e-06
7	0x36480114	2.980295e-06
8	0xb8b14076	-8.4520245e-05
9	0xb8ac8d5e	-8.227931e-05
10	0x38ba57c5	8.8855195e-05
11	0x38a97f14	8.082218e-05
12	0xb99b443b	-0.0002961474
13	0xb99a8604	-0.00029473018
14	0x39a48958	0.00031382847
15	0x39995090	0.00029242458
16	0x37bf015a	2.2769604e-05
17	0x3808ca3e	3.261328e-05
18	0xb7e5d369	-2.7397373e-05
19	0xb81d6b75	-3.7531794e-05
20	0x371d81bf	9.388138e-06
21	0x376594cd	1.3684109e-05
22	0xb737dbd0	-1.0958829e-05
23	0xb7891925	-1.6343382e-05
24	0x361761b2	2.255762e-06
25	0x372545da	9.85103e-06
26	0xb658a378	-3.228166e-06
27	0xb77be5b4	-1.5014248e-05
28	0x36422e09	2.8935049e-06
29	0x36b86e7b	5.496489e-06
30	0xb66f0366	-3.5615753e-06
31	0xb6edaad9	-7.0830397e-06
32	0x3b0224c0	0.001985833
33	0x3b04707a	0.0020208643
34	0xbb0b273b	-0.00212331
35	0xbb04d80c	-0.0020270376
36	0xb8de3372	-0.00010595367
37	0xb8e839fe	-0.00011073424
38	0x38ef116c	0.00011399653
39	0x38ecf05c	0.00011298127
40	0x3a05e9ca	0.00051083846
41	0x3a0fca73	0.00054851844
42	0xba119147	-0.0005552959
43	0xba1419db	-0.0005649605
44	0xba81029a	-0.0009842694
45	0xba86482e	-0.00102449
46	0x3a8aba98	0.0010584174
47	0x3a883a75	0.0010393398

exp_avg_sq f4 [12, 4]
0	0x3641c466	2.887356e-06
1	0x3721220c	9.604275e-06
2	0x3779bd23	1.4885593e-05
3	0x3695a567	4.4598014e-06
4	0x31f6be44	7.181173e-09
5	0x328c6727	1.6345053e-08
6	0x32e2c8b1	2.6401127e-08
7	0x3283635e	1.5295594e-08
8	0x3686a001	4.012138e-06
9	0x370a28ad	8.234912e-06
10	0x37598b56	1.296665e-05
11	0x3704dbde	7.919005e-06
12	0x37c2eb27	2.3236104e-05
13	0x3820cab9	3.8335773e-05
14	0x386b3b17	5.6083398e-05
15	0x38265c05	3.9663184e-05
16	0x32dcc142	2.5699254e-08
17	0x338c15f5	6.523252e-08
18	0x33a3c559	7.626176e-08
19	0x33a39b6e	7.6185515e-08
20	0x321ce10a	9.131563e-09
21	0x32c50189	2.2934517e-08
22	0x32ea1185	2.7249152e-08
23	0x32df53d0	2.599873e-08
24	0x336f7103	5.5749307e-08
25	0x34126039	1.3632315e-07
26	0x3443f4b9	1.824982e-07
27	0x34072620	1.2586725e-07
28	0x31bb3d5a	5.449391e-09
29	0x326e89ec	1.3884783e-08
30	0x32918b20	1.6943488e-08
31	0x3281cb2c	1.5109968e-08
32	0x3ac557db	0.001505609
33	0x3b879d44	0.0041386206
34	0x3bd532b3	0.006506288
35	0x3b396380	0.0028288066
36	0x368560c4	3.974974e-06
37	0x37340ecd	1.0732282e-05
38	0x378fa863	1.712534e-05
39	0x370e32f8	8.475727e-06
40	0x39a7b49e	0.00031987292
41	0x3ab68f96	0.001392829
42	0x3b1255b6	0.002232892
43	0x3a227c3f	0.00061983237
44	0x3a255a0e	0.00063076697
45	0x3adc8d12	0.001682671
46	0x3b2ea6c9	0.0026649705
47	0x3aa0e99e	0.0012276655

exp_avg f4 [12, 4]
0	0x396f4496	0.00022818366
1	0xb9758e92	-0.00023418132
2	0x397686b5	0.0002351057
3	0xb973aa0a	-0.0002323763
4	0x363346c0	2.671426e-06
5	0xb637fa37	-2.741477e-06
6	0x363c2c44	2.803995e-06
7	0xb638cafb	-2.7536287e-06
8	0x38c6bdfb	9.476762e-05
9	0xb8cbfb62	-9.726618e-05
10	0x38ce7611	9.844837e-05
11	0xb8cb823c	-9.704052e-05
12	0x39a44d5c	0.00031338155
13	0xb9a8a0ba	-0.00032163208
14	0x39aa7f0d	0.00032519587
15	0xb9a81b61	-0.00032063856
16	0x36d6f26e	6.4059195e-06
17	0xb6dc93d7	-6.5737217e-06
18	0x3691e52c	4.348016e-06
19	0xb6a9fcec	-5.0660365e-06
20	0x36a8d407	5.0314734e-06
21	0xb6adb7d3	-5.1772017e-06
22	0x365cc7b1	3.289879e-06
23	0xb683a5eb	-3.9234196e-06
24	0x37d4ebc1	2.538215e-05
25	0xb7da4b77	-2.6022766e-05
26	0x37935e7e	1.7567767e-05
27	0xb7a9e305	-2.0252084e-05
28	0x36c6f594	5.929449e-06
29	0xb6cbdcc7	-6.0755733e-06
30	0x3683d963	3.9294114e-06
31	0xb69aa4be	-4.608736e-06
32	0xbad3595e	-0.0016124656
33	0x3ad8e7df	0.0016548595
34	0xbad9b77c	-0.0016610469
35	0x3ad7350d	0.0016419009
36	0x38c33f21	9.310083e-05
37	0xb8c85d90	-9.5541705e-05
38	0x38caa2c8	9.662431e-05
39	0xb8c7c31b	-9.525401e-05
40	0xb9b7307f	-0.00034940612
41	0x39bc06d0	0.0003586323
42	0xb9bf2f07	-0.00036465397
43	0x39bc2a74	0.00035889784
44	0x3a36a689	0.00069675647
45	0xba3b7796	-0.00071513036
46	0x3a3e9d3a	0.00072713534
47	0xba3b97d8	-0.00071561104

exp_avg_sq f4 [12, 4]
0	0x365011be	3.1004743e-06
1	0x3779e536	1.4894924e-05
2	0x3695db23	4.466057e-06
3	0x367545e8	3.6548536e-06
4	0x321904ce	8.906865e-09
5	0x32f0e623	2.8044331e-08
6	0x328c9815	1.6367304e-08
7	0x322ffee0	1.02442925e-08
8	0x36ae0ad4	5.1868647e-06
9	0x376faf89	1.428638e-05
10	0x371fb638	9.519565e-06
11	0x36cad55a	6.0449065e-06
12	0x37fa4eb3	2.983897e-05
13	0x387fe19e	6.100686e-05
14	0x384d91f0	4.9011724e-05
15	0x38105e6a	3.4420205e-05
16	0x320e38ae	8.278375e-09
17	0x328165e4	1.5063911e-08
18	0x3166edee	3.3604652e-09
19	0x31b13bf1	5.1581925e-09
20	0x31764707	3.5838086e-09
21	0x31d8b8c1	6.3074315e-09
22	0x30aeb611	1.2711913e-09
23	0x31149983	2.1624096e-09
24	0x335facee	5.2078512e-08
25	0x33dea2cf	1.0367295e-07
26	0x32e6dc03	2.6875574e-08
27	0x331fea68	3.7233264e-08
28	0x3139b318	2.7022846e-09
29	0x31a3a2fb	4.762453e-09
30	0x3049097f	7.313687e-10
31	0x30c499b3	1.4304561e-09
32	0x39cde6f7	0.0003927273
33	0x3abea61a	0.0014545352
34	0x3a2aea40	0.00065198913
35	0x39f0a81c	0.00045901618
36	0x3656d380	3.2011594e-06
37	0x372f5540	1.0450662e-05
38	0x36bd5a6f	5.643167e-06
39	0x3674fb6c	3.650518e-06
40	0x38928623	6.9868074e-05
41	0x39b5f98f	0.00034708946
42	0x38fa2798	0.00011928304
43	0x38ac1b31	8.206664e-05
44	0x3901f4a6	0.00012393537
45	0x39d4c596	0.00040583004
46	0x3954b4fa	0.00020285315
47	0x39160baf	0.00014309467
