aa2_models/model5.pt (torch_old, 30105 bytes, 138 tensors)

lin1.weight f4 [3, 7]
0	0xbe26246b	-0.1622483
1	0x3e9fd81b	0.31219563
2	0x3d6697ce	0.056297116
3	0xbcbadd43	-0.022810584
4	0x3ed31e26	0.4123394
5	0xbe9c9b5d	-0.30587283
6	0xbe8dd8e8	-0.2770455
7	0x3e3fbd4c	0.18724555
8	0x3e4144f6	0.18873963
9	0xbdd22198	-0.10260314
10	0xbe5d0b52	-0.2158635
11	0xbe54e629	-0.20790924
12	0xbe281698	-0.16414869
13	0xbda33a42	-0.07970096
14	0x3dab6a67	0.08369904
15	0x3dbc23a9	0.09186489
16	0xbd34a3c4	-0.04410149
17	0xbd0c8b2c	-0.034312412
18	0xbd994a30	-0.07484853
19	0xbebd2a8b	-0.3694652
20	0xbeacde3a	-0.33763295

lin1.bias f4 [3]
0	0x3dbcfade	0.092275366
1	0x3d98f645	0.07468847
2	0xbe8dfc5c	-0.27731597

lin2.weight f4 [3, 3]
0	0xbe2320ee	-0.1593053
1	0xbdeee3db	-0.11664554
2	0x3e712f12	0.23553112
3	0xbe8f2acb	-0.27962336
4	0x3cacca03	0.02109242
5	0xbe4d001b	-0.20019571
6	0xbd398bc0	-0.04529929
7	0xbef68ba4	-0.48153412
8	0x3e92856b	0.28617415

lin2.bias f4 [3]
0	0x3ee86c68	0.45395207
1	0x3db02d98	0.08602446
2	0x3e971a25	0.29512134

GRU.weight_ih_l0 f4 [9, 3]
0	0x3ecae01d	0.3962411
1	0xbea2595e	-0.31708807
2	0xbd91573d	-0.070967175
3	0xbed74c5c	-0.42050445
4	0x3e210f66	0.1572853
5	0xbef21609	-0.47282436
6	0xbe403957	-0.18771873
7	0x3e6cca2f	0.23124002
8	0xbed70b2b	-0.42000708
9	0x3efee5bb	0.49784645
10	0xbef000ba	-0.46875554
11	0xbea76cbc	-0.32700145
12	0xbe6a3904	-0.22873312
13	0xbbbe64be	-0.0058103492
14	0xbf03a8ef	-0.5142965
15	0xbe241a43	-0.16025643
16	0x3eb18602	0.34672552
17	0x3e655926	0.22397289
18	0x3e80c16e	0.25147575
19	0xbe57b65e	-0.21065661
20	0x3e964dce	0.29356235
21	0xbeec81d6	-0.46192807
22	0xbea1f60a	-0.31633025
23	0x3d752869	0.05985299
24	0x3eca6f9d	0.3953828
25	0x3ee67e0c	0.4501804
26	0x3e176faa	0.1478869

GRU.weight_hh_l0 f4 [9, 3]
0	0x3e868e11	0.26280263
1	0xbe898af3	-0.26863822
2	0x3ecba00c	0.39770544
3	0xbd0af46a	-0.033924498
4	0xbec47cd8	-0.38376498
5	0xbc9dc78a	-0.019260187
6	0x3eb3fb21	0.35152534
7	0x3e7f4fef	0.24932836
8	0xbecce714	-0.4002005
9	0xbedf45df	-0.43607995
10	0xbe42673d	-0.18984695
11	0x3ef0a622	0.4700175
12	0xbf0c296f	-0.5475072
13	0xbcdfe78d	-0.027332092
14	0x3e0a712c	0.13519734
15	0x3f0b8125	0.54493934
16	0x3ec3a946	0.38215083
17	0x3e4f20b9	0.20227326
18	0xbec4b2d0	-0.38417673
19	0x3e3070f7	0.17230593
20	0xbeaebd59	-0.34128836
21	0x3eb63785	0.35589233
22	0xbede91a5	-0.43470493
23	0xbe0391d7	-0.12848602
24	0xbeda46a0	-0.42632008
25	0x3d14435c	0.03619705
26	0x3f23ae97	0.6393828

GRU.bias_ih_l0 f4 [9]
0	0x3ebf339c	0.37344062
1	0x3ab6c76d	0.0013944932
2	0xbe7e2533	-0.24818878
3	0xbe8cca1d	-0.2749795
4	0xbda8fbbc	-0.082511395
5	0x3d93e033	0.07220497
6	0x3f0e8815	0.55676395
7	0x3ef8d20c	0.48597753
8	0xbe55e4f1	-0.20888115

GRU.bias_hh_l0 f4 [9]
0	0xbe70d9a4	-0.23520523
1	0xbd30756a	-0.043080725
2	0x3ef21846	0.47284144
3	0xbe5de7df	-0.21670483
4	0xbdb4fc8c	-0.08837232
5	0x3ead10d0	0.3380189
6	0x3e04e237	0.12976919
7	0x3f1b0524	0.6055472
8	0xbeae155c	-0.3400067

GRU.weight_ih_l1 f4 [9, 3]
0	0xbe32c88d	-0.17459317
1	0x3e82cddf	0.25547692
2	0xbe09c48d	-0.13453884
3	0x3e37336e	0.17890713
4	0xbea59c57	-0.3234584
5	0xbe62938c	-0.22126597
6	0x3e91be4e	0.28465503
7	0xbef98c04	-0.48739636
8	0xbf1bd292	-0.6086818
9	0xbe6b2cfd	-0.2296638
10	0xbe9fa5a9	-0.31181076
11	0xbef1b410	-0.4720769
12	0x3f20dbe4	0.62835526
13	0xbf0eff38	-0.5585818
14	0xbef412cc	-0.4767059
15	0xbee2b3e6	-0.44277877
16	0x3e5de619	0.21669807
17	0x3f000da7	0.5002083
18	0xbf0e79a2	-0.55654347
19	0xbce37a9f	-0.027768431
20	0x3e7a7357	0.24458061
21	0x3dc87f79	0.097899385
22	0x3f115922	0.5677663
23	0xbd014cc4	-0.03156735
24	0xbdc99dbe	-0.0984454
25	0x3de177d8	0.110091865
26	0x3e1577b4	0.14596444

GRU.weight_hh_l1 f4 [9, 3]
0	0xbec8b770	-0.39202452
1	0xbdb7c27e	-0.08972643
2	0x3ee83d94	0.4535948
3	0x3e3f6950	0.18692517
4	0x3ede6008	0.4343264
5	0xbe578cee	-0.21049854
6	0x3e957859	0.2919338
7	0xbf049957	-0.5179648
8	0x3f00a56f	0.5025243
9	0xbea8b5ce	-0.32951206
10	0xbe957539	-0.29190996
11	0xbea9ea70	-0.33186674
12	0xbe81582b	-0.2526258
13	0xbed13239	-0.4085863
14	0x3ee32270	0.4436221
15	0xbeeb1341	-0.45913127
16	0xbef2d613	-0.4742895
17	0xbe871776	-0.26385087
18	0xbecc7edb	-0.39940533
19	0xbd3f1c4d	-0.04665785
20	0x3ec456c0	0.38347435
21	0x3e3ebefa	0.1862754
22	0xbdad4e61	-0.08462215
23	0x3ea9a712	0.33135277
24	0xbe498c99	-0.1968254
25	0x3f09f9c8	0.5389676
26	0x3ea571af	0.32313296

GRU.bias_ih_l1 f4 [9]
0	0xbec0c8e2	-0.3765326
1	0x3e2c1051	0.16803099
2	0x3e9a53b9	0.30142
3	0xbedc9aee	-0.43086952
4	0xbebc1a0b	-0.3673862
5	0xbe9296ac	-0.2863058
6	0xbe9a10f7	-0.30091068
7	0xbebf85b8	-0.37406707
8	0xbf07c43b	-0.530338

GRU.bias_hh_l1 f4 [9]
0	0x3f1040f5	0.56349117
1	0xbe8e8750	-0.2783761
2	0x3ea6b804	0.32562268
3	0xbf07d9e1	-0.5306683
4	0x3e92c83d	0.28668395
5	0x3ea6a637	0.32548687
6	0xbd7a9479	-0.06117675
7	0x3c87c5fd	0.0165739
8	0xbf188244	-0.5957377

GRU.weight_ih_l2 f4 [9, 3]
0	0x3f0553ab	0.5208079
1	0x3e71b076	0.23602471
2	0x3f1df63e	0.6170386
3	0x3e2d910d	0.16949864
4	0xbe34d02a	-0.17657533
5	0x3d5c7fb9	0.053832743
6	0x3df3171f	0.118696444
7	0x3ef43b14	0.47701323
8	0x3efefa9a	0.4980057
9	0xbe718a1c	-0.23587841
10	0x3f027853	0.5096485
11	0xbef9843d	-0.48733702
12	0x3eac79bd	0.3368663
13	0xbc0df06a	-0.008663276
14	0x3e4fb91e	0.2028546
15	0x3e50199b	0.20322268
16	0x3d958b8f	0.07302009
17	0x3e8b5982	0.27216727
18	0x3ccaddbc	0.024763934
19	0x3e515c4b	0.20445363
20	0xbe8aa186	-0.27076358
21	0x3ec5e85e	0.38653845
22	0xbd878b29	-0.066183396
23	0xbe6a1d4c	-0.22862738
24	0x3c4b4107	0.01240564
25	0xbeb01832	-0.3439346
26	0x3edae4ed	0.42752782

GRU.weight_hh_l2 f4 [9, 3]
0	0x3ed9ee27	0.42564508
1	0x3e5ce834	0.21572953
2	0x3e1c8d3d	0.15288253
3	0xbed6263a	-0.4182604
4	0xbd642efb	-0.055708867
5	0x3e511744	0.20419031
6	0x3e11a5bf	0.14223383
7	0xbe9c36b7	-0.30510494
8	0xbf04bda5	-0.51851875
9	0xbe843203	-0.25819406
10	0x3ecdac16	0.40170354
11	0xbeb642e5	-0.3559791
12	0xbde20f4f	-0.11038076
13	0xbe6ec22d	-0.2331626
14	0xbe8ed21b	-0.27894673
15	0xbd661224	-0.056169644
16	0x3f020b53	0.5079853
17	0x3e5644aa	0.20924631
18	0xbedbf1bb	-0.42957863
19	0x3f05e5c9	0.5230375
20	0xbd7cc8db	-0.06171499
21	0xbef9d52c	-0.4879545
22	0x3f1a15e5	0.6018966
23	0x3d58f7ca	0.052970685
24	0x3e4e26f7	0.20132051
25	0x3e2aac18	0.16667211
26	0x3e8ac07a	0.27099973

GRU.bias_ih_l2 f4 [9]
0	0xbdd1fcde	-0.10253309
1	0x3ee5c54c	0.44877088
2	0x3bb7596f	0.005595378
3	0x3cf7e6cb	0.030261418
4	0xbedb4126	-0.42823142
5	0x3d3009a3	0.04297794
6	0xbf1f6d26	-0.6227592
7	0xbe0acb51	-0.13554122
8	0xbf11616f	-0.56789297

GRU.bias_hh_l2 f4 [9]
0	0x3cc30b07	0.02380897
1	0xbe5a3a35	-0.21311267
2	0xbe2b602a	-0.16735902
3	0xbee08694	-0.43852675
4	0x3dfa0e83	0.12209799
5	0xbe1ac218	-0.15113103
6	0x3e3c9db8	0.1841954
7	0xbea71da2	-0.32639796
8	0x3ea28bf4	0.317474

GRU.weight_ih_l3 f4 [9, 3]
0	0xbe4c9447	-0.19978438
1	0x3efcaae0	0.49349117
2	0x3f17fa66	0.5936645
3	0xbd3b21f7	-0.04568669
4	0x3eaa12de	0.3321752
5	0x3eb33910	0.35004473
6	0x3ebd3dc1	0.36961177
7	0x3dea8d04	0.11452678
8	0xbef87a21	-0.48530677
9	0xbe91e7f2	-0.28497273
10	0x3f0a3107	0.5398106
11	0xbed045ad	-0.40678158
12	0x3e750fc5	0.23931797
13	0xbe77c627	-0.24196683
14	0xbe7de809	-0.24795546
15	0x3e0f80d5	0.1401399
16	0xbe30ef65	-0.17278822
17	0xbd6799fd	-0.05654334
18	0x3f1682d9	0.5879341
19	0xbdab0b2f	-0.083517425
20	0x3f1674bd	0.5877188
21	0xbdc133b6	-0.09433691
22	0xbf1cf40f	-0.61309904
23	0xbf2236a3	-0.6336462
24	0x3ec5d060	0.3863554
25	0x3e8f9e68	0.28050542
26	0xbe954ced	-0.29160252

GRU.weight_hh_l3 f4 [9, 3]
0	0x3e48983e	0.19589326
1	0xbc7c4ef0	-0.01539968
2	0xbdde9e92	-0.10870089
3	0x3eeaa523	0.45829114
4	0xbd23d4e6	-0.039997958
5	0xbee9cec8	-0.45665574
6	0xbbd55a32	-0.0065109963
7	0xbd883437	-0.06650584
8	0x3edfaebc	0.43688
9	0xbe08aa35	-0.13346179
10	0xbbf7dda8	-0.0075642653
11	0x3eaff1ad	0.3436407
12	0x3e0ba683	0.13637738
13	0x3d5c6aca	0.05381278
14	0x3e9f1e65	0.31077877
15	0x3d552346	0.052035592
16	0x3e7aa3c9	0.24476542
17	0xbe21774b	-0.15768163
18	0xbec33f2e	-0.3813414
19	0x3ed218be	0.41034502
20	0xbe2b681d	-0.16738935
21	0xbe6b4709	-0.22976317
22	0xbed216a7	-0.41032907
23	0xbe8e5013	-0.27795467
24	0x3ed0b5df	0.40763757
25	0x3ef78be3	0.48348913
26	0x3ce50167	0.02795477

GRU.bias_ih_l3 f4 [9]
0	0xbec3e1ae	-0.38258117
1	0xbd508602	-0.05090905
2	0xbeadf8d6	-0.3397891
3	0xbeb31d26	-0.34983176
4	0xbe9c56e1	-0.30535033
5	0xbf132cad	-0.57490045
6	0x3dcb6178	0.099307
7	0x3f1dca95	0.6163724
8	0x3ec3942d	0.38198987

GRU.bias_hh_l3 f4 [9]
0	0xbe59263a	-0.21205989
1	0x3f01112e	0.5041684
2	0x3ecdc902	0.4019242
3	0xbf0c2edf	-0.5475902
4	0xbeb56841	-0.35431102
5	0xbe532edd	-0.20623346
6	0xbdf5e9f6	-0.12007515
7	0xbe3dbe77	-0.18529688
8	0x3e107729	0.14107956

GRU.weight_ih_l4 f4 [9, 3]
0	0xbf0f542e	-0.55987823
1	0x3f0c156d	0.54720193
2	0x3f0d37d3	0.55163306
3	0x3f0a0ae3	0.5392286
4	0xbee52ec3	-0.4476224
5	0xbf14e411	-0.581605
6	0xbe3bda3b	-0.18344967
7	0xbef555d0	-0.47917032
8	0x3e728a47	0.23685561
9	0x3ed41b27	0.41426966
10	0xbd99a5a9	-0.075023
11	0x3e766c15	0.24064668
12	0xbdc9722b	-0.09836229
13	0xbd876b98	-0.06612319
14	0x3e9cb9be	0.3061046
15	0xbec6f2ff	-0.38857266
16	0xbeefe4da	-0.46854287
17	0x3e2f45d5	0.17116483
18	0x3e89cb23	0.26912794
19	0x3ee3f688	0.44524026
20	0xbd73e317	-0.05954274
21	0x3ebd0f19	0.3692558
22	0xbf1a01b9	-0.6015888
23	0x3e4cb918	0.19992483
24	0x3e97a086	0.29614657
25	0xbe97f9e3	-0.29682836
26	0x3f16214e	0.5864457

GRU.weight_hh_l4 f4 [9, 3]
0	0xbe115858	-0.14193857
1	0x3c1847a3	0.009294423
2	0xbe036f86	-0.12835512
3	0x3ece4d93	0.4029356
4	0xbe303f11	-0.17211558
5	0x3e18951a	0.14900628
6	0xbe995dcb	-0.2995437
7	0xbf04b431	-0.5183745
8	0x3f033b02	0.51261914
9	0xbeb760f6	-0.35816163
10	0x3ed6d821	0.41961768
11	0xbf01a036	-0.5063509
12	0x3ea34bc9	0.31893757
13	0xbed47f1c	-0.41503227
14	0xbf02dea0	-0.5112095
15	0x3d2cc15d	0.042176593
16	0x3cf76dc0	0.0302037
17	0x3e6c79dc	0.2309336
18	0x3cfb28d6	0.03065912
19	0x3eb1eec4	0.34752476
20	0xbe1a73ed	-0.15083285
21	0x3e3e43ba	0.18580523
22	0xbe7768c3	-0.24161057
23	0x3e112ad0	0.14176488
24	0xbea550ad	-0.32288113
25	0x3e51f138	0.20502174
26	0x3e9119c8	0.28339982

GRU.bias_ih_l4 f4 [9]
0	0x3f08d78e	0.5345391
1	0x3d2072a1	0.03917182
2	0x3e245e35	0.16051562
3	0xbf0f5d1a	-0.56001437
4	0xbe366548	-0.17812073
5	0x3eeafef5	0.45897642
6	0xbde5732b	-0.11203607
7	0x3eac1c5f	0.33615395
8	0x3efe1aba	0.49629766

GRU.bias_hh_l4 f4 [9]
0	0x3e4f3eb9	0.2023877
1	0x3ebd2ae0	0.36946774
2	0x3de4801d	0.11157248
3	0x3ebedca4	0.3727771
4	0xbe8d4a3f	-0.27595708
5	0xbd4de398	-0.05026588
6	0xbe2c8f3e	-0.16851518
7	0x3e95771a	0.2919243
8	0x3de940c9	0.1138931

GRU.weight_ih_l5 f4 [9, 3]
0	0xbf019b18	-0.5062728
1	0x3e9356b8	0.287771
2	0xbf032b0f	-0.5123758
3	0x3d283d2d	0.041073967
4	0x3eafe68d	0.34355584
5	0x3e3885fc	0.18019861
6	0xbb737c4d	-0.0037152946
7	0xbef4b0fb	-0.47791275
8	0xbed49d16	-0.41526097
9	0x3edb7fe0	0.42870998
10	0xbedad7ae	-0.42742676
11	0xbf078116	-0.52931345
12	0xbd138ba4	-0.036021844
13	0xbea012eb	-0.31264433
14	0x3e80e3dc	0.25173843
15	0x3f23d63d	0.63998777
16	0x3e285238	0.16437614
17	0xbd31acdb	-0.04337774
18	0xbe933f49	-0.2875922
19	0xbf0ab056	-0.5417532
20	0x3f010f27	0.50413746
21	0x3e72726b	0.2367646
22	0xbeeb69bc	-0.45979106
23	0x3ea93000	0.33044434
24	0x3d7ca699	0.061682317
25	0xbda185ad	-0.07886825
26	0x3e9e175f	0.30877206

GRU.weight_hh_l5 f4 [9, 3]
0	0x3f03e3b6	0.51519334
1	0x3eafb15d	0.34315005
2	0xbe7a27e2	-0.24429277
3	0xbedeee26	-0.43541068
4	0xbf117d2f	-0.5683164
5	0xbd9e2a91	-0.07722963
6	0xbea59576	-0.32340592
7	0xbf13e852	-0.5777637
8	0xbee323db	-0.44363293
9	0x3dc5f694	0.09666172
10	0xbe74721c	-0.23871654
11	0x3e9c4842	0.30523878
12	0x3f06ced6	0.52659357
13	0xbebf521b	-0.3736733
14	0x3b634057	0.00346758
15	0xbe395240	-0.18097782
16	0xbf1df5b7	-0.61703056
17	0xbeb8531b	-0.36000904
18	0xbf1974cc	-0.5994384
19	0xbdbe7d30	-0.09301221
20	0xbe94ba9a	-0.29048616
21	0x3e0e9255	0.13923009
22	0xbe0c4c25	-0.13700922
23	0xbe4144ae	-0.18873855
24	0xbed6ac69	-0.41928414
25	0xbe03df72	-0.12878206
26	0x3ecea1fe	0.40357965

GRU.bias_ih_l5 f4 [9]
0	0xbeb386d2	-0.35063797
1	0x3dbe90a4	0.09304932
2	0x3e5de2b8	0.21668518
3	0x3e3a0d26	0.18169078
4	0x3e569916	0.20956835
5	0xbdbed04b	-0.093170725
6	0xbd81b782	-0.063338295
7	0x3ead8abf	0.33894917
8	0xbed95d57	-0.42454025

GRU.bias_hh_l5 f4 [9]
0	0x3ec21304	0.37905133
1	0xbf0bb59e	-0.54574
2	0x3ea968c3	0.3308774
3	0x3e7f847e	0.24952886
4	0x3ef67022	0.48132426
5	0x3e80ea1e	0.25178617
6	0xbe8e1d02	-0.27756506
7	0xbd573ba6	-0.05254712
8	0x3de24806	0.11048894

GRU.weight_ih_l6 f4 [9, 3]
0	0x3efe741a	0.49697953
1	0xbe58faf2	-0.21189478
2	0xbec041e4	-0.3755027
3	0x3e80f66b	0.25188002
4	0xbec7d01b	-0.3902596
5	0xbcc00f6c	-0.023444854
6	0xbee6ec89	-0.45102337
7	0x3e9e3b29	0.3090451
8	0x3ec3df4e	0.38256305
9	0x3eab2a96	0.33430928
10	0xbec89f52	-0.39184052
11	0xbeacc984	-0.33747494
12	0xbe80493a	-0.25055867
13	0x3df571cd	0.119845964
14	0x3ea25009	0.31701687
15	0x3eaeebac	0.34164178
16	0x3e856615	0.26054445
17	0xbf1eeb3d	-0.62077695
18	0x3ec15b91	0.37765172
19	0x3e1d355e	0.15352389
20	0xbe4f9b88	-0.20274174
21	0xbf0d6b38	-0.5524173
22	0xbe0221fd	-0.12708278
23	0x3e752040	0.23938084
24	0xbe0b117d	-0.1358089
25	0xbee90ec8	-0.4551909
26	0x3efcc4be	0.49368852

GRU.weight_hh_l6 f4 [9, 3]
0	0x3d6937cc	0.056937978
1	0xbe1a58d9	-0.15072955
2	0x3eb49fa0	0.35278034
3	0x3dd82107	0.105531745
4	0xbe21e014	-0.15808135
5	0x3e2db399	0.16963042
6	0x3e7d319a	0.24725953
7	0x3e477984	0.19479948
8	0x3db6bc7d	0.0892267
9	0x3e838528	0.25687528
10	0x3d5b4887	0.053535964
11	0xbee84ea9	-0.45372513
12	0x3f0336cd	0.51255494
13	0x3ef78241	0.48341563
14	0x3ea93b7d	0.33053198
15	0xbe62c3fa	-0.22145072
16	0xbd9ea013	-0.077453755
17	0x3e2d90fe	0.16949841
18	0xbcd7d4b5	-0.026346544
19	0xbed9e176	-0.42554826
20	0xbe9f3036	-0.3109147
21	0x3eafb45b	0.34317288
22	0x3efbbbc0	0.4916668
23	0x3e33c6a1	0.1755624
24	0xbe80519c	-0.25062263
25	0xbe029cb2	-0.12755087
26	0x3e8fb8d5	0.28070703

GRU.bias_ih_l6 f4 [9]
0	0x3cbf7e45	0.02337564
1	0xbd3eb100	-0.04655552
2	0x3e8c2a2c	0.27375925
3	0xbed08016	-0.40722722
4	0xbec9a6d5	-0.39385095
5	0x3ed47372	0.41494328
6	0xbe0b372f	-0.1359527
7	0xbddcb1d0	-0.107761025
8	0x3f00149f	0.50031465

GRU.bias_hh_l6 f4 [9]
0	0x3f1827b9	0.5943561
1	0x3c8d18ca	0.017223734
2	0xbeadc063	-0.33935842
3	0xbf287e8b	-0.6581809
4	0x3e95e7f5	0.29278532
5	0x3e82c818	0.25543284
6	0xbe1d73fd	-0.15376277
7	0xbe873ef6	-0.26415223
8	0xbc787944	-0.015165631

GRU.weight_ih_l7 f4 [9, 3]
0	0xbe4757f1	-0.1946714
1	0x3df1bd1e	0.11803649
2	0xbe16e7e8	-0.14736903
3	0x3edf26e9	0.43584374
4	0xbdd7931f	-0.10526108
5	0x3ed3648f	0.41287658
6	0x3eff63cb	0.49880823
7	0x3bd3cf77	0.0064639407
8	0xbeecddf5	-0.4626309
9	0x3ca80af7	0.020513041
10	0xbe8d477c	-0.275936
11	0x3e029851	0.12753417
12	0x3d857c98	0.06517905
13	0xbdd5742e	-0.1042255
14	0xbd8a5359	-0.067541786
15	0xbea2f1b3	-0.31825027
16	0x3ec515d0	0.38493204
17	0xbeb07869	-0.34466866
18	0x3eec84cf	0.46195075
19	0x3f0bbc13	0.54583853
20	0x3eb0c573	0.34525642
21	0xbdf57e68	-0.11987001
22	0xbefd9284	-0.49525845
23	0xbebaf146	-0.36512202
24	0x3da43d63	0.08019521
25	0x3ea2a93f	0.3176975
26	0x3f1f0c71	0.6212836

GRU.weight_hh_l7 f4 [9, 3]
0	0xbe444089	-0.19165243
1	0xbde59870	-0.11210716
2	0xbea6d0df	-0.3258123
3	0xbed4e8c8	-0.41583848
4	0xbe794864	-0.24344021
5	0x3f1b0dfb	0.6056821
6	0x3ced8a02	0.028996471
7	0xbe110ab6	-0.14164242
8	0x3deffd91	0.11718286
9	0xbec85183	-0.39124689
10	0xbef2ad70	-0.47397947
11	0x3bfe4f76	0.0077609373
12	0x3d104b8b	0.035228293
13	0xbeb6c6ee	-0.35698646
14	0x3e9ce1db	0.30641064
15	0x3eb4fb94	0.3534819
16	0x3e65c407	0.2243806
17	0xbcd73af8	-0.026273236
18	0x3eb5dbc9	0.35519245
19	0xbf1ecfd1	-0.6203585
20	0x3d9b08d6	0.07570045
21	0x3ea46912	0.32111412
22	0x3e1f7f1e	0.15575835
23	0xbe196f90	-0.14983964
24	0xbf265d62	-0.6498624
25	0xbcaa71cb	-0.020806214
26	0xbcdf8a10	-0.027287513

GRU.bias_ih_l7 f4 [9]
0	0x3ef7d824	0.4840709
1	0x3d793c00	0.060848236
2	0x3ee93d7b	0.45554718
3	0x3e8265ea	0.2546838
4	0xbf029693	-0.5101101
5	0x3c21bc15	0.009871502
6	0xbed00c6c	-0.40634477
7	0x3ef839d4	0.4848162
8	0xbe9059ea	-0.281936

GRU.bias_hh_l7 f4 [9]
0	0xbe9aec2d	-0.30258313
1	0xbef2ea19	-0.47444227
2	0x3eea576a	0.45769817
3	0xbda8eaa4	-0.08247879
4	0xbede3b7f	-0.43404767
5	0xbed2c3f3	-0.41165122
6	0x3de76361	0.11298252
7	0xbdd2f7c0	-0.10301161
8	0xbed33d18	-0.41257548

GRU.weight_ih_l8 f4 [9, 3]
0	0xbea55c31	-0.322969
1	0x3ecc9477	0.3995702
2	0xbee19d42	-0.4406529
3	0x3e9e9af5	0.30977598
4	0x3e42e515	0.190327
5	0xbf274074	-0.6533272
6	0xbecb147a	-0.3966406
7	0x3f24ebd3	0.6442234
8	0x3eb85512	0.36002403
9	0xbe7b20c2	-0.24524215
10	0xbe55d0fe	-0.20880505
11	0x3f2ec1c5	0.6826442
12	0xbe1685d2	-0.14699486
13	0xbf1146c8	-0.5674863
14	0x3dfcbae3	0.12340333
15	0x3dd6c7c2	0.104873195
16	0xbedde141	-0.43335918
17	0x3e836dfd	0.25669852
18	0xbef10ed8	-0.47081637
19	0x3f1d84e8	0.61530924
20	0x3df64ccd	0.12026367
21	0x3b5caa6b	0.0033670913
22	0xbe0afc03	-0.13572697
23	0xbec99271	-0.39369538
24	0xbd4188ba	-0.047249533
25	0xbf0e0eb9	-0.55491215
26	0x3ec4f455	0.3846766

GRU.weight_hh_l8 f4 [9, 3]
0	0x3ee281c0	0.44239616
1	0x3ee24171	0.44190553
2	0xbee502d2	-0.44728714
3	0x3f36514e	0.7121781
4	0xbebe9f88	-0.37231088
5	0xbecda58c	-0.40165365
6	0xbe494090	-0.19653535
7	0x3eb4bb88	0.35299325
8	0xbe0efc14	-0.13963348
9	0xbece6828	-0.4031384
10	0x3e80a158	0.25123096
11	0xba3010a4	-0.0006716347
12	0x3e294b6a	0.16532674
13	0x3f35a53b	0.70955247
14	0xbb30967d	-0.0026945167
15	0xbf054e62	-0.5207273
16	0x3ea51928	0.32245755
17	0xbdee3987	-0.11632066
18	0x3e8e0373	0.27737007
19	0xbec5582c	-0.38543832
20	0xbf11011d	-0.56642324
21	0xbf207fcc	-0.62695
22	0x3e6215cb	0.22078626
23	0xbe4de10d	-0.20105381
24	0xbee3b0da	-0.44470865
25	0x3e8e73af	0.27822635
26	0x3e84862d	0.25883618

GRU.bias_ih_l8 f4 [9]
0	0xbe0ea56f	-0.13930295
1	0xbecda774	-0.4016682
2	0xbed053f0	-0.4068904
3	0x3ec53d1a	0.3852318
4	0xbda563a5	-0.08075646
5	0x3ea45761	0.32097915
6	0xbd06b803	-0.03289033
7	0xbe7552d2	-0.23957375
8	0xbdcdf653	-0.10056748

GRU.bias_hh_l8 f4 [9]
0	0xbe1c987d	-0.15292545
1	0xbe862fca	-0.26208335
2	0x3ecfe13d	0.4060153
3	0xbeab1cbb	-0.33420357
4	0x3e745d78	0.2386378
5	0x3cf2cefd	0.029639715
6	0x3ebadb3c	0.36495388
7	0xbe84cd8a	-0.25938064
8	0xbe1d64d4	-0.15370494

GRU.weight_ih_l9 f4 [9, 3]
0	0xbe8bb17c	-0.27283847
1	0x3ea81a16	0.32832402
2	0xbf219ff9	-0.63134724
3	0xbd7fa6b1	-0.06241483
4	0xbf16711f	-0.5876636
5	0x3eab6b3b	0.33480248
6	0x3f1466d6	0.57969415
7	0xbec20f17	-0.37902138
8	0xbea99daf	-0.33128116
9	0x3e8ae5be	0.27128404
10	0xbe492c7a	-0.19645873
11	0x3d5ad069	0.05342141
12	0x3ed94102	0.4243241
13	0xbe891c12	-0.26779228
14	0xbe5b1494	-0.21394569
15	0xbf0f0229	-0.5586267
16	0xbec29f4f	-0.38012168
17	0xbd855177	-0.06509679
18	0x3d96c4c2	0.07361747
19	0x3ef593a7	0.47964212
20	0xbed10d6b	-0.4083055
21	0xbef59d3a	-0.47971517
22	0xbd766a3f	-0.060159918
23	0x3f083a8c	0.53214335
24	0xbeb1f694	-0.34758437
25	0x3e32d806	0.17465219
26	0x3ec59841	0.38592723

GRU.weight_hh_l9 f4 [9, 3]
0	0x3e40fac7	0.18845664
1	0xbe9973c5	-0.29971138
2	0xbec060dc	-0.37573898
3	0x3ea9c97a	0.33161527
4	0xbf1f0beb	-0.6212756
5	0xbf0f923f	-0.5608253
6	0x3c51c4bb	0.012803252
7	0x3e585f5b	0.21130125
8	0x3e37fc9c	0.17967457
9	0xbe9b9cee	-0.30393165
10	0xbca60fc4	-0.02027119
11	0xbde20ccc	-0.11037597
12	0x3e72efc0	0.2372427
13	0x3e98c8e2	0.2984076
14	0xbe81a8bd	-0.2532405
15	0x3e567088	0.20941365
16	0xbed58b28	-0.4170773
17	0x3f221224	0.6330893
18	0x3d9fb317	0.077978306
19	0x3edab713	0.427178
20	0x3ebb6570	0.36600828
21	0xbda6f069	-0.08151323
22	0x3e3896ae	0.1802623
23	0x3f0c0667	0.5469727
24	0x3ca170b6	0.019707065
25	0x3e3c432b	0.18384998
26	0xbe0af545	-0.13570125

GRU.bias_ih_l9 f4 [9]
0	0x3f2357a2	0.6380559
1	0x3eddc280	0.43312454
2	0x3e19456b	0.14967887
3	0xbf0d9cb6	-0.55317247
4	0x3e2c6c38	0.16838157
5	0xbedd7f6d	-0.4326128
6	0xbe3334d5	-0.17500623
7	0x3ed56f0c	0.41686285
8	0x3ebbdf29	0.36693695

GRU.bias_hh_l9 f4 [9]
0	0x3d4f27c4	0.050575033
1	0x3e7dcecc	0.24785918
2	0x3f19af6d	0.60033303
3	0x3d5eb2d1	0.05436975
4	0xbf31e008	-0.6948247
5	0x3ec36a7c	0.3816718
6	0xbe7d2221	-0.2472005
7	0xbf23a852	-0.6392871
8	0xbec7e758	-0.3904369

lin3.weight f4 [5, 3]
0	0xbf2c5837	-0.67322105
1	0xbf034f4d	-0.5129288
2	0x3e665536	0.22493443
3	0x3f246bfe	0.64227283
4	0x3e9cd10e	0.30628246
5	0x3f23e1b7	0.6401629
6	0x3dfb0522	0.122568384
7	0xbcbfe560	-0.023424804
8	0xbe78e969	-0.24307789
9	0x3ecdf81a	0.4022835
10	0x3e67ad94	0.22624809
11	0x3f19b9ab	0.6004893
12	0x3f19fac7	0.6014828
13	0x3f046198	0.51711416
14	0x3ed259dd	0.41084185

lin3.bias f4 [5]
0	0xbee0ee1a	-0.43931657
1	0xbebad9b7	-0.36494228
2	0xbed3fff7	-0.41406223
3	0x3e274995	0.16336663
4	0xbed4d3f2	-0.4156795

exp_avg f4 [3, 7]
0	0x2a077d2a	1.2033834e-13
1	0xafe0ff00	-4.092655e-10
2	0xb80d31a8	-3.3663266e-05
3	0xb7e6e663	-2.7525419e-05
4	0xb5a047ff	-1.1941883e-06
5	0x00000000	0.0
6	0xb5b573b0	-1.351922e-06
7	0x2887449d	1.5017767e-14
8	0xae50f1a8	-4.750836e-11
9	0xb70891cb	-8.140177e-06
10	0xb6590e5b	-3.2343876e-06
11	0xb4fca671	-4.705976e-07
12	0x00000000	0.0
13	0xb4e7d666	-4.3183098e-07
14	0xa8b8bbb2	-2.0509504e-14
15	0x2e9f8db4	7.2556544e-11
16	0x36c82b80	5.9655285e-06
17	0x36b0b809	5.2666333e-06
18	0x344c67cf	1.9036746e-07
19	0x00000000	0.0
20	0x346e4cee	2.2193464e-07

exp_avg_sq f4 [3, 7]
0	0x260233f7	4.5173236e-16
1	0x1ebc8cf2	1.9963568e-20
2	0x3465e894	2.1411898e-07
3	0x30a27661	1.1820697e-09
4	0x2d43326f	1.1095665e-11
5	0x00000000	0.0
6	0x2d703e42	1.36562445e-11
7	0x24723772	5.252235e-17
8	0x1baa7ae0	2.8203547e-22
9	0x32bf5fe5	2.2278934e-08
10	0x2e3b7603	4.2623693e-11
11	0x2bab75b4	1.218295e-12
12	0x00000000	0.0
13	0x2b895f73	9.760928e-13
14	0x2214315c	2.008387e-18
15	0x1c38cdc2	6.114643e-22
16	0x30bc8e46	1.3719237e-09
17	0x2deb7e23	2.6772423e-11
18	0x2af73a15	4.3916316e-13
19	0x00000000	0.0
20	0x2af15873	4.2871574e-13

exp_avg f4 [3]
0	0xb6d63118	-6.3834123e-06
1	0xb5a67f63	-1.2405038e-06
2	0x33ad674d	8.0747306e-08

exp_avg_sq f4 [3]
0	0x2fee631e	4.3362375e-10
1	0x2e4ada4b	4.6123366e-11
2	0x2ca09b7b	4.5647353e-12

exp_avg f4 [3, 3]
0	0x3693f194	4.409065e-06
1	0xb7dc9d9b	-2.6299434e-05
2	0xb7414d30	-1.1521668e-05
3	0x3694d81e	4.435903e-06
4	0xb79c1ce0	-1.8610095e-05
5	0xb72e0fc0	-1.0374875e-05
6	0x34a63bcc	3.0963417e-07
7	0x3619fd34	2.294616e-06
8	0x349755c3	2.8188342e-07

exp_avg_sq f4 [3, 3]
0	0x316ceeff	3.4478373e-09
1	0x33155fca	3.4778886e-08
2	0x30dbe1d5	1.5998532e-09
3	0x30d22ec4	1.5292803e-09
4	0x32773030	1.4388249e-08
5	0x308070d0	9.345289e-10
6	0x2db3fda0	2.0462576e-11
7	0x2f8f2c53	2.6043043e-10
8	0x2d070616	7.675213e-12

exp_avg f4 [3]
0	0x375f6c45	1.3317044e-05
1	0x377fce6b	1.5247245e-05
2	0x324aa472	1.1795338e-08

exp_avg_sq f4 [3]
0	0x3139e20b	2.7049534e-09
1	0x313ac659	2.717931e-09
2	0x2c0e64ba	2.0235328e-12

exp_avg f4 [9, 3]
0	0xb43ab432	-1.7388155e-07
1	0xb35c9cf1	-5.136548e-08
2	0xb391dde2	-6.792449e-08
3	0xb59549b4	-1.1122816e-06
4	0xb4c8ab4e	-3.7377544e-07
5	0xb52580fb	-6.165498e-07
6	0xb58fb8f8	-1.0708163e-06
7	0xb4c65f19	-3.6949567e-07
8	0xb547ec20	-7.4476884e-07
9	0xb28fbdd0	-1.6733708e-08
10	0xb23d337c	-1.1012954e-08
11	0xb2bf6ee6	-2.2285757e-08
12	0xb363503f	-5.292554e-08
13	0xb13909a2	-2.6926519e-09
14	0x33f0b929	1.1209551e-07
15	0xb2ab9eab	-1.9979174e-08
16	0xb4103954	-1.3431901e-07
17	0xb44d1aea	-1.9101904e-07
18	0xb6a72035	-4.9807372e-06
19	0xb5e15e3c	-1.6791232e-06
20	0xb631d209	-2.6497312e-06
21	0xb71d181b	-9.363542e-06
22	0xb630db45	-2.6353675e-06
23	0xb7d0a9f4	-2.4874673e-05
24	0x36ab7bb4	5.110598e-06
25	0x35de1225	1.654557e-06
26	0x36a12a79	4.8031184e-06

exp_avg_sq f4 [9, 3]
0	0x29bcadb1	8.379008e-14
1	0x28a26402	1.8028984e-14
2	0x28c66326	2.2025415e-14
3	0x2dc8c1f3	2.2823498e-11
4	0x2ca2c849	4.626553e-12
5	0x2cd463d6	6.0364864e-12
6	0x2c962908	4.267812e-12
7	0x2b3bb66e	6.668892e-13
8	0x2bc7d017	1.4197557e-12
9	0x27cd6768	5.7011043e-15
10	0x270f73e5	1.9908063e-15
11	0x27b97477	5.1474086e-15
12	0x2a482e46	1.7779623e-13
13	0x293cb73e	4.1903323e-14
14	0x2a685d26	2.0638057e-13
15	0x2c2553e3	2.3494477e-12
16	0x297762cc	5.493071e-14
17	0x2e38156f	4.1855793e-11
18	0x2fc3e14a	3.563037e-10
19	0x2e8eb531	6.4895984e-11
20	0x2eaa9bb2	7.758362e-11
21	0x31347cff	2.62645e-09
22	0x2fd604fc	3.8929915e-10
23	0x32d4d449	2.4776584e-08
24	0x2f514de7	1.9036116e-10
25	0x2e010f17	2.9344607e-11
26	0x2eb557cc	8.246523e-11

exp_avg f4 [9, 3]
0	0xb49ba118	-2.898821e-07
1	0xb47f24e8	-2.3762152e-07
2	0x3483eedc	2.4574445e-07
3	0xb60577f1	-1.988836e-06
4	0xb5cfe82f	-1.5490276e-06
5	0x35ccbe49	1.5254565e-06
6	0xb606ad47	-2.0068417e-06
7	0xb5cb03d0	-1.5125788e-06
8	0x35c77161	1.4859653e-06
9	0xb375631e	-5.7133654e-08
10	0xb348d3b0	-4.6758657e-08
11	0x2f4b3892	1.848284e-10
12	0xb308b35f	-3.1828105e-08
13	0xb40ed95b	-1.3303854e-07
14	0x30f25c8f	1.7634124e-09
15	0x34cf7979	3.8645138e-07
16	0x349daea3	2.9370594e-07
17	0xb3f66796	-1.147411e-07
18	0xb69a8df0	-4.6060813e-06
19	0xb6741e93	-3.637663e-06
20	0x3666b0a6	3.4375494e-06
21	0xb6a03b1a	-4.775252e-06
22	0xb67d0a69	-3.7705997e-06
23	0x36755562	3.6557544e-06
24	0x36d7ff5d	6.4372275e-06
25	0x36a6be58	4.9693444e-06
26	0xb69f5703	-4.7486988e-06

exp_avg_sq f4 [9, 3]
0	0x2a1d52ff	1.3973196e-13
1	0x296856d2	5.1589653e-14
2	0x28d562f8	2.3690671e-14
3	0x2e27f18d	3.8185944e-11
4	0x2d919572	1.6550959e-11
5	0x2c89d1c6	3.9170637e-12
6	0x2d2a9d2a	9.698279e-12
7	0x2cb4a58b	5.1342867e-12
8	0x2c1dcbbe	2.2424142e-12
9	0x2909f5f8	3.0633455e-14
10	0x28d08beb	2.3153319e-14
11	0x268ae471	9.637593e-16
12	0x2b3e3a57	6.758252e-13
13	0x2b3ed018	6.779035e-13
14	0x292d9206	3.8540372e-14
15	0x2a6d256a	2.1062809e-13
16	0x2b631214	8.067169e-13
17	0x283c0fd1	1.0439526e-14
18	0x2f4bb4f6	1.8527033e-10
19	0x2ed70bc8	9.779161e-11
20	0x2dc43a4b	2.2308507e-11
21	0x2f9429d2	2.6950758e-10
22	0x2f1324cb	1.3382644e-10
23	0x2de688dd	2.6208752e-11
24	0x2f161134	1.3648532e-10
25	0x2ea6abf6	7.5793524e-11
26	0x2df154cb	2.7436184e-11

exp_avg f4 [9]
0	0xb4f88949	-4.6293488e-07
1	0xb64f91c7	-3.0930257e-06
2	0xb64fc0a8	-3.0957544e-06
3	0xb37de51d	-5.911453e-08
4	0xb321c63b	-3.7666023e-08
5	0x350fd2d8	5.357847e-07
6	0xb767ea29	-1.3823193e-05
7	0xb7a52771	-1.96879e-05
8	0x37815137	1.5415817e-05

exp_avg_sq f4 [9]
0	0x2b002a54	4.5533477e-13
1	0x2f0f5c06	1.3038468e-10
2	0x2df7bcc7	2.8164483e-11
3	0x291020b8	3.2002802e-14
4	0x2b62d0bc	8.0581006e-13
5	0x2a86f031	2.3969848e-13
6	0x3113de19	2.1517563e-09
7	0x32013983	7.521865e-09
8	0x30a8d32c	1.2283627e-09

exp_avg f4 [9]
0	0xb4f88949	-4.6293488e-07
1	0xb64f91c7	-3.0930257e-06
2	0xb64fc0a8	-3.0957544e-06
3	0xb37de51d	-5.911453e-08
4	0xb321c63b	-3.7666023e-08
5	0x350fd2d8	5.357847e-07
6	0xb6efa357	-7.1417703e-06
7	0xb6f9616d	-7.43212e-06
8	0x37270880	9.955955e-06

exp_avg_sq f4 [9]
0	0x2b002a54	4.5533477e-13
1	0x2f0f5c06	1.3038468e-10
2	0x2df7bcc7	2.8164483e-11
3	0x291020b8	3.2002802e-14
4	0x2b62d0bc	8.0581006e-13
5	0x2a86f031	2.3969848e-13
6	0x30277660	6.0922467e-10
7	0x3083b003	9.58153e-10
8	0x2fe14692	4.0977405e-10

exp_avg f4 [9, 3]
0	0xb4b16faa	-3.3050065e-07
1	0xb47abaff	-2.3351093e-07
2	0x344cd9b6	1.9078183e-07
3	0x3686c8ec	4.0169016e-06
4	0x364c09e0	3.0404117e-06
5	0xb6280aa2	-2.504014e-06
6	0xb687997d	-4.041182e-06
7	0xb6374a8d	-2.731252e-06
8	0x3614c70a	2.2169575e-06
9	0x35121738	5.4423026e-07
10	0x35124ff9	5.4505614e-07
11	0xb18bd1f8	-4.069303e-09
12	0xb5870ca8	-1.0061967e-06
13	0x3646951b	2.959109e-06
14	0x32c9b754	2.3482848e-08
15	0x35d95320	1.6191952e-06
16	0x3523aa46	6.097001e-07
17	0xb25f957c	-1.3014297e-08
18	0x3798b7c0	1.8205377e-05
19	0x37489919	1.1956575e-05
20	0xb719a198	-9.157135e-06
21	0xb83fedef	-4.575954e-05
22	0xb8116b98	-3.46709e-05
23	0x37e95dba	2.781941e-05
24	0x37b6f55e	2.1810349e-05
25	0x376b2de6	1.4017778e-05
26	0xb73cff5a	-1.1265127e-05

exp_avg_sq f4 [9, 3]
0	0x2a7adeb3	2.2281725e-13
1	0x2a066399	1.1936146e-13
2	0x2912f503	3.2631026e-14
3	0x2f8aa172	2.5216768e-10
4	0x2e8dfb68	6.4565964e-11
5	0x2d606ccd	1.27570845e-11
6	0x2efa676b	1.13870545e-10
7	0x2dd5cc06	2.4305901e-11
8	0x2d10dc2b	8.234339e-12
9	0x2b2d5960	6.158598e-13
10	0x2af55c03	4.3584589e-13
11	0x2598e09a	2.6519993e-16
12	0x2e23f822	3.7282295e-11
13	0x2f3d89bc	1.7238383e-10
14	0x29918bcd	6.463545e-14
15	0x2c515225	2.9746286e-12
16	0x2c86f9c0	3.836237e-12
17	0x263d9ba9	6.5783506e-16
18	0x318ec5a2	4.155212e-09
19	0x302797f4	6.0970184e-10
20	0x2f4002cd	1.7463293e-10
21	0x32fec441	2.9658738e-08
22	0x320dec54	8.261015e-09
23	0x30d8a09d	1.5761717e-09
24	0x314a7332	2.946035e-09
25	0x301bfbbf	5.6746424e-10
26	0x2f65b6f3	2.0892425e-10

exp_avg f4 [9, 3]
0	0x34a437a7	3.0587873e-07
1	0x33ae20a7	8.108446e-08
2	0x34be893b	3.5490106e-07
3	0xb686b198	-4.014186e-06
4	0xb5875342	-1.0082515e-06
5	0xb69aaaaf	-4.609428e-06
6	0x3678e2ec	3.7086966e-06
7	0x3572fd97	9.0521047e-07
8	0x368de288	4.228499e-06
9	0xb2a819c2	-1.9569487e-08
10	0xb11a313a	-2.2437932e-09
11	0xb27522fe	-1.4268833e-08
12	0x3550ab16	7.7735e-07
13	0xb4499460	-1.8773562e-07
14	0x353ba3c7	6.9901256e-07
15	0xb4a8ccbd	-3.1441405e-07
16	0x3390d5ae	6.744391e-08
17	0xb47c7556	-2.3512015e-07
18	0xb70f997c	-8.5592e-06
19	0xb608c4e9	-2.0380196e-06
20	0xb723256c	-9.72427e-06
21	0x37b3b3b6	2.1422147e-05
22	0x36b1f0c7	5.3030412e-06
23	0x37cde2b3	2.454347e-05
24	0xb73e6dca	-1.1350445e-05
25	0xb6307dad	-2.6299197e-06
26	0xb75780fd	-1.2845031e-05

exp_avg_sq f4 [9, 3]
0	0x2a57734b	1.9135836e-13
1	0x2958c60c	4.8133413e-14
2	0x2aae4e34	3.0962873e-13
3	0x2f5d0547	2.0101708e-10
4	0x2eeaad75	1.06719e-10
5	0x2fd889c4	3.938806e-10
6	0x2ec5d15c	8.9957125e-11
7	0x2e30a184	4.016122e-11
8	0x2f351ba1	1.647167e-10
9	0x268cfe52	9.783385e-16
10	0x278ebe3d	3.9619174e-15
11	0x270084e9	1.783562e-15
12	0x2d295dde	9.6273805e-12
13	0x2bbfbcbe	1.3623753e-12
14	0x2d2acab9	9.708395e-12
15	0x2a905237	2.5636586e-13
16	0x28a3adbc	1.817198e-14
17	0x2a198132	1.3633953e-13
18	0x302f4223	6.3758615e-10
19	0x2f86ceac	2.4521307e-10
20	0x3099007e	1.1132355e-09
21	0x31c08ac1	5.60371e-09
22	0x3145be23	2.8775353e-09
23	0x323b3eb5	1.08990905e-08
24	0x304715cb	7.242675e-10
25	0x2faa7ba9	3.1010686e-10
26	0x30b12ab2	1.289058e-09

exp_avg f4 [9]
0	0xb4fd6e7f	-4.720532e-07
1	0x36c3f774	5.84026e-06
2	0xb6bdbf56	-5.6549134e-06
3	0x3510aa63	5.3892126e-07
4	0xb58b88e0	-1.0396143e-06
5	0x35d988fd	1.6207629e-06
6	0x37d1bf24	2.5003748e-05
7	0xb88a8bd1	-6.6063956e-05
8	0x37fbc582	3.0013503e-05

exp_avg_sq f4 [9]
0	0x2b1e31fc	5.6202243e-13
1	0x30489560	7.297185e-10
2	0x2fa7a232	3.049237e-10
3	0x2b0f81fc	5.0984195e-13
4	0x2e0d4637	3.212205e-11
5	0x2c34d506	2.569779e-12
6	0x322d8ced	1.0101968e-08
7	0x33b8b111	8.600376e-08
8	0x3204c7f0	7.728872e-09

exp_avg f4 [9]
0	0xb4fd6e7f	-4.720532e-07
1	0x36c3f774	5.84026e-06
2	0xb6bdbf56	-5.6549134e-06
3	0x3510aa63	5.3892126e-07
4	0xb58b88e0	-1.0396143e-06
5	0x35d988fd	1.6207629e-06
6	0x3762eb46	1.3525429e-05
7	0xb803bbc2	-3.1407697e-05
8	0x3793c814	1.7616934e-05

exp_avg_sq f4 [9]
0	0x2b1e31fc	5.6202243e-13
1	0x30489560	7.297185e-10
2	0x2fa7a232	3.049237e-10
3	0x2b0f81fc	5.0984195e-13
4	0x2e0d4637	3.212205e-11
5	0x2c34d506	2.569779e-12
6	0x3111d9ec	2.1224151e-09
7	0x32b0a4db	2.0564064e-08
8	0x3125538a	2.4058147e-09

exp_avg f4 [9, 3]
0	0xb712f68c	-8.759682e-06
1	0xb5ff0d54	-1.900286e-06
2	0xb723e9fd	-9.770037e-06
3	0x36f5c894	7.3249194e-06
4	0x35df3814	1.6631116e-06
5	0x370a283d	8.23481e-06
6	0x32f83162	2.8893457e-08
7	0x352f34c8	6.5269387e-07
8	0x35346ab8	6.721052e-07
9	0xb68bed8c	-4.170177e-06
10	0x352def6f	6.4795944e-07
11	0xb64ab97c	-3.0208312e-06
12	0xb55a48ef	-8.131746e-07
13	0x34551c38	1.9847437e-07
14	0xb513581e	-5.4889995e-07
15	0xb6f2b142	-7.2327975e-06
16	0x35c71e6b	1.4835508e-06
17	0xb6acb7ec	-5.147411e-06
18	0xb993926e	-0.00028147124
19	0xb884460a	-6.307296e-05
20	0xb9a58b31	-0.00031574958
21	0xb896fa10	-7.199135e-05
22	0xb786ad79	-1.6054824e-05
23	0xb8a9191a	-8.0632235e-05
24	0xb9b57515	-0.00034610243
25	0xb8a49d45	-7.849423e-05
26	0xb9cbcc10	-0.00038871216

exp_avg_sq f4 [9, 3]
0	0x314ed6ed	3.0099117e-09
1	0x3119f6f2	2.2404802e-09
2	0x31df229e	6.4940897e-09
3	0x3001f263	4.727438e-10
4	0x2f3c116f	1.7104694e-10
5	0x305b4902	7.9775486e-10
6	0x30c87a68	1.4586705e-09
7	0x309e3967	1.1512328e-09
8	0x31599f4a	3.1668201e-09
9	0x2e121585	3.321567e-11
10	0x2c8aa11b	3.940082e-12
11	0x2de3ec0c	2.5911738e-11
12	0x2ba1d506	1.1498864e-12
13	0x2971642c	5.3599635e-14
14	0x2b20a1f5	5.706818e-13
15	0x2eabc6f4	7.811521e-11
16	0x2d156c7e	8.4937595e-12
17	0x2e890b32	6.2320274e-11
18	0x354f8a08	7.731437e-07
19	0x34f7e363	4.617278e-07
20	0x35cb4345	1.5144257e-06
21	0x33eefe7a	1.1129028e-07
22	0x336d79a8	5.529151e-08
23	0x345cd1a1	2.0565359e-07
24	0x35a05730	1.1946304e-06
25	0x35359331	6.7641946e-07
26	0x3619b173	2.2902066e-06

exp_avg f4 [9, 3]
0	0xb69db4d7	-4.700017e-06
1	0xb6a21090	-4.8299044e-06
2	0xb70a1bb0	-8.2318875e-06
3	0x36867545	4.007163e-06
4	0x368a5c08	4.1234343e-06
5	0x36eb83b5	7.0188785e-06
6	0x35404dd8	7.163885e-07
7	0x353c938c	7.0250167e-07
8	0x35aa60a4	1.2694113e-06
9	0xb4ee6cb5	-4.441005e-07
10	0xb51d408d	-5.858099e-07
11	0xb54edf39	-7.706581e-07
12	0xb34b074b	-4.7271254e-08
13	0xb389d3b5	-6.418069e-08
14	0xb3a4e5ce	-7.678646e-08
15	0xb54ca9d1	-7.624304e-07
16	0xb581ea38	-9.679416e-07
17	0xb5a96ee6	-1.2623757e-06
18	0xb80714e9	-3.2205982e-05
19	0xb80b5652	-3.3220575e-05
20	0xb86cb286	-5.6433048e-05
21	0xb7b00c15	-2.0986461e-05
22	0xb7b4f3ff	-2.1571292e-05
23	0xb81a1c4b	-3.674281e-05
24	0xb8a911d7	-8.061871e-05
25	0xb8ae315a	-8.306159e-05
26	0xb9142a66	-0.00014130175

exp_avg_sq f4 [9, 3]
0	0x30a810d5	1.2228393e-09
1	0x2f90182d	2.6210625e-10
2	0x31573f71	3.132268e-09
3	0x2f3ef2c9	1.7366654e-10
4	0x2ebf22c4	8.69185e-11
5	0x3000635f	4.6707344e-10
6	0x301d569c	5.7239347e-10
7	0x2eda2079	9.9192606e-11
8	0x30c625bc	1.4417121e-09
9	0x2b69bbd4	8.303889e-13
10	0x2b8b85a6	9.913639e-13
11	0x2c0cf46b	2.0030876e-12
12	0x27b06609	4.896044e-15
13	0x27f94714	6.9188446e-15
14	0x28293897	9.3936555e-15
15	0x2c4a4c7c	2.8748384e-12
16	0x2c1f8010	2.2666348e-12
17	0x2cd6f3f5	6.1093305e-12
18	0x32a87d90	1.9614873e-08
19	0x31c11e88	5.6205103e-09
20	0x335b4161	5.1049373e-08
21	0x323d33c6	1.101302e-08
22	0x319280ac	4.2637875e-09
23	0x32f81c1c	2.8883782e-08
24	0x339b7b87	7.2402194e-08
25	0x32e5defc	2.676051e-08
26	0x344cf77a	1.9089012e-07

exp_avg f4 [9]
0	0x3757a358	1.285303e-05
1	0xb733ee87	-1.0724768e-05
2	0x34727537	2.2580649e-07
3	0x36e44f8a	6.804189e-06
4	0x35b3a2d9	1.3383934e-06
5	0x3745199b	1.1748077e-05
6	0x39d7ee8f	0.00041185736
7	0x38dd6d0c	0.00010558413
8	0x3a04bc97	0.00050635025

exp_avg_sq f4 [9]
0	0x32503744	1.2119759e-08
1	0x30ca182f	1.4704308e-09
2	0x31ccf056	5.9645044e-09
3	0x2eecb86a	1.0764796e-10
4	0x2c8a9365	3.93856e-12
5	0x2f888d9c	2.4838875e-10
6	0x363bfa7b	2.801097e-06
7	0x34cb18b8	3.7829682e-07
8	0x368cf428	4.2007487e-06

exp_avg f4 [9]
0	0x3757a358	1.285303e-05
1	0xb733ee87	-1.0724768e-05
2	0x34727537	2.2580649e-07
3	0x36e44f8a	6.804189e-06
4	0x35b3a2d9	1.3383934e-06
5	0x3745199b	1.1748077e-05
6	0x38bc7a91	8.987368e-05
7	0x386dcf2f	5.6698158e-05
8	0x396273ee	0.00021596227

exp_avg_sq f4 [9]
0	0x32503744	1.2119759e-08
1	0x30ca182f	1.4704308e-09
2	0x31ccf056	5.9645044e-09
3	0x2eecb86a	1.0764796e-10
4	0x2c8a9365	3.93856e-12
5	0x2f888d9c	2.4838875e-10
6	0x344e19cd	1.9194631e-07
7	0x33d0bcfe	9.720132e-08
8	0x353034ad	6.564176e-07

exp_avg f4 [9, 3]
0	0xb7a0ed8c	-1.9184103e-05
1	0xb7a411d0	-1.9558618e-05
2	0xb80d4c70	-3.3688208e-05
3	0xb7592bd1	-1.294441e-05
4	0xb7606e14	-1.337707e-05
5	0xb7be34f7	-2.2674429e-05
6	0x373320d6	1.0676877e-05
7	0x37386ce0	1.0992604e-05
8	0x379d154a	1.8725772e-05
9	0xb604b65b	-1.9775678e-06
10	0xb628e182	-2.5165214e-06
11	0xb6631657	-3.383864e-06
12	0xb67f07a3	-3.8002406e-06
13	0xb6a624bd	-4.9514624e-06
14	0xb6d5a5d5	-6.3672e-06
15	0xb51296b6	-5.460855e-07
16	0xb53c7103	-7.019991e-07
17	0xb579ad50	-9.301193e-07
18	0xb9dadf1b	-0.00041746427
19	0xb9e35be9	-0.00043365292
20	0xba3f94aa	-0.00073082244
21	0x38d1d8b8	0.000100062636
22	0x38db302a	0.00010451705
23	0x3937644a	0.000174896
24	0x38fcde8b	0.00012057748
25	0x3902a5f0	0.00012459583
26	0x395d95df	0.00021132034

exp_avg_sq f4 [9, 3]
0	0x3182f35e	3.8111656e-09
1	0x30cecb18	1.5046195e-09
2	0x322e1c61	1.0134586e-08
3	0x312b49e9	2.4925788e-09
4	0x3085a396	9.723518e-10
5	0x31e1f645	6.5763595e-09
6	0x2eb624a8	8.282913e-11
7	0x2e95a3fe	6.8048664e-11
8	0x2f83b087	2.3954191e-10
9	0x2cd7d777	6.134589e-12
10	0x2cd6ecd0	6.1085373e-12
11	0x2d850e48	1.5126692e-11
12	0x2d9d30d8	1.7870525e-11
13	0x2dc6bd16	2.2593965e-11
14	0x2e4134de	4.3930075e-11
15	0x2a1b1470	1.3773856e-13
16	0x2a2e104c	1.5459959e-13
17	0x2abef31f	3.391948e-13
18	0x35d59658	1.5913492e-06
19	0x351c73ae	5.8282865e-07
20	0x368c2ae5	4.1773187e-06
21	0x34145c8e	1.3817245e-07
22	0x336e7185	5.551694e-08
23	0x34c34ed7	3.6378944e-07
24	0x32935695	1.7152425e-08
25	0x325521bf	1.2405905e-08
26	0x33506820	4.8523475e-08

exp_avg f4 [9, 3]
0	0xb7aadb69	-2.036775e-05
1	0x38250c35	3.9350434e-05
2	0x37c84016	2.38717e-05
3	0xb75d1473	-1.3177388e-05
4	0x37d68506	2.5572732e-05
5	0x378201d1	1.5498053e-05
6	0x373924c0	1.1035416e-05
7	0xb7b33d0a	-2.1366886e-05
8	0xb7595d10	-1.2955876e-05
9	0xb5412904	-7.195779e-07
10	0x35f20987	1.8033178e-06
11	0x358b9954	1.0400931e-06
12	0xb54797e6	-7.435432e-07
13	0x3603914f	1.9605102e-06
14	0x3595f8f7	1.1173823e-06
15	0xb433592d	-1.6703116e-07
16	0x34e4c575	4.2611978e-07
17	0x348369b3	2.4477558e-07
18	0xb8c023ee	-9.161966e-05
19	0x393ab007	0.00017803918
20	0x38e2365a	0.000107866435
21	0x382abc0f	4.07063e-05
22	0xb8a641e6	-7.9277714e-05
23	0xb849594f	-4.800531e-05
24	0x389855ad	7.263883e-05
25	0xb9138b6a	-0.00014070948
26	0xb8b2e87c	-8.531005e-05

exp_avg_sq f4 [9, 3]
0	0x31233533	2.3749862e-09
1	0x3265a1e7	1.3366367e-08
2	0x3181a0f8	3.772694e-09
3	0x30cd3f42	1.4933692e-09
4	0x3212d384	8.546412e-09
5	0x31200cae	2.3290272e-09
6	0x2e9d9325	7.1656715e-11
7	0x2fae939f	3.1755307e-10
8	0x2ecb2069	9.2371284e-11
9	0x2b86506e	9.543596e-13
10	0x2d16be8e	8.5688245e-12
11	0x2c1810be	2.1609793e-12
12	0x2b8811c6	9.668314e-13
13	0x2d24eec5	9.375338e-12
14	0x2c161cb6	2.133222e-12
15	0x285629a9	1.188842e-14
16	0x29e20f9d	1.00391246e-13
17	0x2908a1fb	3.0338562e-14
18	0x339eda82	7.397195e-08
19	0x34ecb72f	4.409171e-07
20	0x341a3d64	1.4364701e-07
21	0x32b127bf	2.0623586e-08
22	0x3400e999	1.2005911e-07
23	0x330f8c52	3.3422403e-08
24	0x31861237	3.901984e-09
25	0x329a3f15	1.7956646e-08
26	0x31b8b2d9	5.3754374e-09

exp_avg f4 [9]
0	0x3847fd88	4.7681417e-05
1	0x380bd343	3.3336935e-05
2	0xb7e3ffb7	-2.7179585e-05
3	0x3700f869	7.687232e-06
4	0x378995f0	1.6401493e-05
5	0x3613ede3	2.2043175e-06
6	0x3a8ec4cf	0.0010892394
7	0xb98b21f3	-0.0002653744
8	0xb9a295fe	-0.000310108

exp_avg_sq f4 [9]
0	0x330a936a	3.22647e-08
1	0x32b75c73	2.1346045e-08
2	0x302473f9	5.982766e-10
3	0x2eb7f71e	8.3657734e-11
4	0x2fb04287	3.2061484e-10
5	0x2c2968b8	2.4074475e-12
6	0x376e789f	1.421399e-05
7	0x35a02566	1.1931813e-06
8	0x340e9341	1.3278351e-07

exp_avg f4 [9]
0	0x3847fd88	4.7681417e-05
1	0x380bd343	3.3336935e-05
2	0xb7e3ffb7	-2.7179585e-05
3	0x3700f869	7.687232e-06
4	0x378995f0	1.6401493e-05
5	0x3613ede3	2.2043175e-06
6	0x397f5242	0.00024349338
7	0xb8eea52d	-0.00011379491
8	0xb93f038d	-0.00018216502

exp_avg_sq f4 [9]
0	0x330a936a	3.22647e-08
1	0x32b75c73	2.1346045e-08
2	0x302473f9	5.982766e-10
3	0x2eb7f71e	8.3657734e-11
4	0x2fb04287	3.2061484e-10
5	0x2c2968b8	2.4074475e-12
6	0x35a835ac	1.2532596e-06
7	0x34aa495b	3.171834e-07
8	0x331f3042	3.7063963e-08

exp_avg f4 [9, 3]
0	0x37def81b	2.6579995e-05
1	0xb859546c	-5.1815456e-05
2	0xb803968a	-3.1373034e-05
3	0xb8d74ba1	-0.00010266086
4	0x39526d4e	0.0002006788
5	0x38feadc6	0.00012144032
6	0x3801d2aa	3.0952193e-05
7	0xb87c3a00	-6.01355e-05
8	0xb818de04	-3.6446392e-05
9	0xb5827fbf	-9.722934e-07
10	0x36298106	2.5258064e-06
11	0x35c0384a	1.4321497e-06
12	0x35168a17	5.60803e-07
13	0xb6412d30	-2.8785544e-06
14	0xb5c01293	-1.431052e-06
15	0xb706f63b	-8.044352e-06
16	0x37a9ad13	2.0226964e-05
17	0x37439643	1.1657891e-05
18	0xba3d493d	-0.0007220691
19	0x3ab94982	0.0014136287
20	0x3a6031e4	0.0008552356
21	0xba9df4b8	-0.0012051081
22	0x3b1ad53d	0.0023625635
23	0x3abb4990	0.0014288891
24	0x39eea098	0.0004551455
25	0xba6998ea	-0.00089110306
26	0xba0d5360	-0.0005391147

exp_avg_sq f4 [9, 3]
0	0x30b67012	1.3274095e-09
1	0x31ee73cc	6.9398762e-09
2	0x30f3a6c5	1.7727976e-09
3	0x3386ebe5	6.28277e-08
4	0x34c3518b	3.638091e-07
5	0x33f0149d	1.11796204e-07
6	0x31014039	1.8808477e-09
7	0x322d8a70	1.0101402e-08
8	0x314731f3	2.8986704e-09
9	0x2b0a081d	4.903871e-13
10	0x2cb47ea2	5.1299668e-12
11	0x2bf8e09b	1.76838e-12
12	0x2baaac07	1.2126974e-12
13	0x2e3cb4a6	4.29067e-11
14	0x2d666348	1.3096031e-11
15	0x2e3eba6e	4.336658e-11
16	0x2fc3a4d4	3.558741e-10
17	0x2ece3981	9.37801e-11
18	0x36131e57	2.1922367e-06
19	0x3756e260	1.2808101e-05
20	0x368db292	4.222916e-06
21	0x3704889c	7.89962e-06
22	0x383f8f35	4.567132e-05
23	0x3768c188	1.3873338e-05
24	0x35452a92	7.3450167e-07
25	0x36898134	4.0979594e-06
26	0x359f9331	1.1889261e-06

exp_avg f4 [9, 3]
0	0x36f9ecbe	7.4483387e-06
1	0x3666ea8e	3.44092e-06
2	0xb8095494	-3.2742115e-05
3	0xb7eff749	-2.8606171e-05
4	0xb7595076	-1.2952942e-05
5	0x3903e458	0.00012578198
6	0x37127a89	8.730808e-06
7	0x36854578	3.971796e-06
8	0xb8210f19	-3.8399452e-05
9	0xb3844848	-6.159877e-08
10	0xb28d8c6b	-1.6478415e-08
11	0x34c3ebe9	3.6493228e-07
12	0xb4a69ae4	-3.1032607e-07
13	0x34d8f437	4.0410825e-07
14	0x35e0ec9c	1.6758163e-06
15	0xb56486fc	-8.5133047e-07
16	0x359fda7d	1.1910012e-06
17	0x368c8759	4.1880817e-06
18	0xb92f8286	-0.00016737924
19	0xb89c7800	-7.4610114e-05
20	0x3a4128d1	0.0007368448
21	0xb90af7c2	-0.00013253003
22	0xb8737604	-5.8045625e-05
23	0x3a18dcd3	0.0005831245
24	0x389f39df	7.59249e-05
25	0x380e8c8e	3.398634e-05
26	0xb9af341d	-0.00033417428

exp_avg_sq f4 [9, 3]
0	0x2e580aec	4.9122414e-11
1	0x2fbaa432	3.394987e-10
2	0x312a5cac	2.4790934e-09
3	0x31a489a5	4.7886766e-09
4	0x333e8499	4.435842e-08
5	0x342af767	1.5922488e-07
6	0x2eec23de	1.0738409e-10
7	0x306f323b	8.7019075e-10
8	0x318c94dc	4.0914596e-09
9	0x2852cae4	1.1701337e-14
10	0x2bab3831	1.2165877e-12
11	0x2b73df64	8.664096e-13
12	0x29289f91	3.7441895e-14
13	0x2b68b4e4	8.2673994e-13
14	0x2c5c18d6	3.1277667e-12
15	0x2b2d0bf3	6.147853e-13
16	0x2d968b9b	1.7115023e-11
17	0x2e0175ea	2.9435933e-11
18	0x33ea23e4	1.09030026e-07
19	0x358636bd	9.999709e-07
20	0x36635eed	3.388089e-06
21	0x342094c4	1.4955282e-07
22	0x35bde44a	1.4148038e-06
23	0x36a1064f	4.7989083e-06
24	0x324945ef	1.1715641e-08
25	0x33d56944	9.937733e-08
26	0x34f069b4	4.4780393e-07

exp_avg f4 [9]
0	0xb88a5007	-6.595259e-05
1	0x3986916f	0.00025666828
2	0xb89f3066	-7.590726e-05
3	0x36a51513	4.9198366e-06
4	0xb71c2315	-9.306493e-06
5	0x3818cf50	3.64327e-05
6	0x3aed73bc	0.0018116157
7	0x3b4704e3	0.0030367903
8	0xba95a607	-0.0011417278

exp_avg_sq f4 [9]
0	0x32824ce6	1.5168961e-08
1	0x357ee2b5	9.4952276e-07
2	0x32cc4682	2.3780789e-08
3	0x2daedfd9	1.9880918e-11
4	0x2fda65b2	3.9726228e-10
5	0x30b113e9	1.2884104e-09
6	0x38119f63	3.4719134e-05
7	0x38f88aab	0.000118513904
8	0x372913c4	1.0077787e-05

exp_avg f4 [9]
0	0xb88a5007	-6.595259e-05
1	0x3986916f	0.00025666828
2	0xb89f3066	-7.590726e-05
3	0x36a51513	4.9198366e-06
4	0xb71c2315	-9.306493e-06
5	0x3818cf50	3.64327e-05
6	0x3ac56543	0.0015060086
7	0x3aa0c02d	0.0012264304
8	0xba325f7c	-0.00068043894

exp_avg_sq f4 [9]
0	0x32824ce6	1.5168961e-08
1	0x357ee2b5	9.4952276e-07
2	0x32cc4682	2.3780789e-08
3	0x2daedfd9	1.9880918e-11
4	0x2fda65b2	3.9726228e-10
5	0x30b113e9	1.2884104e-09
6	0x37a6f0cf	1.9900877e-05
7	0x37f21efa	2.8863073e-05
8	0x36338ebc	2.675616e-06

exp_avg f4 [9, 3]
0	0xb82c7592	-4.111749e-05
1	0xb7836243	-1.5662174e-05
2	0x393e0f46	0.00018125502
3	0xb5b2bf3e	-1.3317692e-06
4	0xb4a96a05	-3.1555842e-07
5	0x36c643c6	5.9087497e-06
6	0x3788ff0d	1.633123e-05
7	0x372a1db1	1.0139703e-05
8	0xb894c323	-7.093537e-05
9	0x351d96b1	5.870634e-07
10	0xb6694ac9	-3.4763236e-06
11	0x34219fda	1.5052447e-07
12	0xb65c7cef	-3.2855276e-06
13	0x369cdd47	4.6749224e-06
14	0x3786d9c3	1.6075448e-05
15	0xb6acb56f	-5.147121e-06
16	0x371c2b10	9.308351e-06
17	0x37c54cbe	2.3519966e-05
18	0x3a1347ef	0.0005618324
19	0x39558925	0.00020364353
20	0xbb23400f	-0.0024910008
21	0x3918eda6	0.0001458438
22	0x383ccb3b	4.5011966e-05
23	0xba292826	-0.0006452821
24	0xba1b1e3d	-0.00059172866
25	0xb96381c1	-0.00021696744
26	0x3b2b7583	0.0026162572

exp_avg_sq f4 [9, 3]
0	0x31961a9d	4.3686e-09
1	0x33277fcf	3.899896e-08
2	0x342708f9	1.5556351e-07
3	0x2fa1521f	2.934408e-10
4	0x31443aa8	2.8555096e-09
5	0x320dddea	8.257738e-09
6	0x315755a9	3.133531e-09
7	0x33042bf4	3.077362e-08
8	0x33976cd7	7.051283e-08
9	0x2bac05f1	1.2222984e-12
10	0x2ed28e15	9.574933e-11
11	0x2e20466a	3.644233e-11
12	0x2cf9116a	7.078939e-12
13	0x2f3c1dd5	1.7109099e-10
14	0x300f5e9c	5.2157545e-10
15	0x2d0d3231	8.026067e-12
16	0x2fa11909	2.9303518e-10
17	0x302a16c5	6.1877997e-10
18	0x35c93223	1.4990259e-06
19	0x3767ce25	1.381667e-05
20	0x384fe1bd	4.956288e-05
21	0x3485f256	2.4949503e-07
22	0x36203bd1	2.3876676e-06
23	0x37193ab2	9.133177e-06
24	0x35f61be7	1.8336549e-06
25	0x378eda57	1.7029392e-05
26	0x388b5954	6.644675e-05

exp_avg f4 [9, 3]
0	0x3814b9ac	3.545887e-05
1	0x391b6643	0.00014820047
2	0xb8dafbe4	-0.00010441968
3	0x358be9b4	1.0424324e-06
4	0x3698e454	4.556534e-06
5	0xb65a0504	-3.248745e-06
6	0xb78962f2	-1.6377748e-05
7	0xb885c8d2	-6.37934e-05
8	0x3838c797	4.40549e-05
9	0xb49a75f9	-2.8770572e-07
10	0x3666dad3	3.4400043e-06
11	0xb661a5b6	-3.362407e-06
12	0xb52c91c4	-6.428711e-07
13	0x369134e1	4.3274927e-06
14	0xb69455c0	-4.4207263e-06
15	0xb5899500	-1.025066e-06
16	0x367f177f	3.8011638e-06
17	0xb68d8404	-4.217496e-06
18	0xb9822836	-0.00024825492
19	0xba8a19ab	-0.0010536214
20	0x3a436b87	0.00074546825
21	0xb828b4d9	-4.022275e-05
22	0xb936bcc2	-0.0001742719
23	0x3902062f	0.0001240007
24	0x399009bf	0.00027473082
25	0x3a98fabd	0.0011671406
26	0xba589047	-0.0008261245

exp_avg_sq f4 [9, 3]
0	0x32a05565	1.8665284e-08
1	0x33aca2b8	8.0389725e-08
2	0x3322e4a5	3.7926515e-08
3	0x30b91e85	1.3469196e-09
4	0x3165d25d	3.3443464e-09
5	0x30c77141	1.4511344e-09
6	0x3271269b	1.4036824e-08
7	0x32ba4e00	2.168872e-08
8	0x320f47c5	8.340014e-09
9	0x2bb9fc97	1.3215148e-12
10	0x2d0d7252	8.040306e-12
11	0x2ceb8e9b	6.694934e-12
12	0x2e429a42	4.42475e-11
13	0x2ec10e00	8.779111e-11
14	0x2ebad716	8.496508e-11
15	0x2dada514	1.9741132e-11
16	0x2e27ce4c	3.8154632e-11
17	0x2e464680	4.5082604e-11
18	0x35decd68	1.660007e-06
19	0x36d286b3	6.2741688e-06
20	0x364486ed	2.9284813e-06
21	0x346e0bc1	2.2169753e-07
22	0x3549ecc1	7.522286e-07
23	0x34bac908	3.479147e-07
24	0x362f591f	2.6128907e-06
25	0x37349e64	1.0765714e-05
26	0x36aaecb7	5.093952e-06

exp_avg f4 [9]
0	0x39be65b7	0.00036315407
1	0x3754499d	1.2653324e-05
2	0xb9037a7a	-0.0001253876
3	0xb78327d2	-1.563496e-05
4	0x3871969b	5.759914e-05
5	0x38c7f702	9.535068e-05
6	0xbba4f584	-0.0050341506
7	0xbaaf56c8	-0.0013377303
8	0x3bacf087	0.0052776965

exp_avg_sq f4 [9]
0	0x35751e71	9.131391e-07
1	0x334b9bf1	4.740645e-08
2	0x34cd3ff1	3.823075e-07
3	0x30f01abc	1.7469897e-09
4	0x31e5e5e7	6.690914e-09
5	0x324ad30f	1.1805937e-08
6	0x399799d5	0.00028915578
7	0x38673078	5.511983e-05
8	0x39cf4653	0.00039534512

exp_avg f4 [9]
0	0x39be65b7	0.00036315407
1	0x3754499d	1.2653324e-05
2	0xb9037a7a	-0.0001253876
3	0xb78327d2	-1.563496e-05
4	0x3871969b	5.759914e-05
5	0x38c7f702	9.535068e-05
6	0xbb2b359b	-0.002612448
7	0xb9f6056f	-0.00046924825
8	0x3b403327	0.0029327364

exp_avg_sq f4 [9]
0	0x35751e71	9.131391e-07
1	0x334b9bf1	4.740645e-08
2	0x34cd3ff1	3.823075e-07
3	0x30f01abc	1.7469897e-09
4	0x31e5e5e7	6.690914e-09
5	0x324ad30f	1.1805937e-08
6	0x389c52ae	7.45406e-05
7	0x37209535	9.571483e-06
8	0x3904279d	0.00012603258

exp_avg f4 [9, 3]
0	0x3637725e	2.7335695e-06
1	0xb6af848b	-5.2308365e-06
2	0x36e7cd27	6.9082193e-06
3	0xb92d87c2	-0.0001654914
4	0xba3e3e8c	-0.0007257245
5	0x3a07c868	0.0005179704
6	0x371c2056	9.305853e-06
7	0x3824f5fb	3.9329734e-05
8	0xb7e9d05d	-2.7872791e-05
9	0xb65b3319	-3.2663286e-06
10	0x360f19e4	2.132373e-06
11	0xb6902996	-4.2963757e-06
12	0xb7435a6c	-1.1643959e-05
13	0x383dfc28	4.529595e-05
14	0xb8512220	-4.9861264e-05
15	0x37803a12	1.528583e-05
16	0xb7f08956	-2.8674182e-05
17	0x381ca6a6	3.73485e-05
18	0x3a7d75e2	0.000966875
19	0x3b8e6f2d	0.0043467493
20	0xbb4c870b	-0.0031208422
21	0x3ab82200	0.0014048219
22	0x3bd37ff4	0.006454462
23	0xbb98abaf	-0.004659138
24	0x39dd29cf	0.00042183555
25	0x3b06b721	0.002055593
26	0xbac518a4	-0.0015037251

exp_avg_sq f4 [9, 3]
0	0x325632ba	1.2467973e-08
1	0x32f1b3ac	2.8137798e-08
2	0x324e0db4	1.1993894e-08
3	0x338c1318	6.522731e-08
4	0x354ae61a	7.5585706e-07
5	0x34ce1d85	3.8391968e-07
6	0x33872907	6.29389e-08
7	0x341fad69	1.4871115e-07
8	0x3386a6bc	6.27019e-08
9	0x2d1415e4	8.417687e-12
10	0x2b89cf8d	9.792042e-13
11	0x2cd0fc15	5.9397023e-12
12	0x2f6e2e23	2.1662365e-10
13	0x3097a55f	1.1033697e-09
14	0x30ab5310	1.2465495e-09
15	0x31736851	3.542045e-09
16	0x311e0b76	2.299854e-09
17	0x315b4cd2	3.1912362e-09
18	0x37067467	8.014124e-06
19	0x386ac031	5.596894e-05
20	0x37e88aa0	2.7721107e-05
21	0x37d0b516	2.4879857e-05
22	0x39085a04	0.00013003504
23	0x3884941a	6.3218366e-05
24	0x37aa69f6	2.0314921e-05
25	0x389c723e	7.459939e-05
26	0x3812118e	3.482546e-05

exp_avg f4 [9, 3]
0	0x36700aab	3.5768996e-06
1	0x35bd1558	1.4087809e-06
2	0xb62f0553	-2.6080131e-06
3	0xb83ef422	-4.5526896e-05
4	0x3a42e1a2	0.00074341346
5	0xb984a2d9	-0.00025298333
6	0x35e10dc3	1.6767812e-06
7	0xb82b61b8	-4.0860585e-05
8	0x3772decb	1.4476197e-05
9	0x3518d57b	5.693507e-07
10	0x362447ca	2.447969e-06
11	0xb5c19090	-1.4421694e-06
12	0xb78dbe03	-1.6896991e-05
13	0xb7c87a67	-2.3898856e-05
14	0x3798150a	1.8129609e-05
15	0x37339c9a	1.0705693e-05
16	0x36bc1281	5.6049907e-06
17	0xb6e9e79d	-6.9709045e-06
18	0x3946a3af	0.00018943728
19	0xbb499154	-0.0030756788
20	0x3a892067	0.0010461927
21	0x39387b58	0.00017593557
22	0xbb4f0dc9	-0.003159391
23	0x3a8e2777	0.0010845502
24	0x383f087e	4.5545858e-05
25	0xba771cac	-0.00094265747
26	0x39ab8ff6	0.0003272292

exp_avg_sq f4 [9, 3]
0	0x3228666a	9.802173e-09
1	0x31ee7c53	6.9408457e-09
2	0x33ae1d96	8.107888e-08
3	0x333c83d6	4.3892065e-08
4	0x34fb07e1	4.6758126e-07
5	0x3525fe96	6.183776e-07
6	0x3355094d	4.9601386e-08
7	0x331fd19e	3.7210718e-08
8	0x34e0f3aa	4.190054e-07
9	0x2ae551a3	4.0735218e-13
10	0x2c8eba6f	4.056581e-12
11	0x2c7db18d	3.6052023e-12
12	0x2f49787b	1.8323647e-10
13	0x2fb037bd	3.2053818e-10
14	0x2fdf843b	4.065742e-10
15	0x3086cc95	9.807929e-10
16	0x2f808b08	2.3381852e-10
17	0x3163dd06	3.3158485e-09
18	0x36248b24	2.4518895e-06
19	0x37667ecb	1.373859e-05
20	0x37ed002d	2.8252683e-05
21	0x36610c8e	3.353492e-06
22	0x3755b622	1.2738195e-05
23	0x3812ec75	3.502933e-05
24	0x368f5123	4.2711777e-06
25	0x36d6b6c1	6.3989723e-06
26	0x3827255a	3.985069e-05

exp_avg f4 [9]
0	0xb835e7b9	-4.336957e-05
1	0xbae00fa0	-0.00170945
2	0x38bae848	8.912437e-05
3	0x381f27d3	3.7945643e-05
4	0x399350a2	0.000280981
5	0xb9808afc	-0.00024517614
6	0x3c2b27d1	0.010446505
7	0x3c8105a1	0.015749754
8	0x3bab312d	0.005224368

exp_avg_sq f4 [9]
0	0x34d951f4	4.0479028e-07
1	0x36ce93e6	6.156496e-06
2	0x360a92b5	2.0648997e-06
3	0x302e1d6a	6.334263e-10
4	0x3329dea7	3.955088e-08
5	0x342aa849	1.5893706e-07
6	0x3a082a2d	0.0005194273
7	0x3aae2d5c	0.0013288665
8	0x3a6797ad	0.0008834552

exp_avg f4 [9]
0	0xb835e7b9	-4.336957e-05
1	0xbae00fa0	-0.00170945
2	0x38bae848	8.912437e-05
3	0x381f27d3	3.7945643e-05
4	0x399350a2	0.000280981
5	0xb9808afc	-0.00024517614
6	0x3bec6965	0.0072147124
7	0x3bf910d6	0.007600884
8	0x3b1e61b3	0.002416712

exp_avg_sq f4 [9]
0	0x34d951f4	4.0479028e-07
1	0x36ce93e6	6.156496e-06
2	0x360a92b5	2.0648997e-06
3	0x302e1d6a	6.334263e-10
4	0x3329dea7	3.955088e-08
5	0x342aa849	1.5893706e-07
6	0x39708074	0.00022936036
7	0x39862b46	0.00025590713
8	0x3974ed4d	0.00023358055

exp_avg f4 [9, 3]
0	0xb8228f2a	-3.875714e-05
1	0x39e8a356	0.00044372183
2	0xb91894d6	-0.00014551295
3	0x38886238	6.50328e-05
4	0xba80a0af	-0.0009813512
5	0x39ad4653	0.00033049527
6	0xb755ede9	-1.2751182e-05
7	0x3896d169	7.191563e-05
8	0xb79ce596	-1.8703558e-05
9	0xb884aa33	-6.3259526e-05
10	0xb8bb7218	-8.9381065e-05
11	0x388e71d9	6.7922934e-05
12	0xb8db1281	-0.000104461804
13	0xb8d17352	-9.987377e-05
14	0x38b5afa5	8.663469e-05
15	0x3634dc94	2.6950484e-06
16	0x34246b70	1.5312776e-07
17	0xb56f4b74	-8.9144237e-07
18	0x38fa9e0d	0.00011950368
19	0xbb82c000	-0.0039901733
20	0x3aba6a5c	0.0014222371
21	0xba3ace18	-0.0007126047
22	0x3caa033a	0.020753492
23	0xbbf173f6	-0.00736856
24	0xba657e53	-0.00087544805
25	0x3c2e6d8c	0.010646235
26	0xbb661671	-0.003510859
