aa2_models/model2.pt (torch_old, 6252 bytes, 26 tensors)

lin1.weight f4 [3, 7]
000000 46 14 69 3e 19 e9 90 3e 84 c5 a0 be 7e 2e 90 3e
       0.2276164 0.2830284 -0.31400692 0.2816047
000010 16 47 2a 3e 21 b4 91 3e 49 00 38 3c 2e 51 2b 3e
       0.1662868 0.2845774 0.011230537 0.16730186
000020 db b1 23 bc 6c b5 b5 3d 24 28 47 3c 24 7c 00 be
       -0.0099911345 0.08872494 0.012155566 -0.12547356
000030 68 b1 3d be 9c 05 34 3e f1 67 50 be e4 6b 89 3d
       -0.18524706 0.17580265 -0.2035215 0.06710032
000040 35 87 90 be ce d9 8a be 48 ee 30 3e 4a 50 6b 3e
       -0.28228155 -0.27119297 0.17278397 0.22979847
000050 be 42 29 be
       -0.16529366

lin1.bias f4 [3]
000000 5f b5 4e 3e 0e 36 e3 bd 7d 08 ec 3d
       0.20186375 -0.110942945 0.115250565

lin2.weight f4 [3, 3]
000000 ac 4e 7c be 2f fe 08 3f 70 ef dc be 94 32 5e 3e
       -0.24639386 0.53512853 -0.43151426 0.21698982
000010 3f 26 d9 3e 2d 12 68 3d a0 52 c3 be 3e de 30 3e
       0.42411992 0.05665796 -0.38148975 0.17272279
000020 ec 51 05 3f
       0.5207813

lin2.bias f4 [3]
000000 99 fa 1c 3c 62 8d b4 be 34 c3 bd be
       0.0095812315 -0.35264117 -0.3706299

GRU.weight_ih_l0 f4 [9, 3]
000000 4b 87 52 3e 53 f8 f8 be ab e4 1a 3e 40 82 43 be
       0.20559423 -0.48626956 0.15126292 -0.19092655
000010 d3 88 bc 3e 3f 87 84 3e 59 c4 e9 3e 50 12 0e 3f
       0.3682314 0.25884435 0.45657614 0.5549669
000020 c6 94 94 3e 9e f8 9b be e4 de 01 bf 82 f3 0d 3c
       0.29019755 -0.30463117 -0.5073073 0.008664014
000030 ea e4 e6 3c bb 00 ed be bc 1a 75 bd de 20 77 3e
       0.028185327 -0.4628962 -0.05983995 0.24133632
000040 6c 28 13 be 5e 55 5e 3e b0 b3 0d 3f 5c 7e 01 3d
       -0.14370888 0.21712252 0.55352306 0.031614646
000050 32 4f 91 3e 42 54 df bd 03 4c 03 bf 49 a1 ad bc
       0.28380734 -0.10904743 -0.5128786 -0.02119507
000060 20 88 d2 3c c7 2e e4 bd 5f 3e 3e bd
       0.025699675 -0.111417346 -0.0464462

GRU.weight_hh_l0 f4 [9, 3]
000000 fb 90 ab 3c ff 69 de be e6 d5 3f 3d 1e c0 6c be
       0.020943156 -0.43440244 0.04683485 -0.23120162
000010 f1 b1 be be 78 c9 80 3e 09 1a ea 3e 2a fe e1 3e
       -0.37245134 0.25153708 0.45722988 0.44139224
000020 e9 57 54 be d4 76 04 bf dc 63 01 3f a6 5a d5 be
       -0.2073666 -0.5174382 0.50543 -0.41670722
000030 b1 54 63 be a2 95 eb bd 4b 06 b2 3e bc ef cf 3e
       -0.22200276 -0.115031496 0.34770426 0.4061259
000040 dd 21 19 be f0 e3 46 3d 91 d6 00 3f 9f 76 d8 3e
       -0.14954324 0.048557222 0.503274 0.42278
000050 1d 1d e0 3d 79 2a 1e be 1d d2 61 3e 94 86 46 3e
       0.10943053 -0.1544589 0.22052808 0.19387275
000060 03 2c 3e bd a5 c7 d1 3d b7 95 57 be
       -0.04642869 0.10243157 -0.21053205

GRU.bias_ih_l0 f4 [9]
000000 5b b2 d6 be 39 20 27 3e 71 18 f7 3d 28 ec 00 3f
       -0.4193295 0.16320886 0.12065209 0.50360346
000010 39 f1 f1 3e 9a 50 de 3e ff 64 2f be 0f c9 e8 3d
       0.4725435 0.4342087 -0.1712837 0.11366474
000020 7f 36 a2 3e
       0.31682202

GRU.bias_hh_l0 f4 [9]
000000 01 4f bd bd 9e 07 bc 3d 01 e2 dc be 41 ce c6 be
       -0.092435844 0.0918114 -0.43141177 -0.38829234
000010 99 2a e8 3e 96 05 f6 3e 95 f8 0c bf 38 3d a8 3e
       0.45345 0.48051137 -0.55066806 0.32859206
000020 61 f6 b6 3e
       0.35734847

GRU.weight_ih_l1 f4 [9, 3]
000000 bd 02 cb 3e 09 41 f9 3e 0e 48 86 be e8 16 55 bd
       0.39650527 0.4868243 -0.26226848 -0.0520238
000010 98 c1 0c 3f 71 2c 96 3e 7a 7c ac be 9d 2e d5 be
       0.549829 0.2933078 -0.33688718 -0.41637126
000020 fd 51 9c 3e ee c5 da 3e 6e 0a 4b be 9d 61 f2 bb
       0.30531302 0.42729133 -0.19828197 -0.0073968903
000030 32 59 dc 3d 8e 29 04 3f 1b 39 5e 3e bc 96 de bd
       0.107592 0.5162591 0.21701472 -0.10868594
000040 9a 8a 94 3e 19 af 3d 3e 07 32 a3 be 8a bb ea 3e
       0.29011995 0.18523826 -0.31874105 0.45846206
000050 40 21 19 3e 48 1c 06 be 98 4e 76 3c 7c 74 05 3f
       0.1495409 -0.13096726 0.015033387 0.52130866
000060 19 dd d8 3e 63 74 88 be 6b d9 e2 be
       0.42356184 -0.26651296 -0.44306502

GRU.weight_hh_l1 f4 [9, 3]
000000 cd 2e 2d 3e e2 df 09 bf 03 17 10 3e 16 a9 ff 3e
       0.16912384 -0.53857243 0.14071278 0.4993369
000010 93 5c 2d be c0 b6 b8 3e e2 27 65 3e 41 ac 0f 3f
       -0.16929846 0.36076927 0.22378495 0.56122214
000020 62 5b 8c 3e 5a 30 a0 3e 91 ff b6 3e 9c 1a c0 3e
       0.2741347 0.3128689 0.35741857 0.375203
000030 76 85 b1 bd f0 2a f0 3e 96 64 c8 3c 36 58 47 be
       -0.08668034 0.4690776 0.024462026 -0.19467244
000040 1d 73 0b bf 07 72 1f bd a9 94 2f 39 aa d8 61 3d
       -0.54472524 -0.038927104 0.00016744681 0.055138268
000050 02 6d d7 3e 84 71 ee be b0 47 bf be 7b 1b 97 be
       0.42075354 -0.4657098 -0.3735938 -0.29513153
000060 82 7e c3 be d7 86 f8 3e 6e 95 2a 3e
       -0.38182455 0.48540375 0.16658565

GRU.bias_ih_l1 f4 [9]
000000 17 d0 45 be 25 a3 ca be e6 f7 8c 3e a0 8e 09 be
       -0.19317661 -0.39577594 0.27532881 -0.13433313
000010 1f 44 65 3e e2 14 94 3e 8c 98 06 bf 33 c6 c6 3e
       0.22389267 0.28922182 -0.5257652 0.3882309
000020 0e 14 e5 be
       -0.44741863

GRU.bias_hh_l1 f4 [9]
000000 e1 2c eb 3e 64 63 b0 be 4e bf a4 be 83 ba 85 bd
       0.45932677 -0.3445083 -0.32177204 -0.06529715
000010 b1 3e bd 3c 04 d2 98 be e8 98 d8 be fb 26 ef 3e
       0.023101183 -0.2984773 -0.42304158 0.46709427
000020 f8 6c 05 bf
       -0.521194

GRU.weight_ih_l2 f4 [9, 3]
000000 e5 97 e8 be 2d b3 88 3e c1 7f 0b bf 77 c3 bf 3e
       -0.45428386 0.266992 -0.5449181 0.37453815
000010 fc cf d4 bc 32 d7 19 3e 05 75 8d be 01 10 98 3d
       -0.02597808 0.15023497 -0.2762834 0.074249275
000020 71 31 f2 3d 75 b7 f3 3e 19 5c cc 3d 2e d5 1d be
       0.118258364 0.47600904 0.09978504 -0.15413353
000030 4e 72 ce 3e 78 34 bf be 4a df 00 bf 4a 4e d5 3d
       0.40321583 -0.37344718 -0.5034071 0.10415323
000040 cf d6 8b 3e 46 92 d2 3e 6d 22 2d be 47 48 f4 3e
       0.27312323 0.41127223 -0.16907664 0.47711393
000050 9d da 32 3a 80 e6 2e bc d3 43 5f 3e fd f0 5a 3e
       0.0006822737 -0.010675073 0.21803217 0.21380992
000060 51 54 63 3e 21 41 e8 be 21 91 72 3e
       0.22200133 -0.4536219 0.23688175

GRU.weight_hh_l2 f4 [9, 3]
000000 13 88 fa 3d 28 06 0c 3f 58 aa a6 be eb 16 bc 3e
       0.12232985 0.54696894 -0.32551837 0.36736235
000010 d4 1e 81 bd af 77 dd be 89 dc e1 be af f7 04 bf
       -0.06304708 -0.43255374 -0.44113567 -0.51940435
000020 30 55 d1 3e fb 65 a4 bd fd ed 61 bd ac 62 a0 3e
       0.40885305 -0.08027264 -0.055158604 0.3132528
000030 d9 6c c4 3e c8 e6 7f 3d 71 d1 d5 3d 09 79 f8 be
       0.38364294 0.06247595 0.104403384 -0.48529842
000040 d2 15 00 3f 92 c3 6d 3e 04 99 5e 3d 5e 0d 85 be
       0.50033295 0.23219135 0.054345146 -0.2598676
000050 0c 2f 4e 3e a4 58 ea be 56 91 9a be 75 66 0a bf
       0.20135134 -0.45770752 -0.30189008 -0.5406259
000060 bf db 42 3e e1 24 69 bc 8d b0 0d 3f
       0.19029139 -0.014229984 0.5534752

GRU.bias_ih_l2 f4 [9]
000000 32 66 0a be 08 b8 d1 be 70 43 ee 3b 95 7d 82 3e
       -0.13515547 -0.40960717 0.007271223 0.25486436
000010 4b c5 ec 3e f0 5b c5 be d1 55 a5 3e 65 d9 d4 be
       0.46244273 -0.38546705 0.32292035 -0.4157211
000020 76 98 59 3e
       0.21249565

GRU.bias_hh_l2 f4 [9]
000000 dc 1d 37 be bf d6 ad 3e 0d 15 a2 3e 17 60 fa bd
       -0.17882484 0.339529 0.31656685 -0.12225359
000010 a0 2c 04 bf 7a 6a f9 be 46 dc 2c 3e 46 10 85 3e
       -0.5163059 -0.48714048 0.16880903 0.25988978
000020 b9 93 9a 3c
       0.018869268

GRU.weight_ih_l3 f4 [9, 3]
000000 9a 8e 54 be c5 a8 ae bd 73 c6 c4 3e c1 09 0c bf
       -0.20757523 -0.08528284 0.38432655 -0.54702383
000010 20 3b ef 3e 8a 8f 9a 3e 50 89 f1 be 08 d7 ac be
       0.46724796 0.30187637 -0.47175074 -0.33757806
000020 49 f4 a8 3e e2 fe 89 3e 66 6d a4 3d 60 6f 0a 3a
       0.32998875 0.26952273 0.080286786 0.00052808784
000030 71 b2 7f 3e 8f 0c 68 be f5 ba cf be 59 5c 5c 3e
       0.24970414 -0.2266104 -0.40572324 0.21519603
000040 10 1a 5c be 69 2d f8 3e 6d c6 d7 be 9f 29 36 3e
       -0.21494317 0.48472145 -0.42143574 0.17789315
000050 56 38 dc bd bc 3a a9 be d3 c0 59 be f1 d2 9a 3e
       -0.10752933 -0.33052623 -0.21264963 0.3023906
000060 91 63 4c be 3b ec 5b 3e 09 83 00 3d
       -0.19959857 0.21476834 0.031374965

GRU.weight_hh_l3 f4 [9, 3]
000000 0c 34 87 be af bd ea 3e 7a 64 75 3e 65 4b 4e 3e
       -0.26406896 0.45847842 0.2396411 0.20145948
000010 12 69 95 3e bb c9 96 3e 67 9d f6 3e 48 74 a4 3d
       0.29181725 0.29450783 0.48166963 0.080299914
000020 74 d1 10 3c 38 ee fa 3e a4 bb ab 3e 48 83 12 3f
       0.008839 0.4900987 0.33541596 0.5723157
000030 ea db 9b bd df d4 66 be dc c9 d0 be 38 a6 ed be
       -0.07610305 -0.22542141 -0.40779006 -0.46415877
000040 6a 18 f7 bd 37 db 23 bd 98 c8 f7 be d9 b1 47 3e
       -0.120652035 -0.04000398 -0.48395228 0.19501437
000050 90 7e ad 3c 5d 1a f7 3e 99 b7 0e 3f 3c 51 06 bf
       0.021178514 0.482623 0.557489 -0.52467704
000060 99 bf b9 be eb 18 c1 be ab 8f 73 3e
       -0.3627899 -0.37714323 0.23785274

GRU.bias_ih_l3 f4 [9]
000000 63 ef b3 be 89 32 61 3e 62 06 d8 bd c1 d8 11 3f
       -0.35143575 0.21991934 -0.105480924 0.56971365
000010 57 9f 2b 3e 47 1f d1 be 40 cb 13 bd 0d ca b7 3c
       0.16760002 -0.40844175 -0.036082506 0.022435213
000020 62 cb 0d 3e
       0.13847116

GRU.bias_hh_l3 f4 [9]
000000 c9 ef 13 3e f9 a7 25 3e 03 64 b5 3b 62 c3 e2 3e
       0.1444694 0.16177358 0.005535604 0.4428969
000010 4d 4b ea 3e f9 d1 9d 3d 5b 9a 54 be aa f2 17 bf
       0.45760575 0.07706065 -0.20762007 -0.5935465
000020 f9 f5 37 3e
       0.17964925

GRU.weight_ih_l4 f4 [9, 3]
000000 d1 72 dc be df 7a a8 be 42 ac e7 be 3b 9a 2e 3d
       -0.43056348 -0.32906243 -0.4524861 0.042627554
000010 4e 03 cf 3e 75 4f d0 be 2a 4c bc be 69 39 63 3e
       0.4043221 -0.4068562 -0.3677686 0.22189869
000020 76 ac 80 3e af 08 0b bf 4f 77 11 3f d4 3e 51 3e
       0.25131577 -0.54310125 0.56822675 0.20434123
000030 82 4c 86 bd 15 56 e0 be 3e a2 eb 3e a8 b0 bf be
       -0.065575615 -0.43815675 0.46022218 -0.37439466
000040 a4 e5 e4 3e c3 cc 80 3e f1 92 e0 3e b5 79 2e bf
       0.44706452 0.2515622 0.43862107 -0.6815446
000050 8d 44 00 3e 5b d7 39 be f3 42 82 be f6 e3 6f be
       0.1252615 -0.18148558 -0.25441703 -0.23426804
000060 34 66 1e 3f a9 d0 8e be 2d b1 99 3e
       0.618747 -0.2789357 0.30017987

GRU.weight_hh_l4 f4 [9, 3]
000000 04 17 af bd d0 d1 c2 3d 67 43 74 3e f4 2c bc 3e
       -0.08549312 0.09512675 0.23853837 0.36753047
000010 86 6c aa 3e d7 b8 a7 be 82 65 09 3f fd d0 14 be
       0.33285922 -0.3275821 0.53670514 -0.14532848
000020 5c c7 ff bd 40 ea 3f bd 70 b2 8f 3e 33 15 5c 3d
       -0.12489197 -0.046854258 0.28065825 0.053731155
000030 5a d6 8b 3e a0 03 30 3e cb 9b f2 3e 3b 30 e2 3d
       0.27311975 0.17188883 0.47384486 0.110443555
000040 80 d7 08 3f 0a 48 85 3e e2 cf e1 3d 82 59 c9 be
       0.53453827 0.26031524 0.110259786 -0.39326102
000050 e7 6c 92 be 47 89 86 bd fc d5 73 be 6f cf c1 3e
       -0.2859871 -0.06569152 -0.23812097 0.37853572
000060 75 40 99 be 8d f5 ec 3e ba 45 19 3f
       -0.2993199 0.4628109 0.5987202

GRU.bias_ih_l4 f4 [9]
000000 33 a6 a7 3e 72 36 0f 3f 2a 02 85 be 16 d6 57 be
       0.32743987 0.5594245 -0.25978214 -0.21077761
000010 9b 2a de be 45 62 12 be c7 d2 13 3f 3b f7 64 be
       -0.4339188 -0.142953 0.57743496 -0.22359936
000020 b0 a0 14 bf
       -0.5805769

GRU.bias_hh_l4 f4 [9]
000000 2b 8f de 3e 1d 92 9a 3d 2a 4c 42 bc 2c 61 50 3e
       0.43468603 0.075474 -0.011858979 0.20349568
000010 5f 1b b1 be 9a 78 d5 3d 08 39 20 3f 54 a1 ce 3e
       -0.34591195 0.104233935 0.6258702 0.4035746
000020 ec 82 23 bf
       -0.63871646

lin3.weight f4 [5, 3]
000000 51 d1 a4 3f 32 ff 98 3d ac 22 79 bf 13 5b a3 3e
       1.2876378 0.0747055 -0.9731853 0.31905422
000010 0e 67 49 3c 9b 40 40 3f 41 1d 1f 3d aa c8 f3 be
       0.012292637 0.7509858 0.038846258 -0.47614032
000020 b9 06 74 bc bc 9f 28 3e 9d f3 91 3e 60 f5 2b be
       -0.014894181 0.16467184 0.28506175 -0.16792822
000030 04 18 eb be e9 66 db be 50 24 3a be
       -0.4591676 -0.42851952 -0.18177915

lin3.bias f4 [5]
000000 19 40 aa 3f 46 9e 88 3e f4 7d a6 be b8 4a 38 bd
       1.3300811 0.26683253 -0.3251797 -0.044993132
000010 9d 5a a2 bd
       -0.07927439
