aa2_models/model6.pt (torch_old, 66448 bytes, 252 tensors)

lin1.weight f4 [4, 7]
000000 6b 6f 9f 3e d0 57 d0 3c 0d a9 2c be a5 08 56 be
       0.31139693 0.025432497 -0.16861363 -0.20901735
000010 fc d1 01 3e 69 72 b0 be b1 fb af bd 80 6a c5 3d
       0.12677759 -0.34462288 -0.08592928 0.09639454
000020 7e 8f 79 3e 25 83 bf be d4 3b 91 3c 2f 5c ec bd
       0.24371144 -0.37404743 0.017728724 -0.1154102
000030 6c a0 56 be 1e f3 df 3d 8f 57 54 be ec f1 ff 3d
       -0.20959634 0.10935043 -0.20736526 0.12497315
000040 55 b0 8a bd b9 e4 13 3d d1 49 0f 3d 28 68 86 bd
       -0.06771914 0.0361068 0.034982506 -0.06562835
000050 01 10 e1 bd 1a d7 21 3e 2a 8c 14 3e c0 f3 0d 3e
       -0.10989381 0.15804711 0.14506593 0.13862514
000060 7a 00 0c 3e 22 79 26 3e f1 5e 8c 3e b6 40 60 3e
       0.13672057 0.16257146 0.27416185 0.21899685

lin1.bias f4 [4]
000000 98 f9 72 3d 20 aa 94 3e 3c 78 b7 3e 1d be 71 bd
       0.059320062 0.29036045 0.3583392 -0.059019197

GRU.weight_ih_l0 f4 [12, 4]
000000 5f 5a fd 3e 96 97 3f bd 32 d2 df 3e 4c d7 9e 3e
       0.4948301 -0.046775423 0.43715054 0.31023633
000010 9c 13 c4 3e d2 e6 33 3e c2 0b d3 3e e0 5c a4 3e
       0.3829621 0.1756852 0.41219908 0.32102108
000020 83 92 83 3e 13 00 da be 83 3a e4 be 64 6c 68 3e
       0.25697717 -0.42578182 -0.4457589 0.22697598
000030 10 a2 41 3e 73 11 d4 3e fc d3 f6 3e 7f 4d 47 be
       0.18909478 0.41419563 0.48208606 -0.19463156
000040 ba c4 77 bd 9d b3 09 be 6d ad 28 be 4a d2 f5 bd
       -0.060490347 -0.13447423 -0.16472407 -0.12003
000050 32 51 ef bc 66 c8 b0 be 2d 9c 84 be a3 b5 ec 3e
       -0.029213522 -0.34527892 -0.25900403 0.46232328
000060 e3 76 f5 be 1f ae 86 be 08 c1 f7 3c 5c 49 0c 3e
       -0.47942266 -0.2630472 0.030243412 0.1369986
000070 1e 9e 91 be a9 10 b5 be bc 7a 2e be cd c5 22 3e
       -0.28440946 -0.35364273 -0.17039007 0.15895768
000080 a0 d1 6f 3e 4f 8c 5f 3e a9 22 9e bd 31 d2 a1 be
       0.2341981 0.21830867 -0.07721455 -0.31605676
000090 5b de 56 3e a5 07 95 3d 1c 3b b0 3e bf 76 6a be
       0.2098326 0.07276849 0.34420097 -0.2289686
0000a0 bb bf 30 3e 72 0b e4 be 76 08 bd 3e fe 39 ac bd
       0.1726064 -0.44539982 0.36920518 -0.08409499
0000b0 ef b7 0f 3e f0 a2 e6 be 0a 59 bd 3e 64 15 e2 bd
       0.14035009 -0.45046186 0.36981994 -0.11039236

GRU.weight_hh_l0 f4 [12, 4]
000000 ac 89 c5 bd 6c a8 b7 be c3 70 bc 3e df a8 ab 3d
       -0.096453995 -0.35870683 0.3680478 0.08381819
000010 8c 29 82 3e a1 e3 b3 be bb fd 7f be ea 4a c7 be
       0.25422323 -0.35134605 -0.24999134 -0.38924342
000020 fc ed 12 3d 98 ad ad 3e b5 5c 90 be ab 1e fb be
       0.03587149 0.33921504 -0.2819573 -0.49046835
000030 b8 56 8b 3e 9d 67 5a 3e db 95 a0 be 44 f6 d2 bc
       0.272146 0.21328588 -0.3136433 -0.025752194
000040 c8 b7 3a 3e 0a 8e e9 3d 93 98 59 3e f1 00 26 3d
       0.1823417 0.11404045 0.21249609 0.04052824
000050 b8 7b 8b bd 17 97 da be 16 af 85 be a1 7e 7e 3e
       -0.06810707 -0.42693397 -0.26110142 0.24852993
000060 62 ec 8f be 2e f3 5f 3e 98 34 70 be ba fb c1 3e
       -0.28110033 0.2187011 -0.23457563 0.37887365
000070 de e4 7f 3e df ce ec be 95 0f 72 3e 37 9a 90 3d
       0.2498965 -0.4625158 0.23638757 0.07060664
000080 1b a7 ed 3e b2 11 01 be d4 79 36 be c8 b5 a9 3d
       0.46416554 -0.12604406 -0.17819911 0.08286625
000090 6e 9a d1 bd 46 49 cf 3e 23 5d fb 3e 92 45 4f 3d
       -0.10234533 0.4048559 0.49094495 0.050603457
0000a0 d4 c9 88 be 36 1c 4e 3e 76 ea b9 3d b4 a5 69 3d
       -0.26716483 0.20127949 0.09077923 0.057042792
0000b0 97 23 b0 be 05 af d0 bd fb 9b 89 3d 62 8e 8e 3e
       -0.34402153 -0.10189632 0.06719204 0.27843004

GRU.bias_ih_l0 f4 [12]
000000 fa a3 d4 3e 6d 9d 87 3e 3d f8 3f 3e 5d ef 88 3e
       0.41531354 0.26487294 0.18747039 0.2674512
000010 2a 89 c2 be c1 98 6a 3e ac d1 f5 be 1a 54 82 be
       -0.37995273 0.22909833 -0.4801153 -0.2545479
000020 54 47 7d be e7 74 c4 bd e4 91 ef be aa de 46 be
       -0.24734241 -0.0959261 -0.46790993 -0.19420877

GRU.bias_hh_l0 f4 [12]
000000 13 ce 8d 3d c4 10 66 3e 60 f3 9f bb 70 bb 80 3d
       0.06924071 0.22467333 -0.0048813075 0.06285751
000010 62 db b4 3e c3 58 d2 bd 58 9b 30 be 6c 1f aa be
       0.35323626 -0.10270836 -0.17246759 -0.33227098
000020 83 fa 59 3e 8c 69 02 bf 39 b8 21 3e 26 ee 38 3e
       0.21286969 -0.509423 0.15792932 0.18059596

GRU.weight_ih_l1 f4 [12, 4]
000000 a8 bf a1 be 7d af 58 3e 78 96 ea be 40 3d ad 3e
       -0.31591535 0.21160693 -0.45817924 0.33835793
000010 9f c6 db be 19 9e 01 be c8 1d fc 3e d4 df 1d 3e
       -0.42924973 -0.12657966 0.4924147 0.15417415
000020 6d cf 64 3d a9 2e 9b be 6f da b2 3e 99 85 d5 bc
       0.05586188 -0.30309036 0.34932277 -0.02606468
000030 df f6 fe 3e 68 c1 61 be 5a 99 9e be 4b 8e 07 3e
       0.49797723 -0.22046435 -0.30976373 0.13237874
000040 e0 4a f6 be 0b 88 f4 be be 12 ca 3e 41 06 d4 3d
       -0.48104 -0.47760043 0.39467424 0.10352755
000050 c1 b1 81 3c 8c 7c a5 3a 70 5a 45 be de a0 85 be
       0.01583183 0.0012625619 -0.1927278 -0.26099294
000060 13 73 8a be 36 c2 16 3e 2f 62 91 3e e2 5e dc 3e
       -0.2704092 0.14722523 0.2839522 0.4304114
000070 69 43 4c bd 61 66 3c 3e c2 13 23 bd cb 12 b7 3e
       -0.049868975 0.1839843 -0.039813764 0.35756525
000080 39 d8 ae 3e 0f d2 a1 3e 40 05 a6 be 4f b2 9e be
       0.3414934 0.31605574 -0.3242588 -0.30995414
000090 0e 27 5c 3e 8a d8 d6 3e cd 6e 23 be cc 47 27 3e
       0.21499273 0.4196208 -0.15960236 0.16335982
0000a0 0e 65 bb 3e e4 4d ba be ca 82 26 3d 77 7d ca 3b
       0.36600536 -0.3638755 0.040652074 0.0061795074
0000b0 a2 c2 af be ef 6b 62 3e cc 0d ab be e5 68 dd bd
       -0.3432818 0.22111486 -0.33408964 -0.10811023

GRU.weight_hh_l1 f4 [12, 4]
000000 f6 81 1a be 86 ab c9 be 5f 4f 28 3e c7 54 4f 3e
       -0.15088639 -0.39388674 0.16436528 0.20247184
000010 8e 52 c2 bd 88 8f bb be 4e f8 a3 be 89 39 ac bd
       -0.09488402 -0.36632943 -0.3202538 -0.084094115
000020 ba 98 de 3e 2a e0 89 be 23 c2 27 3d e4 51 e2 3e
       0.43475896 -0.26928836 0.040956628 0.44203103
000030 c3 bd 2a be 86 20 c9 be 7c 4d d5 3d b9 2f c2 bb
       -0.16673951 -0.39282626 0.104151696 -0.005926099
000040 97 e1 c1 bd 97 60 5e be 5d 2b 66 3e 4c f4 13 3e
       -0.09466856 -0.21716534 0.2247748 0.1444866
000050 b2 88 e7 3e 8e 33 08 3e d5 63 80 be 38 6c 73 3d
       0.45221478 0.13300917 -0.25076166 0.059429377
000060 3a bd 76 be c1 ea 0d bd 7c ad a2 3e b1 c2 37 bd
       -0.24095622 -0.034647707 0.31772983 -0.044863407
000070 ab 7f e9 be 3d 82 a7 3d fb 2f 36 bc ac fd 9a be
       -0.45605215 0.08179138 -0.011119838 -0.3027166
000080 37 2d f3 be 7b 06 2e 3e 0d ad df bd 0d 9e fa 3d
       -0.47495434 0.1699466 -0.10921679 0.12237177
000090 40 7a ce be 83 ad d3 3e 43 1d 8b 3e 75 78 86 3e
       -0.40327644 0.41343316 0.27170762 0.26263776
0000a0 5d 94 62 be 14 11 ba 3e 03 7f 8e be d3 83 27 bd
       -0.22126909 0.36341155 -0.27831277 -0.0408972
0000b0 f3 41 b7 3e 6e 42 99 3e 96 b8 bc bd 04 d0 10 3e
       0.35792503 0.29933494 -0.092148945 0.14141852

GRU.bias_ih_l1 f4 [12]
000000 fd c2 be bd 74 1a af be 74 b4 2b bd 35 14 37 be
       -0.09314535 -0.3419987 -0.04192014 -0.17878802
000010 c9 33 5d bd c3 10 6f 3e b4 d3 b2 3e c6 ef 8e be
       -0.054004464 0.23346238 0.34927142 -0.27917308
000020 2a 37 a4 be af 1c 34 3e 4c 61 e7 be 80 a9 cd be
       -0.32073337 0.17589067 -0.4519142 -0.4016838

GRU.bias_hh_l1 f4 [12]
000000 1a d1 77 3e a6 52 70 3e a9 ee 4e be 51 94 d8 3d
       0.2420086 0.23469028 -0.20208229 0.10575164
000010 84 f3 b1 3e 6f 26 90 be 5b e9 0f 3e d2 41 3d bd
       0.347561 -0.28154323 0.14053862 -0.04620535
000020 9e e2 fe bd 6d 08 a6 bd 49 81 d1 3e 79 16 5f 3e
       -0.124455675 -0.08107076 0.4091895 0.21785916

GRU.weight_ih_l2 f4 [12, 4]
000000 65 50 8f be 00 09 17 be fb 21 ee be ec b7 74 3e
       -0.27991024 -0.14749527 -0.465103 0.23898286
000010 3a 7d 25 3e e7 0f c1 3e 88 0d 39 3e 16 e4 06 be
       0.16161051 0.37707445 0.18071568 -0.13172945
000020 aa 86 c8 be 18 8c 28 3d f5 7a f4 3e 79 90 ff 3e
       -0.3916524 0.04114923 0.4775006 0.4991491
000030 52 38 ea be ce 24 bd 3e 69 43 2f 3d a5 96 83 be
       -0.45746094 0.36942142 0.042788897 -0.2570087
000040 c7 5b 25 be d4 a4 2c be c3 55 1d 3e f8 5d 88 be
       -0.16148292 -0.16859752 0.15364747 -0.26634192
000050 ad 2f ef 3e ba a6 9f 3d 32 3a fc be 0b 4c ca 3e
       0.4671606 0.077954724 -0.4926315 0.3951114
000060 cb b7 5e be a5 f0 f0 be 1d 7e f5 3e 92 da aa 3e
       -0.21749799 -0.47058597 0.4794778 0.3336988
000070 1f ad 81 be 67 e1 d4 3e dd 31 ec 3e 03 1f 38 bc
       -0.25327393 0.41578218 0.46131793 -0.0112378625
000080 38 79 2b 3e fc f7 6d 3e d2 a6 53 3e db 3f 97 3e
       0.1674546 0.2323913 0.20669106 0.29540905
000090 1d 52 2a 3e e8 ef b5 3e 93 a8 51 bd 1f 04 89 3d
       0.16632886 0.35534596 -0.051186156 0.06690239
0000a0 f1 07 14 bc 89 9d b6 bd 1a 96 d3 be c0 f0 01 be
       -0.0090350965 -0.08916766 -0.41325456 -0.12689495
0000b0 9f db 5b be 8c 05 85 be b7 04 6b be 3a 37 2c be
       -0.21470498 -0.25980794 -0.22951017 -0.16817942

GRU.weight_hh_l2 f4 [12, 4]
000000 7e 89 ee 3d 50 ef c5 bd e4 d0 b5 3e 6e c0 97 3e
       0.11647318 -0.09664786 0.35510933 0.29639
000010 a2 db f0 3e d4 22 2e bd 48 4d 8a 3e ee 3b 85 be
       0.47042567 -0.042513683 0.27012086 -0.26022285
000020 3d e9 72 3e fb 56 cd be 59 6b 3d be 54 6a 47 bc
       0.23721786 -0.40105423 -0.18497981 -0.012171347
000030 14 43 bb 3d 1e 50 f1 be 6a b7 dc be 53 64 bb 3e
       0.091436535 -0.47131437 -0.43108684 0.3659998
000040 0a a3 1a be e3 47 b3 3e ae e6 73 3c 52 46 93 3e
       -0.15101257 0.35015783 0.014886541 0.28764588
000050 3b 92 75 3e 81 f2 81 3e 25 80 16 bc 1d 04 9e be
       0.23981564 0.25380328 -0.0091858255 -0.30862513
000060 d4 9c 95 be 43 7f 18 3e 61 1f 15 be 0a 1b 6c 3c
       -0.29221213 0.14892296 -0.14562751 0.0144107435
000070 83 2f fd 3e 80 40 91 3e 4f fd 85 3e f8 5e ef bc
       0.4945031 0.28369522 0.26169822 -0.02922009
000080 22 7b 95 be 7c 27 18 bc 84 e8 da be 20 e7 e8 3e
       -0.29195505 -0.009286758 -0.4275552 0.45488834
000090 bd ec d7 be 4b 3a b0 3d 87 6b 06 be 7b 5e 9f 3e
       -0.42172804 0.086048685 -0.13126956 0.3112677
0000a0 df 93 ef 3e 44 1d 14 3e a0 4f cc 3e e9 3f 39 be
       0.46792504 0.14464289 0.399045 -0.18090786
0000b0 98 9e 10 bd 5d 3e b1 3e 15 42 ae be 7c 66 64 3e
       -0.035307497 0.34617892 -0.34034792 0.2230472

GRU.bias_ih_l2 f4 [12]
000000 a0 86 bc 3e 49 f8 d3 3e 9b f2 ab 3e ff 3b 91 bc
       0.3682146 0.41400364 0.3358353 -0.017728804
000010 94 1e 96 3e d7 a5 b2 bd 5a a6 3c 3e 53 8f 3f be
       0.29320204 -0.08723038 0.18422833 -0.18707018
000020 30 64 7a 3e 47 3f cf 3e c1 9a 6a 3e 00 66 7c 3c
       0.24452281 0.40477964 0.22910596 0.015405178

GRU.bias_hh_l2 f4 [12]
000000 da 2d 89 be 08 db 13 3e cd 43 f5 be 1f 86 0b 3d
       -0.26792794 0.14439023 -0.4790329 0.034063455
000010 c4 60 54 3e 28 fd 8a 3e c6 6a 19 be 2e 1d ae be
       0.20740038 0.27146268 -0.14982137 -0.34006637
000020 71 e4 87 3e d4 26 89 3d 5c ca 13 bc 41 8a f9 be
       0.26541474 0.06696859 -0.009020414 -0.48738292

GRU.weight_ih_l3 f4 [12, 4]
000000 e1 c5 5c 3e 1b 01 f0 be b4 a5 9a 3e 7f f5 9e 3d
       0.2155986 -0.46875843 0.30204546 0.077616684
000010 54 d2 75 be 7d 99 0e 3e 68 27 b8 bd 72 72 af be
       -0.24006015 0.13925739 -0.08991891 -0.34267002
000020 59 68 82 3e bb 07 1b bd c3 94 99 3d 6a 62 b5 bd
       0.25470236 -0.03784917 0.07499077 -0.088566616
000030 ea f6 b1 3e 28 b0 c8 3c 6d b9 12 be 6b f3 de bc
       0.34758693 0.02449806 -0.14328547 -0.02721568
000040 8b c8 9d ba cd e6 cd be ad 3e 31 bc bf 32 ea 3c
       -0.0012037916 -0.4021515 -0.010818166 0.02858865
000050 93 5a d2 3e 3f ec ec 3d 56 73 d0 bd 6b 6f dc be
       0.41084728 0.11568498 -0.101782486 -0.43053755
000060 5b e3 0a bd a9 f2 ed 3e 07 dd 96 3e 68 8d e0 3e
       -0.03390823 0.46474198 0.29465505 0.43857884
000070 66 7f d4 3e 9e 50 d9 be 52 76 31 3c a2 d8 54 3e
       0.41503447 -0.4244432 0.010831432 0.20785764
000080 a4 55 40 3b b6 24 19 be 58 5e d3 be b7 1b ef bd
       0.002934792 -0.1495541 -0.41282916 -0.11675208
000090 b0 f0 1c be bd 51 1c 3e 67 69 17 be 6e 70 59 3e
       -0.1532619 0.15265556 -0.14786302 0.21234295
0000a0 29 1f 11 3e c6 7b a8 bd 37 23 c5 bd 53 2e 60 3e
       0.14172043 -0.08226733 -0.09625857 0.21892671
0000b0 cc 63 df 3d a4 94 bf be 8c 0c d1 be d7 a0 14 3e
       0.109077066 -0.3741809 -0.40829885 0.1451448

GRU.weight_hh_l3 f4 [12, 4]
000000 9b 61 86 3e db a7 98 be cb 8b 8c 3d c6 92 89 bc
       0.26246342 -0.29815564 0.06862601 -0.01679362
000010 3e 32 80 3e 59 81 8e be 4d da d5 bd a7 62 d2 bd
       0.25038332 -0.2783306 -0.10442028 -0.10272723
000020 96 b8 df 3e 04 5e 9b be a7 04 93 be 9e 70 a6 3e
       0.43695515 -0.30345166 -0.28714487 0.32507795
000030 9f 22 e1 3c 49 f7 a2 be 65 58 89 be 15 64 40 be
       0.027482329 -0.3182929 -0.26825252 -0.18788178
000040 76 ec 59 be 33 63 6a be 8e 06 8a bb b7 5c d0 3b
       -0.21281609 -0.22889404 -0.004212207 0.0063587087
000050 2d b1 54 3e 71 c4 21 be d1 5d e2 3e 07 96 82 3e
       0.20770712 -0.15797593 0.442122 0.25505087
000060 9e ac 7d 3d 66 50 de 3e 8c c3 70 be cc a5 a9 3d
       0.0619322 0.43420714 -0.23512095 0.08283576
000070 cb 7b b0 be 6b 99 08 3e 12 2f f3 3d f5 6b f5 3e
       -0.34469447 0.13339774 0.11874212 0.47933927
000080 b5 b1 5e bc 6f dc e4 3d c7 88 88 3e 01 a5 ac 3d
       -0.013592173 0.11174857 0.26666853 0.084299095
000090 3a b5 84 bd 01 96 b6 3e c3 aa 9c be d9 ff 81 be
       -0.06479879 0.3566132 -0.3059903 -0.2539051
0000a0 ff 86 07 3f f7 9e c5 3e 5b ac 03 3e 08 c4 8b 3e
       0.5294036 0.38597843 0.12858717 0.27297997
0000b0 41 bd ba bd 08 b7 c6 3e dd dc 5e 3e d6 31 9b be
       -0.091181286 0.38811517 0.2176394 -0.3031146

GRU.bias_ih_l3 f4 [12]
000000 2f 56 c6 be 5f 0b 29 be 37 a7 cf 3d 45 fc be 3e
       -0.38737628 -0.16508244 0.101393156 0.3730184
000010 c8 66 9d be 04 d2 98 be f9 61 a2 be aa a2 87 3d
       -0.30742478 -0.2984773 -0.31715372 0.066228226
000020 b9 e9 d6 3d 11 ef a2 3e 14 d1 5f bd 27 7e 89 be
       0.10493798 0.31823018 -0.05464275 -0.2685406

GRU.bias_hh_l3 f4 [12]
000000 71 c8 92 3d fd cd 9c bd 33 6a c1 bb 43 91 88 3c
       0.071671374 -0.07656477 -0.0059025525 0.016670829
000010 74 69 d3 3e 4f 24 46 3e fe e6 80 be 31 b4 ae be
       0.41291392 0.19349788 -0.25176233 -0.3412185
000020 32 95 ff bd aa 29 04 3e 28 3f 9e 3c f9 3d fb 3e
       -0.124796286 0.12906519 0.019317225 0.4907072

GRU.weight_ih_l4 f4 [12, 4]
000000 d1 7a 51 be af fa 1c 3e bc a8 f1 be 31 7d 8f ba
       -0.20457007 0.15330003 -0.47199047 -0.0010947344
000010 cd 09 8a bb 4f 02 3a 3e fb bb ef 3e e8 73 d5 3e
       -0.004212594 0.18164943 0.46823105 0.41689992
000020 85 67 92 3e 75 43 9e 3e cc cb 56 be 80 b1 ff be
       0.28594604 0.3091084 -0.2097618 -0.4994011
000030 f7 21 e4 3e d5 3b 80 be 60 ff 58 3e 6b a6 91 3e
       0.44557163 -0.25045648 0.21191168 0.2844728
000040 d2 ca 86 3e 96 86 ca bc 25 b9 99 be 67 e9 f9 be
       0.26326615 -0.024722379 -0.30024067 -0.48810884
000050 c4 15 a6 3e ce 35 b6 be ce 06 e7 be 57 30 c5 3e
       0.3243848 -0.35587925 -0.4512238 0.38513443
000060 24 83 e2 3d 43 9e 17 be c7 d4 b0 be 0d 89 a4 be
       0.11060169 -0.14806466 -0.34537336 -0.3213581
000070 96 9e 8a 3e e7 6d 01 3e fb 78 68 be de 3b fb be
       0.27074116 0.1263958 -0.227024 -0.49069113
000080 44 a3 4a 3c a4 42 ce be 6d 32 07 3f b5 94 b9 be
       0.012368027 -0.40285218 0.5281132 -0.36246267
000090 58 fa 66 3d b5 97 bf be 06 53 dc be a9 36 37 3e
       0.05639109 -0.3742043 -0.43032092 0.17891945
0000a0 26 53 8f 3e 1e af d4 3d 06 8c c0 3b 1c cd 36 3e
       0.27993125 0.103849635 0.005876067 0.1785168
0000b0 94 94 0f 3e e3 fb d0 bb 4a b7 f6 bd f1 5b 3f be
       0.14021522 -0.0063776835 -0.12046678 -0.18687417

GRU.weight_hh_l4 f4 [12, 4]
000000 8e 8b f0 be c1 92 e0 be 60 36 53 be 50 9e dc be
       -0.46981472 -0.43861964 -0.20626211 -0.43089533
000010 26 06 f7 bc 2e 77 10 be 03 4a fd be 3c 75 a0 3e
       -0.030154299 -0.14107963 -0.4947053 0.31339443
000020 10 f8 ac 3e 44 da 57 be bb 07 0b be a8 bb ee 3d
       0.33783007 -0.21079355 -0.13577168 0.11656886
000030 9a 7f c6 3e 69 1f d0 3e cb 32 65 be 17 5e b6 3c
       0.38769227 0.40648964 -0.22382657 0.022261662
000040 41 9e c3 be ef cc 2a be fc a2 b7 3e b1 4a 78 be
       -0.38206676 -0.16679738 0.35866535 -0.24247243
000050 f5 92 19 3e 75 a5 74 3d 90 a4 e2 3e 18 97 b1 bd
       0.14997466 0.059728105 0.44266176 -0.08671397
000060 7e 8b 00 3f 80 54 f2 be 58 5c b0 be 42 00 f6 3e
       0.5021285 -0.47330093 -0.34445453 0.48047072
000070 80 91 58 be 6a 5b 5a be b0 78 eb be 4f 84 a2 3b
       -0.21149254 -0.21323934 -0.45990515 0.00495962
000080 92 0f 85 bd b0 2b bb be 48 1e 9c bd 33 77 bb be
       -0.064971104 -0.36556768 -0.07622963 -0.3661438
000090 2d 11 91 bd af 11 a4 3e 00 79 de 3e df 02 2a 3e
       -0.07083354 0.32044742 0.4345169 0.16602658
0000a0 3e 12 dc be dc 45 ab 3e d4 4c db 3e 03 e4 0c be
       -0.42982668 0.33451736 0.42832053 -0.13758855
0000b0 77 2c aa be 73 ec e3 bc 28 5c 42 3e 92 7c f6 be
       -0.3323705 -0.027822709 0.18980467 -0.48141915

GRU.bias_ih_l4 f4 [12]
000000 48 02 b5 3e 6b 10 21 be 82 9c a8 3e 4d 2c b1 3e
       0.35353303 -0.15728919 0.32931906 0.3460411
000010 ef a5 69 3e 02 22 48 3e e8 5f 26 3e 0a 90 81 be
       0.22817205 0.19544223 0.16247523 -0.25305206
000020 ac cf ee 3d 5d e4 f7 bc d3 3a 03 3f d2 ee 7b be
       0.11660704 -0.03026026 0.51261634 -0.24602821

GRU.bias_hh_l4 f4 [12]
000000 9b df ff 3c df a9 75 be 4f 07 64 3e 3b 1b 02 bf
       0.031234553 -0.23990582 0.22268413 -0.508228
000010 20 6d b1 3d af 8f b1 3e 9e 25 9a be 77 8c e0 3e
       0.08663392 0.34679934 -0.30106825 0.43857166
000020 a2 9e da be 0f 9d cc 3b b3 b0 64 3e af bc ac be
       -0.42699152 0.006244309 0.2233303 -0.33737704

GRU.weight_ih_l5 f4 [12, 4]
000000 cb cd 32 bd 5b 87 be 3c f9 61 dc 3c 23 bf 36 be
       -0.04365329 0.023257902 0.026902186 -0.1784635
000010 6b 56 28 be 9d e3 a0 be 7c 0a aa bd ef b2 d6 3d
       -0.16439216 -0.31423655 -0.08302781 0.104833476
000020 f3 5e e0 3e 47 7b 9c 3e 0f 94 95 bd 4e 94 7c be
       0.4382244 0.30562803 -0.073036306 -0.24665949
000030 65 9a f5 be 44 a7 bb 3e 67 cc e6 3d 39 6e bb 3e
       -0.47969356 0.3665105 0.112694554 0.3660753
000040 38 19 bf be 8b 11 01 3f 33 a2 8e 3e 8d 6f 0b 3f
       -0.37323928 0.50417393 0.27858123 0.5446709
000050 6b 24 6a be 8a b8 d9 3e f8 8a ad ba b4 cf f8 bd
       -0.22865455 0.42523605 -0.0013240268 -0.12148991
000060 4a 76 e2 3e 2e b2 27 bd 27 31 df be d4 5b f9 be
       0.44230872 -0.04094141 -0.43592188 -0.48702872
000070 f1 48 5b 3d 57 4f 26 be 5d 3c a8 be 54 00 f9 3e
       0.05353636 -0.16241203 -0.32858554 0.48633063
000080 96 79 08 3f 77 a5 01 3f 18 95 96 3d 31 f2 be bd
       0.53310525 0.50643104 0.07352656 -0.09323538
000090 0c ec 27 3e 69 1f c7 3e bb 0c 7a be 0d 51 3b 3d
       0.16398638 0.38891152 -0.24418919 0.045731593
0000a0 2f 1d 59 be 08 d3 68 be db a0 96 3e 31 72 b0 3e
       -0.21202539 -0.22736752 0.29419598 0.3446212
0000b0 4f cf 4b be ea 10 50 3e c3 f9 f2 3e 24 59 dc 3b
       -0.199033 0.20318952 0.47456178 0.0067244936

GRU.weight_hh_l5 f4 [12, 4]
000000 99 9c ab be ce 71 61 3b e9 77 ac bc b9 9b 8d 3e
       -0.33517912 0.0034400108 -0.021053271 0.2765787
000010 63 75 8e bb 47 7c bd 3e 3e e2 03 be 25 06 25 be
       -0.0043474897 0.3700888 -0.12879273 -0.16115625
000020 10 09 04 3f c5 e8 32 bc 12 d7 d6 be a3 8b 16 bc
       0.5157633 -0.010919754 -0.4196096 -0.009188565
000030 b0 ba c1 be 82 8a 57 bd 2d 71 97 3d 70 e6 10 3e
       -0.37837744 -0.052622326 0.073946334 0.14150405
000040 52 77 ef 3e 87 86 e1 bd 57 fb f6 3e f6 7b 89 3e
       0.46770722 -0.11011987 0.48238632 0.26852387
000050 dd 95 9b 3e 4d 9b d6 be ba 11 6e bd 43 9e d9 be
       0.30387774 -0.4191536 -0.058122374 -0.42503557
000060 c7 44 79 3c 26 95 96 bd ba 78 e4 be e3 26 d0 be
       0.015214152 -0.073526666 -0.44623357 -0.40654668
000070 c5 3c 04 3f 7f 9b 02 bf c9 b3 5c 3b 36 98 09 bd
       0.51655227 -0.5101852 0.0033676496 -0.033592425
000080 f3 b3 aa 3e 6b de e9 be f1 2e 9e bc aa 9d 02 bf
       0.33340415 -0.45677504 -0.019309493 -0.51021826
000090 35 bd a1 be 58 00 db be 99 d6 43 3e 4c 9f 85 be
       -0.31589666 -0.427737 0.19124831 -0.26098096
0000a0 25 7b 3a 3e 16 1c b3 3d d7 47 22 bd eb 88 1b 3e
       0.18211038 0.08745591 -0.039619293 0.15188949
0000b0 84 f6 8e 3e 57 ae 59 3e 50 b5 c8 3e 61 bf 07 3f
       0.27922451 0.21257912 0.3920083 0.53026396

GRU.bias_ih_l5 f4 [12]
000000 da 36 97 be e6 7e 02 be 9d fd d3 be 5d fd ff bd
       -0.29534036 -0.1274372 -0.4140443 -0.12499497
000010 48 a4 c1 3e b3 4c 42 be 8e fe 70 3d ba 5e af be
       0.3782065 -0.18974571 0.058836512 -0.34251958
000020 6e 2b e6 be 90 39 00 3f 10 8b 1d be ab 8b 2b 3e
       -0.4495501 0.50087833 -0.1538508 0.16752498

GRU.bias_hh_l5 f4 [12]
000000 77 a4 74 3d 4f 0a 7c be 23 a4 ce 3e a9 ec 63 3e
       0.05972716 -0.24613307 0.403596 0.22258247
000010 e2 97 f5 3b 72 9d 9d be 66 86 bb be 88 09 85 3e
       0.0074949125 -0.30784184 -0.36625975 0.25983834
000020 8a 68 59 3e 08 af ca bc 62 bf 8a be 3f 5f 0b 3f
       0.21231285 -0.024741665 -0.27099138 0.5444221

GRU.weight_ih_l6 f4 [12, 4]
000000 87 ec b2 3e 1b c4 c1 3c 2d a6 c3 be 65 a6 40 3e
       0.3494608 0.02365308 -0.3821272 0.18813474
000010 37 1d 44 3d 79 7d ea 3e d2 d5 e7 be 50 b2 dc be
       0.047879424 0.45798853 -0.4528032 -0.43104792
000020 a5 8a 92 be 82 3d cd 3e 21 1a 9d be 0f b9 81 3d
       -0.28621402 0.4008599 -0.30683997 0.06334125
000030 d0 53 e6 3d bd 0d 01 3f 0f 0d 98 be 28 d8 87 3e
       0.11246455 0.5041159 -0.29697463 0.26532102
000040 41 c0 dc be ef 81 9d 3e c4 d7 f8 bc 8a 75 a4 3e
       -0.43115428 0.30763194 -0.030376323 0.32120925
000050 59 e7 d8 bd 69 2e 99 3e 60 77 df be df 8d 03 3f
       -0.10591001 0.2991822 -0.43645763 0.51388353
000060 13 8b a2 3e 77 64 c3 3e a8 90 f0 be 9e 99 69 3d
       0.3174673 0.38162586 -0.46985364 0.057031266
000070 14 62 a9 be 3b b9 1d 3e 70 75 89 3e 4a c8 13 bf
       -0.3308264 0.15402691 0.2684741 -0.5772749
000080 c8 d5 9b be a9 b7 6c 3d 11 12 c5 3e 1a b6 ed bd
       -0.3043654 0.05779234 0.38490346 -0.11606999
000090 5b 8c 88 be 14 6b a9 be 8a 06 b2 bd b1 59 db bd
       -0.26669583 -0.33089507 -0.086926535 -0.10710467
0000a0 b2 a2 df be c9 64 98 3e 8a 24 67 be 49 21 e3 bc
       -0.43678814 0.29764393 -0.22572532 -0.027725833
0000b0 b7 1d b4 3e ad 51 a1 3e 98 29 25 3d e2 77 05 bf
       0.3517892 0.31507626 0.04032287 -0.5213605

GRU.weight_hh_l6 f4 [12, 4]
000000 06 ff 02 3b 62 8d 01 bd e9 3b cc be c7 93 17 3e
       0.0019988432 -0.031628974 -0.39889458 0.14802466
000010 f6 f0 36 be 8a 35 b5 3c d5 89 4c bd 3b c8 9e bc
       -0.17865357 0.022120256 -0.049936134 -0.019382587
000020 9d ef 9b be df d0 ab bd 14 be fa 3e 36 ce 08 3e
       -0.30456248 -0.083894484 0.48973143 0.13359913
000030 5a 21 cf 3b 0f 9c d9 3e 45 fe d3 be 6d 77 b7 be
       0.0063211145 0.42501876 -0.4140493 -0.35833302
000040 54 ab df 39 ef 72 46 3d 4f 82 bd 3e c6 a3 a1 bd
       0.00042661524 0.048449453 0.3701348 -0.078925654
000050 48 57 9d 3e 58 cc ed 3d 87 ad ac bd 3c 60 f8 be
       0.30730653 0.11611241 -0.08431535 -0.4851092
000060 2e 73 ea 3e 4e 4e a8 be 61 ba f7 bc 09 d8 a3 bd
       0.45791 -0.32872242 -0.03024024 -0.0800019
000070 9a 1d b4 be 46 c3 d2 3e 7c f0 6d 3e 43 ba ff bc
       -0.35178834 0.41164607 0.23236269 -0.031216746
000080 6c 0f db 3e d7 82 3a be 41 4d 59 bd 59 2b 0f 3e
       0.42785203 -0.18213974 -0.05305219 0.1398138
000090 ac af 38 be 9c 14 ed be 6d 1e 0f be 02 a0 77 3e
       -0.18035764 -0.46304786 -0.1397645 0.24182132
0000a0 56 06 04 3f 48 8b a5 3e ea e3 b3 be be 23 75 be
       0.5157217 0.32332826 -0.35134822 -0.23939416
0000b0 2a 6b 07 bf 60 da 0b bb 20 fd e5 bb f3 24 81 3a
       -0.52897894 -0.0021339878 -0.0070187002 0.0009852931

GRU.bias_ih_l6 f4 [12]
000000 64 19 a8 be da c8 8f 3e 3e 51 3a be 3c 92 8c be
       -0.32831872 0.28082925 -0.18195054 -0.27455318
000010 1f aa 2f be a6 19 e0 bd 1a ce aa 3e 8c 59 92 3e
       -0.1715474 -0.10942392 0.33360368 0.28583944
000020 d4 c1 e6 3e d9 50 99 3e 87 56 bd be 83 53 2a be
       0.45069754 0.29944494 -0.36980078 -0.1663342

GRU.bias_hh_l6 f4 [12]
000000 7e 32 01 bf 8f 35 15 be 5c 70 ba 3e c4 cc c4 3e
       -0.5046767 -0.14571212 0.36413848 0.38437474
000010 34 8d 2d be 97 c0 08 3f c4 f8 97 3e 91 29 9c be
       -0.16948396 0.5341887 0.2968198 -0.30500463
000020 2f 32 1b be 07 a1 11 3e 82 c2 be be 86 71 c0 be
       -0.15155862 0.14221583 -0.37257773 -0.37586612

GRU.weight_ih_l7 f4 [12, 4]
000000 d7 52 83 be de 39 c7 be e1 a7 fc be d3 46 b2 be
       -0.2564914 -0.38911337 -0.4934683 -0.3481966
000010 d4 66 dd be 12 f0 6c 3c 15 3a a5 3e 3f 75 be 3d
       -0.43242514 0.014461534 0.32270876 0.09299707
000020 f4 da d5 3e 3b 05 cc 3e f9 d1 34 be 86 84 8d 3d
       0.4176861 0.3984774 -0.17658223 0.069100425
000030 16 76 96 be 51 4b 9c bb 15 47 0a bf c7 87 e0 bd
       -0.29386967 -0.0047697206 -0.5401471 -0.109633975
000040 c4 44 e3 3d bf 8e 68 3e 51 90 fe be 9f 1d a5 3e
       0.110971004 0.22710703 -0.4971948 0.32249162
000050 de c7 a5 bd 85 78 07 3f bf d7 d9 bd 2b db 80 be
       -0.08094762 0.52918273 -0.106368534 -0.25167212
000060 c1 40 88 be 69 63 3b be 72 9d 98 3d 7b 89 b8 3d
       -0.26611903 -0.1829964 0.07451905 0.09010597
000070 cf 2a 5e 3e 99 56 29 bc cb 73 0f 3c 03 27 64 3e
       0.21696018 -0.010335588 0.008755635 0.22280507
000080 f3 57 0d 3e 6a ae 4b bb ab 86 c2 3e a8 a4 46 be
       0.13803081 -0.00310793 0.37993369 -0.19398749
000090 11 86 63 3e 56 48 c0 3e 95 0c ba bd 91 7c c9 be
       0.22219111 0.37555188 -0.09084431 -0.3935285
0000a0 63 66 65 be d0 ad 8f 3e 8c ab 69 be f2 8e 02 3f
       -0.22402339 0.28062296 -0.22819346 0.5099937
0000b0 e0 76 28 3c de 8c 24 be c2 39 81 be c7 e5 db 3e
       0.010282248 -0.16069362 -0.25239378 0.42948744

GRU.weight_hh_l7 f4 [12, 4]
000000 e4 6b df 3c 72 95 da 3e 3a 8d f4 be ae c2 f2 be
       0.027273126 0.42692143 -0.47763997 -0.47414154
000010 ea 64 b1 be 8e 31 06 3f e7 6c 19 3e 81 25 15 3e
       -0.34647304 0.52419364 0.14982949 0.14565088
000020 ae db 35 bc 27 0e c0 bd a5 00 31 be 96 a3 6d be
       -0.011099739 -0.09377699 -0.17285402 -0.23206934
000030 93 6e 93 3e 5c 1d 88 be 46 af 86 3e a0 26 af 3e
       0.287953 -0.265849 0.26305598 0.34209156
000040 84 b3 a3 bd 7c 73 cd be d8 c0 91 bc 74 45 ab be
       -0.07993224 -0.4012717 -0.01779215 -0.33451426
000050 f8 3d 94 3e eb 38 9a be 63 aa ca bd d9 be 83 be
       0.28953528 -0.3012155 -0.0989578 -0.25731543
000060 64 17 92 be 20 f0 bc 3e 11 84 c6 be 06 8f 1f 3d
       -0.2853347 0.3690195 -0.38772634 0.038954757
000070 c7 fb e6 3d ac e2 01 be fd 24 20 3e 8e 14 b5 be
       0.112784915 -0.12684125 0.1563911 -0.35367244
000080 e0 6f f4 3c 69 58 ef 3e af 1e 9e be c7 68 ce be
       0.029838502 0.4674714 -0.30882785 -0.40314314
000090 0f 2c 01 3f 4d 97 b1 3e 41 19 5d 3e b6 e2 ae 3e
       0.50457853 0.34685746 0.21591665 0.34157342
0000a0 08 e3 44 bc ca 4f 61 be 2b 78 b8 3d 34 27 aa 3e
       -0.012017019 -0.22003093 0.09007295 0.33233035
0000b0 22 3a 9c be 6a 3a 06 bf 4b 4c d8 3e 3e c5 33 be
       -0.30513102 -0.5243288 0.42245707 -0.1755571

GRU.bias_ih_l7 f4 [12]
000000 70 5a a3 be 01 ba 95 be 00 72 f3 be d9 c2 db 3d
       -0.31904936 -0.29243472 -0.47547913 0.107305236
000010 4b 84 90 be e9 67 0b 3d 2a 2d 58 3e f7 7f 42 3e
       -0.28225932 0.034034643 0.21110979 0.18994127
000020 99 5d 80 be 14 c7 23 3e db ff ef be b6 b5 91 be
       -0.2507141 0.15993911 -0.4687489 -0.28458947

GRU.bias_hh_l7 f4 [12]
000000 3e d6 a4 3e 25 f6 c9 be 86 38 cf be b3 34 99 be
       0.32194704 -0.39445606 -0.4047281 -0.2992302
000010 e6 15 99 3e 9e 47 b2 be 8c f1 a2 be e5 fc ed 3d
       0.2989952 -0.34820265 -0.3182491 0.116205014
000020 4d 29 a5 be e1 20 86 be ab d4 c1 3e ce bc a8 be
       -0.32258072 -0.2619696 0.37857565 -0.32956547

GRU.weight_ih_l8 f4 [12, 4]
000000 fc 35 18 be e2 8c 91 3e 13 a4 ad be a4 30 b3 3e
       -0.14864343 0.28427798 -0.3391424 0.34998047
000010 68 7a bd be 61 bf 92 3e 77 57 24 3e fd 8a 94 be
       -0.3700745 0.28661636 0.1604899 -0.2901229
000020 f0 6e 07 3f 4c 71 1e bd 07 b9 75 3c aa cc 08 be
       0.5290365 -0.038682267 0.014997727 -0.13359323
000030 ef c5 d6 3e 6c 5a a6 be 92 f6 8a be bc fd b8 be
       0.41947886 -0.3249086 -0.27141243 -0.36131084
000040 b7 56 9b 3e 3c 8c ec bd f8 41 db be c4 b2 a7 3a
       0.30339596 -0.11550185 -0.42823768 0.0012794365
000050 0f f0 99 3e 7d 56 02 3e c4 94 34 3e f9 59 bd 3d
       0.30065963 0.12728305 0.17634875 0.092456765
000060 22 56 0b bd e0 59 ea 3d db 72 9a 3e 67 46 de 3d
       -0.03401769 0.114429235 0.30165753 0.10853272
000070 e7 f0 80 be 28 83 d4 3e 47 31 a1 bd d3 ad 7c 3e
       -0.25183794 0.41506314 -0.07870727 0.24675684
000080 4f 02 ff bd d8 a8 11 be 97 d6 98 be 2b 34 d5 bc
       -0.12451612 -0.14224565 -0.2985122 -0.026025852
000090 10 68 e5 3e bc da 59 3e c4 5b ee bc f5 f1 c4 be
       0.44805956 0.21274847 -0.029096492 -0.3846585
0000a0 61 23 96 be a9 04 29 be 9a a7 9d be bf 2f 7b 3e
       -0.29323867 -0.16505684 -0.30791932 0.24529932
0000b0 a4 9f 9f 3e ef 05 83 3d 98 04 93 be a7 85 03 bf
       0.31176484 0.06397616 -0.28714442 -0.5137581

GRU.weight_hh_l8 f4 [12, 4]
000000 29 bd 90 3e 6f ed d0 bd 97 4d 51 be 4e ce 5d 3d
       0.28269318 -0.10201537 -0.20439754 0.054151826
000010 ef 90 b8 be 37 01 99 3d d9 24 f3 ba 17 60 ba bd
       -0.36048076 0.07470935 -0.001855041 -0.09100359
000020 5f 5c c4 3e 54 cd f3 bc f5 34 9d be bb fd 69 be
       0.38351724 -0.029760994 -0.30704466 -0.22850697
000030 1b de ba bd 9a a9 de be 5e 95 e5 3e a2 b1 e9 be
       -0.091243945 -0.4348877 0.4484052 -0.45643336
000040 b9 bc c3 be 7c c1 c3 3e 91 b6 f3 be c6 86 ce be
       -0.3822992 0.38233554 -0.47600225 -0.403372
000050 53 cb 5e be 59 c5 10 bf 64 64 94 3e 02 ca f3 be
       -0.2175725 -0.5655113 0.28982842 -0.47615057
000060 29 0a 50 be 5f e6 a6 bd 9b 7a 08 be 6e d9 61 bd
       -0.20316376 -0.081494085 -0.1332802 -0.055138998
000070 bf 64 09 bf 88 05 44 3e 62 6a a8 be ac 79 cd 3e
       -0.5366935 0.19142735 -0.32893664 0.4013189
000080 37 93 2c bc 83 2c 4a 3e 3e 0d d8 be c8 6e d8 bd
       -0.010533146 0.19743542 -0.42197603 -0.10568005
000090 c4 d3 3e 3e 98 bb ca be a6 3f 04 3f 10 50 96 3e
       0.1863547 -0.39596248 0.5165962 0.29357958
0000a0 fe e0 07 3f c1 05 0e 3d f6 ff 60 3e 43 23 dd bb
       0.53077686 0.034673456 0.21972641 -0.0067485883
0000b0 ce 12 08 3e 18 80 6c 3d 8f 4e 97 be fe 00 20 be
       0.13288423 0.057739347 -0.29552123 -0.15625378

GRU.bias_ih_l8 f4 [12]
000000 a4 80 31 bc 37 5d d1 3e 7f 0f a3 be eb c1 68 be
       -0.010833893 0.4089143 -0.3184776 -0.22730224
000010 45 6a b0 be 4b fc af 3e 83 e5 9d 3e 14 2e 80 3e
       -0.34456077 0.34372172 0.30839166 0.25035155
000020 e7 66 00 be 91 af 9d 3e 74 65 cd 3e 37 10 55 bc
       -0.12539254 0.3079801 0.40116465 -0.013004354

GRU.bias_hh_l8 f4 [12]
000000 a4 22 ef 3e c3 cf 6a 3e 48 12 8d 3e 81 21 71 3e
       0.46706116 0.22930817 0.2755301 0.23547937
000010 17 6e b2 be 12 3b ae be ce aa eb 3c 1c 99 98 be
       -0.34849617 -0.34029442 0.02876797 -0.29804313
000020 e6 0e 04 3f 35 7b 8e 3c b6 e4 4e bb ad d1 0f 3e
       0.51585233 0.017392734 -0.0031569428 0.14044829

GRU.weight_ih_l9 f4 [12, 4]
000000 38 7c 83 be 29 f3 93 3e cf da b9 3c 53 54 ef 3c
       -0.2568071 0.28896454 0.022687344 0.029215014
000010 87 dc f2 be 8d 40 0e bd 93 68 fc be ad 75 85 bd
       -0.47433874 -0.03472953 -0.49298534 -0.065165855
000020 e2 61 94 3c be 96 71 be 78 7e 10 bd 36 91 ec be
       0.01811308 -0.2359266 -0.03527686 -0.46204537
000030 f7 6e c9 3e 3a b3 ec 3e 57 04 36 be ed f1 47 be
       0.39342472 0.4623049 -0.17775093 -0.19525881
000040 fa 2f 88 3d 0f 48 38 be 6c 34 cd be 26 2a bb be
       0.06649776 -0.17996238 -0.40079057 -0.36555594
000050 68 50 b3 3c 1d c2 20 3e d4 97 c8 3e 25 e7 04 3f
       0.021888927 0.15699048 0.39178336 0.519152
000060 f4 9a af 3e bb 2b 86 be b5 8f 15 bf b2 6a b5 3e
       0.34297907 -0.2620524 -0.58422405 0.35432965
000070 2e 55 e3 3e f0 15 f0 3e 17 0a dd 3d 26 11 51 be
       0.44400924 0.46891737 0.1079294 -0.20416698
000080 fc 41 09 3f 18 60 d8 3e 77 c3 00 3e b5 2b 63 be
       0.5361631 0.42260814 0.12574564 -0.22184642
000090 a2 c1 90 bc c8 6d c5 be 03 52 0b be 25 81 cd 3e
       -0.017670456 -0.3856032 -0.13605504 0.40137592
0000a0 e5 e9 5c 3e 34 00 ca 3e 94 6d db 3e 76 b0 dd 3e
       0.21573599 0.3945328 0.4285704 0.43298692
0000b0 24 33 8d be 0f c1 ad be 9e c5 e9 3d 42 38 98 3c
       -0.2757808 -0.33936355 0.114146456 0.018581513

GRU.weight_hh_l9 f4 [12, 4]
000000 99 79 28 3c 44 0f 61 3e 53 31 f9 3e b3 13 1f 3e
       0.010282897 0.2197848 0.48670444 0.15534858
000010 db 09 92 3e 59 0d ed 3e b2 ec 64 3d dd dc b8 bd
       0.28523144 0.46299246 0.055889793 -0.09026501
000020 e2 6d 20 be 8e b4 86 3e 6b e7 a6 3d 6d 3c 2e 3e
       -0.15666917 0.26309627 0.08149608 0.17015238
000030 a0 99 8b 3e 3f 79 68 be 0b 3f a0 3d 19 5c eb 3d
       0.27265644 -0.22702502 0.078245245 0.114921756
000040 e1 36 fa 3d b8 db c2 3c fa f9 b1 3d 91 fd ce be
       0.122174986 0.02378641 0.08690257 -0.4042783
000050 f6 45 a4 3e 52 5c 81 3e 4d 53 06 3f 7a c7 27 3e
       0.32084626 0.25265747 0.52470857 0.16384688
000060 0d bb b9 3c 09 a9 6c bd 23 8b 98 3d 2a 7d 76 be
       0.0226722 -0.057778392 0.07448413 -0.24071184
000070 89 6a 38 3e 4f 81 ff be 26 3a ad be 67 d1 c6 3e
       0.1800939 -0.49903342 -0.33833426 0.38831636
000080 4a ba ef bd c7 64 8a bd 3a 23 09 3f 8a e7 0d bf
       -0.11705454 -0.06757503 0.53569376 -0.55431426
000090 54 77 3c 3c 2f 84 0e 3d ca c3 e0 be 2b 5c af bc
       0.011503059 0.03479403 -0.43899375 -0.021406254
0000a0 f6 e2 ce be d7 ac fa 3b fb 07 aa be 61 2f eb bd
       -0.40407532 0.0076499986 -0.33209214 -0.11483646
0000b0 4c 5d 29 3e 62 fa e3 bd 3d ed c7 be ae ce 41 3e
       0.16539496 -0.11131741 -0.39048186 0.18926498

GRU.bias_ih_l9 f4 [12]
000000 f9 1f 4d be cd a0 d1 3e 29 f6 89 3c 4d b3 05 bf
       -0.20031728 0.40942994 0.016841011 -0.52226716
000010 50 cc a0 3e b4 2c 53 be 35 af 7b 3d 4a fa 97 be
       0.31405878 -0.20622522 0.061446387 -0.29683143
000020 27 f3 95 bd 87 d6 f6 bd bf 0f 0a 3f e2 c4 3a be
       -0.07321768 -0.120526366 0.53930277 -0.18239167

GRU.bias_hh_l9 f4 [12]
000000 be b1 ed 3d 5e 47 2e be 6e 39 44 be 6c d8 63 be
       0.11606167 -0.17019412 -0.19162533 -0.22250527
000010 89 e2 8a bc fb e1 8d 3d 6a 41 46 bd 8a 07 ee 3e
       -0.016953724 0.06927868 -0.048402227 0.46490127
000020 38 14 cc 3e 2c f5 8e 3d fe 38 b0 be 1d eb e3 3d
       0.39859176 0.069803566 -0.34418482 0.11128829

GRU.weight_ih_l10 f4 [12, 4]
000000 4f 4e e7 3d 3a 04 80 3c 32 dd 97 be f9 73 d0 be
       0.11294233 0.015627015 -0.29660946 -0.4071348
000010 73 2b 8a 3d 7e e9 03 3e 9d bf ab 3e f0 fa 28 be
       0.067465685 0.12882039 0.33544627 -0.16501975
000020 3a b6 dd be 6c 70 4b bd c9 b7 a7 bd aa 8f a0 be
       -0.4330309 -0.04966776 -0.08189351 -0.31359607
000030 95 4f cb be 30 e2 bb bd c0 1e dc 3e 7b db be 3e
       -0.39709154 -0.09174001 0.4299221 0.37276825
000040 b7 e6 19 3e fa b7 8f be ba 2f 13 3e 65 47 dc 3d
       0.15029417 -0.2807005 0.14373675 0.10755805
000050 63 11 be 3e b5 bc a2 3e 63 86 93 3e 19 9d bd be
       0.3712264 0.31784597 0.28813466 -0.37033918
000060 be 0c 9e be 72 a5 3e be 57 ef aa 3e cf ed 45 3e
       -0.30869097 -0.186178 0.33385727 0.19328998
000070 8a 98 b9 3e 47 62 b3 3e 47 95 7d 3e 5d bf ce be
       0.3624919 0.35035917 0.24763976 -0.40380374
000080 7f 9b 94 3d 6a f1 74 3e fb c1 41 3e 97 ed df be
       0.07256221 0.23920217 0.18921654 -0.43735954
000090 14 19 df 3e 74 68 43 3d e2 56 ee 3e c8 8d 81 be
       0.4357382 0.047707036 0.4655066 -0.25303483
0000a0 22 9c 3f 3e 01 74 3c 3e 5e 6b 04 3f e8 83 73 3d
       0.18711904 0.18403627 0.5172633 0.059451967
0000b0 d6 8f c1 be 72 6f 8a 3e e1 bc 90 be c6 49 23 bc
       -0.3780505 0.2703815 -0.28269103 -0.009966319

GRU.weight_hh_l10 f4 [12, 4]
000000 76 3f b9 3e cc 3d b5 3e e2 92 27 3d ef 5e 7c be
       0.3618123 0.3539871 0.040911563 -0.2464559
000010 97 2c 46 be 17 17 0f 3f 19 20 62 3c 53 fe 6b 3d
       -0.19352947 0.5589461 0.013801598 0.05761559
000020 0a 8b fa ba 9c d2 a9 3e 6a a6 87 3b a4 5a 36 be
       -0.0019114923 0.33168495 0.004139711 -0.17808014
000030 e1 34 36 3e 86 ea c5 bd aa d0 c6 be 11 69 5b bd
       0.17793609 -0.096638724 -0.38831073 -0.053566996
000040 43 2c 9d 3d ec 98 30 3e 72 64 3d be 8e 60 2d be
       0.07674458 0.17245835 -0.18495348 -0.16931364
000050 3f 20 a0 3e a4 9b c2 3e 98 e3 80 bc a8 94 78 3e
       0.31274602 0.3800937 -0.015733525 0.24275458
000060 de 25 91 3c 99 c9 d7 3e 69 c9 37 be 53 b8 81 be
       0.017718252 0.42145994 -0.17947926 -0.2533594
000070 05 51 a3 be c9 d3 10 be 73 c7 0b 3f bb 3e 21 be
       -0.3189775 -0.1414329 0.5460121 -0.15746586
000080 42 94 08 bf b0 2e 74 3e 54 ca ac be 5a 20 a4 be
       -0.53351223 0.23845935 -0.33748114 -0.32055932
000090 8b ae dd be e4 a1 c7 3d 6d e3 14 3e cd 0b dd be
       -0.43297228 0.09747675 0.14539881 -0.43173066
0000a0 63 14 4f bc 5f 56 4d bc 36 53 ca 3e 79 66 ab 3e
       -0.012639138 -0.0125327995 0.3951661 0.33476618
0000b0 76 57 d4 be f1 80 9f 3e 57 91 9b bd 4b 69 ac be
       -0.41472977 0.31153062 -0.07596081 -0.33674082

GRU.bias_ih_l10 f4 [12]
000000 ff 64 f4 be eb fa 51 3e 78 89 9b 3e 9f 56 fe 3e
       -0.47733304 0.20505874 0.30378318 0.49675462
000010 45 b3 df 3e 91 3e 9c be 0e ad 59 3e 79 0a 20 be
       0.4369146 -0.30516484 0.21257421 -0.15628995
000020 71 23 3b be 35 c4 b0 be fb d8 a6 be 01 cb d4 be
       -0.18275239 -0.34524694 -0.32587418 -0.4156113

GRU.bias_hh_l10 f4 [12]
000000 2b 36 2f 3d f4 f3 a8 3e 08 ce 9c be 9f c8 e4 3e
       0.042776268 0.3299862 -0.3062594 0.44684312
000010 1b c0 d1 be 3b 55 aa 3e 7e 5f 04 3e de b5 a7 be
       -0.40966877 0.3326815 0.12927052 -0.3275594
000020 32 89 c9 3e fa aa 66 3e d9 6e 12 3e d2 9e 94 be
       0.39362484 0.2252616 0.14300098 -0.2902742

GRU.weight_ih_l11 f4 [12, 4]
000000 ac 59 ff 3d f7 7b 87 3e 9a a7 c5 3e 0d 34 a9 3e
       0.124682754 0.26461765 0.38604432 0.33047524
000010 97 c5 e7 3e 3e 16 a3 be 29 de e6 3e e9 9a 5e be
       0.45267937 -0.31852907 0.4509137 -0.21738781
000020 dd fc ea be 7d b1 5c 3d c3 9f 38 3e 3b 89 d8 3e
       -0.45896044 0.053880204 0.18029694 0.422922
000030 ef 78 93 be a9 ee 05 bf 8b 7f 01 3f 45 9a ae bd
       -0.28803203 -0.5231729 0.5058524 -0.08525518
000040 1f c0 81 3d 32 e1 74 be 70 21 8d be c8 cf ce 3e
       0.06335472 -0.2391403 -0.27564573 0.403929
000050 5f cb aa 3e 5b 5b 1d bd bf 97 0a 3e 57 8c 0c 3f
       0.33358285 -0.0384172 0.13534449 0.5490164
000060 23 78 cc 3e ee 69 e4 bd bd ca 20 be 2e 90 8f bc
       0.39935407 -0.11153017 -0.15702339 -0.017524805
000070 1a 31 94 3e 6e a9 94 be 86 e7 94 bd cc 92 a4 be
       0.28943712 -0.29035515 -0.07270722 -0.32143247
000080 e9 eb cf be bb 12 06 3f 56 a9 b6 3e 4b c8 b2 be
       -0.40609673 0.5237233 0.35676068 -0.34918436
000090 9f b0 16 3e ad 0b f0 3d 1a 79 c6 3e 21 27 03 bf
       0.14715813 0.11720977 0.38764268 -0.5123158
0000a0 d7 cb ba be 96 4e 6e bd 40 ca b9 3e 4c aa 8c 3e
       -0.36483642 -0.058180414 0.36287117 0.27473676
0000b0 93 88 8e 3e e8 9b 11 3e 90 5b cf 3e 1d f7 b7 3e
       0.27838573 0.1421963 0.40499544 0.3593072

GRU.weight_hh_l11 f4 [12, 4]
000000 8d 0a 38 bd 86 71 4a 3e 45 c3 a5 3e f4 be 05 bf
       -0.044931937 0.19769868 0.3237554 -0.52244496
000010 27 0d 74 3e 3a cf 9e 3e 2b 19 08 bf 56 67 87 be
       0.23833142 0.31017476 -0.53163403 -0.26446027
000020 2d ef f3 3d 50 ce 8d be a6 4e a8 3e 14 15 e1 3c
       0.119108535 -0.27696466 0.32872504 0.027475871
000030 f2 e5 9d 3c b7 68 e0 be 63 ae d2 bd d6 f8 b3 3d
       0.019274686 -0.4382989 -0.10287168 0.08787696
000040 36 05 04 bd ea c9 bc bd 19 1e d0 be 13 38 21 bd
       -0.032231532 -0.092181996 -0.40647963 -0.039360117
000050 89 d7 7f 3e 62 d7 53 3d 29 96 41 3c 54 6e 17 3e
       0.24984564 0.051719077 0.011815586 0.1478818
000060 5a 26 35 be 8b 38 e6 be f7 4d ac bd 9d d3 56 3e
       -0.17690411 -0.44965014 -0.08413308 0.20979162
000070 4a d1 bc 3d 2e e8 63 3d 5a 5f c0 bd 55 86 44 be
       0.09219606 0.055641346 -0.09393187 -0.19191869
000080 1d 37 91 3e d8 14 db 3e 5a ce fb be c7 05 3d 3e
       0.2836236 0.4278934 -0.4918087 0.18459235
000090 d7 3a 93 ba 5f ca b5 3e 7e 0b f7 be 63 6b 91 bb
       -0.0011232746 0.3550596 -0.48250955 -0.0044378503
0000a0 64 49 83 3e e6 05 e4 3e 98 73 53 be f6 be ab be
       0.2564193 0.4453575 -0.20649564 -0.3354413
0000b0 c3 b8 15 be 4b ef f7 3c 96 01 c4 3e ff 3c 77 bc
       -0.14621262 0.030265471 0.3828246 -0.015090226

GRU.bias_ih_l11 f4 [12]
000000 6f a8 38 bd c7 b3 c4 be 70 b8 e3 bd 80 9b fa 3d
       -0.045082506 -0.3841841 -0.11119163 0.122366905
000010 70 84 a3 be b2 52 10 bf 59 d4 5c 3e d1 31 a9 be
       -0.3193698 -0.56376183 0.21565379 -0.3304582
000020 0b 05 b3 3e 20 ee 62 bd 25 9b a8 be 1e 9f c8 3d
       0.34964785 -0.055402875 -0.32930866 0.09795974

GRU.bias_hh_l11 f4 [12]
000000 67 a8 82 be 71 06 9d bd 78 37 6b 3e 8a 0c 96 be
       -0.25519106 -0.07667244 0.22970378 -0.29306442
000010 fd fc 5a 3e f7 f0 80 be cb 52 01 be 6f c4 a8 3e
       0.2138557 -0.25183842 -0.1262924 0.32962367
000020 08 6b 09 be 1b 89 c5 3e a3 c4 28 3d 29 0a 16 bd
       -0.13419735 0.38581166 0.041203152 -0.036630783

GRU.weight_ih_l12 f4 [12, 4]
000000 ad 12 71 3d 21 b1 02 3f eb 0e c2 be 2b f7 19 bd
       0.0588557 0.5105153 -0.37902007 -0.037589233
000010 b3 02 f1 bd fb 62 01 3f 10 2f ba be af 02 87 3e
       -0.11768093 0.5054166 -0.3636403 0.26369235
000020 40 01 07 3f c3 36 61 3e 62 61 1d bd d8 9d 8d 3e
       0.5273628 0.21993546 -0.03842295 0.27659488
000030 23 b4 02 3e 3f 15 d4 bd d1 fd db 3e d8 16 62 3e
       0.12764029 -0.10355615 0.42967084 0.22079027
000040 b7 1e c9 be 38 00 97 3c 22 ca 94 be 25 61 4b be
       -0.39281246 0.018432721 -0.29060465 -0.19861276
000050 59 a6 0a bf 85 47 10 bf 98 84 a4 bd a9 99 d2 be
       -0.54160076 -0.5635913 -0.08033103 -0.41132858
000060 6e b6 b2 3e 2d 79 90 3e 41 6f 7b be 02 ce 6b bd
       0.34904808 0.2821745 -0.24554159 -0.05756951
000070 73 41 5e 3e 37 18 cb 3d b6 6b 74 3e 66 6c c4 be
       0.21704654 0.09916728 0.23869213 -0.3836395
000080 73 a6 df be 67 03 1c be 54 90 96 be 78 30 ec be
       -0.43681678 -0.15235673 -0.2940699 -0.4613073
000090 50 c2 9a 3e 7c ce c6 bd 0b 49 97 bd b9 d9 2e 3e
       0.30226374 -0.097073525 -0.07386979 0.17075242
0000a0 ce 05 8e be 72 d7 ce 3d f7 fd a3 3e 59 58 b9 be
       -0.27738804 0.10099687 0.32029697 -0.36200216
0000b0 af bc be 3e 4d 63 5f 3e d7 92 40 be 80 f6 d6 be
       0.3725333 0.21815224 -0.18806015 -0.4198494

GRU.weight_hh_l12 f4 [12, 4]
000000 43 56 88 be c9 78 ad be e7 bb 80 3e 3a 14 a9 3d
       -0.26628312 -0.33881214 0.25143358 0.08255811
000010 4d fa f1 3d 10 b2 80 3e 28 18 0c bf 13 63 da 3e
       0.11815319 0.2513585 -0.5472436 0.42653713
000020 08 f4 c1 bd 07 75 d6 be c7 a7 2a be 19 5b 98 3e
       -0.094703734 -0.4188616 -0.16665564 0.29757002
000030 b1 0f c3 3e d5 ad 1b 3e 7b 93 bb be 7d b3 e2 3e
       0.3809791 0.1520303 -0.36635956 0.44277564
000040 1a 24 1c be 46 6d 65 3e 7a 81 39 3d 37 7a 86 3e
       -0.15248147 0.22404966 0.045289494 0.26265118
000050 b7 cf 0f 3f ea 02 b7 be ce aa d4 3e 1a 3c 89 3e
       0.5617632 -0.3574441 0.41536564 0.26803666
000060 61 5b a3 be a2 30 6a be 0d 1c f0 be 72 c3 cd be
       -0.31905654 -0.22870114 -0.468964 -0.40188175
000070 1a f7 ee 3e 78 c2 be 3e 30 97 72 3d b5 22 0d be
       0.466729 0.37257743 0.059226215 -0.13782771
000080 b4 92 8a 3e e9 b8 07 bf 9a f2 a9 3e 06 6d 0c 3e
       0.2706505 -0.53016526 0.33192903 0.13713464
000090 b8 9f 13 bf 94 8a c1 be 54 33 66 3e 05 11 73 3e
       -0.57665586 -0.3780104 0.22480518 0.23736961
0000a0 93 01 03 bf a1 d7 89 3e bc 3b 73 be 6c 13 53 be
       -0.5117428 0.26922324 -0.23753256 -0.20612878
0000b0 83 e2 c6 3e 98 74 85 3e 54 33 14 be f8 24 9e 3d
       0.3884469 0.26065516 -0.14472705 0.07721895

GRU.bias_ih_l12 f4 [12]
000000 4a ed 91 3e 8e d6 40 be 6b 2f 5d 3e 7a 3c c8 be
       0.2850135 -0.18831846 0.2160012 -0.3910864
000010 10 ec be be b0 f9 6e be 99 d4 ef 3e da b4 bb 3d
       -0.37289476 -0.23337436 0.46841887 0.09165354
000020 48 a3 e5 be 06 f0 30 3d 1e cd 19 3d d0 ae 0b be
       -0.44851136 0.043197654 0.03754913 -0.13640904

GRU.bias_hh_l12 f4 [12]
000000 55 8b 88 be 60 06 28 be 1a 21 a5 bd 06 4e 92 3e
       -0.26668802 -0.16408682 -0.08062954 0.28575152
000010 50 e1 f1 be 2a 13 8b 3e 4b 8b 66 3e b6 35 73 be
       -0.47242212 0.2716306 0.22514074 -0.23750958
000020 2a 8b b1 be 15 72 00 be a0 81 46 be a2 2d 7b 3e
       -0.34676486 -0.12543519 -0.19385386 0.24529126

GRU.weight_ih_l13 f4 [12, 4]
000000 fc c0 36 3d bd 29 9c 3e 2e be f5 3e 4a 77 ae 3e
       0.044617638 0.30500594 0.47996658 0.34075385
000010 cf 4b f3 3e 00 d2 a3 be c1 26 3f bd e9 16 09 bf
       0.47518775 -0.31996155 -0.046667818 -0.53550583
000020 35 38 82 be fd 4b b2 3e 00 2f 2a bc 8a 8f e2 3c
       -0.25433508 0.348236 -0.010387182 0.027656335
000030 a3 e9 e3 3e 95 f9 b3 be 5d db 7c be 0f 41 f2 be
       0.44514188 -0.35151353 -0.24693055 -0.4731526
000040 c9 40 b6 3e 9c 6a 79 3e 8b c6 07 3f 51 80 d4 bd
       0.35596302 0.24357074 0.5303733 -0.10376037
000050 ba 99 66 be 4b 14 7d be 87 19 96 3e 7f f4 78 bc
       -0.2251958 -0.24714772 0.2931635 -0.015195011
000060 25 7b 86 bd f2 e2 b9 3e 7d e4 4b be ae f8 27 3e
       -0.06566457 0.36305958 -0.1991138 0.16403458
000070 b9 66 66 3e 87 72 0b 3e da 97 0e be 3f b5 a1 be
       0.22500123 0.13617907 -0.13925114 -0.31583592
000080 d1 00 09 bf 2a 14 95 be 3e 52 ce 3e e3 67 7e be
       -0.5351687 -0.29116946 0.4029712 -0.24844317
000090 84 f6 04 3f 40 f0 cb be be 3d 6d 3e 85 23 93 3e
       0.51938653 -0.39831734 0.23168084 0.28738037
0000a0 b7 ea 38 be 8c 66 f4 3e 8c e0 1c 3e fc 4a fd 3d
       -0.18058287 0.47734487 0.15320033 0.12367818
0000b0 0e 08 bc be 87 1a b0 3d ad 07 0e 3e 2a 43 db 3e
       -0.36724895 0.0859881 0.13870116 0.4282468

GRU.weight_hh_l13 f4 [12, 4]
000000 bc 37 02 bf 53 2d b5 be 62 27 67 bd 6f c4 bb bd
       -0.50866294 -0.35386142 -0.056434043 -0.09168326
000010 af 44 0f bf 23 55 ed 3e 60 01 96 3c 1f 61 0b bf
       -0.5596418 0.46354017 0.018311203 -0.5444507
000020 d1 1e 16 be 3c 95 6a 3d 62 77 3a be d3 7a 0c 3d
       -0.14660193 0.057271227 -0.18209603 0.03429682
000030 a4 ce 75 be 35 27 aa be f4 1a bf 3e 24 a1 09 3c
       -0.24004608 -0.33233038 0.3732525 0.008400235
000040 f3 16 05 bf c9 40 3e bd 8f db da 3e e2 3f 6d 3e
       -0.5198814 -0.046448503 0.42745635 0.231689
000050 34 00 a8 be 09 65 e2 3e e5 5a 02 3e 52 08 1b be
       -0.32812655 0.4421771 0.12729986 -0.15139893
000060 f2 cd d9 bd 11 d7 99 3e 7b 83 ac 3d 83 1f a1 3e
       -0.10634984 0.30046895 0.084235154 0.31469354
000070 d0 cd 6b 3d a5 39 87 be 97 54 04 bf 31 6c 8e 3d
       0.057569325 -0.26411167 -0.51691574 0.069542296
000080 e1 f4 d2 3e 87 15 e4 3d 19 79 e9 be 25 e1 a0 3d
       0.41202453 0.111369185 -0.45600203 0.07855443
000090 0a 9f a0 3c 67 e5 b8 3d cb 4b 92 3e a0 d9 fb 3d
       0.019607086 0.0902813 0.2857345 0.12297368
0000a0 a4 8f eb 3e d7 b6 02 bf f2 39 db 3e a9 20 a8 3e
       0.46008027 -0.5106024 0.42817646 0.32837418
0000b0 65 3c 96 3e 0e 39 a6 3e eb ed 12 3f a2 14 43 be
       0.29342952 0.32465404 0.57394284 -0.1905084

GRU.bias_ih_l13 f4 [12]
000000 1a 0a 9b be 87 1a b5 3e f7 be 6a be 0f a4 be 3e
       -0.30281144 0.353718 -0.2292441 0.37234542
000010 7b e8 d5 3d 22 dd 9a be f0 a2 10 bf 6a 04 a1 be
       0.10444733 -0.30246836 -0.5649862 -0.3144868
000020 2b 8b 03 3f a7 15 ce be 10 cd 9e 3d 37 3c 1a 3c
       0.5138423 -0.40250894 0.07753956 0.00941377

GRU.bias_hh_l13 f4 [12]
000000 9f cc ba bb 66 52 25 be 07 b0 d9 3e 4f 6c 9b 3d
       -0.0057006623 -0.16144714 0.4251711 0.075890176
000010 ae ab 8e be e1 df a8 be f1 dd a4 3e 36 07 31 3e
       -0.27865356 -0.32983306 0.32200578 0.17287907
000020 03 27 a8 be a5 08 bb bd 6c 25 92 3e 7b 12 aa be
       -0.32842264 -0.09132508 0.28544176 -0.33217224

GRU.weight_ih_l14 f4 [12, 4]
000000 eb b5 08 3e e9 7d ad be b4 2c 49 be 60 bd 7c bd
       0.13350646 -0.33885124 -0.19645959 -0.06170404
000010 5e a3 4e 3e 8b 8c 35 3e f7 17 81 be a4 78 0a 3f
       0.20179507 0.17729394 -0.25213596 0.54090333
000020 7c d0 38 3e 3c 98 23 be 48 34 12 bf 03 53 c4 bd
       0.1804828 -0.15976042 -0.57111025 -0.09586146
000030 f1 0b cb bc b1 f6 eb be 40 02 af 3e a7 d4 39 3e
       -0.024785968 -0.46086648 0.34181404 0.18147527
000040 b9 44 37 3d 83 28 03 3f 4d a4 e0 bd c3 d9 30 be
       0.044743273 0.5123369 -0.10968838 -0.1727057
000050 6c de 51 3e a4 d7 b4 bd 60 4e 93 be 50 88 53 3e
       0.20495003 -0.08830193 -0.28770733 0.20657468
000060 e8 04 bd be 00 f3 df bd b0 de b4 bc cf fc 57 3e
       -0.36917806 -0.109350204 -0.022078842 0.21092533
000070 23 12 a3 3e fd 6b bc be 09 6d 08 be 35 b9 8c 3d
       0.31849775 -0.3680114 -0.13322844 0.06871263
000080 2e f0 1f be 32 e2 c5 3e 77 da fa be 79 3d 15 be
       -0.15618965 0.38649136 -0.489948 -0.14574231
000090 98 36 92 3e 70 c9 e9 3c c5 4f 01 bf a1 37 0b bf
       0.28557277 0.028538436 -0.50512344 -0.5438176
0000a0 5a 53 45 3e dd bd 58 3e 29 b0 8a 3e e0 53 a5 3e
       0.19270077 0.21166177 0.27087525 0.32290554
0000b0 2d f9 9c be 3e f1 a1 3c 75 d2 b0 3e 88 b6 b3 bd
       -0.30658856 0.019768354 0.34535566 -0.087750494

GRU.weight_hh_l14 f4 [12, 4]
000000 82 62 8b be ff 89 78 be 6b ec f5 3d 4c 59 b1 bd
       -0.27223593 -0.24271391 0.12007984 -0.0865961
000010 68 17 ae 3c 11 b8 3b be 89 bd 1b be 50 66 91 be
       0.021251395 -0.18331935 -0.1520902 -0.2839837
000020 da 28 95 3e 3d ef ca be 8d 61 9d 3d 84 2b c7 3e
       0.2913273 -0.3963565 0.07684622 0.38900387
000030 56 cb 28 be b0 4a a6 be 64 24 09 bf 81 53 17 be
       -0.16483817 -0.32478857 -0.5357115 -0.14777948
000040 a8 82 91 3d 2b 68 09 be 50 9e af 3e 0e f7 0e be
       0.07104999 -0.13418643 0.3430047 -0.13961431
000050 41 a0 34 3e 82 4e 54 3e 56 26 d8 bd 18 c0 83 3e
       0.17639257 0.20733073 -0.10554187 0.25732493
000060 39 53 09 be 68 71 e6 3e 7b f5 50 3d 05 77 8f 3e
       -0.13410653 0.45008397 0.05101536 0.28020492
000070 27 21 4c 3e 9d 86 1d 3e 63 bb af be 62 ab 08 3e
       0.19934522 0.15383382 -0.34322652 0.13346627
000080 bc 18 88 be b2 f7 15 be 7d cf 97 be 1b a5 98 3e
       -0.2658137 -0.1464527 -0.29650488 0.29813465
000090 07 2c 23 3e f8 51 36 3e e7 41 00 3f 7d e3 33 be
       0.15934764 0.17804706 0.5010056 -0.17567249
0000a0 23 cf cc bd 0e 32 1f 3e 94 e5 17 3e 14 92 b8 be
       -0.10000446 0.15546438 0.14833671 -0.3604895
0000b0 20 5c be be cf 6b 27 3e e6 0a 8e 3e 71 b1 4f 3e
       -0.3717966 0.1634972 0.2774269 0.20282532

GRU.bias_ih_l14 f4 [12]
000000 7f 02 80 be 43 e9 0c 3f a6 57 b0 be b2 ff 8c be
       -0.25001904 0.5504343 -0.3444187 -0.2753883
000010 09 51 da bd 08 2f 1c 3c 8b b2 1d bd 2d 0e bf be
       -0.106599875 0.0095326975 -0.03850035 -0.37315503
000020 66 fb 9b be aa e5 b5 bd f2 0a e7 bd dd 02 ef 3e
       -0.3046524 -0.088816956 -0.112813845 0.46681872

GRU.bias_hh_l14 f4 [12]
000000 11 a5 d5 be bd b3 b8 3d f2 1b 66 be 76 9f 4d be
       -0.41727498 0.09018657 -0.22471598 -0.20080361
000010 c1 3c fc bd ca 5d ac 3e 63 42 9c 3e bf c5 1b be
       -0.123162754 0.33665305 0.305194 -0.15212153
000020 64 2c b8 be ca 90 43 be e5 62 18 be 06 1b 06 3f
       -0.35971367 -0.19098201 -0.14881475 0.52384984
