aa2_models/model1.pt (torch_old, 3819 bytes, 14 tensors)

lin1.weight f4 [3, 7]
0.21217832 -0.33683413 0.32893738 -0.056259066 0.018705932 -0.047815114 -0.09535829 0.21339281
-0.13885362 -0.05902616 -0.27237397 0.059252504 0.0049576163 0.3733305 -0.35373017 0.30930707
-0.18240161 -0.15604186 -0.11419169 0.25916234 -0.19061907
00000000: 4645 593e 8675 acbe 7b6a a83e e86f 66bd
00000010: 2f3d 993c c8d9 43bd 354b c3bd a583 5a3e
00000020: a52f 0ebe 6ac5 71bd 9a74 8bbe c1b2 723d
00000030: 8073 a23b 2d25 bf3e 1f1c b5be 7f5d 9e3e
00000040: 7dc7 3abe 70c9 1fbe 55dd e9bd edb0 843e
00000050: a531 43be

lin1.bias f4 [3]
-0.019247174 0.11411963 -0.39732477
00000000: 40ac 9dbc 8db7 e93d 276e cbbe

lin2.weight f4 [3, 3]
0.24805768 0.4381499 -0.044143997 0.07237377 0.032168057 0.27519298 -0.18228817 -0.177829
-0.08859205
00000000: d502 7e3e 2f55 e03e 56d0 34bd b338 943d
00000010: a7c2 033d 18e6 8c3e c0a9 3abe ce18 36be
00000020: c06f b5bd

lin2.bias f4 [3]
0.091536984 -0.77248675 -0.12022319
00000000: be77 bb3d b1c1 45bf 9337 f6bd

GRU.weight_ih_l0 f4 [9, 3]
-0.19600199 0.2227987 -0.1317477 0.08029848 -0.17415874 0.10826767 0.24420872 -0.063979276
-0.414781 0.3987905 -0.22592354 0.17048065 -0.22804148 0.56326747 0.052684564 0.29575378
-0.518715 -0.3844256 -0.35946956 0.2709932 0.24883142 -0.05822958 -0.65102273 -0.08278033
-0.19608738 -0.44862834 -0.19462584
00000000: bfb4 48be 5825 643e dee8 06be 8873 a43d
00000010: ab56 32be 71bb dd3d da11 7a3e 9107 83bd
00000020: 2d5e d4be 452e cc3e 8058 67be 7b92 2e3e
00000030: b583 69be 4c32 103f c5cb 573d 0a6d 973e
00000040: 82ca 04bf 6fd3 c4be 650c b8be 9fbf 8a3e
00000050: aacd 7e3e 2482 6ebd 6da9 26bf bc88 a9bd
00000060: 21cb 48be 9db2 e5be ff4b 47be

GRU.weight_hh_l0 f4 [9, 3]
-0.10463388 -0.025525399 -0.50337654 0.17587776 0.4472428 0.16190474 -0.42797077 -0.19641872
0.5881379 0.3492169 -0.16031425 0.32449722 0.059482884 -0.13192028 0.22816105 0.37872767
0.12750235 0.42325497 -0.19243124 -0.0076769996 0.54880315 0.031010054 -0.4546783 -0.09112421
-0.47274643 0.13078548 0.5438892
00000000: 4a4a d6bd a41a d1bc 49dd 00bf 4d19 343e
00000010: 02fd e43e 5bca 253e fc1e dbbe fd21 49be
00000020: 3590 163f 8fcc b23e 6b29 24be 8024 a63e
00000030: 53a4 733d 1c16 07be 0da3 693e 98e8 c13e
00000040: fa8f 023e e0b4 d83e b20c 45be 578f fbbb
00000050: 5d7e 0c3f cc08 fe3c 98cb e8be 549f babd
00000060: d20b f2be a1ec 053e 533c 0b3f

GRU.bias_ih_l0 f4 [9]
-0.015024427 0.042373102 0.3220369 -0.45031622 0.0024782075 -0.24365047 -0.45443422 0.004214506
0.1367251
00000000: 0429 76bc 6b8f 2d3d 05e2 a43e d98f e6be
00000010: 6c69 223b 827f 79be 9aab e8be d719 8a3b
00000020: aa01 0c3e

GRU.bias_hh_l0 f4 [9]
-0.28322423 -0.3873489 -0.07772383 0.27075154 0.4102257 -0.31415367 0.14765339 0.6834894
0.6292435
00000000: c402 91be 9852 c6be ac2d 9fbd f29f 8a3e
00000010: 1a09 d23e c0d8 a0be 7332 173e 29f9 2e3f
00000020: 1a16 213f

GRU.weight_ih_l1 f4 [9, 3]
-0.071429886 -0.08223243 -0.18669842 -0.14865078 0.4141836 -0.04647372 0.14601883 -0.5181602
0.2867921 0.17518932 -0.37407523 0.2232197 -0.1491182 0.1452413 0.40185377 0.26428178
-0.27100024 -0.10303715 0.2572197 -0.41351697 -0.6632662 -0.20787543 -0.56886905 -0.77580684
0.21191542 0.18084711 0.72718257
00000000: d549 92bd 7a69 a8bd df2d 3fbe e937 18be
00000010: df0f d43e 3a5b 3ebd f685 153e 26a6 04bf
00000020: 6ad6 923e d464 333e ca86 bfbe b493 643e
00000030: 71b2 18be 23ba 143e c7bf cd3e f14f 873e
00000040: 8bc0 8abe 2405 d3bd 4db2 833e 7fb8 d3be
00000050: d0cb 29bf 4cdd 54be 67a1 11bf 479b 46bf
00000060: 5b00 593e fc2f 393e a328 3a3f

GRU.weight_hh_l1 f4 [9, 3]
-0.23544548 0.34071788 0.5220328 -0.37126264 -0.2103097 -0.4714581 -0.53525984 0.08938329
-0.54537684 -0.34039062 -0.16173321 -0.19576555 -0.1163782 0.12961546 -0.5215922 -0.5670349
0.28539515 0.16443944 0.49195457 0.61524004 0.43902087 0.012714189 0.27536592 -0.45246693
-0.6054274 0.444358 0.35490227
00000000: 9f18 71be 9372 ae3e f1a3 053f 2316 bebe
00000010: 6d5b 57be f562 f1be ca06 09bf 960e b73d
00000020: d19d 0bbf ae47 aebe 649d 25be c476 48be
00000030: b257 eebd eab9 043e 1187 05bf 3329 11bf
00000040: 501f 923e d062 283e 78e1 fb3e 5f80 1d3f
00000050: 58c7 e03e 2c4f 503c c3fc 8c3e bfa9 e7be
00000060: 4afd 1abf e482 e33e c0b5 b53e

GRU.bias_ih_l1 f4 [9]
0.20681806 -0.5740449 -0.5087299 -0.14385916 0.2768787 0.31798446 0.00058954104 -0.24223833
0.57594883
00000000: 1dc8 533e 9bf4 12bf 1f3c 02bf d14f 13be
00000010: 0cc3 8d3e dcce a23e 6e8b 1a3a 530d 78be
00000020: 6271 133f

GRU.bias_hh_l1 f4 [9]
-0.42433673 0.5275547 0.4212095 -0.4530963 0.10933341 0.34341317 -0.6225442 0.099035464
-0.2218274
00000000: aa42 d9be d30d 073f c6a8 d73e 3dfc e7be
00000010: 32ea df3d dad3 af3e 0f5f 1fbf 1bd3 ca3d
00000020: b926 63be

lin3.weight f4 [5, 3]
-1.2553586 -1.027073 0.76500744 -0.20614742 -0.28436133 -0.40103278 0.13189182 0.044466857
-0.22356138 -0.2724417 -0.046829533 0.26148942 -0.2016375 0.49670205 -0.6108153
00000000: 97af a0bf 2177 83bf 87d7 433f 4f18 53be
00000010: cf97 91be 2b54 cdbe a60e 073e e122 363d
00000020: 46ed 64be 7a7d 8bbe 53d0 3fbd f1e1 853e
00000030: 107a 4ebe bb4f fe3e 645e 1cbf

lin3.bias f4 [5]
1.7834498 -0.33448946 -0.2409837 -0.50304353 -0.049137082
00000000: 1548 e43f 3442 abbe 6ec4 76be 76c7 00bf
00000010: f743 49bd
