aa2_models/model7.pt (torch_old, 42253 bytes, 132 tensors)

lin1.weight f4 [5, 7]
000000 9b 0e b1 be 1e 4d 48 be 94 f4 ba 3e 38 18 0f be
       -0.34581456 -0.19560668 0.36514723 -0.13974082
000010 2c 4b cf 3c 5a 3f 9a be 4c b4 a1 3e a5 11 51 3d
       0.0253044 -0.30126458 0.31582868 0.051042218
000020 36 e8 b5 be 74 f4 b8 3e d0 0e a4 3e 76 94 68 3c
       -0.35528725 0.36124003 0.3204255 0.014195552
000030 e4 7e f1 bd 87 70 98 bd a3 40 69 be 48 10 10 be
       -0.117917806 -0.07443338 -0.22778563 -0.14068711
000040 cd ed fa bd 6e c0 90 be b7 98 9b bd c9 9f a3 3e
       -0.12252388 -0.28271812 -0.075974874 0.31957844
000050 6e 4a 9f 3e 6f fa 83 be 8d 80 2c 3e 06 21 a9 3e
       0.31111473 -0.25777003 0.16845913 0.33033007
000060 00 30 95 3e a2 d6 c2 be 5e ee 06 3e 38 1e f5 3d
       0.29138184 -0.38054377 0.13176867 0.119686544
000070 5f 5c 89 3d 39 d2 c8 3c e4 56 7b be 11 8f c9 bb
       0.067070715 0.024514304 -0.24544865 -0.006151088
000080 5c 81 7c bd e8 23 78 bd f1 b4 95 3e
       -0.061646804 -0.060581118 0.2923961

lin1.bias f4 [5]
000000 c0 e8 04 3e c1 97 61 be 9f 50 a3 be fd be c2 bd
       0.12979412 -0.22030546 -0.31897447 -0.095090844
000010 1d ed a8 3e
       0.32993403

GRU.weight_ih_l0 f4 [15, 5]
000000 77 b6 f6 3d 05 8d 06 be b1 22 e7 3c 02 a5 a8 bd
       0.12046521 -0.13139732 0.028214784 -0.08234598
000010 dc 69 c9 3e e4 45 c7 3e e2 57 3f 3e b3 74 65 3d
       0.39338577 0.3892051 0.18685868 0.056019496
000020 5c 7e 9e 3e 6d ba 92 be 58 21 e9 be d4 a4 6b 3e
       0.3095578 -0.28657857 -0.45533252 0.23012096
000030 df 0d 45 be ca 36 e4 3e 9d c3 5d 3e 62 c9 cf be
       -0.19243573 0.4457305 0.21656652 -0.4058333
000040 81 77 0e 3e 0f 1c e2 3e 27 bc 6f 3d 8f 30 70 be
       0.13912775 0.44162032 0.058529045 -0.23456024
000050 9f 57 ae be 5c b0 c6 be be d8 5a be e2 c3 85 3e
       -0.34051225 -0.38806427 -0.21371743 0.2612601
000060 65 7e f0 3b e7 d1 04 be 1c 62 e6 be 96 6b 4c 3e
       0.007339286 -0.12970696 -0.44996727 0.19962916
000070 9e 56 b7 bc 2c 0d a3 be df 10 db be 14 00 1f 3d
       -0.02238017 -0.31845987 -0.4278631 0.038818434
000080 a7 b4 8c 3e f3 0f d1 be ba f3 3c 3d 84 d0 ec 3d
       0.27481577 -0.4083248 0.046130873 0.11563209
000090 5f bb 89 be 54 5a 24 be 28 4d 98 be b1 6b 18 be
       -0.26900765 -0.16050082 -0.29746366 -0.14884831
0000a0 00 5d b3 be f1 36 ab be c8 ab 73 be 27 55 39 bd
       -0.3503189 -0.33440354 -0.23795998 -0.045247223
0000b0 9e 96 88 3d 05 6e 82 be 3f 01 e9 be 22 8b d0 be
       0.06669353 -0.25474563 -0.45508763 -0.4073115
0000c0 a5 01 76 3e 41 75 10 3e 2d 0b b1 bd 89 6b 48 bc
       0.24024065 0.14107229 -0.0864471 -0.01223267
0000d0 41 6d db 3d e3 30 96 3e 96 61 a3 3e 3a 4d 0b be
       0.10714198 0.29334173 0.3191039 -0.13603678
0000e0 7a 3b b0 bd 32 41 27 ba 69 5e db 3c bd 89 2f 3e
       -0.08605094 -0.00063802593 0.026778417 0.17142387
0000f0 26 3d ae bd 51 a3 86 be b6 5b ae be e2 7a 47 bd
       -0.08507757 -0.26296476 -0.34054345 -0.048701175
000100 dc 31 53 3e 27 e6 ca be 00 4f 90 3e 62 2a ad be
       0.20624489 -0.39628717 0.28185272 -0.33821398
000110 c5 d0 06 bc ef f7 b2 3e 3b c5 4d be 02 5b 91 be
       -0.0082284855 0.34954783 -0.20094769 -0.28389746
000120 00 5b 83 3e 30 f7 90 be f0 9c d4 3e
       0.25655365 -0.2831359 0.41525984

GRU.weight_hh_l0 f4 [15, 5]
000000 18 f7 b2 3e 76 8c 1e 3e b0 21 96 bc 82 cf a6 3e
       0.34954143 0.15483269 -0.01832661 0.3258019
000010 a2 3c da 3e d1 87 ea be 3e 52 52 be bd da fb 3d
       0.42624384 -0.45806745 -0.20539185 0.122975804
000020 e0 e8 0b 3e b5 f2 d0 3e 97 48 de be b9 15 d2 3e
       0.13663054 0.4081017 -0.43414757 0.41032198
000030 17 c6 bc 3d 24 be ec 3d 66 b5 53 3d b4 2d 93 be
       0.0921747 0.11559704 0.051686667 -0.28745806
000040 54 e7 ce be 49 4c fb 3d 3a 83 dc 3e 6d 16 23 3e
       -0.40410864 0.122704096 0.43068868 0.15926524
000050 39 82 03 bd 50 98 e8 3e 20 9b 00 be 1e 5e c0 bd
       -0.032106612 0.45428705 -0.12559175 -0.093929514
000060 d9 1d 56 be 91 8b db 3e 67 ba 1a 3e f4 f0 e2 be
       -0.20909823 0.42879918 0.1511017 -0.44324458
000070 47 07 5a be 7d 0d 3f 3e a4 6c 8d be b3 a7 b5 be
       -0.21291839 0.18657489 -0.2762195 -0.35479507
000080 60 81 cb 3e 1c 0b 42 3c a6 f8 20 be ab 0a 2c be
       0.39747143 0.011843469 -0.15719852 -0.16800945
000090 e5 16 97 3b 32 cb a0 be 5e a3 10 3e bf fa cd be
       0.0046108835 -0.31405026 0.1412482 -0.40230367
0000a0 3b 80 94 3e 10 e9 9e be d0 6b c9 be fd c5 37 be
       0.29004082 -0.31037188 -0.39340067 -0.1794662
0000b0 f1 8e ae bd f8 9c ca be 37 ab e1 3d 67 40 ad 3d
       -0.08523358 -0.39572883 0.11018985 0.084595494
0000c0 89 18 17 be 50 e1 e9 be bc 4b fc 3d 65 17 78 be
       -0.14755453 -0.45679712 0.12319133 -0.24227674
0000d0 4a 15 56 3c b1 b2 79 be 68 0f 89 be da b9 59 be
       0.013066599 -0.24384572 -0.26769567 -0.21262303
0000e0 1c aa a6 3e a5 b1 93 3c 5d b5 8b 3d 66 ea 7d bd
       0.32551658 0.018029043 0.06821702 -0.061991118
0000f0 bd 28 97 be 45 24 13 3d 69 d0 8d 3e 52 1c 8d 3e
       -0.29523268 0.03592326 0.27698067 0.2756067
000100 16 00 2f be 51 cb 94 be 38 aa 77 bd b6 73 3d 3e
       -0.17089877 -0.29061368 -0.060465068 0.18501171
000110 cd 07 70 39 2f b1 7d 3c 81 32 ba be 10 31 df 3e
       0.0002289109 0.015484138 -0.36366656 0.4359212
000120 c5 fe 26 bd 4a a6 1f 3e 59 ce 98 3d
       -0.04077031 0.15590778 0.07461233

GRU.bias_ih_l0 f4 [15]
000000 ee e8 d8 be 1e 26 35 3e f8 b6 8b be 29 59 1e 3d
       -0.4236521 0.17690322 -0.27288032 0.03865925
000010 7a 77 a2 3e 99 b8 cf be 6e a4 b2 be 22 81 06 bb
       0.31731778 -0.40570524 -0.34891075 -0.0020523746
000020 d3 bd 9d bd 66 aa 2b 3e a0 4b be be 0a 28 28 be
       -0.07702222 0.1676422 -0.37167072 -0.16421524
000030 24 06 e1 be 50 85 40 3c c2 8b ca be
       -0.43949997 0.011750534 -0.39559752

GRU.bias_hh_l0 f4 [15]
000000 4f a0 12 3e 82 f6 74 3e 0c 1c 90 3e e1 7f 72 be
       0.14318965 0.2392216 0.28146398 -0.23681594
000010 71 62 4d 3d e0 8d 90 be f2 e0 8a 3e 05 9d 22 be
       0.05014271 -0.28233242 0.27124745 -0.1588021
000020 8b cc 80 be 61 95 c0 be 73 b5 76 be 04 09 ce be
       -0.25156054 -0.37613967 -0.24092655 -0.40241253
000030 e8 30 c2 3d 6e 4a a9 be f9 45 65 3e
       0.094819844 -0.33064598 0.22389974

GRU.weight_ih_l1 f4 [15, 5]
000000 ef 06 1a 3e 84 96 19 be 4a de bb 3e 92 f0 c8 be
       0.15041707 -0.14998823 0.3669303 -0.3924604
000010 1f 81 f0 bd ef 1f b8 be 22 6d 03 be 2d cc 38 be
       -0.11743378 -0.35961863 -0.128346 -0.18046637
000020 cd ed df 3e 01 4b 6c 3e 3f 45 a1 3e 7d 79 ba 3d
       0.43736115 0.23075487 0.31498143 0.09105203
000030 18 ba ba bd 23 22 f3 3c d8 0b 25 3e 1c b9 be be
       -0.09117526 0.029679364 0.161178 -0.37250602
000040 0e 6a 0a bc 2b 42 d4 be 51 46 ce 3e 65 e2 25 be
       -0.008448137 -0.41456732 0.40288022 -0.16199644
000050 30 da c6 3e ef f6 b4 3d ea c2 80 be f1 0f 95 bd
       0.3883834 0.08836161 -0.25148708 -0.07278431
000060 1d 44 cf 3e 25 0e 07 be 9d 1f c8 3c c5 7a 1d 3d
       0.40481654 -0.1318899 0.024429137 0.03844716
000070 a5 b2 67 3e 8a d1 72 be 9e 5c c8 be fe ab ab bd
       0.22626741 -0.23712745 -0.3913316 -0.08382414
000080 64 c5 5a bd d9 43 47 bd 1e b8 94 3e 2f a5 e3 be
       -0.053410903 -0.04864869 0.2904672 -0.44461963
000090 30 64 d6 b7 d9 70 4b 3e d5 8f cc be de 91 10 be
       -2.5557441e-05 0.19867267 -0.39953485 -0.14118144
0000a0 ca e8 b6 bd 38 40 17 be bb 44 dc be bd d4 8c bd
       -0.0893112 -0.14770591 -0.43021187 -0.06876514
0000b0 85 6c 94 be 64 77 00 be 75 50 df be ee 24 c8 3e
       -0.28989044 -0.12545544 -0.4361607 0.39090675
0000c0 65 a2 e8 3e 1c be 75 3e af 20 9c 3d 36 30 89 39
       0.45436397 0.23998302 0.076234214 0.00026166596
0000d0 fd 0a 83 3e 0c 50 fb bd 4a 1b 75 3e 78 65 2b 3e
       0.2559432 -0.12271127 0.23936191 0.16737926
0000e0 37 9e e5 be f1 7b 95 be 3b 90 c8 3e 57 a7 96 bd
       -0.4484727 -0.29196122 0.3917254 -0.07356136
0000f0 db d3 03 be bf b4 87 bd 04 d4 84 be bc e7 e0 3e
       -0.12873785 -0.066262715 -0.25943005 0.439268
000100 24 29 40 be 4e 2f 8b 3e 89 5a 1d 3c b8 a8 bb 3a
       -0.18765694 0.27184528 0.009604105 0.001431725
000110 c4 12 e1 3d bb a4 55 be 26 f2 94 be b9 1f 69 3d
       0.109899074 -0.20863621 -0.29090995 0.05691502
000120 c1 73 38 3e 67 d8 89 3d 7a 18 53 3e
       0.18012907 0.067307286 0.20614806

GRU.weight_hh_l1 f4 [15, 5]
000000 cb 8a ec bd 8c 7c d7 3e 9f 22 47 3e 14 87 50 be
       -0.1154991 0.4208721 0.194468 -0.20364028
000010 c9 41 78 3e 15 7e b9 3d 28 10 d2 bd 31 32 8c 3d
       0.24243845 0.09057251 -0.10256988 0.06845511
000020 73 ce c4 be b6 ff af bd 55 17 e9 3e cb a8 9c 3e
       -0.38438758 -0.08593695 0.45525613 0.3059753
000030 bf 87 dd 3e bd 2d 06 3e ce 71 c9 be 0d 74 9f 3e
       0.4326763 0.13103385 -0.3934464 0.31143227
000040 a0 03 12 3e c0 88 c5 be ed 7f b6 3e f9 95 b6 be
       0.14259195 -0.38580894 0.35644475 -0.35661295
000050 33 ec 96 bd cd 04 b0 be 26 88 84 be cf 45 db be
       -0.0736927 -0.34378663 -0.25885123 -0.42826697
000060 dc 1c bd be 8c 61 4b be 77 a1 16 be 83 df 79 3e
       -0.3693608 -0.1986143 -0.14710031 0.24401669
000070 f2 94 a1 3e 5d 87 08 be d8 23 15 3e 6d 8d ce 3d
       0.3155895 -0.13332887 0.14564455 0.100855686
000080 1c a7 bf 3e d1 e4 0b 3e 15 2d cf be f0 24 24 3d
       0.37432182 0.13661505 -0.40464082 0.04007429
000090 ec 53 bc 3e 41 a0 1b 3e 12 af bd 3e fb 9c a0 be
       0.36782777 0.15197851 0.3704763 -0.31369767
0000a0 44 cd eb bd 70 41 a0 be ba 15 b0 3e cd e1 b3 be
       -0.11513761 -0.31299925 0.34391576 -0.3513321
0000b0 69 81 cc 3e 53 25 2a be 69 88 2b 3b 81 26 23 3e
       0.39942482 -0.166158 0.0026173836 0.15932657
0000c0 ee d5 85 be 7e c1 3a 3d 66 f4 24 3d 8f fb 0c bd
       -0.26139778 0.045594685 0.04027214 -0.034419592
0000d0 79 00 92 3e b3 cd f1 3d e9 92 8f 3e f2 4f 4c be
       0.28515986 0.11806812 0.2804177 -0.19952372
0000e0 79 86 de be 89 17 cf be ca 0f 00 be 38 f0 d2 be
       -0.4346197 -0.40447643 -0.12506023 -0.41198897
0000f0 4e f4 ce 3d 17 56 59 3e 52 5d b1 be 25 43 c6 3e
       0.10105191 0.21224247 -0.3464151 0.38723102
000100 15 36 ea bd 5f f0 29 3e d2 91 1f 3e aa 22 8f be
       -0.114360966 0.165956 0.1558297 -0.27956134
000110 bc c9 05 be a8 64 5b 3e a4 e4 a6 3e 29 06 a2 3e
       -0.13065237 0.21425116 0.32596314 0.31645325
000120 bc 6f 94 be f7 94 8b 3e fa bd 42 3c
       -0.28991497 0.2726209 0.011886114

GRU.bias_ih_l1 f4 [15]
000000 ce 72 dc 3d 8b 6c 7b 3d 1b 7c cc be 84 cc 30 3e
       0.10764085 0.06138281 -0.39938435 0.17265517
000010 f1 f7 49 be 71 2d 81 3e f3 c3 b6 bd 55 fa 87 3c
       -0.19723488 0.25229982 -0.08924093 0.01659886
000020 f3 25 82 bd 81 4d 2b be e6 de be be dd 5d 8d 3d
       -0.063548945 -0.16728784 -0.37279433 0.069026686
000030 7d 86 8f 3e 4e 23 e2 3d ca b8 48 3e
       0.28032294 0.1104189 0.19601741

GRU.bias_hh_l1 f4 [15]
000000 ec 38 4a 3e 2e b5 79 bd 33 15 8f 3e 76 1f 3d be
       0.19748276 -0.060963802 0.2794586 -0.18469033
000010 29 a2 b9 3e 0e c4 c4 be 5d 2e b8 be 48 5e 1c 3c
       0.3625653 -0.38430828 -0.35972872 0.009543963
000020 29 e9 46 be b5 90 1c 3e d5 29 c5 be 0e 47 13 be
       -0.19424881 0.15289576 -0.38508478 -0.14382574
000030 bd 31 79 be 58 88 9c be 64 68 b3 be
       -0.2433538 -0.30572772 -0.3504058

GRU.weight_ih_l2 f4 [15, 5]
000000 45 96 ca 3e 4d 29 87 3e ef 2b ea 3e 2a 83 be be
       0.39567772 0.26398697 0.45736644 -0.37209445
000010 dc c7 56 be 7a 07 95 be 81 c5 91 be 64 50 c7 be
       -0.20974678 -0.29107267 -0.28470996 -0.3892852
000020 ee 1b 87 bc 38 13 7e bd 76 ee 87 3e bf a5 da bd
       -0.01649281 -0.062030047 0.2654912 -0.10676145
000030 fa ce 65 be 79 41 64 3e df 17 98 3e e3 d6 d1 3e
       -0.22442237 0.22290601 0.29705712 0.40984258
000040 9a 79 36 3d 41 d8 2a 3d 48 5f 79 3e 86 60 1e 3e
       0.044549562 0.041710142 0.24352753 0.15466508
000050 b4 dc 1e be 43 12 49 be 30 4b 92 bd ab 90 27 3d
       -0.15513879 -0.19635873 -0.07143247 0.04090945
000060 bf 59 b7 3e e1 61 81 be 80 8f ed 3d 13 84 a8 3e
       0.35810658 -0.25269988 0.11599636 0.32913265
000070 0b 3c ad be 7e 73 0d 3d cb 09 85 bd 29 78 88 3a
       -0.33834872 0.03453397 -0.064960085 0.0010411787
000080 45 f3 a6 3d 40 c6 ba bd 60 ba 91 be a4 c1 83 3e
       0.08151869 -0.091198444 -0.28462505 0.25733674
000090 34 e2 83 3e b7 31 ab 3e b3 8c df 3e af 23 24 be
       0.25758517 0.33436367 0.43662032 -0.16029237
0000a0 65 09 b2 3e 65 7a ab bd 28 53 4a 3c 5e 0d ad 3e
       0.34772792 -0.08372954 0.012348928 0.3379926
0000b0 55 35 1a 3e 81 79 db 3d 8f 32 0a be e9 e7 81 be
       0.15059407 0.107165344 -0.13495849 -0.25372246
0000c0 20 d9 d7 3d 2d e6 0e bd 4d 26 e8 3d fb fe ab bd
       0.1053946 -0.03488748 0.1133543 -0.08398243
0000d0 b0 75 b8 3e 47 43 ae 3e 7d c3 e6 be ab a1 c0 be
       0.36027288 0.34035704 -0.4507102 -0.37623343
0000e0 17 8b c3 3e f7 cb dd be 7b 22 53 3e 69 03 15 be
       0.38192055 -0.43319675 0.20618622 -0.14552082
0000f0 7b b4 e0 be 49 a8 94 3e 1e d4 8a 3e 2f 22 ed bc
       -0.43887696 0.2903464 0.27114958 -0.028946964
000100 40 97 aa 3e f6 a9 b6 be f1 69 4d 3e 2e b0 f0 bd
       0.3331852 -0.35676545 0.20059945 -0.117523536
000110 72 ba 94 bd 45 8f 33 3c bf 40 9e be 37 92 ce 3e
       -0.07262124 0.010959451 -0.30908772 0.40345928
000120 ad 50 3f be 59 da 98 3c 60 29 52 3d
       -0.18683119 0.018658804 0.05130899

GRU.weight_hh_l2 f4 [15, 5]
000000 33 d1 06 3e 75 52 79 be ed 28 21 be e2 8d cf 3e
       0.1316574 -0.24347861 -0.15738268 0.40537935
000010 85 77 17 be 1f a3 3b 3e f1 61 58 be 2a 69 6c 3e
       -0.14791687 0.18323945 -0.21131112 0.23086992
000020 90 b4 86 be 92 59 52 3e 4e 7f 47 be c1 59 db bd
       -0.26309633 0.20541981 -0.19482157 -0.107104786
000030 9b 9e ae 3e 0b b6 f7 3d 24 0c 86 bd 98 b3 a9 bd
       0.3410538 0.12095269 -0.065452844 -0.08286208
000040 39 e5 76 3e a9 da e0 3c d5 f3 ca 3d d2 7d 96 3e
       0.24110879 0.027448015 0.099097885 0.29392868
000050 e8 22 ba 3e 6f 51 d6 3e 8b 29 18 be d5 54 c1 be
       0.36354756 0.41859004 -0.14859597 -0.37760034
000060 0b c2 d9 3e 04 4e 14 be 50 e7 0e be 18 18 1d 3e
       0.42530856 -0.14482886 -0.13955426 0.15341222
000070 f9 d3 cd be fe 71 5d 3e e0 57 b1 3b 6d af 84 3e
       -0.40200785 0.21625516 0.005412087 0.2591509
000080 1a 15 e5 3d af a4 c7 be b7 19 7d 3d e7 d7 09 3d
       0.111856654 -0.3899283 0.0617921 0.033653166
000090 5c a6 54 bd 6c fa c2 be 2c c1 95 be 6f 01 39 3d
       -0.051916465 -0.38081682 -0.2924894 0.045167383
0000a0 c6 3d 94 3e 7e 8b 89 3d f9 ec 96 3e eb 17 22 be
       0.2895338 0.06716059 0.2947767 -0.15829436
0000b0 13 d2 42 be e8 fd 36 3d f7 81 ad 3e c0 e0 a1 bd
       -0.1902545 0.044675738 0.33888218 -0.07904196
0000c0 c2 c1 bf bd 07 04 54 3e d4 b4 d0 3e 32 c6 d3 be
       -0.09363128 0.20704661 0.4076296 -0.4136215
0000d0 99 d9 73 bd 2c c5 b7 3d df 46 b5 3e e1 aa 7e 3e
       -0.05953369 0.089731544 0.35405633 0.24869873
0000e0 95 f3 25 3e 5c c5 2e 3e ec a0 15 be 4d 16 cc 3e
       0.162062 0.17067474 -0.14612168 0.39860764
0000f0 6e ac d0 be 0a 7d aa bd 5e c3 b0 3e d6 fd c5 be
       -0.40756553 -0.083246306 0.34524053 -0.38670224
000100 c0 91 8b be b4 bd cb be ff d4 74 be af f7 ba bd
       -0.27259636 -0.3979317 -0.23909377 -0.09129273
000110 02 2a da be ab 41 3f 3e 1e 5d 81 be 50 63 a1 be
       -0.42610174 0.18677394 -0.25266355 -0.31521082
000120 28 42 9f be a1 bf 63 3e 98 31 55 be
       -0.3110516 0.2224107 -0.208197

GRU.bias_ih_l2 f4 [15]
000000 56 04 68 3e c7 84 aa 3e 16 4e 9d bd 2b 32 2f be
       0.22657904 0.33304426 -0.07680909 -0.17108981
000010 fd 6e cc 3e aa f9 98 3e 1e 00 0e be ce 41 27 be
       0.39928427 0.2987798 -0.13867232 -0.16333696
000020 ca 94 13 be 9b c6 2d 3e 85 ba 02 3d 4a 71 a6 be
       -0.14412227 0.16970293 0.03191616 -0.32508308
000030 48 6f 7b 3e 1b f3 b2 3e 20 69 0e be
       0.24554169 0.349511 -0.1390729

GRU.bias_hh_l2 f4 [15]
000000 87 da ed 3d 93 dc 99 3e 72 38 98 bd 0c 4d b6 3e
       0.116139464 0.30051097 -0.07432641 0.35605657
000010 ca 2f 8d be ba 52 db be 3f ca 98 be e9 21 8c be
       -0.27575523 -0.42836553 -0.29841802 -0.2736962
000020 64 9d e8 3e e2 15 79 3d 0a 3f bc 3e 50 7a c5 3e
       0.4543258 0.060811885 0.36766845 0.3856988
000030 cb 7b 6d be e9 07 67 bd ab a2 1c be
       -0.23191755 -0.056404028 -0.15296428

GRU.weight_ih_l3 f4 [15, 5]
000000 7a a4 5a 3e 08 fb 69 be 92 b1 d2 be b0 b1 d2 be
       0.21351805 -0.22849667 -0.411511 -0.4115119
000010 1b 3f 90 3e 7d 68 35 3e cd 1b 8c 3a 5d 5e 61 3e
       0.28173146 0.1771564 0.0010689438 0.22008653
000020 83 f4 b1 bb b0 87 65 be de 90 a6 3d 54 e2 c5 be
       -0.0054307594 -0.22415042 0.081331 -0.38649237
000030 d6 d3 9f 3e 8e 64 0d bd 90 65 8d bc 80 42 82 be
       0.31216305 -0.034519725 -0.017260343 -0.2544136
000040 46 27 8e be cf e0 0d 3e 70 1b ea 3d 0f 99 cd 3e
       -0.27764338 0.13855289 0.114310145 0.40155837
000050 8e 44 83 bd 2a 19 5a bd b7 72 b4 be 81 3f 06 bc
       -0.0640956 -0.053246655 -0.3524377 -0.008193851
000060 0c 87 79 be 73 ba 0d be 35 8a 19 3e 32 84 cb be
       -0.24367923 -0.13840656 0.14994128 -0.39749295
000070 f8 09 15 be f7 dc cf be 05 ea ce be ae 6d 5e 3e
       -0.14554584 -0.4059827 -0.40412918 0.21721527
000080 3f 45 16 3c 8f ee 16 be b2 6c a7 3d a1 05 8a be
       0.009171783 -0.1473944 0.08175029 -0.2695742
000090 f3 96 8d be cc d0 d4 be 2d 55 de be 51 1c 07 3e
       -0.27654228 -0.4156555 -0.4342436 0.13194396
0000a0 35 31 a4 3d 74 f7 e4 be 5a b4 bf 3d b0 f9 9c 3e
       0.08017198 -0.44720042 0.09360571 0.30659246
0000b0 b7 05 8f be 8d fd da be 7d 2c 0c be 4d 5e 60 3e
       -0.27934048 -0.4277157 -0.13688846 0.21910973
0000c0 7a 76 82 3e f1 6d 74 be 71 c7 e1 3e 8a 56 8e 3e
       0.25481015 -0.23870064 0.44097474 0.278004
0000d0 06 c9 5a 3e 5a 96 92 be 4a b4 9c 3c 16 ee 03 3e
       0.21365747 -0.28630334 0.019128937 0.12883791
0000e0 78 83 98 be fb 51 9d 3d e0 b4 68 be 88 96 c6 3e
       -0.29787803 0.07681652 -0.22725248 0.3878672
0000f0 4d c3 05 be af bb aa be 13 af 89 be ef b7 68 be
       -0.13062783 -0.33346316 -0.26891384 -0.22726415
000100 d3 bc 51 3e 6e 55 ae be ce 03 a1 be 35 67 c1 be
       0.20482187 -0.34049553 -0.31448215 -0.37774053
000110 16 b0 8c 3e ec 63 9a 3e bd 97 b0 3e 21 7d 55 be
       0.27478093 0.3015436 0.34490767 -0.20848514
000120 a5 ba a3 be 60 0a e9 be 8a 6a 85 3d
       -0.31978336 -0.45515728 0.06514461

GRU.weight_hh_l3 f4 [15, 5]
000000 41 1e 20 be ab c3 b2 bd 93 4a 02 3e bc f7 52 3e
       -0.15636541 -0.08728727 0.1272376 0.20602316
000010 f3 9a 2c bd 45 e3 12 3d e9 7e b0 3e 88 4c bf bd
       -0.04213996 0.035861272 0.34471825 -0.09340769
000020 58 75 ab bd ec 54 da 3e c3 f1 a7 3d 05 af 50 3e
       -0.08371991 0.42642915 0.08200409 0.20379265
000030 6e d9 c8 3e f5 0f 95 bc cb 93 b8 be 1a 02 bc bc
       0.39228386 -0.018196085 -0.36050257 -0.02295022
000040 a8 de eb bc c4 8d 9c 3e 2d f2 cf be e8 c0 b1 be
       -0.028792694 0.3057691 -0.40614453 -0.34717488
000050 33 71 ff bd f6 a0 a0 be d9 8a c1 3e fa 9f 8e 3e
       -0.12472763 -0.31372803 0.37801245 0.27856427
000060 dc 50 86 be 21 94 b1 3e e6 cd e3 bd 6d dc ac be
       -0.26233566 0.34683326 -0.111232564 -0.33761922
000070 83 2d 38 3e d0 12 96 3e e4 b4 bf 3e 96 c1 ba 3e
       0.17986111 0.29311228 0.37442696 0.3647582
000080 ab ef 0a be d5 16 ed bd 8c 5b 8c be c7 7f 21 be
       -0.13567989 -0.115766205 -0.27413595 -0.157714
000090 dd c6 cd be 77 cc d6 3e 69 ff b3 3d 40 2d 87 3e
       -0.40190783 0.4195287 0.0878895 0.2640171
0000a0 65 79 0b bd 49 64 2b 3e 47 e0 f3 bd d7 56 cb 3e
       -0.034051318 0.16737475 -0.11908012 0.3971469
0000b0 1f b6 dc be 66 58 0a be 19 fe 3b be 70 ca 2c 3e
       -0.43107697 -0.13510284 -0.1835865 0.16874099
0000c0 c5 28 05 bd a6 f9 e4 3b 50 95 ca 3d 76 91 b6 3e
       -0.032509584 0.006987768 0.0989176 0.35657853
0000d0 7b 37 93 be 9b 41 d2 3e 4d d0 3a be a0 74 a7 3d
       -0.28753266 0.41065678 -0.18243523 0.08176541
0000e0 7d 36 41 be a3 fc 89 3e 76 e6 8e be 92 b6 4f 3e
       -0.18868442 0.2695056 -0.27910203 0.20284489
0000f0 a8 cc 5a be 0f 7d f6 bd 9b c1 e0 3e ff e7 d6 bd
       -0.21367133 -0.12035572 0.4389771 -0.104934685
000100 de 1f ba 3e 36 a1 29 3e 7b ad 8c be 6b 70 ae 3e
       0.36352438 0.16565403 -0.27476105 0.34070143
000110 32 71 65 3e c2 1b cc be 69 f9 21 3d a2 e9 42 be
       0.22406462 -0.39864928 0.039544497 -0.19034436
000120 12 8a 56 be 9b 60 dd be cf 14 da 3e
       -0.20951107 -0.43237767 0.42594

GRU.bias_ih_l3 f4 [15]
000000 ec 6e a1 3e 65 87 9c be 7f 6b 80 3d bf b6 93 3e
       0.3152994 -0.30572048 0.06270503 0.28850362
000010 4f aa 53 be fe 2d a0 3e f1 00 ea bd 70 0d 68 3d
       -0.20670436 0.3128509 -0.11425961 0.05665344
000020 4e ab 51 3e 99 c8 68 3e a5 25 92 be be a2 27 be
       0.20475504 0.22732772 -0.28544345 -0.16370675
000030 24 63 dc 3e 6f 46 e8 3c ec b3 16 be
       0.43044388 0.028353898 -0.14717072

GRU.bias_hh_l3 f4 [15]
000000 c0 12 ba be f3 e6 8d 3e 5e 67 21 3e 76 25 62 be
       -0.3634243 0.27715263 0.15762088 -0.22084603
000010 99 e2 18 3e fe a0 93 3e 84 6d 4d 3e fa 8f 0c 3e
       0.1493019 0.28833765 0.20061308 0.13726798
000020 9c 1b 59 be 6f f8 cf be c6 79 81 3e 24 9a 69 be
       -0.21201938 -0.40619227 0.25288218 -0.22812706
000030 03 e2 d7 3e 4a 08 c1 be f2 04 94 be
       0.4216462 -0.37701637 -0.28910023

GRU.weight_ih_l4 f4 [15, 5]
000000 5c 63 81 be a8 f5 9e 3d 5f 1a 4a 3b 66 83 32 be
       -0.25271118 0.07761699 0.0030838472 -0.17432937
000010 1c 2b 86 3b a1 ee 4a 3e e9 e7 a5 3d d9 0a b1 bc
       0.0040944945 0.19817592 0.08100874 -0.021611618
000020 f0 8a 9c 3e 40 e7 25 3c eb 9f 6b bb 9e 4b d5 3e
       0.3057475 0.010125935 -0.0035953473 0.41659254
000030 25 69 08 be 20 a7 02 3e c8 9b fd bc 9e 4b 17 bd
       -0.1332136 0.12759066 -0.030958071 -0.03693735
000040 b4 03 81 3e 6c 85 5e 3e fc 3e 10 3e b1 86 b0 be
       0.25198138 0.21730584 0.14086527 -0.3447776
000050 d6 30 a3 3e 20 18 b2 3e 80 2e b1 be ca 3b 23 3d
       0.31873196 0.3478403 -0.3460579 0.03985194
000060 df 61 13 be c5 f1 ce be 87 85 fb 3d 67 e5 ed bd
       -0.14392804 -0.4041883 0.12281328 -0.11616021
000070 66 27 90 be 49 ee a7 3e 14 a7 9e 3e 83 15 60 3e
       -0.2815506 0.32798985 0.30986845 0.21883206
000080 85 e7 93 3e 28 b7 ae 3e d0 7b 53 be f1 04 e5 be
       0.28887573 0.34124112 -0.206527 -0.44730332
000090 2f 85 12 3e 4f 52 36 3e 58 f0 d2 3e d5 8a cd 3e
       0.14308618 0.17804836 0.41198993 0.40144983
0000a0 7c b8 27 3d ef b9 5c 3e f8 37 78 3e 6f e0 86 be
       0.040947422 0.21555303 0.242401 -0.26343104
0000b0 79 47 ae 3e 56 64 b3 bd 69 74 b0 3e ab 88 99 be
       0.34038904 -0.08759372 0.34463814 -0.29987082
0000c0 8d 2e 96 3e 33 7b 1b 3d 58 7e 3b 3e 3d a6 c6 bd
       0.2933239 0.03795929 0.18309915 -0.09699676
0000d0 7c 2c 73 be 5b 1c 2b 3e 54 39 4d be 8a dc b1 bd
       -0.23747438 0.16710036 -0.200414 -0.086846426
0000e0 80 f9 4d 3e c6 be 11 3d 68 09 9c be 77 21 7e be
       0.20114708 0.035582326 -0.30475926 -0.24817453
0000f0 51 f8 a3 be 39 1b 97 3e fb c0 9d bd 7d 1b 2e 3d
       -0.32025388 0.29512957 -0.07702824 0.042506684
000100 ef 1d ba be 1b 19 e7 3d b2 cc 60 3e 97 17 49 3e
       -0.36350963 0.11284085 0.21953085 0.19637905
000110 ce 52 96 be fb 18 cf 3e fb 3c 9a 3e d8 0b be 3e
       -0.2936005 0.40448746 0.3012465 0.3711841
000120 31 73 c2 3c 37 ca a3 bd 08 3e c2 be
       0.023736568 -0.07997554 -0.3793795

GRU.weight_hh_l4 f4 [15, 5]
000000 a1 ff 84 3e 74 9a 02 bd cf 8b 00 3e 79 a4 eb 3c
       0.2597628 -0.03188558 0.12553333 0.02876495
000010 f5 a0 db bd 40 ec 2d 3d 90 68 b9 3e 6c 48 d2 be
       -0.107240595 0.042461634 0.36212587 -0.41070879
000020 8b e9 db 3c d6 4c 95 be e4 ca d7 3e ce 35 57 3d
       0.02684476 -0.29160184 0.4214698 0.052541547
000030 e5 77 d5 3e f7 64 6d be 0c 34 d6 3d 81 de 7a be
       0.41693035 -0.23183046 0.10459146 -0.24498941
000040 87 0e ac be c6 bb 9c 3d 54 c0 d1 3e eb d4 25 be
       -0.33604833 0.076530024 0.40967047 -0.16194503
000050 aa 75 7e be 4f 44 8a 3e c8 a2 af 3e 34 a7 e8 be
       -0.24849573 0.2700524 0.3430388 -0.45440066
000060 80 ce 38 be fe cb 55 3d 2b ca b1 3e 75 04 63 be
       -0.18047523 0.052196495 0.34724554 -0.22169669
000070 52 65 db 3e 15 76 fe 3c c8 e5 d4 bd f3 6d 66 be
       0.4285074 0.031062165 -0.1039539 -0.2250288
000080 65 cf 8a 3e b6 59 8c be 1a 0a 21 bd 8b 08 c0 be
       0.27111354 -0.27412194 -0.039316274 -0.37506518
000090 52 00 0f 3e 0a 6b c0 be af 83 46 3e 1a 76 de 3e
       0.13964966 -0.37581664 0.19386171 0.4344948
0000a0 2f 60 85 3d 48 3e 5d 3e 8c d6 64 3e 15 cf cd 3e
       0.06512486 0.2160579 0.22347468 0.40197054
0000b0 6b 12 bc 3b 5a f0 b3 be 57 1b c9 be fd 79 a8 3e
       0.0057395003 -0.3514431 -0.3927867 0.3290557
0000c0 ca e2 af bd ed e3 83 3e 28 5a 90 be 5c db a7 3e
       -0.085881785 0.2575983 -0.28193784 0.32784545
0000d0 c6 78 64 3e 08 33 b6 be 1c 89 c7 3e 7a 37 01 3e
       0.22311696 -0.3558581 0.38971794 0.12618819
0000e0 41 8c 84 3e 7b 96 57 be f9 ba a1 3e fb 1e da 3e
       0.25888255 -0.21053497 0.3158796 0.4260176
0000f0 0d a1 9f be 17 62 b4 be e6 38 de be 6b f8 4a 3e
       -0.3117756 -0.35231087 -0.43402785 0.19821326
000100 57 ae 68 be 6c 4a b7 bd ff c6 ea 3b 73 d6 64 bd
       -0.22722755 -0.08949742 0.0071648355 -0.055868577
000110 53 1f 08 3e 0f a1 d7 3d 5b 64 60 be 31 63 ba 3d
       0.13293199 0.10528766 -0.21913283 0.091009505
000120 12 2e b8 be c7 fe a4 be 7e 3f 97 3e
       -0.3597265 -0.3222563 0.29540628

GRU.bias_ih_l4 f4 [15]
000000 f1 9f 0b 3e 38 fc 83 3c 2e 44 9b be b4 65 87 3e
       0.13635232 0.016111478 -0.30325454 0.2644478
000010 63 7a a4 3e 80 15 4f 3e 80 5d 99 be 79 19 3d bd
       0.32124624 0.20223045 -0.29954147 -0.04616687
000020 96 10 97 3e 70 73 bb be f0 1e a4 be 4e bb cd 3e
       0.29504842 -0.3661151 -0.32054853 0.40181965
000030 1f 70 d8 be bf 81 9f 3e 96 70 89 3e
       -0.42273042 0.31153676 0.2684371

GRU.bias_hh_l4 f4 [15]
000000 c0 48 59 be b9 84 ca be 45 4a 64 be 2c e6 e2 3e
       -0.21219158 -0.39554384 -0.22293957 0.44316232
000010 eb 81 bb be 2a 9b aa be 82 fd c6 3e 9b c9 2a be
       -0.36622557 -0.33321506 0.38865286 -0.16678469
000020 10 0f af bd 45 3f d4 bd 70 ba c6 3e 71 f3 28 bd
       -0.08547795 -0.1036363 0.38814116 -0.04124779
000030 86 6a 65 be 19 9a 87 3e 86 a9 5d be
       -0.22403917 0.26484755 -0.216467

GRU.weight_ih_l5 f4 [15, 5]
000000 b7 8d 9e bd 3a a7 9a be 76 de 45 bd 8a d0 3c be
       -0.07741874 -0.3020571 -0.04830786 -0.18438926
000010 f1 d1 74 3e 9a e8 ba 3d 8e 21 dc be 3b f6 3a be
       0.23908211 0.091263965 -0.4299435 -0.18257992
000020 69 2a 7b be 86 d9 8d be b0 7d 15 3e 34 b5 60 3e
       -0.24527897 -0.2770502 0.14598727 0.21944124
000030 b1 a6 b6 be 86 d9 b0 be cf 9a cd 3e bb f7 95 be
       -0.3567405 -0.34540957 0.40157172 -0.29290566
000040 06 35 a1 3e 3c 05 bb bd 14 a8 cc be 46 33 ce 3e
       0.31485766 -0.09131858 -0.39971983 0.40273494
000050 88 b9 18 be 8c d2 83 3e 49 f0 ce 3e 61 4f 0a 3d
       -0.14914525 0.25746572 0.40417698 0.033767108
000060 91 50 94 be bb 0d be be 8e 66 61 3e 61 b4 91 3e
       -0.28967717 -0.3711985 0.22011778 0.2845793
000070 6d 75 ce be 3f 6e aa 3e 23 a0 13 be d1 24 09 be
       -0.40323964 0.33287236 -0.14416556 -0.1339295
000080 59 0d 7a 3a a9 96 ab be 6d 39 4d be fa 9f a1 3e
       0.0009538732 -0.33513382 -0.20041437 0.31567365
000090 e0 e3 01 3e 08 59 ac be e9 75 92 bc 17 18 da 3e
       0.12684584 -0.33661675 -0.01787849 0.42596504
0000a0 56 c1 b2 be 26 74 23 be f2 4e 09 3e f6 53 96 be
       -0.3491313 -0.15962276 0.13409021 -0.29360932
0000b0 b9 90 6d be ee 8b e0 3d 5c 21 23 be eb 99 84 3e
       -0.23199739 0.109641895 -0.15930694 0.2589868
0000c0 8d 32 8e 3e 7a e3 3e 3e 96 d0 bd be 69 56 01 3e
       0.27772942 0.18641463 -0.370732 0.12630619
0000d0 66 17 bf 3e 60 78 a0 be 0c 98 0c be 57 ed a4 be
       0.3732254 -0.3134184 -0.13729876 -0.32212326
0000e0 4c 95 74 bd 29 15 b2 be e7 a3 cf be c8 fd 40 be
       -0.059712693 -0.3478177 -0.40554735 -0.1884681
0000f0 69 e4 6d be a5 28 c0 bd 08 fd df 3e f6 44 64 3e
       -0.23231663 -0.09382752 0.43747735 0.22291932
000100 d5 57 31 3e d1 07 97 3d a6 e3 a3 3e 40 3f 68 3e
       0.17318662 0.07374538 0.3200962 0.22680378
000110 d3 1e e1 bd b7 4e 9e 3e 6e 67 b3 3c 08 2b 90 bd
       -0.109922074 0.3091943 0.021899905 -0.070394576
000120 0e cf e0 be fc a3 66 be 13 71 52 3e
       -0.4390797 -0.22523493 0.20550947

GRU.weight_hh_l5 f4 [15, 5]
000000 48 f8 43 3e 77 7f a4 3e f2 07 be 3d 78 0a 42 bd
       0.1913768 0.32128498 0.09278859 -0.047373265
000010 a0 94 c9 bd ad 17 38 be e4 db 18 be 39 c4 43 3e
       -0.09842801 -0.17977782 -0.14927632 0.19117822
000020 04 d4 d5 3e 6b d8 69 be bd 07 5b 3e 1f a0 8a be
       0.41763318 -0.22836463 0.2138967 -0.27075288
000030 1b b3 20 bd ff 94 1b 3c d0 74 8c 3c 63 2e cd 3e
       -0.03923331 0.009495973 0.017145544 0.40074453
000040 95 48 95 3e 29 d4 c1 bd 71 76 a1 3e 45 17 d5 bb
       0.29156938 -0.094642945 0.31535676 -0.006503018
000050 e6 fc a0 3e 33 1c b6 3e c6 7d e4 bd ad 8d b9 be
       0.31442946 0.3556839 -0.11156802 -0.36240903
000060 ba df 78 3e 70 86 ab bc cc cc 77 bd 1a 4a 89 3e
       0.24304095 -0.020938128 -0.060498044 0.26814348
000070 5d 70 4f 3d a1 15 77 3e f3 e6 95 be b5 aa 09 3e
       0.050644267 0.24129345 -0.29277763 0.13444026
000080 5b e5 61 3d cc 6f b7 3e 5d 05 95 be 02 ab 04 3e
       0.05515037 0.35827482 -0.29105654 0.1295586
000090 58 7b 79 3e a0 f9 03 3e 0a 6e 17 be 3b 73 ee 3c
       0.24363458 0.12888193 -0.1478807 0.02910768
0000a0 cf 9a b8 be f1 d1 7e be 5d 95 6d 3e 30 45 84 3e
       -0.3605561 -0.24884774 0.23201509 0.25834036
0000b0 80 53 30 be 29 ce 36 be ec 85 57 3e e0 51 0b be
       -0.17219353 -0.17852081 0.21047181 -0.13605452
0000c0 56 33 8c 3d d6 01 b9 3e dd 4b 59 3d 40 f7 b0 3e
       0.06845729 0.36134213 0.053050864 0.34563637
0000d0 88 31 c8 3e 7e dd fd 3d d6 9a 01 3d 2f cd 9c be
       0.3910029 0.12395762 0.031641804 -0.30625293
0000e0 d9 43 90 be 83 22 35 be 23 64 de 3e 09 00 e5 be
       -0.28176764 -0.17688946 0.43435773 -0.4472659
0000f0 68 e0 9b 3c 73 c1 3f be 78 8e 0a 3e 6c 61 b0 3e
       0.019027904 -0.18726139 0.1353091 0.34449327
000100 29 57 93 bd 76 fb 2e bd 9f 50 bc be 0d f5 76 be
       -0.07194359 -0.04272028 -0.3678026 -0.24116917
000110 e4 4c 31 3d 6e 17 5f 3e 6f 43 89 bd 87 56 c9 3e
       0.04328622 0.21786281 -0.06702315 0.39323828
000120 85 7d 13 bd 78 37 95 3e 53 c0 79 be
       -0.036008377 0.29143882 -0.24389772

GRU.bias_ih_l5 f4 [15]
000000 83 e7 6b be 32 fe 76 3e 6e 09 1b 3e 20 66 a9 be
       -0.23037533 0.24120405 0.15140316 -0.33085728
000010 25 99 69 3e ed 09 86 3e ee 7c 8d be 94 0f 16 3e
       0.22812326 0.26179448 -0.27634376 0.1465438
000020 da cb d1 3e 76 25 5f be 2a 71 c7 3d bc f7 5a 3e
       0.4097584 -0.21791634 0.09738381 0.21383566
000030 1e 5a 33 be 9e 80 d8 3e e3 55 cf 3e
       -0.17514846 0.42285627 0.40495214

GRU.bias_hh_l5 f4 [15]
000000 6b 0c ce 3e f7 ab 2f be 14 ba c0 3e 04 bf b5 be
       0.4024385 -0.17155443 0.37641966 -0.35497296
000010 61 22 4b 3e db 0b e8 3e 77 54 b7 39 36 b5 a4 be
       0.19837333 0.45321545 0.0003496741 -0.32169503
000020 49 24 27 3d dc e6 36 3e 5a 74 85 be 66 a8 99 3e
       0.04080609 0.17861503 -0.26065332 0.3001129
000030 16 d8 d6 be 6f 77 4d 3c 41 5e b9 be
       -0.41961735 0.012540682 -0.36204723

GRU.weight_ih_l6 f4 [15, 5]
000000 28 12 8a be 82 3d df 3e 25 92 a7 be 36 c9 95 3e
       -0.26966977 0.43601614 -0.32728687 0.29255074
000010 ca e0 9c 3e ad 99 9d 3e 47 f2 d6 3e 6c 6b cf 3e
       0.3064025 0.30781308 0.41981718 0.40511644
000020 b6 ad 06 bd ec 79 9c bc 24 06 e1 be bf de f9 3d
       -0.032880507 -0.019101106 -0.43949997 0.122006886
000030 50 ef c7 be 21 a4 65 3d bf 4b bd be b9 1c 03 3e
       -0.39049768 0.05606473 -0.36971852 0.12803926
000040 5e 74 3c bd c4 f9 1d be 8b c2 a5 3e 57 e8 b8 3e
       -0.046009414 -0.1542731 0.32374987 0.3611476
000050 b8 67 ae 3e 7c 0d 8c be 87 d7 5b be e0 bf e5 3e
       0.34063506 -0.27354038 -0.21468936 0.44872952
000060 63 26 5a be 84 c4 05 be 56 04 be 3e 3c 67 d3 be
       -0.21303706 -0.13063246 0.37112683 -0.412897
000070 03 38 97 be 5d 0e 9f be d0 54 62 3e 63 d3 bd 3e
       -0.2953492 -0.31065646 0.22102666 0.37075338
000080 71 0a 84 3d 4a f6 35 3e b6 3b 1c be d4 f3 d8 bd
       0.06447304 0.17769733 -0.15257153 -0.105933815
000090 23 8b c1 3e 85 ab 09 be ab 07 8f be 6f d9 52 bd
       0.37801465 -0.13444336 -0.27935538 -0.051476892
0000a0 ed 78 0a be df 57 40 be db 32 8d bd bc e1 99 bd
       -0.13522692 -0.1878352 -0.068944655 -0.075137585
0000b0 75 e1 29 3e 66 02 a9 be ca 93 ab bd 5a e5 ac be
       0.16589911 -0.33009642 -0.08377798 -0.3376873
0000c0 12 57 ab be 70 05 c2 be ce 95 0b be a3 c3 47 3b
       -0.33464867 -0.37894773 -0.13631365 0.0030481599
0000d0 17 c2 58 3e 62 b9 35 3d 5a fe 4b be 95 39 b6 be
       0.2116779 0.044366248 -0.19921246 -0.35590807
0000e0 ac 11 d2 3d 57 b1 6c 3e 4f f2 e7 3d ce 11 8d 3e
       0.10257277 0.23114525 0.113255136 0.27552646
0000f0 18 02 b9 be 83 52 35 bd 99 98 9c be f7 3b 99 3e
       -0.3613441 -0.044268142 -0.30585173 0.29928562
000100 fb 4a c7 3e e1 53 36 be 04 ae a6 be 79 86 16 3e
       0.38924393 -0.17805435 -0.32554638 0.14699735
000110 a9 12 ab bd 45 94 8d 3e ab 98 33 3e de c1 5b 3e
       -0.083531685 0.27652183 0.17538707 0.21460673
000120 35 ac 2e be 2e bc 8b be ec 95 98 bc
       -0.1705788 -0.27292007 -0.018626176

GRU.weight_hh_l6 f4 [15, 5]
000000 a2 72 ac 3e 6f cc df 3e 89 97 58 3e 6a fd 73 3e
       0.33681208 0.43710658 0.21151556 0.23827139
000010 9d 92 7d 3e c7 e2 c4 3e c8 4a d5 3e 7f 8f 0d be
       0.2476296 0.38454267 0.41658616 -0.1382427
000020 58 2f a0 be 2f 58 c1 3d 2b aa e5 3d 03 c2 4e be
       -0.3128612 0.09440648 0.112140976 -0.20191197
000030 3f e4 ad 3e 9e da a8 be fe d9 84 3e 99 84 cd bd
       0.339632 -0.32979292 0.25947565 -0.100350566
000040 02 68 c7 be f8 29 89 3d a6 16 95 be 4e 22 c2 3e
       -0.3894654 0.06697458 -0.29118842 0.37916797
000050 87 8a 5f be cb a7 db be 71 96 79 3e aa cd ce 3e
       -0.21830188 -0.42901453 0.24373795 0.40391284
000060 de 88 56 be b8 89 81 be a5 02 df 3d 03 6d a7 be
       -0.20950648 -0.25300384 0.10889176 -0.32700357
000070 a1 4e 31 be 43 38 d1 3e 3d 8a cd 3e d0 ff 04 bb
       -0.17315151 0.40863237 0.4014453 -0.0020294078
000080 c7 97 50 3d 5d 46 0a 3c a0 ef d7 be b8 20 0d 3e
       0.050925996 0.0084396275 -0.42175007 0.13782012
000090 44 78 99 3e fd b1 e9 be 9c c5 9d be 09 11 8d 3e
       0.29974568 -0.45643607 -0.30814826 0.2755206
0000a0 bb e0 6d be 2b 68 98 3d 6b 63 48 be 9c 82 b4 be
       -0.23230259 0.074417435 -0.19569175 -0.35255897
0000b0 ec 7c 9d 3e 74 73 6f bd cf 79 ee 3c 1d f9 c0 be
       0.3075937 -0.058459714 0.029110817 -0.37690058
0000c0 ef e2 ad be 4c 56 65 3e 0c 2b aa be f8 c5 2d be
       -0.339622 0.22396201 -0.33235967 -0.1697005
0000d0 fd 3a 67 3d d4 d9 91 3e 45 f2 c7 3e c7 fb f9 bd
       0.05645274 0.28486502 0.39052024 -0.12206226
0000e0 6f e2 ae 3e eb 35 5d be 30 36 b4 3e c1 92 a7 3e
       0.3415713 -0.216026 0.35197592 0.32729152
0000f0 da 6a e4 bd 0a 36 76 3d 1d 60 12 3e bb 75 14 be
       -0.11153193 0.06011013 0.14294477 -0.14498036
000100 f0 f8 da be cc 4b 04 3e 34 1a 8a 3e 8c 1a 9c be
       -0.4276805 0.12919539 0.26973116 -0.30489004
000110 ac 2c 9b be 6d d5 45 3d 6f 3c 58 3e 40 89 f3 bd
       -0.3030752 0.04829924 0.21116804 -0.11891413
000120 45 6a 65 3e eb 44 0d 3e 73 7d 92 3e
       0.2240382 0.13795821 0.28611335

GRU.bias_ih_l6 f4 [15]
000000 63 77 da 3d 8a a9 9e 3e 86 c4 94 3e a3 7d 3b be
       0.106673025 0.30988723 0.29056185 -0.18309645
000010 02 dd a3 3e a3 ed c2 3c a6 de 07 3e 1a 7d d7 3e
       0.32004553 0.023794955 0.13268527 0.42087632
000020 2d e2 a5 be 1e fa 91 be 18 05 b5 be f1 84 29 be
       -0.3239912 -0.28511137 -0.3535545 -0.1655462
000030 e7 2d 4e 3e c5 dc af bd a9 29 b8 bd
       0.20134698 -0.0858703 -0.08992321

GRU.bias_hh_l6 f4 [15]
000000 d6 61 5d 3e 0b 38 6d be a8 e7 99 3e 1e d2 5b be
       0.21619353 -0.2316591 0.30059552 -0.21466872
000010 e6 2f 53 3e cf f6 74 be 6a d9 12 3e 0a ca 7e 3d
       0.2062374 -0.23922275 0.1434075 0.0622044
000020 9f fa 30 3d 4c e2 10 3e 5d 2e 77 3e da 50 89 3e
       0.04320776 0.14148825 0.2413878 0.26819497
000030 07 05 22 3e 45 89 7f 3c f3 49 d3 be
       0.1582223 0.015596692 -0.41267356

GRU.weight_ih_l7 f4 [15, 5]
000000 98 59 0a 3d 85 f5 fb 3d 05 34 23 3e 65 b0 29 bd
       0.03377685 0.123026885 0.15937813 -0.04142799
000010 ec ee 8a be 7c 27 81 3e a2 f1 8d be 5a 5f 5c bd
       -0.27135408 0.25225437 -0.27723414 -0.05380187
000020 d8 ca cb 3d 51 d1 32 3e db ab 76 bd ed 83 73 bd
       0.09950799 0.1746266 -0.060222488 -0.059451986
000030 b7 f4 ac 3d 1d c7 80 be 78 01 2d 3e 50 9f 5b 3d
       0.08445113 -0.2515191 0.16895092 0.05361873
000040 62 0e 92 3e 2c f5 b0 3e 4e cd d5 be 9d 8f 49 bd
       0.28526598 0.3456205 -0.41758198 -0.049209226
000050 0c 75 88 be 39 4a 83 3e da a5 c7 3e ee 1a d0 be
       -0.266518 0.25642565 0.38993722 -0.40645546
000060 89 e9 22 be 6f cc cb 3d 4a 34 ba 3e 80 26 ef bd
       -0.15909399 0.09951102 0.36368018 -0.11677265
000070 ab 9c 89 bd b8 e2 11 be 66 d2 b4 be 96 aa e9 bd
       -0.06719335 -0.14246643 -0.3531677 -0.1140949
000080 22 ff a1 be 03 45 9a 3e 47 38 46 3e 91 56 20 bd
       -0.31639963 0.30130777 0.19357406 -0.039145056
000090 84 1a 72 bc 88 27 db 3d f8 5f 17 3e 7c 61 0e 3d
       -0.01477683 0.10700899 0.14782703 0.034760937
0000a0 69 0b 56 be a0 8e 8e 3e f9 a8 25 3e 73 f4 8f be
       -0.2090279 0.2784319 0.16177739 -0.28116187
0000b0 f4 d4 d7 be 59 04 db 3e 3b c5 83 3d 94 53 be be
       -0.42154658 0.42776754 0.06434103 -0.3717314
0000c0 e5 ee 1a 3e c6 4b 87 3e ba 95 70 be a6 2b fc 3d
       0.15130194 0.26424998 -0.23494616 0.12313013
0000d0 d5 ec b7 3e 60 fe 26 be a0 4b 4b 3e b5 d7 31 3d
       0.35922876 -0.16307974 0.19853067 0.043418605
0000e0 98 c6 7f be 66 96 c7 3e c4 a8 d8 3e 9e 4c e4 be
       -0.24978101 0.38981932 0.42316258 -0.44589704
0000f0 26 a1 52 bd 8a 96 a2 be bc e1 bb 3e 21 40 ff bd
       -0.051423214 -0.31755477 0.3669566 -0.124634035
000100 1d 75 e0 be 91 16 e3 be 66 37 8c be d3 4c 52 be
       -0.4383935 -0.44353154 -0.27386016 -0.20537119
000110 99 b4 0c 3e 8a 24 e7 bc 79 31 4c 3b 46 f4 a3 3e
       0.13740768 -0.028215665 0.0031157418 0.32022303
000120 fe b2 7f be 6c 98 bc be da 34 aa be
       -0.24970624 -0.3683504 -0.33243448

GRU.weight_hh_l7 f4 [15, 5]
000000 11 d2 a4 be f4 6c 0a 3e ca 5d 53 be ee 00 ae 3e
       -0.32191518 0.13518125 -0.20641246 0.33985084
000010 07 db b6 3e cf 1f 6d 3d 97 1e 9b be 09 63 b3 bc
       0.3571398 0.057891663 -0.30296776 -0.02189781
000020 d7 ec b0 3e d4 fa dc 3e 1e f8 0d be 74 b4 af 3e
       0.34555694 0.43160117 -0.1386418 0.34317362
000030 8a 7b 04 3e 43 0d 7d be d3 8d ae be 5e 9d a2 be
       0.12937751 -0.2471209 -0.34092578 -0.31760687
000040 e5 1b a7 3d 00 bf 7d be d1 6d a5 3e 87 2f c9 3e
       0.08159617 -0.24779892 0.32310346 0.39294073
000050 f3 a9 0c be 5c 3f 36 3e 57 b2 b0 bc b6 48 56 ba
       -0.13736705 0.17797607 -0.021569414 -0.0008174287
000060 9a ee de 3e 98 1b 85 3e 81 d5 ca 3e 58 db 31 be
       0.43541414 0.25997615 0.39616016 -0.17368829
000070 19 19 3a 3e ed e1 75 bd 0d c5 0b 3e 1e 8e b0 3d
       0.18173636 -0.060029913 0.13649388 0.08620857
000080 f2 9f 2d 3e d3 31 2e 3e 3c dd 3d 3d 42 5d cb bd
       0.16955546 0.17011194 0.046353564 -0.09929897
000090 b8 d5 5a be c0 88 6b bd 1d 67 8e be d5 07 7a 3d
       -0.2137059 -0.05750346 -0.27813044 0.061042625
0000a0 10 49 a4 3e ee bd 48 3e 17 5a 64 be cb 80 dd be
       0.32086992 0.19603702 -0.22299992 -0.43262324
0000b0 dc 72 04 3e 13 a5 87 be 55 17 94 3e 2b 77 3e bd
       0.1293444 -0.2649313 0.2892405 -0.046500366
0000c0 e6 6b 44 3e 3c 52 8f 3e a2 b4 9d be 32 e1 ca 3e
       0.19181785 0.27992427 -0.30801874 0.39624935
0000d0 40 80 e0 3e 94 8c 30 3e 0c b7 f7 3c 31 fb 62 3e
       0.43847847 0.17241126 0.03023865 0.22166134
0000e0 57 96 8c 3e c6 35 db be 3e 61 d5 3d 70 f1 b7 3e
       0.2745845 -0.42814463 0.10418938 0.3592639
0000f0 f5 e3 3c 3d 46 27 e4 bd ca aa 7e 3e fb 0a db be
       0.046115834 -0.11140303 0.24869838 -0.42781815
000100 4f e3 64 3e d4 ad e0 bd f0 e0 5b 3e 92 9d 26 be
       0.22352336 -0.10970655 0.21472526 -0.16271046
000110 40 78 4e 3e 89 c4 af be 15 ed 90 3e c0 38 e4 bd
       0.20163059 -0.34329632 0.2830588 -0.11143637
000120 1d 3e 11 3d 58 51 5d 3d dc d2 e8 bd
       0.035459626 0.054032654 -0.11368343

GRU.bias_ih_l7 f4 [15]
000000 2c de b8 3d ca 99 c5 bd 23 00 b8 bd e4 7d 4d 3d
       0.09026751 -0.096484736 -0.08984401 0.050168887
000010 75 51 9b 3e 57 f5 93 be 02 f0 8f 3e 3e 49 8d 3d
       0.30335584 -0.28898117 0.281128 0.068987355
000020 ed cd 52 bd 26 05 07 be 7c 86 a0 3e 9b 3f ca bd
       -0.051465917 -0.13185558 0.31352603 -0.09875413
000030 5e 0a 6a 3e ec 4b 85 3e 78 a6 9d 3e
       0.22855517 0.26034486 0.30791068

GRU.bias_hh_l7 f4 [15]
000000 bc 91 bf bd 5c cf b1 3e 0b 3d 10 3c d2 91 96 be
       -0.093539685 0.34728515 0.008803616 -0.29408127
000010 b7 a4 0f 3e 51 39 1b 3e 64 f9 d4 3e 6d 04 31 be
       0.14027677 0.15158583 0.4159652 -0.17286845
000020 b2 70 a6 be b4 5d 5d 3e 9c 98 c6 bd 97 13 1b be
       -0.32507855 0.21617776 -0.09697077 -0.15144192
000030 62 53 e1 3e d0 eb 0e be e6 0e d3 be
       0.4400893 -0.13957143 -0.41222304

GRU.weight_ih_l8 f4 [15, 5]
000000 78 ac 84 3e 56 2d b6 3e e8 99 eb bd 29 e6 9d 3e
       0.25912833 0.35581464 -0.11503965 0.3083966
000010 3a c8 f5 3d 65 b9 a3 3d ea 62 b0 3b 18 0a 6c 3e
       0.12001081 0.079943456 0.005382885 0.23050725
000020 58 28 86 bd ed 10 d9 3e 4c 18 b7 3e c8 98 19 3e
       -0.06550664 0.42395726 0.35760725 0.14999688
000030 7e 6f 8a be e8 f2 22 bd eb f8 b7 3e 2e be 0c bd
       -0.27038187 -0.039782435 0.35932097 -0.034361057
000040 0c 7d 01 be 9b 59 17 3e b4 6d 75 be 46 86 6a 3e
       -0.12645358 0.14780276 -0.2396763 0.22902784
000050 3b 5e 6d be f2 33 43 be c3 1d e4 3e 52 3a 61 be
       -0.23180477 -0.19062784 0.44553956 -0.21994904
000060 f9 93 e0 3e 30 a0 47 be e2 36 8d be 1e 11 6c bd
       0.43862894 -0.194947 -0.27580935 -0.05763351
000070 0c b9 7f 3e ef 54 b7 3e 6c 04 41 be 2d fa 9a 3e
       0.24972934 0.35806987 -0.18849343 0.30268994
000080 dd 14 a7 3e c9 99 d6 3e e9 f3 95 be 0a c9 d4 be
       0.32633105 0.41914204 -0.2928765 -0.4155963
000090 ff dd 90 3e 02 5c 17 3d a2 24 24 be 48 c9 a1 be
       0.2829437 0.03695298 -0.160296 -0.31598878
0000a0 f1 2c 5e be af e2 cc bd 81 00 b9 3d bd 6e 0b be
       -0.21696831 -0.10004174 0.09033299 -0.13616462
0000b0 29 1c 7b be 37 65 81 3e 08 8f cc 3e 72 7e bb 3e
       -0.24522461 0.25272533 0.39952874 0.36619908
0000c0 30 f6 14 bd b9 d9 b5 3e 9a 76 76 be 39 12 c7 be
       -0.036367595 0.35517672 -0.2406868 -0.3888109
0000d0 d7 22 dd be 08 ea 37 3d c9 aa c1 be 85 0c 17 be
       -0.43190643 0.044900924 -0.3782561 -0.1475087
0000e0 d2 b5 ad be 7e 40 98 be c4 6f 57 be df 94 22 be
       -0.3392778 -0.29736704 -0.21038729 -0.15877102
0000f0 ff 01 d1 3e eb 2d d9 3e d7 48 ae 3e d7 38 92 3e
       0.40821835 0.42417845 0.34039947 0.2855899
000100 87 bc cd 3e 70 fb 14 3e ae b5 37 3e 2e ca 0c bd
       0.40182897 0.14549041 0.17940399 -0.0343725
000110 43 81 cc be e9 43 0e 3e 4a 71 01 3e 77 cf b8 be
       -0.3994237 0.13893093 0.12640873 -0.36095783
000120 a3 3b cb be d5 ec 50 3e d2 84 ca be
       -0.39693937 0.20402844 -0.3955446

GRU.weight_hh_l8 f4 [15, 5]
000000 ca d7 d0 be 16 fe e3 bc 4e 84 d2 3d e9 59 cd 3d
       -0.40789634 -0.027831119 0.10279141 0.100269146
000010 96 ad 33 be c0 99 17 bd b9 7b a3 be 98 cc 18 3e
       -0.17546687 -0.03701186 -0.3193033 0.14921796
000020 bb 54 19 bd a3 04 cd 3e 63 a4 df be cd d5 5e 3e
       -0.03743432 0.400426 -0.43680105 0.21761246
000030 3c 78 d5 be c4 14 98 be dd ec 15 be 38 d0 a5 3d
       -0.41693294 -0.29703343 -0.14641137 0.08096355
000040 fb 00 34 bc 5b 65 5e be 1f 1d c6 3e f6 47 bd 3e
       -0.010986562 -0.21718352 0.38694093 0.36968964
000050 b7 f0 90 3e 9b 1e 96 bb 53 9a 37 be fa bb d6 3e
       0.2830865 -0.004581285 -0.17929964 0.4194029
000060 c0 6c d7 3e 10 c8 4d be e9 76 a2 be 41 94 98 3e
       0.42075157 -0.20095849 -0.31731346 0.2980061
000070 d1 51 59 be 33 01 05 be c6 01 9f 3e 00 70 85 3d
       -0.21222617 -0.12988739 0.3105604 0.06515503
000080 ef d2 93 3c 1c 1d 69 be 52 94 88 be e1 3b 82 3e
       0.018044917 -0.2276501 -0.2667566 0.2543631
000090 f9 36 98 be 60 56 3b 3e dc 2a 54 be c9 c6 c4 3d
       -0.2972944 0.18294668 -0.20719475 0.09608228
0000a0 da 6c 7c be 21 c7 a9 3d fc 42 59 3d cd fa d5 bd
       -0.24650899 0.08289934 0.053042397 -0.10448227
0000b0 f3 d6 67 3e 81 7a 94 3e eb 49 b6 be 63 9d cd 3e
       0.2264059 0.28999713 -0.3560327 0.4015914
0000c0 72 6b ac 3e ef 85 3f 3e 01 7a 2c 3e b4 ce c2 be
       0.33675724 0.18703435 0.16843416 -0.38048327
0000d0 bf 7b af be 49 c3 ff 3d dd 24 ba bc fe 0f 8f 3e
       -0.34274098 0.124884196 -0.022722656 0.2794189
0000e0 a2 65 c3 3e 8d 75 ba 3e c0 f6 0b 3e 7f 63 64 3e
       0.38163477 0.3641781 0.13668346 0.2230358
0000f0 2e 62 aa be d9 14 8f 3e 4d 80 fd 3d 5f 51 d7 3e
       -0.3327803 0.27945593 0.12377987 0.4205427
000100 a4 27 c1 3e 18 56 46 bd c5 27 2a be 6f a0 6c 3d
       0.37725556 -0.04842195 -0.16616733 0.05777019
000110 f7 1f 22 be 2c 16 ab 3b 83 01 8e 3d 68 ef 83 3d
       -0.15832506 0.005221149 0.06933882 0.064421475
000120 cf 22 ac be f2 f0 e2 3d 26 f7 ae 3e
       -0.33620307 0.11081113 0.34172934

GRU.bias_ih_l8 f4 [15]
000000 6c 51 ae be 0a 7c 98 be 54 b2 df 3e 67 dd 09 bb
       -0.34046495 -0.29782134 0.4369074 -0.0021036507
000010 37 62 a5 be 42 d9 4e 3e 8c 2c 4a be fc b2 a8 3d
       -0.32301494 0.20200065 -0.19743556 0.082372636
000020 da 9c 84 be ca a1 2e bd 50 8b 74 be a3 8f 04 3e
       -0.25900918 -0.042634763 -0.23881269 0.12945418
000030 28 83 94 bd 44 72 9f 3e 1d d2 bb be
       -0.072515786 0.31141865 -0.3668374

GRU.bias_hh_l8 f4 [15]
000000 c4 5c a8 be 3e 6b 11 3e a6 91 5c 3e 37 94 5e 3e
       -0.32883275 0.14201066 0.21539935 0.21736227
000010 38 db 83 3e 62 a5 f9 bb 23 de b2 3e 22 88 a6 be
       0.25753188 -0.007618592 0.34935102 -0.32525736
000020 d1 94 0e be 86 40 d0 3e 49 7c 8e bd b2 b2 43 3e
       -0.13923956 0.40674227 -0.06957299 0.19111136
000030 59 37 3d 3e 80 87 b3 3e 29 6b 67 3e
       0.18478145 0.35064316 0.22599472

GRU.weight_ih_l9 f4 [15, 5]
000000 75 6f de 3e 80 e4 5b be be de 7c be 31 39 bb 3d
       0.4344441 -0.21473885 -0.24694344 0.09141768
000010 21 52 6e bd 0d 13 2d be 43 ca 87 be e8 d0 43 3e
       -0.058183793 -0.16901799 -0.265215 0.1912266
000020 21 3f 88 bd 6b 07 88 be 01 63 7e 3e 76 01 6b 3e
       -0.06652666 -0.2656816 0.24842454 0.22949776
000030 10 4d 25 be 59 cd d1 3e 5e d0 f5 bc 78 f7 20 3e
       -0.16142678 0.4097698 -0.030006584 0.15719402
000040 60 b5 08 be 8f 19 c5 3e b0 dd ba 3c 2f 8b e2 3e
       -0.13350439 0.38496062 0.022810787 0.44246814
000050 b2 19 81 be 28 65 21 be 8e 0d b1 be 9c 21 04 be
       -0.25214916 -0.15761244 -0.34580654 -0.12903446
000060 8d 95 21 3e b1 45 0e be 76 31 83 be b5 e4 db 3c
       0.15779705 -0.13893773 -0.25623673 0.026842454
000070 e1 e6 8a 3e 85 94 16 3e 63 63 a5 bb bd 08 13 3e
       0.27129272 0.14705093 -0.005047248 0.14358802
000080 63 68 a9 3e 1a 6e c5 bc 45 51 4a 3e b7 ae 64 be
       0.33087453 -0.024100352 0.19757564 -0.22332273
000090 0a 10 89 3e ca 9d 96 be a2 64 a2 be 30 55 8e be
       0.2677005 -0.29417259 -0.31717402 -0.27799368
0000a0 82 bd 2f be bf ad e8 3e e6 1c 42 3e 57 fe d1 be
       -0.17162135 0.45445058 0.18956336 -0.41014358
0000b0 cf 41 b8 3e 2b 66 ba bd 11 9b 66 3e 13 12 3b be
       0.35987708 -0.09101518 0.2252009 -0.18268614
0000c0 1b 31 57 be c7 6f 76 be 16 2f 95 3e 5c 48 b7 be
       -0.21014826 -0.24066077 0.29137486 -0.35797393
0000d0 42 57 63 3e 2c 8e 9c 3e c6 0a 51 3e ed de a7 3e
       0.22201255 0.3057722 0.20414266 0.32787266
0000e0 8e 96 92 be a7 21 8a be f1 ba d5 be 26 69 8e be
       -0.2863049 -0.269788 -0.41744187 -0.27814597
0000f0 62 a3 b4 3e 48 68 f2 3d 49 69 a4 3e 78 f6 a0 3e
       0.352809 0.11836296 0.32111576 0.3143804
000100 53 68 47 be 3d 75 e3 be 27 4e c0 be a4 e4 90 be
       -0.1947339 -0.44425383 -0.37559626 -0.2829944
000110 ec cf 70 be 93 4d 8f be f0 41 95 be df 68 8b 3d
       -0.23516816 -0.27988872 -0.2915187 0.06807112
000120 0a c5 3c 3e 7a 69 a0 bd 0c 81 d3 be
       0.1843454 -0.07832618 -0.41309392

GRU.weight_hh_l9 f4 [15, 5]
000000 cf 92 ea be 3e a2 32 be c8 ce 09 3e b4 a8 73 be
       -0.4581513 -0.17444703 0.13457787 -0.23794824
000010 f1 3f 09 be 69 2d be 3d a6 1b c8 3e 06 fe 7b 3c
       -0.13403298 0.09286005 0.39083594 0.015380388
000020 49 82 82 bc 94 86 6d be a4 31 95 3e 6a ba 80 be
       -0.015931265 -0.23195869 0.29139435 -0.25142223
000030 54 79 8c 3c 6e 75 7e be aa 3e a1 3e b3 d6 b4 3e
       0.017147698 -0.24849483 0.3149312 0.35320053
000040 72 70 96 bb d4 0d 82 be ff 6b 10 be 6f ba 0a 3e
       -0.0045910412 -0.25401175 -0.14103697 0.13547681
000050 f4 ad b5 bd 4c e4 6f bd ac 10 0f be 7e 23 c4 3c
       -0.088710696 -0.05856733 -0.13971204 0.023942705
000060 87 97 2a bc 1b dd 9c 3e e4 6a ab 3e 2c 5c cb be
       -0.0104121035 0.3063744 0.3347999 -0.3971876
000070 95 12 dd bc c4 e5 50 3e 57 42 d4 be 81 57 cc 3e
       -0.0269864 0.20400149 -0.41456863 0.3991051
000080 d7 8d d5 3e fa 0f 4d bd e1 3a ba 3e a9 65 e1 bd
       0.41709778 -0.050064065 0.36373046 -0.11005718
000090 7c 40 a5 3d a9 8c 06 3d 94 37 ad bd b2 01 1f 3e
       0.0806894 0.032848988 -0.08457866 0.1552799
0000a0 2b ee 75 3e 52 c1 86 be c3 1e cb be 86 e3 c2 be
       0.24016635 -0.26319367 -0.39671907 -0.38064212
0000b0 04 c4 21 bd 4e 9e d8 be ea 32 35 be 15 b6 c9 be
       -0.039493576 -0.42308277 -0.17695203 -0.3939673
0000c0 ce 61 8a be 8f c9 e5 be 88 76 d9 3e 6a 16 ca be
       -0.27027744 -0.4488034 0.42473245 -0.39470226
0000d0 bc b8 88 bd e9 cf 14 3d 84 7d ba 3e 38 0f e0 be
       -0.0667586 0.03633109 0.36423886 -0.4376161
0000e0 5c 3d 51 be 4c 25 25 be 78 05 8f 3e 0b a6 9f 3e
       -0.20433563 -0.16127509 0.2793386 0.31181368
0000f0 87 47 f3 bd b0 9f 03 3d ce 06 22 3e f3 68 c2 3e
       -0.11878877 0.03213471 0.15822908 0.37970695
000100 dd 9a 49 be c8 62 6c be 8b a8 68 be 55 46 83 be
       -0.19687982 -0.23084557 -0.22720544 -0.25639597
000110 e2 30 9a 3e 74 3c 9e 3e fa 53 40 3e 56 95 ce bc
       0.3011542 0.30905497 0.18782035 -0.025217693
000120 e1 45 b3 be ac 2f 8d be 27 8b ac be
       -0.3501425 -0.27575433 -0.33699915

GRU.bias_ih_l9 f4 [15]
000000 60 42 05 be f6 ae ae 3e 8d 23 c3 be ed 0f 8b 3e
       -0.13013601 0.3411786 -0.3811306 0.27160588
000010 af 17 a5 bd 26 ef 9f 3e 44 13 96 be 30 3e 7c bd
       -0.08061158 0.31237143 -0.29311574 -0.061582744
000020 47 22 bd 3e 8d 6b b8 3c 90 3b d0 be ee 2a ea 3e
       0.36940214 0.022512222 -0.40670443 0.45735878
000030 72 9b f3 3c 1c c5 99 be 78 81 57 be
       0.029737208 -0.30033195 -0.21045482

GRU.bias_hh_l9 f4 [15]
000000 db e7 c3 be 2a e1 8a be e7 d2 b0 be fb ec 9e be
       -0.3826283 -0.27124912 -0.34535906 -0.31040177
000010 63 9b 95 bd 0a 9a c7 3c 9d e0 c3 3e d3 80 78 be
       -0.07305028 0.024365444 0.38257304 -0.24267893
000020 d7 78 ad 3e 78 19 cf be ea b3 80 3e 61 d5 2e 3e
       0.33881256 -0.4044912 0.25137264 0.17073585
000030 53 ac 37 be 0d 6a 25 be a3 24 bd 3e
       -0.1793683 -0.16153736 0.36942014
