aa2_models/model7.pt (torch_old, 4673 bytes, 21 tensors)

lin1.weight f4 [1, 7]
0	0xbe3ec7b8	-0.18630874
1	0xbe5d1f9f	-0.21594094
2	0x40b60ec3	5.689302
3	0x40c7d2e3	6.244493
4	0x3f75ce3f	0.9601783
5	0x3890c000	6.902218e-05
6	0xbf530e50	-0.82443714

GRU.weight_ih_l0 f4 [3, 1]
0	0x40c8ea98	6.278637
1	0xc0079c49	-2.118914
2	0xc0a9d599	-5.307324

GRU.weight_hh_l0 f4 [3, 1]
0	0x40d4b911	6.647591
1	0x40d421ec	6.629141
2	0xc0bd28e4	-5.9112415

GRU.bias_ih_l0 f4 [3]
0	0xc0cd5bae	-6.4174414
1	0xc0c7f090	-6.2481155
2	0x40b149f0	5.5402756

GRU.bias_hh_l0 f4 [3]
0	0xc0aa9e88	-5.331852
1	0xc0da0b88	-6.8139076
2	0x40ad1755	5.409098

lin3.weight f4 [5, 1]
0	0x40ada315	5.4261575
1	0xc0775831	-3.8647578
2	0xc091da1f	-4.557876
3	0xc0af383f	-5.475616
4	0xc0a5971b	-5.1746955

lin3.bias f4 [5]
0	0x40fcd6f9	7.901242
1	0xc0946962	-4.637864
2	0xc0fa07f9	-7.813473
3	0xc0ca800a	-6.32813
4	0xc0ecaa2a	-7.395772

exp_avg f4 [1, 7]
0	0x00000000	0.0
1	0x00000000	0.0
2	0xb3d16021	-9.749807e-08
3	0xb3d805a7	-1.0059312e-07
4	0x2e25ff26	3.7743274e-11
5	0x00000000	0.0
6	0x2fb1c88b	3.2338607e-10

exp_avg_sq f4 [1, 7]
0	0x00000000	0.0
1	0x00000000	0.0
2	0x37090002	8.165838e-06
3	0x37114c2e	8.6604105e-06
4	0x2f8a3a4f	2.5143485e-10
5	0x00000000	0.0
6	0x3027e344	6.107721e-10

exp_avg f4 [3, 1]
0	0xb24392e5	-1.1383894e-08
1	0xb220103b	-9.316916e-09
2	0x33726c27	5.644338e-08

exp_avg_sq f4 [3, 1]
0	0x33fe3352	1.1837132e-07
1	0x34188701	1.4205217e-07
2	0x36ad79a3	5.169962e-06

exp_avg f4 [3, 1]
0	0xb268d937	-1.3553566e-08
1	0xb202ec6a	-7.62075e-09
2	0x332f784a	4.0854765e-08

exp_avg_sq f4 [3, 1]
0	0x341edb62	1.4794708e-07
1	0x32682b67	1.3514046e-08
2	0x35afde86	1.3103279e-06

exp_avg f4 [3]
0	0x3336829b	4.2493962e-08
1	0x3219cc4a	8.952222e-09
2	0xb48bc45b	-2.6033635e-07

exp_avg_sq f4 [3]
0	0x35d08773	1.5536629e-06
1	0x32c061c6	2.2396204e-08
2	0x38875c89	6.454538e-05

exp_avg f4 [3]
0	0x3336829b	4.2493962e-08
1	0x3219cc4a	8.952222e-09
2	0xb40ae174	-1.2934271e-07

exp_avg_sq f4 [3]
0	0x35d08773	1.5536629e-06
1	0x32c061c6	2.2396204e-08
2	0x37737408	1.4510944e-05

exp_avg f4 [5, 1]
0	0x39e8b354	0.00044384098
1	0xb80702ce	-3.218912e-05
2	0x393cfb69	0.00018022735
3	0xba3eac63	-0.00072736124
4	0x390e109e	0.00013548366

exp_avg_sq f4 [5, 1]
0	0x3a15387a	0.00056923146
1	0x37e84abd	2.7691358e-05
2	0x390cf0c5	0.00013441134
3	0x36ec1c56	7.036647e-06
4	0x386a39ef	5.5843902e-05

exp_avg f4 [5]
0	0xb9ea1a0e	-0.0004465137
1	0x3808a83f	3.2581618e-05
2	0xb93b9ee5	-0.00017892903
3	0x3a3eb500	0.0007274896
4	0xb90d2b4d	-0.00013462939

exp_avg_sq f4 [5]
0	0x3a97a66d	0.0011569984
1	0x38a8baf0	8.045684e-05
2	0x39652ecf	0.0002185658
3	0x370b237b	8.293307e-06
4	0x38e1c205	0.00010764975
