aa2_models/model3.pt (torch_old, 9377 bytes, 42 tensors)

lin1.weight f4 [3, 7]
0	0xbf1c4759	-0.6104637
1	0xbeaa0076	-0.33203477
2	0xbfa364a8	-1.2765093
3	0xbf4974ee	-0.78694046
4	0x3f33d1df	0.7024211
5	0x3e8d161d	0.27555934
6	0x3f8bf69a	1.0934632
7	0xbed1b2e7	-0.40956804
8	0x3e36a84f	0.17837642
9	0xbeb27ba9	-0.3485997
10	0x3e087d41	0.1332903
11	0x3eb3d7e0	0.35125637
12	0x3e78b46a	0.24287573
13	0x3e7e17f6	0.24813828
14	0xbe9be830	-0.30450583
15	0x3e1fbfb5	0.15600474
16	0x3f0050dc	0.5012338
17	0xbf73f863	-0.95300883
18	0xbde16e0b	-0.11007317
19	0xbea09f51	-0.3137155
20	0xbf286f86	-0.6579517

lin1.bias f4 [3]
0	0xbe16d7d5	-0.14730771
1	0x3ee2431b	0.44191822
2	0x3f3136ec	0.6922443

lin2.weight f4 [3, 3]
0	0xbfb898f9	-1.4421684
1	0xbe5f530e	-0.21809027
2	0x3e9026bf	0.2815456
3	0x3e1be2b6	0.15223202
4	0xbd2626c5	-0.040564317
5	0x3e628f2e	0.22124931
6	0xbf0239d9	-0.5086952
7	0xbf049388	-0.51787615
8	0x3f2a03a2	0.66411793

lin2.bias f4 [3]
0	0x3fb7f0b7	1.4370335
1	0x3f622875	0.8834298
2	0x3f504495	0.8135465

GRU.weight_ih_l0 f4 [9, 3]
0	0x3f7f1017	0.99633926
1	0xbeea0eae	-0.45714325
2	0xbfce8573	-1.6134475
3	0xbedf99e8	-0.4367211
4	0x3f70e3f9	0.9409786
5	0x3f8e86ae	1.1134851
6	0xbd63cf85	-0.055617828
7	0x3fba255c	1.4542651
8	0x3efd5735	0.49480596
9	0xbfb710e9	-1.4302036
10	0xbe5a5f5f	-0.21325444
11	0xbf1fda52	-0.62442505
12	0x3d93d0a2	0.07217528
13	0xbf8fe044	-1.1240315
14	0xbf865653	-1.0495094
15	0x3e355def	0.17711614
16	0xbf0ce044	-0.550297
17	0xbfaa742f	-1.3316706
18	0xbfc94a8c	-1.5725875
19	0xbd907eab	-0.0705541
20	0x3ede69a6	0.43439978
21	0x3fbc832f	1.4727534
22	0x3f5d6a9f	0.86490816
23	0x3f2f4937	0.6847109
24	0xbf4c52a9	-0.7981363
25	0x3e3cc3d7	0.18434082
26	0xbf3453c5	-0.7044032

GRU.weight_hh_l0 f4 [9, 3]
0	0xbfc8838a	-1.5665143
1	0xbfdd21f6	-1.7275989
2	0x3fa964cc	1.3233886
3	0x3aa2fbde	0.0012434681
4	0x3f85ba8b	1.0447553
5	0xbf89622f	-1.0733088
6	0xbdae8683	-0.0852175
7	0x3f9aa1bf	1.2080611
8	0xbf9988ff	-1.1994933
9	0xbcf97ee2	-0.03045601
10	0xbf7c6757	-0.98595184
11	0xbde10a07	-0.10988241
12	0xbf0367a9	-0.5133005
13	0x3f7ef8aa	0.9959818
14	0x3c8c4728	0.017123774
15	0xbf0093f5	-0.50225765
16	0xbf30c1a0	-0.6904545
17	0xbf08174c	-0.5316055
18	0x3e8a4177	0.2700307
19	0x3eda675f	0.4265699
20	0xbf3ba7f2	-0.7330314
21	0xbfdcb732	-1.7243407
22	0xbd855b8d	-0.065116026
23	0x3ebbb99f	0.36665055
24	0x3f870186	1.054734
25	0x3f004d06	0.5011753
26	0xbf092a7c	-0.5358045

GRU.bias_ih_l0 f4 [9]
0	0x3dbacba0	0.0912087
1	0xbe6510df	-0.22369717
2	0x3e41c9c9	0.18924631
3	0xbf8c2141	-1.0947648
4	0x3f5f1175	0.8713601
5	0xbf3ed7b2	-0.74547875
6	0xbfef3db7	-1.8690709
7	0x3f67bb39	0.90520054
8	0xbf334eb6	-0.7004198

GRU.bias_hh_l0 f4 [9]
0	0x3f10593c	0.5638616
1	0x3e23012a	0.15918413
2	0x3f83a7f7	1.0285634
3	0xbf045441	-0.5169106
4	0x3f3d6267	0.73978275
5	0xbf88b173	-1.0679153
6	0xbfd0e8f9	-1.6321098
7	0x3f5d3efb	0.86424226
8	0xbfc3f2b1	-1.5308439

GRU.weight_ih_l1 f4 [9, 3]
0	0xbd80c5d3	-0.06287732
1	0x3ec6407b	0.3872107
2	0xbe606ce2	-0.21916535
3	0x3f3b5b2e	0.73186004
4	0x3f39e20a	0.72610533
5	0x3e5fd204	0.21857458
6	0xbe2f86ce	-0.17141268
7	0xbd811f6a	-0.0630482
8	0x3f248bc6	0.6427578
9	0xbfe1f45e	-1.76527
10	0x3fa85bd3	1.3153023
11	0xbf66b1d1	-0.90115076
12	0xbfaff916	-1.374789
13	0x3f4cf420	0.80060005
14	0x3f1e089a	0.61731875
15	0xbf4b7f65	-0.79491264
16	0x3f0dc1e8	0.55374
17	0xbff4dcc2	-1.912987
18	0x3eff005a	0.49804956
19	0xbf9cd7ba	-1.2253335
20	0x3fc329aa	1.524709
21	0xbf0953ef	-0.536437
22	0xbfadbb52	-1.3572791
23	0x3f20bc00	0.62786865
24	0x3f302835	0.6881135
25	0xbedfd9e9	-0.4372094
26	0x3d668230	0.0562765

GRU.weight_hh_l1 f4 [9, 3]
0	0x3fcdf7cf	1.609125
1	0x3ec16deb	0.37779173
2	0xbee72d71	-0.45151857
3	0x3fecd15d	1.8501393
4	0x3efcc394	0.49367964
5	0x3f9ab87c	1.208755
6	0xbf9a022f	-1.2031916
7	0xbf82e48d	-1.0225998
8	0xbf3d21c6	-0.7387966
9	0xbeda3d2d	-0.42624798
10	0x3fcd98b4	1.6062226
11	0x3f1f727c	0.62284064
12	0xbf42c40a	-0.7608038
13	0xbf0729da	-0.52798235
14	0xc01b5665	-2.427148
15	0x3e8abaf2	0.27095753
16	0x3f764a75	0.9620736
17	0x3e95cf83	0.2925988
18	0x3e82e707	0.25566885
19	0xbeec29a3	-0.46125516
20	0x3e8fa713	0.28057155
21	0x3f0ff4fe	0.56233203
22	0xbe99865d	-0.29985324
23	0xbf0296e3	-0.51011485
24	0x3f917d01	1.1366273
25	0x3fa18fd9	1.2622024
26	0x3f8a9770	1.0827465

GRU.bias_ih_l1 f4 [9]
0	0xbf73b302	-0.9519502
1	0xbf514f04	-0.81761193
2	0x3f8796fe	1.0592954
3	0x3f19f88d	0.60144883
4	0x3fdee973	1.7414993
5	0x3edef891	0.43549016
6	0xbf2951b8	-0.6614032
7	0x3e0d3582	0.13789943
8	0xbff8a838	-1.9426336

GRU.bias_hh_l1 f4 [9]
0	0xbda63ff3	-0.08117666
1	0xbf14cd08	-0.5812535
2	0x3f9dab8e	1.2317979
3	0x3f06282f	0.52405065
4	0x3fd80ea4	1.6879468
5	0x3f824002	1.0175784
6	0xbf2588f8	-0.6466212
7	0x3ef5338a	0.47890884
8	0xbfe03d36	-1.751868

lin3.weight f4 [5, 3]
0	0xbfb538de	-1.415798
1	0xbee75338	-0.45180678
2	0xbfe00bb8	-1.7503576
3	0x3f3c4cd5	0.73554736
4	0x3f9d14e4	1.2272
5	0x3f69bb2e	0.9130124
6	0x4009ddb9	2.1541579
7	0x3ec76875	0.38946882
8	0x400c64d1	2.1936533
9	0x3f46310b	0.77418584
10	0x3f651251	0.89481074
11	0x3f6a0f71	0.9142981
12	0x3fe3a37b	1.7784265
13	0x3f0550d4	0.5207646
14	0x3f864c57	1.0492047

lin3.bias f4 [5]
0	0x3fccb4d7	1.5992688
1	0xbf4f8669	-0.8106447
2	0xbff356be	-1.9010847
3	0xbf157ca5	-0.5839332
4	0xc0028511	-2.0393717

exp_avg f4 [3, 7]
0	0x280ffe83	7.993283e-15
1	0xa08c31fa	-2.3749994e-19
2	0xb3aeddee	-8.142875e-08
3	0xb3946fba	-6.91211e-08
4	0xb474b2fd	-2.2789386e-07
5	0x00000000	0.0
6	0xb1b39399	-5.2263656e-09
7	0x28b10406	1.9652692e-14
8	0x206138f6	1.9077088e-19
9	0x349f5a4e	2.9681763e-07
10	0x340c0e24	1.304366e-07
11	0x342d329e	1.6130295e-07
12	0x00000000	0.0
13	0x34c097d4	3.5873256e-07
14	0x28576d2a	1.1958569e-14
15	0xa12daaa2	-5.884051e-19
16	0xb4d964aa	-4.0492642e-07
17	0xb43f874f	-1.7837486e-07
18	0xb46ee0aa	-2.224721e-07
19	0x00000000	0.0
20	0xb502d306	-4.8735853e-07

exp_avg_sq f4 [3, 7]
0	0x27c735ec	5.5292058e-15
1	0x18bcd472	4.8811376e-24
2	0x34ddfdf0	4.1349222e-07
3	0x344942e7	1.8743923e-07
4	0x33f779b4	1.15239715e-07
5	0x00000000	0.0
6	0x33b8d8dc	8.607614e-08
7	0x291687c7	3.342446e-14
8	0x1873abcf	3.1493755e-24
9	0x3673e39b	3.6342306e-06
10	0x34b1268b	3.2996863e-07
11	0x31793df2	3.626948e-09
12	0x00000000	0.0
13	0x3192a1f8	4.267573e-09
14	0x285efb35	1.2377947e-14
15	0x1a10e1f3	2.9961022e-23
16	0x363d8f73	2.8246693e-06
17	0x34117848	1.3547935e-07
18	0x33ed3812	1.10463716e-07
19	0x00000000	0.0
20	0x33e3efa5	1.0614102e-07

exp_avg f4 [3]
0	0xb7c5a9b4	-2.3563254e-05
1	0xb68319ae	-3.9070937e-06
2	0x36a46ff2	4.900613e-06

exp_avg_sq f4 [3]
0	0x34f94ee8	4.6437276e-07
1	0x35958db5	1.1142607e-06
2	0x372abe5a	1.0177109e-05

exp_avg f4 [3, 3]
0	0xb6220686	-2.4143678e-06
1	0x36edf7a4	7.0919796e-06
2	0x3734aeec	1.0769563e-05
3	0x3435a983	1.6918607e-07
4	0xb50e57ac	-5.30267e-07
5	0xb530cc4e	-6.586241e-07
6	0xb46a9780	-2.1848064e-07
7	0x34962eb8	2.797367e-07
8	0x35a42822	1.2230632e-06

exp_avg_sq f4 [3, 3]
0	0x369353c5	4.3906934e-06
1	0x366c288b	3.519034e-06
2	0x37118f84	8.676088e-06
3	0x368f2965	4.266551e-06
4	0x367b88a9	3.7481461e-06
5	0x366fe68c	3.5747971e-06
6	0x37028386	7.7792265e-06
7	0x36844ddb	3.94297e-06
8	0x37521d48	1.2523793e-05

exp_avg f4 [3]
0	0x378509d5	1.5859414e-05
1	0xb5972f5d	-1.1264161e-06
2	0x3585bf56	9.964958e-07

exp_avg_sq f4 [3]
0	0x36922a48	4.3560613e-06
1	0x368d38e7	4.2087518e-06
2	0x36cc72eb	6.093052e-06

exp_avg f4 [9, 3]
0	0x35b177f3	1.3222437e-06
1	0x354c673d	7.6146154e-07
2	0x3565e0f9	8.5636526e-07
3	0x30b7d04d	1.3374205e-09
4	0x30339fa3	6.534668e-10
5	0x3039fd53	6.7662603e-10
6	0x33a85d18	7.840043e-08
7	0x332bf17b	4.0033665e-08
8	0x336abd7f	5.4654716e-08
9	0xb3ec8e1b	-1.1015455e-07
10	0xb291042c	-1.6882119e-08
11	0xb468d8d0	-2.168556e-07
12	0x31094004	1.9972513e-09
13	0x305b4146	7.9764495e-10
14	0xafb72da5	-3.3319938e-10
15	0x333f87c9	4.459415e-08
16	0xb1295915	-2.4643374e-09
17	0xb36d68b2	-5.5276082e-08
18	0xb7301510	-1.04953215e-05
19	0xb6c83976	-5.967154e-06
20	0xb6d8e426	-6.4638616e-06
21	0x32aa1d9e	1.9804073e-08
22	0x323a3974	1.0839688e-08
23	0x324cf94f	1.1931049e-08
24	0xb74cc91e	-1.2206174e-05
25	0xb6e6ecfd	-6.882123e-06
26	0xb702a7f9	-7.787713e-06

exp_avg_sq f4 [9, 3]
0	0x3684187b	3.9367565e-06
1	0x36f50048	7.3016017e-06
2	0x370203fb	7.749531e-06
3	0x31c22458	5.650275e-09
4	0x31fb163d	7.3075896e-09
5	0x320fd54f	8.372196e-09
6	0x30a8fd8d	1.2295672e-09
7	0x31082b5d	1.9815254e-09
8	0x3161271b	3.2764038e-09
9	0x31f8000e	7.217756e-09
10	0x30d7498d	1.5664213e-09
11	0x31c5ddf3	5.7586873e-09
12	0x36ad3b0a	5.162675e-06
13	0x36290b39	2.5189495e-06
14	0x35213a7a	6.006227e-07
15	0x348f0b7e	2.6644187e-07
16	0x3497ba0d	2.8261312e-07
17	0x34d4c5b5	3.9631928e-07
18	0x38223013	3.8668582e-05
19	0x38935ff1	7.027377e-05
20	0x389cbbc2	7.473632e-05
21	0x358d5a37	1.0531575e-06
22	0x35acc84a	1.287329e-06
23	0x34d3f7c1	3.9482077e-07
24	0x371956cd	9.1397205e-06
25	0x36ccaeaa	6.1000073e-06
26	0x353d79f8	7.0585475e-07

exp_avg f4 [9, 3]
0	0xb544df1b	-7.334035e-07
1	0x35495e77	7.50158e-07
2	0xb5494b74	-7.4988134e-07
3	0xb04784cb	-7.258449e-10
4	0x304118db	7.024831e-10
5	0xb0434955	-7.10448e-10
6	0xb32015aa	-3.7272606e-08
7	0x33202eb0	3.7295365e-08
8	0xb3202137	-3.728311e-08
9	0xb3302faf	-4.102156e-08
10	0x33309eec	4.1122732e-08
11	0xb3309c83	-4.112054e-08
12	0xb0b3f518	-1.3093624e-09
13	0x30b2d132	1.3010661e-09
14	0xb0b485e8	-1.3134782e-09
15	0xb2e98b4f	-2.718812e-08
16	0x32e9939c	2.7191895e-08
17	0xb2e989a2	-2.7187358e-08
18	0x35b35fb1	1.3364389e-06
19	0xb5aeb12f	-1.3015577e-06
20	0x35aea14e	1.3010956e-06
21	0xb235400f	-1.0550152e-08
22	0x323bba9c	1.0927263e-08
23	0xb23adafa	-1.0876414e-08
24	0x36e719a9	6.8873237e-06
25	0xb6e72fb0	-6.889888e-06
26	0x36e71a42	6.8873933e-06

exp_avg_sq f4 [9, 3]
0	0x35656859	8.5460994e-07
1	0x3579c6fb	9.3049283e-07
2	0x3577d986	9.233121e-07
3	0x3313b571	3.4391125e-08
4	0x334eb68c	4.8129138e-08
5	0x32bc886b	2.1948116e-08
6	0x31c45c4e	5.7148446e-09
7	0x30e8ce88	1.6938921e-09
8	0x2fe53a1c	4.1696147e-10
9	0x2fbd780e	3.4464204e-10
10	0x2f248911	1.4964409e-10
11	0x2f8df852	2.5824193e-10
12	0x3179f8a8	3.6375614e-09
13	0x316e743c	3.469963e-09
14	0x3132f136	2.6039522e-09
15	0x302c9729	6.2788047e-10
16	0x2feec40f	4.3431256e-10
17	0x3031963c	6.460572e-10
18	0x36a3e4be	4.8844076e-06
19	0x36c06e8b	5.734915e-06
20	0x36bba6a9	5.592436e-06
21	0x3577abc5	9.226463e-07
22	0x34d89847	4.0343932e-07
23	0x3465eb2e	2.1412845e-07
24	0x33867b18	6.262252e-08
25	0x33195f39	3.5709693e-08
26	0x32ee56de	2.774635e-08

exp_avg f4 [9]
0	0x35495ac2	7.5010405e-07
1	0x304b58ca	7.3977147e-10
2	0x33201eaa	3.7280792e-08
3	0x3330a0f7	4.112459e-08
4	0x30b1ca68	1.2935972e-09
5	0x32e9946b	2.7192263e-08
6	0xb6cd116e	-6.111505e-06
7	0x3232835b	1.039083e-08
8	0xb6e7f583	-6.912918e-06

exp_avg_sq f4 [9]
0	0x357db0c4	9.450707e-07
1	0x33c9a76b	9.390245e-08
2	0x31e924c6	6.785373e-09
3	0x30577ed5	7.8396784e-10
4	0x3211df2d	8.490855e-09
5	0x30291e6e	6.1525085e-10
6	0x37365009	1.086668e-05
7	0x371f449d	9.493114e-06
8	0x362f1a10	2.6092202e-06

exp_avg f4 [9]
0	0x35495ac2	7.5010405e-07
1	0x304b58ca	7.3977147e-10
2	0x33201eaa	3.7280792e-08
3	0x3330a0f7	4.112459e-08
4	0x30b1ca68	1.2935972e-09
5	0x32e9946b	2.7192263e-08
6	0xb5aea946	-1.3013275e-06
7	0x3233cc5a	1.04656355e-08
8	0xb6e72e98	-6.8897607e-06

exp_avg_sq f4 [9]
0	0x357db0c4	9.450707e-07
1	0x33c9a76b	9.390245e-08
2	0x31e924c6	6.785373e-09
3	0x30577ed5	7.8396784e-10
4	0x3211df2d	8.490855e-09
5	0x30291e6e	6.1525085e-10
6	0x36c8ed88	5.9881168e-06
7	0x35d6d145	1.6005148e-06
8	0x34247821	1.5317393e-07

exp_avg f4 [9, 3]
0	0xb4cc9d85	-3.8112572e-07
1	0x34cddc0f	3.834434e-07
2	0xb4ce0b22	-3.837859e-07
3	0xb6d96ddd	-6.4798937e-06
4	0x36d9ac7f	6.487185e-06
5	0xb6d97e81	-6.481831e-06
6	0x331fe2ff	3.7226524e-08
7	0xb3db9c00	-1.02263584e-07
8	0x33dba126	1.0227295e-07
9	0x3a037d11	0.000501589
10	0xba033ba2	-0.00050061394
11	0x3a0389b8	0.0005017775
12	0x3988f302	0.00026120996
13	0xb988c557	-0.0002608697
14	0x3988f8de	0.00026125362
15	0xb9c3a434	-0.0003731564
16	0x39c45187	0.00037444776
17	0xb9c38257	-0.0003729041
18	0x361fc745	2.3808836e-06
19	0xb61d1732	-2.3408325e-06
20	0x361d3ac3	2.3429027e-06
21	0xb8489384	-4.78211e-05
22	0x38492968	4.7960697e-05
23	0xb848948e	-4.7822068e-05
24	0xb4135c38	-1.3723991e-07
25	0x3500d708	4.799663e-07
26	0xb500d816	-4.799816e-07

exp_avg_sq f4 [9, 3]
0	0x33dab517	1.0184356e-07
1	0x348423e4	2.461303e-07
2	0x3439d200	1.7305865e-07
3	0x33a7e1f8	7.817647e-08
4	0x34999c4b	2.861219e-07
5	0x3445f906	1.8437649e-07
6	0x377e8441	1.51703725e-05
7	0x37a5da2e	1.977113e-05
8	0x3794c160	1.7733022e-05
9	0x37059247	7.961476e-06
10	0x37064b4d	8.004555e-06
11	0x3706579d	8.0074215e-06
12	0x3678efa2	3.7094364e-06
13	0x3685c441	3.986556e-06
14	0x3687677c	4.0353607e-06
15	0x3783cd9e	1.5712165e-05
16	0x378ce78d	1.6797125e-05
17	0x37897eae	1.6390662e-05
18	0x3783f8e2	1.5732312e-05
19	0x377cbb05	1.5063914e-05
20	0x37532143	1.2584324e-05
21	0x370d9926	8.439913e-06
22	0x37adfd8a	2.074127e-05
23	0x377d82b3	1.5110406e-05
24	0x39d2320a	0.00040091603
25	0x3a099823	0.00052488054
26	0x39f94ce6	0.00047550275

exp_avg f4 [9, 3]
0	0xb4932d66	-2.7413915e-07
1	0xb39a0254	-7.171607e-08
2	0xb48463a9	-2.4659428e-07
3	0x33b060aa	8.213222e-08
4	0xb4a582de	-3.0828863e-07
5	0xb53d09ae	-7.042207e-07
6	0x32f97ed1	2.9045085e-08
7	0x31e7c4d8	6.7453634e-09
8	0xb224905a	-9.578878e-09
9	0x3a136d02	0.00056238484
10	0x390d4e7d	0.00013476047
11	0x39e74ea3	0.00044118342
12	0x38f6bf73	0.00011765854
13	0x380111b9	3.0772502e-05
14	0x389488d9	7.08268e-05
15	0x39fca96e	0.0004819142
16	0x389db0d8	7.519283e-05
17	0x39a172bf	0.00030793805
18	0x34d47b39	3.9577733e-07
19	0x33db0628	1.0199102e-07
20	0x34bd628b	3.5275693e-07
21	0x34db340d	4.08298e-07
22	0xb516e6de	-5.621531e-07
23	0xb5abd050	-1.280112e-06
24	0xb28b4640	-1.6213676e-08
25	0xb24610c9	-1.1528933e-08
26	0x30e1fb9a	1.6442414e-09

exp_avg_sq f4 [9, 3]
0	0x32cdcf2c	2.3959352e-08
1	0x345300d1	1.9651203e-07
2	0x341f7f6a	1.4854382e-07
3	0x331fdb13	3.721932e-08
4	0x3487bb86	2.528215e-07
5	0x34201538	1.490888e-07
6	0x373edbdd	1.1376073e-05
7	0x36858e88	3.9803017e-06
8	0x36c4de93	5.8671662e-06
9	0x350f46fe	5.337496e-07
10	0x33afd70c	8.188189e-08
11	0x3572765c	9.032426e-07
12	0x35b7913e	1.3676834e-06
13	0x32d43291	2.4703043e-08
14	0x34b3c384	3.3483605e-07
15	0x35982191	1.1334652e-06
16	0x340b7fb2	1.2991839e-07
17	0x35cdab05	1.5323463e-06
18	0x353e2b34	7.0843384e-07
19	0x35e215ea	1.684469e-06
20	0x35dbd0f4	1.6377585e-06
21	0x357079f8	8.9584455e-07
22	0x36e4e632	6.8217278e-06
23	0x369be05d	4.6454793e-06
24	0x37236652	9.73938e-06
25	0x37691407	1.3892545e-05
26	0x375d36f9	1.3185426e-05

exp_avg f4 [9]
0	0x34cde2ff	3.8349387e-07
1	0x36d9ae2e	6.487381e-06
2	0xb3dda379	-1.032085e-07
3	0xba033b47	-0.00050060864
4	0xb988c53e	-0.00026086898
5	0x39c4524a	0.00037445343
6	0xb61d134b	-2.3406053e-06
7	0x384927ea	4.7959307e-05
8	0x3501f270	4.840904e-07

exp_avg_sq f4 [9]
0	0x35157a1c	5.568452e-07
1	0x352ff78b	6.55528e-07
2	0x37d53342	2.5415447e-05
3	0x37063e37	8.001508e-06
4	0x36852e9d	3.9691354e-06
5	0x3789f715	1.644673e-05
6	0x3823dd1b	3.906815e-05
7	0x385dff9d	5.2928564e-05
8	0x3a28e6ce	0.0006443084

exp_avg f4 [9]
0	0x34cde2ff	3.8349387e-07
1	0x36d9ae2e	6.487381e-06
2	0xb3dda379	-1.032085e-07
3	0xba033b47	-0.00050060864
4	0xb988c53e	-0.00026086898
5	0x39c4524a	0.00037445343
6	0xb5047907	-4.934995e-07
7	0x37651ac9	1.36557e-05
8	0x349dcf2c	2.9394266e-07

exp_avg_sq f4 [9]
0	0x35157a1c	5.568452e-07
1	0x352ff78b	6.55528e-07
2	0x37d53342	2.5415447e-05
3	0x37063e37	8.001508e-06
4	0x36852e9d	3.9691354e-06
5	0x3789f715	1.644673e-05
6	0x36b8ce52	5.507646e-06
7	0x37a06507	1.912053e-05
8	0x385689bc	5.114985e-05

exp_avg f4 [5, 3]
0	0xb9ebeab5	-0.00044997563
1	0x3908f363	0.0001306064
2	0xb8739f9c	-5.8084363e-05
3	0xb91d62c0	-0.00015009474
4	0xb904abe1	-0.00012652531
5	0xb99a42ee	-0.00029423035
6	0xb8c79ad2	-9.517897e-05
7	0xb8a69a92	-7.944288e-05
8	0xb90dfe11	-0.00013541455
9	0x38cb88b5	9.705258e-05
10	0xb89f2b26	-7.589748e-05
11	0xb8deaf38	-0.00010618422
12	0x3a1cd0c2	0.0005982035
13	0x391e9bee	0.00015126143
14	0x3a1bb15c	0.00059392094

exp_avg_sq f4 [5, 3]
0	0x3872e1cc	5.7907586e-05
1	0x398342d6	0.00025036064
2	0x3a00db3d	0.00049154815
3	0x365ea958	3.317915e-06
4	0x36bfb284	5.7130255e-06
5	0x37a89051	2.0094363e-05
6	0x370382e5	7.838685e-06
7	0x3843f590	4.672032e-05
8	0x388db78c	6.757592e-05
9	0x371078a7	8.61116e-06
10	0x37139379	8.796219e-06
11	0x37b4dd92	2.1560849e-05
12	0x36142dcb	2.2080374e-06
13	0x376a2056	1.3955016e-05
14	0x380a0e1f	3.2914915e-05

exp_avg f4 [5]
0	0xbb84712d	-0.004041812
1	0x3adebc62	0.0016993398
2	0x3ac4e137	0.0015020733
3	0x3ab6440b	0.0013905776
4	0xba103ae2	-0.0005501938

exp_avg_sq f4 [5]
0	0x3a873f47	0.0010318541
1	0x3828e701	4.026946e-05
2	0x3925df21	0.00015818748
3	0x385c280f	5.2489395e-05
4	0x387c47fd	6.0148526e-05
