aa2_models/model6.pt (torch_old, 66388 bytes, 252 tensors)

lin1.weight f4 [4, 7]
0.10285442 -0.03803233 -0.36404258 -0.34322408 0.10714973 -0.021517754 -0.29981205 -0.2671287
-0.061443344 0.21647927 -0.31746265 -0.2829211 -0.20284308 -0.30607525 -0.16938014 0.047312647
-0.048584804 0.19574888 -0.09958075 -0.09043208 0.2524234 -0.026780207 -0.24076484 -0.25456828
0.004232103 0.10218605 -0.2160607 -0.056633886
00000000: 57a5 d23d cac7 1bbd ca63 babe 11bb afbe
00000010: 5171 db3d 0046 b0bc f780 99be 18c5 88be
00000020: 04ac 7bbd beac 5d3e 778a a2be 09db 90be
00000030: 19b6 4fbe e5b5 9cbe fd71 2dbe e8ca 413d
00000040: dc00 47bd 6572 483e fef0 cbbd 7434 b9bd
00000050: a43d 813e 2a62 dbbc 0f8b 76be c656 82be
00000060: 74ad 8a3b eb46 d13d 043f 5dbe eff8 67bd

lin1.bias f4 [4]
-0.1758467 -0.16025911 0.26353893 0.08258139
00000000: 2811 34be f71a 24be 93ee 863e 6f20 a93d

GRU.weight_ih_l0 f4 [12, 4]
0.43285948 0.33991805 0.45933923 0.24574752 -0.43331742 0.22223637 0.0038575756 -0.015339005
0.20152494 -0.07945164 -0.2720073 0.29985687 0.39577994 0.44095194 0.48780084 -0.29353788
0.36174005 0.30339983 0.23103572 -0.36847812 -0.24175079 -0.2372647 0.24789701 0.36243376
-0.15035976 0.3148141 -0.01196693 -0.33061355 0.3904089 -0.45260665 0.12639122 -0.19149259
-0.2787315 -0.2887183 0.2503075 -0.29985017 -0.5022437 0.28013164 -0.3342776 -0.047531817
0.2953311 -0.39779717 -0.22174504 0.15280862 -0.40975606 -0.08368825 0.43664008 -0.110022135
00000000: c29f dd3e bd09 ae3e 832e eb3e 3da5 7b3e
00000010: c8db ddbe ee91 633e 61cf 7c3b 7350 7bbc
00000020: 8e5c 4e3e 8bb7 a2bd 8a44 8bbe d786 993e
00000030: aba3 ca3e 74c4 e13e 08c1 f93e 994a 96be
00000040: fe35 b93e 3957 9b3e a194 6c3e 2aa9 bcbe
00000050: 858d 77be 84f5 72be b7d8 7d3e eb90 b93e
00000060: e9f7 19be 502f a13e f110 44bc 2e46 a9be
00000070: ade3 c73e 0fbc e7be b36c 013e a216 44be
00000080: e5b5 8ebe e3d2 93be 4e28 803e f685 99be
00000090: 0b93 00bf 6a6d 8f3e 6f26 abbe b9b0 42bd
000000a0: a335 973e 12ac cbbe 2211 63be dd79 1c3e
000000b0: 8ccb d1be bf64 abbd 4a8f df3e 4953 e1bd

GRU.weight_hh_l0 f4 [12, 4]
-0.11764599 -0.14692652 -0.21768759 0.055600222 -0.14062296 -0.30183762 0.13346924 -0.19986376
-0.03918152 -0.27334926 0.28598768 -0.17041577 -0.42524448 0.3825064 0.42963842 -0.14607506
0.012599161 0.44797724 -0.08054635 -0.03995665 0.45675457 0.45612457 0.33165744 0.031112315
0.11575121 0.30945197 -0.41703424 -0.31627986 0.22385678 -0.10368111 -0.25896052 -0.19461696
0.2255629 0.25014368 0.32950813 -0.40296075 -0.12973782 0.5049336 -0.20046082 -0.24671133
0.2374206 -0.07951351 0.36345074 0.17661242 -0.45778003 0.43870655 0.111860886 -0.44380298
00000000: 61f0 f0bd e873 16be 7fe9 5ebe 0fbd 633d
00000010: 77ff 0fbe 768a 9abe 29ac 083e 16a9 4cbe
00000020: cd7c 20bd 6ff4 8bbe fa6c 923e 7981 2ebe
00000030: a5b9 d9be e1d7 c33e 91f9 db3e b394 15be
00000040: b66c 4e3c 465d e53e 7cf5 a4bd 96a9 23bd
00000050: bcdb e93e 2989 e93e 01cf a93e 41df fe3c
00000060: f80e ed3d 7d70 9e3e 8385 d5be 6fef a1be
00000070: b63a 653e c356 d4bd 7996 84be ab49 47be
00000080: f6f9 663e d512 803e 4ab5 a83e df50 cebe
00000090: fed9 04be 5443 013f 9a45 4dbe e5a1 7cbe
000000a0: 631e 733e fbd7 a2bd 3716 ba3e e3d9 343e
000000b0: 2562 eabe 259e e03e 5217 e53d 253a e3be

GRU.bias_ih_l0 f4 [12]
-0.384343 0.1463138 0.26989645 0.3801712 0.28884053 -0.093740605 0.04912246 -0.36137995
-0.3473301 0.015327457 -0.25433743 0.22380883
00000000: 9bc8 c4be 49d3 153e de2f 8a3e cda5 c23e
00000010: e8e2 933e 13fb bfbd a234 493d cb06 b9be
00000020: 40d5 b1be 0420 7b3c 8438 82be 242e 653e

GRU.bias_hh_l0 f4 [12]
-0.086176835 0.060740266 -0.4675215 0.30747226 0.07466504 0.11915187 0.40899825 -0.29948285
-0.44483986 0.4383582 0.11092297 -0.055766143
00000000: 7b7d b0bd c9ca 783d fa5e efbe 016d 9d3e
00000010: fce9 983d e505 f43d 3868 d13e d155 99be
00000020: 0dc2 e3be 7c70 e03e 952b e33d 0a6b 64bd

GRU.weight_ih_l1 f4 [12, 4]
0.33407554 -0.45441192 0.370294 -0.09418618 0.42090568 0.31194222 0.24553747 -0.04186491
0.040790495 0.2713348 -0.048451185 -0.15876345 -0.26123443 0.048249748 0.1627317 0.1606438
0.28408247 0.19936281 -0.21184155 0.4712556 0.3041174 0.010249891 0.21577883 -0.18011208
0.41011915 -0.056479763 -0.27458236 0.4700319 -0.3587497 -0.43340105 0.23614159 -0.060531504
0.3399044 0.21230961 0.009912443 -0.29738742 -0.20401922 -0.17458947 -0.42267054 -0.10969146
-0.33969152 0.5174442 0.43504027 0.38733026 -0.13940628 -0.46041483 -0.27381945 -0.29186532
00000000: f30b ab3e aea8 e8be 2d97 bd3e afe4 c0bd
00000010: f380 d73e e4b6 9f3e 2d6e 7b3e 8a7a 2bbd
00000020: ef13 273d 65ec 8a3e c074 46bd e392 22be
00000030: 85c0 85be 87a1 453d 24a3 263e cf7f 243e
00000040: 4273 913e c425 4c3e feec 58be 6a48 f13e
00000050: 47b5 9b3e 29ef 273c 20f5 5c3e 4d6f 38be
00000060: 23fb d13e 5357 67bd 0f96 8cbe 05a8 f03e
00000070: 0aae b7be bee6 ddbe 1acf 713e e2ef 77bd
00000080: f307 ae3e b167 593e cd67 223c 2a43 98be
00000090: 6aea 50be 95c7 32be 4668 d8be eba5 e0bd
000000a0: 0cec adbe 3977 043f 99bd de3e 2750 c63e
000000b0: 85c0 0ebe 7ebb ebbe 1032 8cbe 5f6f 95be

GRU.weight_hh_l1 f4 [12, 4]
0.4697944 -0.009961314 0.24448615 0.28973767 -0.4219471 -0.042322505 -0.058528498 -0.28826505
0.2907062 0.29577848 -0.07925912 0.38835162 0.16952893 0.25590354 -0.38019052 0.012606815
-0.34471726 -0.47760448 0.20218393 0.002273978 -0.20419534 -0.34965926 -0.27836132 -0.23702298
-0.407519 0.0706504 0.37045807 -0.19796675 0.47902164 -0.42762724 0.025429126 0.0060091303
-0.00022210676 0.4487233 0.21995202 0.11033609 0.23533751 -0.22083466 0.34327027 -0.091528535
0.29506883 -0.4573818 -0.21652599 0.31892753 -0.40871444 0.065962926 -0.2762846 0.26455906
00000000: e488 f03e c734 23bc 945a 7a3e 7f58 943e
00000010: 7309 d8be 5d5a 2dbd 94bb 6fbd 7a97 93be
00000020: 71d7 943e 4770 973e 9b52 a2bd 06d6 c63e
00000030: fe98 2d3e ca05 833e 55a8 c2be d18c 4e3c
00000040: c87e b0be 9388 f4be 4e09 4f3e 0507 153b
00000050: 9518 51be 8a06 b3be 6085 8ebe 27b6 72be
00000060: 55a6 d0be 28b1 903d aeac bd3e ccb7 4abe
00000070: 5342 f53e f5f1 dabe be50 d03c 3de8 c43b
00000080: 54e5 68b9 0fbf e53e 1a3b 613e e3f7 e13d
00000090: 51fc 703e 7b22 62be 1fc1 af3e 5073 bbbd
000000a0: 4313 973e f32d eabe fdb8 5dbe 784a a33e
000000b0: 0543 d1be 9217 873d 2d75 8dbe 4974 873e

GRU.bias_ih_l1 f4 [12]
0.12947111 -0.2988273 -0.33920762 0.25321653 -0.05770496 0.29663363 -0.38994974 0.2088055
0.53031385 0.22021975 -0.23491804 0.40559718
00000000: 1394 043e e4ff 98be 9fac adbe 99a5 813e
00000010: 095c 6cbd 5de0 973e 7ea7 c7be 1cd1 553e
00000020: a6c2 073f 4981 613e 5b8e 70be 6faa cf3e

GRU.bias_hh_l1 f4 [12]
0.3673355 0.10453286 -0.42601785 -0.12479874 0.05561079 0.060694754 0.2225553 -0.33218625
-0.27416646 -0.02528907 0.389782 0.2260699
00000000: 6613 bc3e 5315 d63d 031f dabe 7b96 ffbd
00000010: 24c8 633d 109b 783d 89e5 633e 5114 aabe
00000020: 8c5f 8cbe 062b cfbc 8291 c73e de7e 673e

GRU.weight_ih_l2 f4 [12, 4]
0.36747012 -0.3215808 0.029216757 0.3905272 -0.04604272 0.46210206 -0.02258467 0.30901825
0.12897246 -0.20629881 -0.41368484 -0.012894404 0.18328635 -0.455053 0.1928369 -0.28827903
-0.36987826 0.44128925 -0.42800224 0.35605663 0.3209698 0.102468885 0.28160626 -0.03998677
-0.14210084 0.027598327 0.07929592 -0.335171 -0.023561172 -0.33107153 0.14159198 -0.1355579
0.080891944 -0.30742905 0.007641069 -0.39081904 0.21993692 -0.24592015 -0.035903003 0.019431755
0.33947748 -0.21619648 0.53143764 0.042129688 0.14138587 0.11737901 0.057237383 0.09624132
00000000: 0b25 bc3e 3da6 a4be fb57 ef3c 2ef3 c73e
00000010: 4b97 3cbd a498 ec3e 7c03 b9bc a437 9e3e
00000020: 5b11 043e ff3f 53be 80ce d3be 0d43 53bc
00000030: 6baf 3b3e b5fc e8be 0977 453e 4f99 93be
00000040: af60 bdbe aaf0 e13e 1c23 dbbe 0e4d b63e
00000050: 2756 a43e 35db d13d b22e 903e 2bc9 23bd
00000060: e282 11be e315 e23c e665 a23d 899b abbe
00000070: 5c03 c1bc 3582 a9be 7dfd 103e b1cf 0abe
00000080: adaa a53d 5767 9dbe ef61 fa3b 6f19 c8be
00000090: 2537 613e 7ed2 7bbe 070f 13bd 582f 9f3c
000000a0: fecf ad3e 9c62 5dbe 4c0c 083f 2e90 2c3d
000000b0: 75c7 103e 6864 f03d bf71 6a3d 2b1a c53d

GRU.weight_hh_l2 f4 [12, 4]
-0.07900433 -0.37355912 0.4571096 0.08174846 -0.056826204 0.03186185 0.23782948 -0.048844986
0.17001575 0.25754064 -0.39411098 -0.27635425 0.2054587 0.48803332 -0.335163 -0.42403436
-0.41460884 0.21927948 0.45080236 0.0091096405 -0.18537398 -0.20076433 -0.3175179 -0.013802072
-0.34723783 0.21197654 0.37049803 0.008966357 -0.1344306 0.20467654 -0.2978166 -0.103415705
0.3391217 -0.22206908 0.3310566 -0.38244873 0.34316602 0.12587 0.20579258 0.00931994
-0.34941384 -0.051993024 -0.4452376 -0.041402653 -0.00091802265 -0.113656536 0.5420414 0.08115053
00000000: 06cd a1bd 2443 bfbe 450a ea3e bd6b a73d
00000010: 98c2 68bd 9281 023d 9289 733e ae11 48bd
00000020: 9c18 2e3e 5edc 833e eac8 c9be 4e7e 8dbe
00000030: c463 523e 81df f93e 7c9a abbe 081b d9be
00000040: 9c47 d4be cd8a 603e 91cf e63e 9a40 153c
00000050: add2 3dbe 2a95 4dbe b591 a2be 1622 62bc
00000060: 28c9 b1be 6110 593e ebb1 bd3e a1e7 123c
00000070: 2da8 09be ba96 513e 6b7b 98be 9dcb d3bd
00000080: 5ca1 ad3e 1466 63be 4080 a93e 52d0 c3be
00000090: 75b3 af3e 11e4 003e 4abb 523e a9b2 183c
000000a0: 5fe6 b2be a3f6 54bd 2ff6 e3be d495 29bd
000000b0: 75a7 70ba c2c4 e8bd 3ac3 0a3f 4032 a63d

GRU.bias_ih_l2 f4 [12]
-0.13208969 -0.0076124086 -0.25266302 -0.18569674 -0.29519936 -0.34216288 0.2350577 -0.19582798
0.45302495 -0.33586177 0.51934165 0.24510236
00000000: 8542 07be 8371 f9bb 0c5d 81be 4927 3ebe
00000010: 5f24 97be f92f afbe f7b2 703e 2187 48be
00000020: e3f2 e73e 13f6 abbe 93f3 043f 1dfc 7a3e

GRU.bias_hh_l2 f4 [12]
-0.25519848 -0.39317757 -0.0004401404 0.3884859 0.18794043 0.49865267 -0.39930984 0.009141425
0.34229362 -0.28507474 -0.16953789 -0.15763313
00000000: 60a9 82be 924e c9be a5c2 e6b9 a0e7 c63e
00000010: 7573 403e 674f ff3e 5772 ccbe eac5 153c
00000020: 1c41 af3e 51f5 91be 579b 2dbe 946a 21be

GRU.weight_ih_l3 f4 [12, 4]
0.29249063 -0.3652826 -0.1381901 0.23314464 -0.45681468 -0.19870284 -0.2715772 -0.37404186
0.39931363 -0.012903985 -0.40491286 0.112421 0.31483972 0.07319631 -0.48058766 -0.21741335
-0.25909778 0.3635634 -0.16545135 -0.40384504 0.4185334 -0.43790418 -0.45392293 0.4686871
0.4089771 -0.17558816 -0.025516126 -0.057782233 -0.30469626 0.26656908 0.38147488 0.39610752
0.47848034 0.19790764 0.18560553 0.5513076 -0.21442084 0.06409451 -0.41353396 -0.1948048
0.4808114 0.2651301 -0.23674649 0.31171212 0.23324284 -0.36070085 -0.32322338 -0.13973986
00000000: 55c1 953e 5206 bbbe b581 0dbe 78bd 6e3e
00000010: 9de3 e9be c278 4bbe 2b0c 8bbe 6a82 bfbe
00000020: d672 cc3e 3c6b 53bc bd50 cfbe fb3c e63d
00000030: ac32 a13e f2e7 953d 960f f6be 9ba1 5ebe
00000040: 77a8 84be fb24 ba3e 146c 29be c7c4 cebe
00000050: 034a d63e fa34 e0be 9668 e8be c1f7 ef3e
00000060: 7265 d13e 62cd 33be 3207 d1bc 10ad 6cbd
00000070: 2601 9cbe be7b 883e ad50 c33e 9bce ca3e
00000080: 60fb f43e 4da8 4a3e 600f 3e3e 7f22 0d3f
00000090: 2391 5bbe fc43 833d b9ba d3be e97a 47be
000000a0: e92c f63e 22bf 873e ac6d 72be bb98 9f3e
000000b0: 36d7 6e3e c8ad b8be 897d a5be f717 0fbe

GRU.weight_hh_l3 f4 [12, 4]
0.064231515 -0.14347452 0.43713212 -0.39426857 0.29006353 0.059178274 0.17281885 -0.4515145
0.14397986 0.44575348 0.25665736 0.3639241 -0.171324 -0.46298686 0.39987054 -0.23953736
-0.1895625 -0.37777412 0.2757752 -0.49417555 0.46768436 0.50988007 0.49512893 -0.4620183
-0.4878952 0.47585028 -0.30903628 -0.39658976 0.09591907 0.3745782 -0.36791053 -0.38115942
-0.041082628 -0.27072504 0.04123696 -0.08393018 -0.23942204 -0.24021035 0.2713247 -0.07869004
-0.4393812 0.08907215 0.12876883 -0.040304027 -0.28317386 -0.13966809 0.077667154 -0.34397066
00000000: d08b 833d fcea 12be c8cf df3e 92dd c9be
00000010: 3583 943e eb64 723d 6df7 303e e92c e7be
00000020: 756f 133e cd39 e43e 9868 833e 4254 ba3e
00000030: 8f6f 2fbe 9d0c edbe d5bb cc3e 4849 75be
00000040: ac1c 42be 9c6b c1be 6832 8d3e 9404 fdbe
00000050: 5374 ef3e 8087 023f 8a81 fd3e aa8d ecbe
00000060: 66cd f9be a6a2 f33e 013a 9ebe d00d cbbe
00000070: 3871 c43d b7c8 bf3e c55e bcbe 5427 c3be
00000080: 4246 28bd 799c 8abe 16e8 283d 96e3 abbd
00000090: 0d2b 75be b4f9 75be 12eb 8a3e 3e28 a1bd
000000a0: 93f6 e0be 766b b63d fadb 033e d615 25bd
000000b0: 2afc 90be 2705 0fbe f50f 9f3d ec1c b0be

GRU.bias_ih_l3 f4 [12]
-0.32200018 -0.1958035 -0.31206882 -0.38072014 -0.3144798 0.17340526 0.25898948 0.3919168
0.16182883 -0.524439 -0.46524268 0.5131887
00000000: 35dd a4be b680 48be 7cc7 9fbe c0ed c2be
00000010: 7f03 a1be 2691 313e 459a 843e 52a9 c83e
00000020: 75b6 253e a241 06bf 4a34 eebe 5660 033f

GRU.bias_hh_l3 f4 [12]
0.3260595 0.42052418 -0.47085148 0.17400335 -0.4511613 -0.13789885 0.12572563 0.3999126
0.025348911 -0.48791954 -0.08033988 0.39982587
00000000: 45f1 a63e f24e d73e 7213 f1be ef2d 323e
00000010: 9dfe e6be 5b35 0dbe 38be 003e 58c1 cc3e
00000020: 85a8 cf3c 97d0 f9be 3c89 a4bd fab5 cc3e

GRU.weight_ih_l4 f4 [12, 4]
0.2365753 -0.19575985 -0.031773094 0.18587619 0.38654315 0.49217144 0.03917131 0.12377975
0.40371624 0.45745513 -0.44844615 0.00039264295 -0.23070252 -0.46336693 -0.41779718 -0.004173951
-0.34093168 -0.23474523 0.17221598 0.28483215 0.100451306 0.2755899 0.30053553 -0.41064313
0.48458102 0.20069441 0.03711152 0.30628031 -0.2824621 -0.28331584 0.037329327 -0.17492959
0.21297146 -0.4986138 -0.5373805 0.41736743 0.49940598 0.159519 0.3910155 -0.4302045
-0.2937829 0.4569899 0.24587673 -0.10177582 -0.43393216 0.43516132 0.08565324 -0.3479579
00000000: cc40 723e 4575 48be 8124 02bd 5456 3e3e
00000010: fce8 c53e e5fd fb3e 1872 203d 3d80 fd3d
00000020: e5b3 ce3e 8f37 ea3e bc9a e5be a5db cd39
00000030: 483d 6cbe 6e3e edbe 83e9 d5be a4c5 88bb
00000040: 998e aebe 0e61 70be 6359 303e 85d5 913e
00000050: 6ab9 cd3d 1f1a 8d3e cbdf 993e d13f d2be
00000060: 011b f83e d682 4d3e 4002 183d c6d0 9c3e
00000070: df9e 90be c60e 91be a3e6 183d be20 33be
00000080: 3115 5a3e 4f4a ffbe c591 09bf 2fb1 d53e
00000090: 24b2 ff3e f358 233e 2f33 c83e c443 dcbe
000000a0: b66a 96be 95fa e93e 1cc7 7b3e d76f d0bd
000000b0: 5b2c debe 77cd de3e f76a af3d 8a27 b2be

GRU.weight_hh_l4 f4 [12, 4]
0.18285754 0.28784505 -0.5073153 0.13523592 0.07295137 -0.05847634 0.2874591 0.46177706
-0.17740497 -0.39678305 -0.41029173 0.5198634 -0.35563484 0.3356946 0.24326144 -0.0823042
0.22778898 -0.2160514 0.50065094 0.35959622 0.086008005 -0.2699895 -0.42907077 0.14562224
-0.112342015 0.15917213 0.2891253 0.06647038 0.4114032 0.044083312 -0.07557891 0.22213496
-0.11704935 -0.33408123 -0.50435054 -0.30783355 -0.4486884 -0.392862 -0.061461397 -0.089086846
-0.039219372 -0.20352261 -0.37539995 0.42720774 0.41182694 -0.15342471 0.5133735 -0.18279573
00000000: 023f 3b3e 6d60 933e 6adf 01bf 497b 0a3e
00000010: 8767 953d e384 6fbd d72d 933e 0b6e ec3e
00000020: a6a9 35be 2627 cbbe c211 d2be c515 053f
00000030: c515 b6be 2ae0 ab3e 8719 793e 1b8f a8bd
00000040: 8441 693e 943c 5dbe a92a 003f ff1c b83e
00000050: f724 b03d 103c 8abe 2aaf dbbe ff1d 153e
00000060: 9213 e6bd 05fe 223e 3b08 943e 9f21 883d
00000070: 71a3 d23e b490 343d 1ec9 9abd 5977 633e
00000080: 92b7 efbd b20c abbe 1e1d 01bf 5c9c 9dbe
00000090: 7cba e5be 3525 c9be f2be 7bbd 2a73 b6bd
000000a0: 7ea4 20bd 3b68 50be 6c34 c0be f9ba da3e
000000b0: fbda d23e 5e1b 1dbe 726c 033f ce2e 3bbe

GRU.bias_ih_l4 f4 [12]
-0.4021745 -0.03174056 -0.5012178 -0.20596725 -0.104762994 -0.16023476 0.18662451 -0.33341685
-0.009331509 -0.40696725 -0.44498584 -0.117139325
00000000: d1e9 cdbe 6402 02bd cf4f 00bf 14e9 52be
00000010: fb8d d6bd 9514 24be 7f1a 3f3e 9db5 aabe
00000020: 2fe3 18bc 035e d0be 2fd5 e3be bee6 efbd

GRU.bias_hh_l4 f4 [12]
0.25235903 0.38520688 0.01697723 0.1495974 0.0056822933 0.24558519 -0.086162366 -0.2836923
0.44931754 -0.0119374655 -0.32666993 -0.27326354
00000000: 3435 813e d639 c53e d513 8b3c 1030 193e
00000010: 8832 ba3b af7a 7b3e e575 b0bd 1e40 91be
00000020: f30c e63e 5c95 43bc 4841 a7be 33e9 8bbe

GRU.weight_ih_l5 f4 [12, 4]
0.07348389 -0.42481798 -0.33285722 0.41898653 0.24453314 0.27806202 0.37267667 -0.34547672
0.08181347 -0.40259594 0.28812867 0.13714902 -0.3142597 0.17240728 -0.34097195 0.16804886
0.4207424 0.47878423 -0.38885376 -0.07717635 0.07169985 -0.3245307 0.21111932 -0.42883697
-0.15637808 0.27862602 -0.09040572 0.25675258 0.42117825 -0.0005439653 0.13040207 -0.13444209
-0.03654179 -0.03520431 0.19066659 0.09969782 -0.3042188 -0.108806714 -0.35333303 0.44370258
0.09458671 -0.24996863 -0.30910623 0.26491308 0.31953406 0.17739385 0.5268574 0.29211372
00000000: b97e 963d be81 d9be 436c aabe 6785 d63e
00000010: e566 7a3e 255e 8e3e 7acf be3e 53e2 b0be
00000020: d28d a73d 0e21 cebe 9a85 933e cb70 0c3e
00000030: a6e6 a0be 898b 303e e093 aebe 0015 2c3e
00000040: 8c6b d73e 3523 f53e d717 c7be a20e 9ebd
00000050: 5fd7 923d e328 a6be aa2f 583e 8590 dbbe
00000060: 9321 20be 12a8 8e3e a226 b9bd 1375 833e
00000070: ada4 d73e e598 0eba 1f88 053e 30ab 09be
00000080: d8ac 15bd 6532 10bd 1a3e 433e 5f2e cc3d
00000090: 91c2 9bbe 0ed6 debd 11e8 b4be fc2c e33e
000000a0: adb6 c13d c7f7 7fbe 2c43 9ebe b0a2 873e
000000b0: f899 a33e bca6 353e 20e0 063f ee8f 953e

GRU.weight_hh_l5 f4 [12, 4]
0.27823347 0.29360205 -0.32532766 -0.21629354 -0.11963428 -0.37163115 -0.027562285 0.1355706
0.16039105 -0.13604107 -0.37165508 0.3169681 -0.07839194 0.15418428 0.17454915 0.43249378
0.4804285 0.25106427 -0.4981253 -0.038718164 0.174838 0.46061307 -0.14295226 0.048849486
-0.28493568 -0.3905868 0.45191374 0.36258295 0.13914458 -0.37849206 0.17508174 0.019923339
0.23852512 0.40139514 0.40169212 -0.20831233 -0.41318133 0.49550545 -0.42519942 -0.009818697
0.0048027127 0.20950307 0.24268277 -0.26003838 -0.13151544 0.29975742 0.25237298 -0.3195673
00000000: 9e74 8e3e 0253 963e 5991 a6be 0e7c 5dbe
00000010: d102 f5bd 7046 bebe 4dca e1bc 05d3 0a3e
00000020: 8d3d 243e 5a4e 0bbe 9349 bebe a549 a23e
00000030: f48b a0bd 7ce2 1d3e 03bd 323e d36f dd3e
00000040: b9fa f53e 7f8b 803e 480a ffbe f096 1ebd
00000050: bc08 333e 7ad5 eb3e 1462 12be 6616 483d
00000060: 17e3 91be fefa c7be 3d61 e73e 79a4 b93e
00000070: eb7b 0e3e b6c9 c1be a148 333e 4536 a33c
00000080: ee3f 743e aa83 cd3e 97aa cd3e d44f 55be
00000090: 818c d3be e4b2 fd3e bdb3 d9be 9ade 20bc
000000a0: 1360 9d3b f987 563e d581 783e c023 85be
000000b0: fcab 06be ce79 993e 0837 813e 539e a3be

GRU.bias_ih_l5 f4 [12]
-0.38154402 -0.23367901 0.0053200987 -0.28751883 -0.12506978 -0.3708292 -0.13340564 0.26996952
-0.16219364 -0.33898932 0.19489299 -0.31383204
00000000: bd59 c3be 8d49 6fbe 3954 ae3b ab35 93be
00000010: 4b12 00be 53dd bdbe 7d9b 08be 7239 8a3e
00000020: 1716 26be 0290 adbe 0792 473e 98ae a0be

GRU.bias_hh_l5 f4 [12]
0.06345796 0.124615766 -0.29417467 0.2627614 0.03018629 0.020388909 0.023584506 -0.35590369
-0.3970023 0.42491257 0.43459252 -0.3682219
00000000: 3ff6 813d 8d36 ff3d 109e 96be aa88 863e
00000010: 3d49 f73c a406 a73c 4b34 c13c 0239 b6be
00000020: e343 cbbe 248e d93e e982 de3e 9587 bcbe

GRU.weight_ih_l6 f4 [12, 4]
-0.054643877 0.41757774 0.004285385 0.2900921 -0.47847512 -0.21347193 0.00584227 -0.12058127
-0.495882 0.18004297 -0.4292138 0.25590795 0.34620416 0.5031295 -0.15064888 0.1477212
-0.43626595 0.3215315 0.04441161 -0.19508763 -0.015446275 -0.24231282 -0.20879461 -0.22279552
-0.06489225 0.42083475 0.3293695 -0.21864688 0.09806966 -0.16993043 -0.23445183 0.16624862
0.091781266 0.48290107 0.33176813 -0.11036276 0.23131941 0.4058427 0.014718457 0.53815746
0.49537116 -0.3524165 -0.41492376 0.49532455 0.45453072 0.18490826 -0.4486888 -0.023912273
00000000: 42d2 5fbd c0cc d53e 6a6c 8c3b f486 943e
00000010: b1fa f4be 6398 5abe 8370 bf3b 50f3 f6bd
00000020: 3fe4 fdbe 2f5d 383e e9c1 dbbe 5e06 833e
00000030: ac41 b13e 18cd 003f b343 1abe 3a44 173e
00000040: 405e dfbe c79f a43e f3e8 353d 0dc5 47be
00000050: 5f12 7dbc da20 78be 41ce 55be 8224 64be
00000060: 3ae6 84bd a777 d73e 1ea3 a83e f8e4 5fbe
00000070: bfd8 c83d 3e02 2ebe 2414 70be 143d 2a3e
00000080: d1f7 bb3d cf3e f73e 83dd a93e df05 e2bd
00000090: ffde 6c3e 9dca cf3e af25 713c b0c4 093f
000000a0: 4aa1 fd3e ef6f b4be e370 d4be 2e9b fd3e
000000b0: 40b8 e83e 9758 3d3e 8aba e5be ace3 c3bc

GRU.weight_hh_l6 f4 [12, 4]
-0.2629159 0.38325062 -0.5279864 -0.12951261 0.09218984 -0.42843476 0.2246794 0.33645484
0.14150399 0.1341809 -0.4849809 0.13606705 -0.09410385 0.2365057 0.1308924 -0.1001994
-0.3956711 0.24790631 -0.3542539 -0.058520697 0.022400366 0.19745259 -0.02856817 0.17059745
-0.0037573318 -0.09045293 0.024097018 -0.0015719072 0.14282383 -0.44988322 -0.18802305 0.46763977
0.09860713 0.46154281 0.545594 0.15031211 -0.33026955 -0.28463265 0.1938102 0.502389
0.5057272 0.42224714 0.45523095 0.29105246 -0.17774466 0.1579456 -0.058563754 -0.4196573
00000000: ea9c 86be 6d39 c43e 1e2a 07bf f49e 04be
00000010: 07ce bc3d cd5b dbbe 5b12 663e cf43 ac3e
00000020: 6ce6 103e b866 093e 6b4f f8be 2955 0b3e
00000030: 85b9 c0bd 8d2e 723e a808 063e 5835 cdbd
00000040: 6795 cabe 27db 7d3e c460 b5be 66b3 6fbd
00000050: f980 b73c 0331 4a3e cb07 eabc 19b1 2e3e
00000060: 913d 76bb 633f b9bd 1c67 c53c 7408 ceba
00000070: 6940 123e 1857 e6be 1d89 40be 7b6e ef3e
00000080: 89f2 c93d 574f ec3e 0cac 0b3f 6beb 193e
00000090: 1719 a9be 5fbb 91be 2e76 463e 919c 003f
000000a0: 5677 013f c730 d83e 0814 e93e d404 953e
000000b0: b202 36be 7ebc 213e 8ce0 6fbd 52dd d6be

GRU.bias_ih_l6 f4 [12]
-0.14721896 -0.08517752 0.16368616 0.30718344 -0.06935227 -0.0062650437 -0.013746465 -0.41634405
0.018393079 0.24792516 0.028387696 -0.2799629
00000000: 91c0 16be 8d71 aebd 589d 273e 2647 9d3e
00000010: 9008 8ebd ff4a cdbb da38 61bc 0c2b d5be
00000020: 15ad 963c 18e0 7d3e 508d e83c 4c57 8fbe

GRU.bias_hh_l6 f4 [12]
0.21368353 0.17519885 0.100567594 -0.054435182 -0.2930645 0.2862086 -0.11997823 0.35044158
0.23880398 -0.18628587 -0.36153802 -0.37941432
00000000: dbcf 5a3e 5467 333e 62f6 cd3d 6df7 5ebd
00000010: 8d0c 96be ef89 923e 25b7 f5bd 146d b33e
00000020: 0889 743e b9c1 3ebe 831b b9be 9842 c2be

GRU.weight_ih_l7 f4 [12, 4]
-0.17336324 0.092167854 -0.08023357 -0.039553292 0.24443297 -0.46605211 -0.5397568 0.40190718
0.3663196 0.10955832 -0.20803595 -0.3300945 0.4517812 -0.23229295 -0.50548625 -0.040579483
-0.46163332 -0.25175536 -0.22039498 0.040899463 -0.17221154 -0.2309336 -0.16942745 0.26418644
0.21944997 0.12510505 0.1812237 -0.19239976 0.15694842 -0.34276825 0.010305869 0.3125436
0.29044864 -0.25367206 0.26704168 0.25908998 -0.015672104 0.1956097 -0.01914797 -0.09275217
-0.28727907 -0.4931469 -0.38800994 0.19625077 -0.27999213 -0.5099284 0.040634427 0.08838674
00000000: 2286 31be 80c2 bc3d 7f51 a4bd a202 22bd
00000010: a34c 7a3e 629e eebe 802d 0abf c7c6 cd3e
00000020: 3e8e bb3e 1d60 e03d 6007 55be 2502 a9be
00000030: de4f e73e 34de 6dbe 8c67 01bf ac36 26bd
00000040: 345b ecbe 14e6 80be 39af 61be 3286 273d
00000050: 3958 30be dc79 6cbe 647e 2dbe 7243 873e
00000060: 7eb7 603e 8a1b 003e b592 393e 7104 45be
00000070: 16b7 203e 527f afbe f3d9 283c b705 a03e
00000080: afb5 943e 4ee1 81be b0b9 883e 71a7 843e
00000090: c962 80bc e94d 483e 34dc 9cbc daf4 bdbd
000000a0: 3e16 93be c07d fcbe 3da9 c6be f6f5 483e
000000b0: 215b 8fbe ab8a 02bf 4970 263d 1b04 b53d

GRU.weight_hh_l7 f4 [12, 4]
0.121555254 -0.17792776 -0.16744536 0.0222662 -0.43718898 0.12106753 0.377611 -0.256713
0.43025464 0.2618816 0.15619276 -0.25320825 -0.46768272 -0.10011293 0.50061756 0.50664747
-0.2665536 -0.0037484895 -0.11774394 0.119737975 0.3626912 0.24572456 0.0575976 0.015329857
-0.41117835 0.43550995 0.16112672 -0.31596145 0.5099506 -0.48608077 -0.25064623 0.19661354
-0.4249961 0.0075263428 0.18763132 0.17277442 0.43704972 0.36499602 0.011612427 -0.22897746
-0.5379775 -0.2986622 -0.25660568 -0.24748507 -0.20369278 0.27886784 -0.14638649 0.295947
00000000: f6f1 f83d b232 36be cc76 2bbe 9b67 b63c
00000010: 3cd7 dfbe 41f2 f73d 3b56 c13e e36f 83be
00000020: 564a dc3e 5815 863e fff0 1f3e 83a4 81be
00000030: 1c74 efbe 0208 cdbd 7928 003f a6b3 013f
00000040: b779 88be 38a9 75bb bc23 f1bd 2f39 f53d
00000050: a9b2 b93e 389f 7b3e 76eb 6b3d 152a 7b3c
00000060: f885 d2be 29fb de3e 67fe 243e b3c5 a1be
00000070: 1f8c 023f 94df f8be b454 80be 0f55 493e
00000080: 1799 d9be 8a9f f63b 6d22 403e c7eb 303e
00000090: fbc4 df3e c2e0 ba3e 0d42 3e3c 1179 6abe
000000a0: e5b8 09bf 40ea 98be d261 83be ba6c 7dbe
000000b0: d794 50be c4c7 8e3e 57e6 15be 5d86 973e

GRU.bias_ih_l7 f4 [12]
0.3379232 0.2477613 -0.05557288 0.41169044 -0.14347467 -0.21239595 -0.26784408 -0.49708256
-0.014053277 -0.24887158 0.34290528 0.07499086
00000000: 4504 ad3e 23b5 7d3e 63a0 63bd 17c9 d23e
00000010: 06eb 12be 537e 59be dc22 89be 9b81 febe
00000020: b73f 66bc 31d8 7ebe 4891 af3e cf94 993d

GRU.bias_hh_l7 f4 [12]
-0.39243612 0.24601822 -0.08519636 0.13670397 0.29531136 0.51365316 0.25504375 -0.4870281
-0.40028664 0.45941216 -0.17130503 0.07013633
00000000: 63ed c8be 33ec 7b3e 6e7b aebd 20fc 0b3e
00000010: 0d33 973e c67e 033f 1895 823e bf5b f9be
00000020: 5ff2 ccbe 1238 eb3e 966a 2fbe a3a3 8f3d

GRU.weight_ih_l8 f4 [12, 4]
-0.24320976 0.37087524 0.29016492 -0.46362683 0.46642157 -0.052572727 -0.15980254 0.30042082
-0.467773 0.4079157 0.13896424 0.1951944 -0.09208228 -0.42809594 -0.53788877 -0.25321046
-0.114852004 -0.09832804 0.19895247 -0.46677452 -0.03737724 0.31932747 -0.5187158 -0.3116295
0.23893906 0.06079238 0.39672288 -0.17696002 -0.37299156 0.35865664 0.31219384 0.031144783
-0.4486576 -0.30804047 -0.091769956 0.47772825 -0.15684451 0.23608452 0.014520266 0.3838177
0.42257565 0.3410421 0.31439123 0.30023214 0.021683842 0.2713028 -0.20837946 -0.31365263
00000000: fb0b 79be 5ce3 bd3e 7f90 943e 7f60 edbe
00000010: cfce ee3e 8056 57bd 47a3 23be c2d0 993e
00000020: f17f efbe 54da d03e a44c 0e3e 0ae1 473e
00000030: a295 bcbd 642f dbbe 14b3 09bf cda4 81be
00000040: 8737 ebbd 3660 c9bd 32ba 4b3e 12fd eebe
00000050: e018 19bd e47e a33e 8fca 04bf e78d 9fbe
00000060: 71ac 743e 6e01 793d 431f cb3e 0235 35be
00000070: c0f8 bebe d8a1 b73e dfd7 9f3e 5823 ff3c
00000080: 73b6 e5be 7bb7 9dbe e3f1 bbbd cc98 f43e
00000090: d99b 20be 24c0 713e 69e6 6d3c c183 c43e
000000a0: d65b d83e 129d ae3e e3f7 a03e 07b8 993e
000000b0: 50a2 b13c 33e8 8a3e 6d61 55be 1497 a0be

GRU.weight_hh_l8 f4 [12, 4]
0.48939273 0.272508 -0.2514479 0.27293023 -0.059689682 -0.41802868 -0.5222271 -0.39922377
0.17450613 -0.14021967 0.3622341 0.0020571044 -0.094237946 0.3883792 -0.45032567 -0.23755744
-0.21246591 -0.12544069 0.4124245 0.14949611 -0.22907077 -0.1878461 0.30163386 0.3382847
-0.1928462 -0.55185896 -0.036056995 -0.41303605 0.19216877 -0.03427805 -0.5310801 -0.2515922
-0.22740102 0.32532004 0.1817097 -0.3279449 0.21492799 -0.26467788 0.43475214 -0.13103093
0.49498472 0.5663151 -0.15137912 0.34459808 0.0123915225 -0.32623675 0.29286033 0.46495065
00000000: af91 fa3e 2b86 8b3e c7bd 80be 83bd 8b3e
00000010: 2b7d 74bd db07 d6be adb0 05bf 0f67 ccbe
00000020: bcb1 323e bf95 0fbe bf76 b93e 7cd0 063b
00000030: d3ff c0bd a3d9 c63e 1691 e6be 4242 73be
00000040: aa90 59be 8673 00be 4e29 d33e 8215 193e
00000050: 8791 6abe ba5a 40be c16f 9a3e a733 ad3e
00000060: 7979 45be a146 0dbf 80b0 13bd 7679 d3be
00000070: e4c7 443e 2467 0cbd def4 07bf b1d0 80be
00000080: d0db 68be 5990 a63e 1c12 3a3e 65e8 a7be
00000090: 1516 5c3e dc83 87be d597 de3e f92c 06be
000000a0: a36e fd3e 07fa 103f 2103 1bbe 296f b03e
000000b0: d005 4b3c 8108 a7be caf1 953e 030e ee3e

GRU.bias_ih_l8 f4 [12]
0.10219768 0.27196985 0.4711836 -0.46917182 -0.070880756 -0.0029241822 0.18906859 0.25668824
0.40128455 0.21873026 -0.17402253 -0.25784254
00000000: 044d d13d a23f 8b3e fa3e f13e 4a37 f0be
00000010: ee29 91bd a3a3 3fbb 329b 413e a46c 833e
00000020: 2b75 cd3e d3fa 5f3e f632 32be f003 84be

GRU.bias_hh_l8 f4 [12]
0.35656506 -0.4404031 0.541326 0.14108029 -0.40206078 0.40276995 0.32913673 -0.2140515
0.5221287 -0.28781193 0.36987486 0.43688753
00000000: b28f b63e 847c e1be 5794 0a3f 5a77 103e
00000010: e9da cdbe dd37 ce3e 9c84 a83e 5130 5bbe
00000020: 3aaa 053f 165c 93be 3d60 bd3e b9af df3e

GRU.weight_ih_l9 f4 [12, 4]
-0.32734883 -0.067144275 -0.4526896 -0.08468035 -0.24419358 0.41934332 0.26481482 -0.37710425
-0.5318712 -0.48438838 -0.15982352 0.13446455 0.40953746 -0.3358851 0.24006926 0.25131524
0.13334873 0.19755526 0.22948658 0.2694319 0.31057176 0.25224653 -0.5239474 0.36252084
0.16167425 -0.21458775 -0.25786152 0.2993768 0.1640722 -0.5248684 0.08459252 -0.073133215
-0.14583577 -0.4412612 -0.5251167 0.10910104 0.13803111 -0.2714608 -0.12293015 0.18008702
0.37643975 0.03216501 -0.16893253 -0.12865785 -0.4494046 -0.5499213 -0.21679786 0.49254167
00000000: 449a a7be f082 89bd eec6 e7be e46c adbd
00000010: e20d 7abe 2bb4 d63e cf95 873e cf13 c1be
00000020: b628 08bf c101 f8be c7a8 23be 13b1 093e
00000030: e5ae d13e 22f9 abbe b7d4 753e 64ac 803e
00000040: 928c 083e ed4b 4a3e 88fe 6a3e faf2 893e
00000050: 4303 9f3e 7526 813e 6b21 06bf 559c b93e
00000060: ef8d 253e e4bc 5bbe 6d06 84be ea47 993e
00000070: 8b02 283e c75d 06bf d83e ad3d dec6 95bd
00000080: f955 15be fdec e1be 0c6e 06bf 5e70 df3d
00000090: 0758 0d3e e9fc 8abe cdc2 fbbd bb68 383e
000000a0: b6bc c03e 75bf 033d a6fc 2cbe e2be 03be
000000b0: 5c18 e6be a4c7 0cbf 4200 5ebe 6c2e fc3e

GRU.weight_hh_l9 f4 [12, 4]
0.46247277 0.20853725 0.3310899 0.38572875 -0.13494605 -0.5282391 -0.13103239 -0.23192617
0.2506535 -0.12346087 -0.3347594 -0.15239295 -0.041236207 0.3504026 -0.028953511 -0.37668023
-0.17814359 0.34039652 0.21901488 -0.33538857 0.038810384 -0.2393564 0.41147417 -0.4404005
-0.23942637 0.3244903 0.42767465 -0.28533313 0.39613724 0.30529132 0.22477569 0.2761155
-0.51842153 -0.17824022 -0.5276608 -0.11595807 0.13921057 -0.24902147 0.20472896 0.53614914
0.35019988 0.049028277 0.29300907 -0.106044844 -0.11104858 -0.034907028 0.062288128 -0.096568234
00000000: 3bc9 ec3e ca8a 553e 9e84 a93e 3d7e c53e
00000010: 4c2f 0abe ad3a 07bf 5b2d 06be 0e7e 6dbe
00000020: a855 803e 0dd9 fcbd 9665 abbe e60c 1cbe
00000030: 4ce7 28bd f867 b33e ea2f edbc 3bdc c0be
00000040: 466b 36be 7448 ae3e 7045 603e 0db8 abbe
00000050: a3f7 1e3d d819 75be beac d23e 2d7c e1be
00000060: 302c 75be 9823 a63e 2cf8 da3e 2f17 92be
00000070: 80d2 ca3e 254f 9c3e 992b 663e 035f 8d3e
00000080: 46b7 04bf 9b84 36be c714 07bf 6d7b edbd
00000090: 378d 0e3e 7cff 7ebe 78a4 513e 1241 093f
000000a0: 664d b33e e0d1 483d 4905 963e 0a2e d9bd
000000b0: 706d e3bd acfa 0ebd d621 7f3d 91c5 c5bd

GRU.bias_ih_l9 f4 [12]
0.034659334 0.043808512 -0.2571511 -0.22215109 -0.02468402 -0.43909413 0.11845951 0.20050697
0.19223556 -0.08604318 -0.26287273 0.13694543
00000000: f2f6 0d3d 8e70 333d 4fa9 83be 937b 63be
00000010: 2436 cabc f2d0 e0be e69a f23d b351 4d3e
00000020: 66d9 443e 6837 b0bd 4197 86be 6c3b 0c3e

GRU.bias_hh_l9 f4 [12]
0.343299 0.35226828 0.04095738 -0.09021996 -0.1716093 -0.066199824 0.43226677 0.11070833
0.42175496 -0.52693725 0.20038523 -0.22067046
00000000: e3c4 af3e 825c b43e edc2 273d 3ec5 b8bd
00000010: 59ba 2fbe c693 87bd 1252 dd3e 0dbb e23d
00000020: 44f0 d73e 5ce5 06bf c931 4d3e 70f7 61be

GRU.weight_ih_l10 f4 [12, 4]
-0.0005297095 0.5397256 0.3379493 -0.34743714 -0.37049243 -0.41259116 0.07566184 -0.13667904
-0.25461474 0.1932482 -0.042083398 -0.37535813 -0.25781804 -0.4060337 0.4361182 0.34902984
0.3379167 -0.2516525 -0.27527213 -0.078096665 0.12767816 0.03154795 0.3951572 0.5051086
0.28397048 -0.16930714 0.19768302 -0.36526552 0.3084094 0.49146286 -0.18087175 0.45429936
-0.0048100473 -0.2964763 0.4220365 0.130145 -0.043681145 0.019191267 -0.25473258 -0.024858333
-0.17405832 0.3163743 0.29015657 -0.067685924 -0.01615902 0.24670157 0.28894895 0.47857222
00000000: 34dc 0aba 752b 0a3f b107 ad3e 48e3 b1be
00000010: 2fb1 bdbe 263f d3be 98f4 9a3d 97f5 0bbe
00000020: dd5c 82be dbe2 453e a45f 2cbd f12e c0be
00000030: ba00 84be a6e3 cfbe e24a df3e 0ab4 b23e
00000040: 6b03 ad3e 99d8 80be 78f0 8cbe 25f1 9fbd
00000050: 10be 023e 6c38 013d 0b52 ca3e cc4e 013f
00000060: 9464 913e da5e 2dbe 6b6d 4a3e 1504 bbbe
00000070: d6e7 9d3e 05a1 fb3e 7236 39be ed99 e83e
00000080: 9a9d 9dbb becb 97be 2b15 d83e bb44 053e
00000090: 00eb 32bd 0137 9d3c 4f6c 82be b4a3 cbbc
000000a0: 583c 32be d0fb a13e 678f 943e eb9e 8abd
000000b0: ec5f 84bc 569f 7c3e 1ef1 933e 6b07 f53e

GRU.weight_hh_l10 f4 [12, 4]
-0.16741523 -0.44071555 -0.078530245 0.36160088 0.07902911 -0.10861096 -0.29528472 -0.35176998
0.39843002 0.46916017 0.073094055 -0.43285406 -0.057088416 -0.11330583 -0.13627765 -0.12497534
0.45053285 0.41561645 0.32026103 0.08616663 -0.34398717 -0.5003239 0.43343237 0.53193736
-0.44586924 -0.3995521 0.10834293 -0.2938582 0.08093229 0.0699807 -0.44054392 0.557188
-0.089212745 0.09886712 -0.21506907 0.20770581 -0.3471544 -0.12918699 -0.42823538 -0.5826595
-0.44909772 0.25657743 -0.41641152 0.05598861 0.36887652 0.3048531 -0.34494257 0.20889771
00000000: e66e 2bbe 78a5 e1be 77d4 a0bd c023 b93e
00000010: 04da a13d 6c6f debd 8f2f 97be 321b b4be
00000020: 05ff cb3e c335 f03e 56b2 953d 0c9f ddbe
00000030: 8bd5 69bd e30c e8bd 5e8c 0bbe 12f3 ffbd
00000040: 3eac e63e aecb d43e 41f9 a33e 2178 b03d
00000050: 161f b0be 3a15 00bf d9ea dd3e 0c2d 083f
00000060: f948 e4be 1892 ccbe e6e2 dd3d 9574 96be
00000070: d4bf a53d 0b52 8f3d f98e e1be dfa3 0e3f
00000080: 2cb5 b6bd d87a ca3d 113b 5cbe d5b0 543e
00000090: 39be b1be 9849 04be ab41 dbbe 2c29 15bf
000000a0: 23f0 e5be 1e5e 833e e433 d5be 5054 653d
000000b0: 62dd bc3e b515 9c3e 509c b0be 48e9 553e

GRU.bias_ih_l10 f4 [12]
-0.37177476 0.057001725 0.50288934 -0.44020313 -0.21774837 -0.35112935 0.232231 -0.12916934
-0.27197427 -0.1803152 -0.24678974 0.09688579
00000000: 4359 bebe a47a 693d 5bbd 003f 4e62 e1be
00000010: 6ef9 5ebe 3ac7 b3be f7cd 6d3e f844 04be
00000020: 3640 8bbe 8ca4 38be 73b6 7cbe 0f6c c63d

GRU.bias_hh_l10 f4 [12]
-0.5081364 0.49871114 0.08252181 -0.12882125 0.3859015 0.3259629 0.4478904 0.05021354
-0.1732582 0.47565496 0.1789446 -0.20139986
00000000: 3a15 02bf 1157 ff3e 3201 a93d b8e9 03be
00000010: e294 c53e 9ce4 a63e e451 e53e b7ac 4d3d
00000020: 996a 31be 0c89 f33e 413d 373e c43b 4ebe

GRU.weight_ih_l11 f4 [12, 4]
0.2489708 0.2099495 0.04583328 0.33196458 0.024493461 -0.41011402 -0.09285983 0.3607904
-0.5410085 0.1862359 0.32561088 -0.48292738 -0.28186777 -0.25123838 -0.060181696 0.37347668
0.5115566 -0.32577494 -0.2532513 -0.18672293 0.09798942 0.32989717 -0.22136474 -0.059170786
-0.06673898 -0.30769423 -0.3079493 -0.14992611 0.08456232 -0.082813874 0.3211506 0.062791415
-0.16756201 -0.3713351 -0.20443107 -0.39888442 0.35465235 0.13024278 0.42234358 -0.16926655
-0.40287855 -0.20533979 -0.40690234 0.15657109 0.25126576 -0.43454453 0.39140725 0.22526498
00000000: 34f2 7e3e 00fd 563e adbb 3b3d 43f7 a93e
00000010: 83a6 c83c 77fa d1be 4b2d bebd 85b9 b83e
00000020: 887f 0abf a0b4 3e3e 78b6 a63e 4242 f7be
00000030: f950 90be 51a2 80be 1581 76bd 5638 bf3e
00000040: 60f5 023f f9cb a6be 28aa 81be 4c34 3fbe
00000050: adae c83d 48e8 a83e 70ad 62be 115d 72bd
00000060: 72ae 88bd 198a 9dbe 88ab 9dbe 3b86 19be
00000070: 022f ad3d 529a a9bd da6d a43e c998 803d
00000080: 6095 2bbe a21f bebe 6156 51be 943a ccbe
00000090: fe94 b53e 5d5e 053e 6b3d d83e 3654 2dbe
000000a0: 1946 cebe 9844 52be 8155 d0be 2c54 203e
000000b0: e8a5 803e 9f7c debe 8866 c83e ddab 663e

GRU.weight_hh_l11 f4 [12, 4]
-0.15288498 -0.012516897 0.43600842 -0.51881164 0.076201275 -0.44874606 -0.28953886 0.2340274
-0.12811857 0.19485585 -0.1151255 0.3527126 -0.12354977 0.35856014 0.015632607 -0.31977051
0.2854228 0.23782809 -0.13782482 0.049936138 0.53344303 0.046172198 0.43817192 -0.38500273
-0.21644492 0.3268782 -0.28291696 0.0073775654 -0.36916277 0.4498158 -0.18817861 0.5435167
0.18852262 -0.027137298 0.4025955 0.12603126 0.20834519 -0.2626172 0.25298595 0.19223544
-0.24533404 0.5291946 0.11809327 0.25765932 0.24367933 -0.19104075 -0.3648473 0.3110592
00000000: e18d 1cbe ac13 4dbc 7f3c df3e d7d0 04bf
00000010: 6a0f 9c3d 0bc2 e5be 703e 94be e1a4 6f3e
00000020: 8431 03be 4b88 473e ebc6 ebbd bf96 b43e
00000030: a907 fdbd 3295 b73e f40f 803c f6b8 a3be
00000040: f022 923e 3589 733e f321 0dbe d689 4c3d
00000050: b98f 083f 0f1f 3d3d 1258 e03e 141f c5be
00000060: bda3 5dbe 945c a73e 7eda 90be 81bf f13b
00000070: e702 bdbe 424e e63e e5b1 40be e923 0b3f
00000080: 130c 413e 0a4f debc ff20 ce3e 570e 013e
00000090: 7158 553e c375 86be 6087 813e 5ed9 443e
000000a0: d938 7bbe 4c79 073f e2da f13d eceb 833e
000000b0: 1387 793e 30a0 43be 44cd babe 2743 9f3e

GRU.bias_ih_l11 f4 [12]
-0.10754673 0.06762918 0.5269537 -0.12500657 -0.27134252 -0.20408681 -0.50619954 -0.24313106
-0.038387254 0.08255203 -0.5231654 -0.04730191
00000000: 7641 dcbd 2b81 8a3d 70e6 063f b901 00be
00000010: 68ed 8abe 22fc 50be 4b96 01bf 59f7 78be
00000020: f43b 1dbd 0a11 a93d 2bee 05bf a6bf 41bd

GRU.bias_hh_l11 f4 [12]
-0.119400665 -0.04854023 -0.3457492 -0.19345161 -0.109734386 0.17173553 -0.0734954 0.0050630425
0.28666723 -0.39793763 -0.14812316 -0.29065964
00000000: 5688 f4bd 1fd2 46bd 0a06 b1be 2e18 46be
00000010: 6cbc e0bd 70db 2f3e c284 96bd e1e7 a53b
00000020: 0cc6 923e 7bbe cbbe 99ad 17be 57d1 94be

GRU.weight_ih_l12 f4 [12, 4]
-0.19995444 0.31831294 -0.106215425 -0.5347624 -0.57274294 -0.28263342 -0.25705373 -0.1619802
0.24734356 0.11929927 0.30328676 0.100197725 -0.07722068 -0.17611018 0.24819763 -0.013509268
-0.13778606 0.08248396 -0.14426392 0.36243406 -0.3758214 -0.41663313 0.27650437 -0.24210946
0.19466472 0.5746512 -0.1044155 -0.039684728 0.31381407 0.06651447 -0.07184675 -0.29678133
0.27805007 0.2795029 -0.56754225 -0.45917743 0.4800183 0.3949111 0.23854758 -0.09885923
-0.04476169 0.22952761 -0.06841005 -0.4601677 0.38094792 0.3127889 -0.108943574 -0.3980233
00000000: dbc0 4cbe eaf9 a23e 7987 d9bd 30e6 08bf
00000010: 489f 12bf 54b5 90be 8c9c 83be 23de 25be
00000020: a147 7d3e 2d53 f43d 6748 9b3e 7734 cd3d
00000030: e025 9ebd 3a56 34be 8527 7e3e fa55 5dbc
00000040: ca17 0dbe 5aed a83d ecb9 13be f590 b93e
00000050: aa6b c0be f050 d5be fb91 8d3e 8beb 77be
00000060: 3056 473e 571c 133f cbd7 d5bd 748c 22bd
00000070: 3dac a03e bd38 883d 6424 93bd b9f3 97be
00000080: 945c 8e3e 011b 8f3e 734a 11bf 4e19 ebbe
00000090: f5c4 f53e ca31 ca3e d145 743e b576 cabd
000000a0: 0958 37bd 4909 6b3e 911a 8cbd 1a9b ebbe
000000b0: 9b0b c33e de25 a03e cf1d dfbd b6c9 cbbe

GRU.weight_hh_l12 f4 [12, 4]
0.2731141 -0.18037806 -0.12606338 0.1116394 0.043755453 -0.259432 -0.24427336 -0.030202005
0.021998232 0.038778134 0.24887788 -0.16032958 0.06873385 0.5308444 -0.26659757 0.01622967
0.3906968 0.13131383 -0.21599919 -0.041561887 0.3731993 -0.40967035 -0.029603513 -0.17141326
-0.3519612 0.026477687 -0.23129357 -0.17715947 0.018599154 -0.124195404 0.24817888 -0.15936999
0.42374223 -0.40809262 0.26596797 -0.34488744 -0.21097875 0.0555846 0.04179536 -0.27048475
0.101113275 -0.013111815 0.31846023 0.40841073 0.24815772 -0.33771414 0.2467269 0.026349468
00000000: 9cd5 8b3e 07b5 38be c216 01be 33a3 e43d
00000010: eb38 333d 45d4 84be cc22 7abe 326a f7bc
00000020: a335 b43c d2d5 1e3d d8d9 7e3e 702d 24be
00000030: 55c4 8c3d 6be5 073f 7a7f 88be 16f4 843c
00000040: 6909 c83e 2277 063e e42e 5dbe cc3c 2abd
00000050: fb13 bf3e 50c0 d1be 1183 f2bc f586 2fbe
00000060: 4234 b4be bce7 d83c 39d8 6cbe 4b69 35be
00000070: 415d 983c 295a febd 9b22 7e3e e331 23be
00000080: bef4 d83e 84f1 d0be f42c 883e 1695 b0be
00000090: d00a 58be adac 633d 9d31 2b3d fa7c 8abe
000000a0: 7a14 cf3d f0d2 56bc 380d a33e 361b d13e
000000b0: 0f1d 7e3e dee8 acbe faa5 7c3e d7da d73c

GRU.bias_ih_l12 f4 [12]
0.029307084 -0.2939363 0.2703169 0.27431333 0.33307707 -0.31089506 -0.5633172 -0.16863525
-0.09135553 -0.41768643 0.09614283 -0.50834596
00000000: 6915 f03c d27e 96be fa66 8a3e cc72 8c3e
00000010: 1489 aa3e a32d 9fbe 8e35 10bf b8ae 2cbe
00000020: 9c18 bbbd ffda d5be 88e6 c43d f622 02bf

GRU.bias_hh_l12 f4 [12]
0.42477855 -0.296674 0.19250458 0.057116553 -0.20537835 0.42754772 -0.39195606 0.020750804
-0.12674202 -0.033253375 0.2832242 -0.32762176
00000000: 937c d93e a8e5 97be ec1f 453e 0cf3 693d
00000010: b44e 52be 89e7 da3e 77ae c8be 97fd a93c
00000020: a9c8 01be b134 08bd c302 913e 0abe a7be

GRU.weight_ih_l13 f4 [12, 4]
-0.3861989 -0.3618023 0.40302244 -0.0712117 0.44213828 -0.4186929 -0.19417322 -0.31380835
-0.33294642 0.14550693 -0.1681121 -0.40108365 0.12669457 -0.45840353 0.5511936 -0.20533538
-0.43630874 0.47099546 -0.23143281 -0.28275916 -0.1252707 -0.34547135 0.030145435 0.5274968
-0.32642066 0.48267147 -0.47494903 0.5636041 0.21012554 0.29792303 0.12893184 0.32634306
-0.33988276 -0.24948093 0.36025065 0.24352099 0.3560366 0.027492452 0.34429532 0.35829797
-0.046902552 0.0031395087 0.0908182 0.0135628795 0.116804905 0.21918465 0.4686181 -0.5487669
00000000: ddbb c5be 273e b9be f558 ce3e 71d7 91bd
00000010: f35f e23e ea5e d6be 58d5 46be 7dab a0be
00000020: f477 aabe c5ff 143e 9425 2cbe d65a cdbe
00000030: 39bc 013e deb3 eabe 061b 0d3f 7043 52be
00000040: dc63 dfbe 5126 f13e b9fc 6cbe cfc5 90be
00000050: f646 00be 9fe1 b0be 8ff3 f63c 080a 073f
00000060: 9c20 a7be b720 f73e 852c f3be 5c48 103f
00000070: 262b 573e 5e89 983e b506 043e 7016 a73e
00000080: 1d05 aebe ee77 7fbe c672 b83e 915d 793e
00000090: 6e4a b63e da37 e13c 7a47 b03e d572 b73e
000000a0: e41c 40bd 37c0 4d3b e4fe b93d d736 5e3c
000000b0: 6937 ef3d f171 603e b6ee ef3e fd7b 0cbf

GRU.weight_hh_l13 f4 [12, 4]
-0.3053305 -0.34559786 -0.35116744 -0.4013836 0.36624706 -0.16529723 -0.06992029 -0.28371844
-0.38466874 -0.14357184 -0.2605215 -0.27634788 0.20726602 -0.2741536 -0.12756011 -0.20489652
-0.3053529 0.33126998 0.43415275 -0.2709252 0.21090084 0.0040816157 -0.13722043 0.13105123
-0.21788168 -0.3083898 0.3146995 0.10156473 -0.4406102 -0.18125935 -0.1670189 0.18749686
-0.33856508 -0.36848176 -0.37572452 -0.5405436 0.22220153 0.37433815 -0.28390017 0.5664069
-0.31196675 0.13852973 -0.2774008 -0.34635413 0.013132217 -0.02568778 -0.3726684 0.20146412
00000000: 4754 9cbe 34f2 b0be 38cc b3be 2782 cdbe
00000010: bc84 bb3e ad43 29be 5e32 8fbd 8b43 91be
00000020: 4df3 c4be 7f04 13be 1363 85be 787d 8dbe
00000030: 8b3d 543e dc5d 8cbe 1e9f 02be 65d0 51be
00000040: 3757 9cbe 389c a93e 4549 de3e b5b6 8abe
00000050: 64f6 573e 13bf 853b 8383 0cbe 4b32 063e
00000060: 601c 5fbe 45e5 9dbe 4b20 a13e 2b01 d03d
00000070: a997 e1be 0d9c 39be 0107 2bbe 2dff 3f3e
00000080: 6758 adbe a4a9 bcbe f75e c0be 1161 0abf
00000090: cc88 633e 40a9 bf3e 5d5b 91be 0b00 113f
000000a0: 1bba 9fbe bdda 0d3e 7a07 8ebe 5455 b1be
000000b0: 8328 573c 2e6f d2bc 64ce bebe 9c4c 4e3e

GRU.bias_ih_l13 f4 [12]
-0.10987237 -0.2291513 0.40300408 0.1332914 0.44177455 -0.5289464 -0.32463694 -0.29226017
-0.16372196 0.38942406 -0.28669706 0.23396182
00000000: c404 e1bd a3a6 6abe 8d56 ce3e 8a7d 083e
00000010: 4630 e23e 0869 07bf d036 a6be 20a3 95be
00000020: bba6 27be 9762 c73e f5c9 92be b093 6f3e

GRU.bias_hh_l13 f4 [12]
0.028502151 0.47841728 0.37500486 0.27244586 0.34843266 -0.4078829 -0.031367775 -0.27524608
0.3242375 -0.16358857 -0.09803185 0.0047944183
00000000: 587d e93c 1cf3 f43e a300 c03e 067e 8b3e
00000010: c465 b23e 07d6 d0be 7f7b 00bd 0eed 8cbe
00000020: 7502 a63e c383 27be ecc4 c8bd 7f1a 9d3b

GRU.weight_ih_l14 f4 [12, 4]
0.35006806 0.09436404 0.28674862 0.496927 -0.47553778 -0.320728 0.03789026 -0.0975261
0.07035099 0.23614354 -0.31652242 -0.12192044 0.46370122 0.061453808 0.061183196 0.40314078
-0.18976888 -0.20493147 -0.20324983 -0.2538747 -0.28245905 0.09192901 0.36232266 -0.19386904
-0.4321684 -0.22148222 0.15326405 0.16613856 0.22238776 -0.22446975 0.6056822 -0.35000753
-0.46618688 -0.011275578 0.37602308 0.21743253 -0.4395115 -0.30886683 -0.24215643 0.1142908
0.0922004 -0.472792 0.46849215 0.17686723 -0.35248554 0.33474046 0.031732425 0.24225348
00000000: 1f3c b33e ef41 c13d b7d0 923e 376d fe3e
00000010: b079 f3be 7636 a4be d132 1b3d c4bb c7bd
00000020: 2e14 903d 9dcf 713e 3a0f a2be 6cb1 f9bd
00000030: 3f6a ed3e fdb6 7b3d 3b9b 7a3d 7868 ce3e
00000040: c652 42be 8ed9 51be b920 50be ddfb 81be
00000050: 799e 90be 4745 bc3d 5b82 b93e 9b85 46be
00000060: 2d45 ddbe 3ccc 62be 40f1 1c3e 3a20 2a3e
00000070: 9eb9 633e 66db 65be fd0d 1b3f 3034 b3be
00000080: 0cb0 eebe 34bd 38bc 1986 c03e a2a6 5e3e
00000090: a707 e1be cb23 9ebe dbf7 77be 4c11 ea3d
000000a0: 90d3 bc3d cb11 f2be 34de ef3e af1c 353e
000000b0: fc78 b4be 1a63 ab3e dcf9 013d 4c11 783e

GRU.weight_hh_l14 f4 [12, 4]
0.46000946 0.43163967 0.16930437 0.2894825 0.05125163 0.29443604 0.048914805 0.54740596
-0.09641752 0.12146245 0.44304958 -0.19873443 -0.23130308 0.50237876 0.30503416 -0.060137067
0.17865668 0.07283365 0.19336602 0.24964876 -0.58606917 0.35634375 0.06408745 -0.5731779
-0.163777 -0.042193484 0.28546315 -0.34759688 0.15146317 -0.06382436 -0.3529695 0.23588212
0.12402753 0.35222366 -0.16205378 0.16864245 0.25872225 0.36254606 -0.39058486 0.5851581
0.37909544 0.42248538 0.33141643 -0.5412481 0.21578042 0.1343557 -0.21160482 0.34025124
00000000: 5c86 eb3e e0ff dc3e 205e 2d3e 0d37 943e
00000010: 3bed 513d 52c0 963e e45a 483d cc22 0c3f
00000020: 8c76 c5bd 4ec1 f83d 65d7 e23e 0a81 4bbe
00000030: b7da 6cbe e59b 003f 702d 9c3e 4952 76bd
00000040: c7f1 363e cf29 953d be01 463e eda3 7f3e
00000050: a108 16bf b072 b63e 4840 833d c9bb 12bf
00000060: 28b5 27be 13d3 2cbd 3a28 923e 38f8 b1be
00000070: 2919 1b3e 59b6 82bd 6bb8 b4be 158b 713e
00000080: 2502 fe3d a956 b43e 6df1 25be 9bb0 2c3e
00000090: 3e77 843e a39f b93e bdfa c7be eccc 153f
000000a0: cc18 c23e 0150 d83e 6aaf a93e 3c8f 0abf
000000b0: 8bf5 5c3e 8a94 093e efae 58be 6935 ae3e

GRU.bias_ih_l14 f4 [12]
-0.14806491 0.070190065 0.41098037 -0.2196657 0.26336426 -0.38095048 0.48966163 0.20467137
0.5354199 0.32325947 -0.035986733 0.104112834
00000000: 549e 17be cfbf 8f3d 056c d23e 0cf0 60be
00000010: aed7 863e f10b c3be eeb4 fa3e 5f95 513e
00000020: 4711 093f 4482 a53e d366 13bd 1c39 d53d

GRU.bias_hh_l14 f4 [12]
0.57638174 0.5619256 -0.01871964 -0.38514912 -0.5866272 -0.46108124 0.22245952 -0.23723386
0.37153518 0.44959328 0.1977319 0.43915206
00000000: c18d 133f 5bda 0f3f ee59 99bc 4432 c5be
00000010: 332d 16bf d712 ecbe 6ecc 633e 6fed 72be
00000020: dc39 be3e 1731 e63e 3b7a 4a3e 8ad8 e03e

GRU.weight_ih_l15 f4 [12, 4]
0.39497834 -0.4940322 -0.51479757 -0.49194965 -0.37444147 -0.28706115 -0.48680305 0.077101484
-0.039586 0.45344928 0.2808038 0.159327 -0.37348878 -0.2795703 0.111507036 0.01752939
-0.13812411 0.11228637 0.14329372 -0.5573697 -0.35030898 -0.09834361 0.14101866 0.104141854
-0.19048716 0.008307034 -0.5290929 -0.09451034 -0.40721816 -0.40002304 -0.28423727 0.26638955
-0.23206142 -0.4744762 0.3107899 -0.41721818 -0.2805059 -0.5811266 -0.06772672 0.3887758
0.008606725 -0.27827403 -0.30183002 0.30547807 0.053955793 0.11264148 -0.07511276 0.22759265
00000000: 9a3a ca3e caf1 fcbe c6c9 03bf d3e0 fbbe
00000010: cbb6 bfbe aef9 92be 403e f9be 62e7 9d3d
00000020: ee24 22bd 812a e83e 84c5 8f3e 9e26 233e
00000030: ec39 bfbe d723 8fbe cd5d e43d cc99 8f3c
00000040: 6870 0dbe 65f6 e53d 97bb 123e c8af 0ebf
00000050: b35b b3be 6068 c9bd 3267 103e 5348 d53d
00000060: 110f 43be 3a1a 083c a272 07bf a38e c1bd
00000070: e67e d0be d2cf ccbe 8c87 91be 3664 883e
00000080: 82a1 6dbe 8bee f2be db1f 9f3e 9f9d d5be
00000090: 789e 8fbe b6c4 14bf 4eb4 8abd 9f0d c73e
000000a0: 3903 0d3c ef79 8ebe 7789 9abe 9f67 9c3e
000000b0: c000 5d3d 94b0 e63d b8d4 99bd 0c0e 693e

GRU.weight_hh_l15 f4 [12, 4]
0.21255781 -0.2639887 -0.5222374 -0.22151938 0.26647878 0.15361957 0.16858543 0.16051947
-0.4911319 0.3166628 -0.25701815 0.20151706 0.1743804 0.28953955 0.013914631 -0.054538507
0.32234702 -0.25179943 -0.32517782 -0.07255073 0.17851771 0.5511088 0.43331596 -0.5571278
-0.32093915 -0.33395398 0.36378023 -0.47401297 0.4171615 -0.2580692 -0.3689278 0.15968855
0.51324767 -0.26334125 -0.43918332 0.017161801 -0.33084995 -0.08496768 0.29300055 -0.5394909
-0.0057807523 0.33273178 -0.17152463 -0.27035215 0.08560853 -0.25973132 0.52602553 0.24683835
00000000: c1a8 593e 8729 87be 5ab1 05bf fad5 62be
00000010: e86f 883e 734e 1d3e a9a1 2c3e 375f 243e
00000020: a475 fbbe a021 a23e e297 83be 7d5a 4e3e
00000030: c790 323e 873e 943e 31fa 633c c563 5fbd
00000040: ab0a a53e dbeb 80be b57d a6be 7a95 94bd
00000050: 59cd 363e 7715 0d3f 97db dd3e ed9f 0ebf
00000060: 2352 a4be 04fc aabe 6741 ba3e d4b1 f2be
00000070: 3196 d53e a521 84be 1be4 bcbe 6585 233e
00000080: 3364 033f aad4 86be a3dc e0be e896 8c3c
00000090: 2a65 a9be 8903 aebd 2b04 963e 131c 0abf
000000a0: 776c bdbb d25b aa3e 27a4 2fbe 996b 8abe
000000b0: 8653 af3d 81fb 84be 9ca9 063f 31c3 7c3e

GRU.bias_ih_l15 f4 [12]
0.18129823 0.3125891 -0.3931598 0.04120218 0.24284576 -0.32976067 0.38949397 -0.27660272
-0.03219848 -0.5315219 0.29799446 0.32052523
00000000: 3ea6 393e ae0b a03e 3e4c c9be 9ec3 283d
00000010: 8fac 783e 64d6 a8be c16b c73e df9e 8dbe
00000020: 8ee2 03bd d211 08bf bb92 983e e21b a43e

GRU.bias_hh_l15 f4 [12]
-0.13262278 0.41950712 -0.19499493 0.024937596 0.35636154 -0.28039038 0.35952142 -0.006993911
0.15255934 0.2722723 -0.4685324 0.04775449
00000000: 44ce 07be a3c9 d63e c0ac 47be ee49 cc3c
00000010: 0575 b63e 548f 8fbe 3113 b83e 2e2d e5bb
00000020: 8438 1c3e 4667 8b3e 7be3 efbe 369a 433d

GRU.weight_ih_l16 f4 [12, 4]
0.31111437 0.34411818 -0.2851541 0.045161545 -0.25512967 -0.09920063 0.49638817 0.17828801
0.13450204 -0.17018044 0.39548695 -0.24461624 -0.33593345 0.33722967 0.337327 -0.43494543
-0.08872093 -0.25512752 -0.16571626 0.039820317 -0.3235491 0.47723243 -0.0406875 -0.10684645
0.15080604 -0.15776671 -0.20546691 -0.21208097 0.108293675 0.17223267 0.45378485 0.35109678
0.08828081 -0.24379827 -0.4282526 -0.0331741 -0.37545434 -0.031800993 0.38839364 0.1557195
-0.2633904 -0.48470402 -0.26064375 0.5260205 -0.4333998 0.039740097 0.08595406 0.16756919
00000000: 624a 9f3e 4230 b03e b8ff 91be 50fb 383d
00000010: 5ba0 82be b329 cbbd 9726 fe3e 2291 363e
00000020: e7ba 093e c843 2ebe 447d ca3e ae7c 7abe
00000030: 78ff abbe 5ea9 ac3e 20b6 ac3e 2bb1 debe
00000040: 52b3 b5bd 13a0 82be 86b1 29be a11a 233d
00000050: 3aa8 a5be cf57 f43e f0a7 26bd 50d2 dabd
00000060: e66c 1a3e 998d 21be eb65 52be c12b 59be
00000070: 13c9 dd3d c35d 303e 7d56 e83e f5c2 b33e
00000080: 92cc b43d 41a6 79be ed43 dbbe 91e1 07bd
00000090: 8d3b c0be c241 02bd 88db c63e ef74 1f3e
000000a0: 1bdb 86be 202b f8be 1973 85be 48a9 063f
000000b0: 94e6 ddbe 83c6 223d af08 b03d 4297 2b3e

GRU.weight_hh_l16 f4 [12, 4]
0.60253125 -0.12702067 0.06312889 0.43851465 -0.20894583 0.58767945 -0.32872567 -0.11427611
0.193347 0.50336814 0.13055629 -0.17379573 -0.2631258 0.13734062 0.2645375 0.121594876
0.036076143 -0.20558552 -0.37813684 0.48188046 0.36018553 -0.30515313 -0.2507364 -0.3765354
-0.20615819 -0.04769299 -0.13303761 0.38602367 -0.45033577 0.2713042 -0.085141644 0.20411742
-0.24805035 0.30118313 0.5854237 0.29200402 -0.22937602 -0.15170608 0.45526582 -0.23297834
-0.028953273 0.46273196 -0.29475084 -0.14374301 -0.139925 0.32686996 -0.14971828 0.22570008
00000000: 7d3f 1a3f b511 02be b849 813d fe84 e03e
00000010: e5f5 55be 2972 163f bb4e a8be 9809 eabd
00000020: c2fc 453e bcdc 003f 8cb0 053e 82f7 31be
00000030: 6db8 86be 05a3 0c3e 7671 873e bc06 f93d
00000040: 94c4 133d 0385 52be 279b c1be 09b9 f63e
00000050: 3d6a b83e 083d 9cbe 8560 80be 3fc9 c0be
00000060: 221b 53be ba59 43bd 033b 08be e5a4 c53e
00000070: 6992 e6be 62e8 8a3e be5e aebd 2804 513e
00000080: e900 7ebe ad34 9a3e 54de 153f 8d81 953e
00000090: 8ce1 6abe d758 1bbe 9a18 e93e e091 6ebe
000000a0: 6a2f edbc 34eb ec3e 95e9 96be 5e31 13be
000000b0: 8048 0fbe 805b a73e c04f 19be ec1d 673e

GRU.bias_ih_l16 f4 [12]
0.43315065 -0.29933104 0.29454082 -0.4204762 -0.2945039 -0.5780652 0.344775 -0.46983624
0.56946814 0.24811739 0.40667152 0.092688926
00000000: ecc5 dd3e eb41 99be 0ece 963e a848 d7be
00000010: 37c9 96be 15fc 13bf 5986 b03e 608e f0be
00000020: aac8 113f 7c12 7e3e 4037 d03e b1d3 bd3d

GRU.bias_hh_l16 f4 [12]
-0.26008075 -0.39481196 0.546257 0.039387167 -0.5544982 -0.46107662 0.38100472 -0.34702396
0.12836458 0.5297719 0.25586474 -0.4060616
00000000: 4e29 85be cb24 cabe 80d7 0b3f 7054 213d
00000010: 98f3 0dbf 3c12 ecbe 0d13 c33e 20ad b1be
00000020: 0172 033e 229f 073f b400 833e 4ee7 cfbe
