aa2_models/model8.pt (torch_old, 5139 bytes, 24 tensors)

lin1.weight f4 [2, 7]
000000 15 8d 98 3e ee 1c 07 3e 67 7e 19 be 57 2f b1 bc
       0.29795137 0.1319463 -0.14989625 -0.021629019
000010 c1 12 c1 bd 4a 54 73 3e d2 be bd be 00 aa a7 bc
       -0.09427405 0.23762622 -0.37059647 -0.020466805
000020 9f a2 a1 3e 7c cb 72 3e 59 40 ab 3e 6b 38 37 be
       0.31569383 0.23710436 0.3344753 -0.17892615
000030 01 05 bb 3e 5d eb 68 bd
       0.36527255 -0.056865085

lin1.bias f4 [2]
000000 f2 c4 86 be 6e 3d a6 3e
       -0.26322132 0.32468742

GRU.weight_ih_l0 f4 [6, 2]
000000 70 d2 17 3f 4f f9 d1 bd 9d 54 1a bd be 3f 27 bf
       0.5930548 -0.1025263 -0.03767835 -0.6533164
000010 df 25 77 bd 91 52 10 bf 71 84 0d bf 46 5a b8 be
       -0.06033885 -0.56375986 -0.55280215 -0.36006373
000020 c8 ca dc 3e 07 52 9a be b5 5c 8e be b8 6c f5 3d
       0.4312346 -0.30140707 -0.27805105 0.11983627

GRU.weight_hh_l0 f4 [6, 2]
000000 d8 fd 1b 3e d4 9b b5 3e e3 bb 5c 3e 58 65 1f bf
       0.15233552 0.3547045 0.21556048 -0.62264013
000010 92 1f 15 3f bb 12 2e bf 5e b7 11 bf 27 0e f4 be
       0.582513 -0.6799733 -0.5692042 -0.47667047
000020 9e 93 a1 be 04 60 1b 3e 14 2e 9a be 44 c8 76 3e
       -0.31557935 0.15173346 -0.3011328 0.24099833

GRU.bias_ih_l0 f4 [6]
000000 0c ec 4e be fc 3a 44 3e 79 56 00 3f ca 08 c3 3e
       -0.20207232 0.19163126 0.50131947 0.38092643
000010 b5 8a c5 be 59 e1 2d 3f
       -0.38582388 0.6792198

GRU.bias_hh_l0 f4 [6]
000000 cd 70 1c bf 4a ab 18 bf 5a 2b 9a be 09 3f 95 be
       -0.6110962 -0.59636366 -0.301112 -0.29149655
000010 4a 9b 28 3f 36 0a d9 3e
       0.6586195 0.42390603

lin3.weight f4 [5, 2]
000000 86 f5 84 3e 0c c6 00 3f cf aa 5d be f3 22 c8 bc
       0.2596857 0.50302196 -0.2164719 -0.024430728
000010 76 cc 7f 3e 03 c5 f0 be cd dc ae be ca af 95 3e
       0.2498034 -0.47025308 -0.34152833 0.2923568
000020 cb 01 c6 3e 96 62 58 3e
       0.38673243 0.21131358

lin3.bias f4 [5]
000000 e0 b5 c4 be a3 c1 f4 3e 93 33 2e 3f cc 23 26 3f
       -0.3842001 0.47803983 0.68047446 0.6489837
000010 b9 b9 77 be
       -0.24191941

exp_avg f4 [2, 7]
000000 e9 0a fc a4 00 00 00 00 8b 65 7c b5 8e a1 ef 36
       -1.0930606e-16 0.0 -9.402508e-07 7.1415625e-06
000010 6b 2c c8 b5 00 00 00 00 9a e2 8b b5 bd 39 a4 a4
       -1.4914089e-06 0.0 -1.0422257e-06 -7.1221475e-17
000020 00 00 00 00 48 74 b9 36 24 55 b3 36 b6 2b f9 36
       0.0 5.5269666e-06 5.3445274e-06 7.425867e-06
000030 00 00 00 00 11 53 b8 36
       0.0 5.4932975e-06

exp_avg_sq f4 [2, 7]
000000 04 25 4d 08 00 00 00 00 6c 48 aa 2f e2 cd 55 2f
       6.1733455e-34 0.0 3.097428e-10 1.9445381e-10
000010 78 8b 07 2f 00 00 00 00 cb 14 4c 2d 71 43 ae 07
       1.2327728e-10 0.0 1.1600674e-11 2.6220249e-34
000020 00 00 00 00 66 35 41 2f ef 99 3e 2e 30 27 ec 2e
       0.0 1.7572219e-10 4.333772e-11 1.07389986e-10
000030 00 00 00 00 b2 6b e1 2d
       0.0 2.5627365e-11

exp_avg f4 [2]
000000 ac 0f 8a bd c4 55 72 3d
       -0.067412704 0.059163824

exp_avg_sq f4 [2]
000000 23 d4 3d 3b e3 90 0f 3b
       0.0028965555 0.0021906428

exp_avg f4 [6, 2]
000000 19 de 22 3c a4 e1 48 bc aa 96 a0 3b 10 10 c6 bb
       0.0099406475 -0.012260828 0.004900773 -0.0060443953
000010 4e ba 36 b9 06 a8 60 39 ec 2c 90 39 c4 fa b0 b9
       -0.00017426276 0.00021424898 0.0002749929 -0.0003375617
000020 77 63 58 3d f9 6e 85 bd 25 4c 1c 3d 2f c9 40 bd
       0.052829232 -0.06515307 0.038158555 -0.047066864

exp_avg_sq f4 [6, 2]
000000 37 d7 78 38 a0 5e bc 38 23 9f 65 37 52 d3 ad 37
       5.9328242e-05 8.982164e-05 1.3686516e-05 2.072161e-05
000010 43 ce a1 32 15 9c f3 32 74 f4 3b 33 19 a7 8c 33
       1.8836664e-08 2.8359901e-08 4.376166e-08 6.549653e-08
000020 35 07 e1 3a eb 4d 2a 3b 82 3c 60 3a 38 c6 a9 3a
       0.0017168286 0.0025986384 0.0008553938 0.001295275

exp_avg f4 [6, 2]
000000 e3 10 4b 3c ec d6 e8 bc 83 7a c5 3b 12 06 65 bc
       0.012394163 -0.028422795 0.0060265674 -0.013978498
000010 fe 3d 18 ba 8e 77 28 3a 77 10 33 3a cf 3e 77 ba
       -0.00058075774 0.00064265064 0.00068307616 -0.00094316615
000020 95 5f a7 3c bb 58 41 bd 7b 13 38 3c 13 ff d6 bc
       0.02043132 -0.04720376 0.011235113 -0.026244676

exp_avg_sq f4 [6, 2]
000000 3e bb c9 38 c2 88 f5 39 bf 37 b5 37 d4 a4 e1 38
       9.6193035e-05 0.00046831934 2.160284e-05 0.00010759538
000010 e0 9f 5a 34 40 ae 85 34 7c 91 91 34 7a ae 06 35
       2.0360994e-07 2.4899964e-07 2.7114208e-07 5.0172787e-07
000020 47 02 89 39 cc 0d a9 3a fc 9f 9e 38 53 13 c8 39
       0.00026132373 0.0012897789 7.5638265e-05 0.0003816137

exp_avg f4 [6]
000000 18 9f 1a bd 66 73 98 bc 43 aa 2c 3a 6b 18 87 ba
       -0.03774938 -0.018609714 0.000658665 -0.001030696
000010 b9 64 4d be a9 57 14 be
       -0.20057954 -0.14486565

exp_avg_sq f4 [6]
000000 bd 7c 5a 3a 08 b6 49 39 63 dc 8c 34 90 26 21 35
       0.00083346275 0.00019236666 2.6237385e-07 6.003329e-07
000010 c8 75 c5 3c c8 cc 44 3c
       0.024104014 0.012011714

exp_avg f4 [6]
000000 18 9f 1a bd 66 73 98 bc 43 aa 2c 3a 6b 18 87 ba
       -0.03774938 -0.018609714 0.000658665 -0.001030696
000010 dc 97 80 bd 89 58 0f bd
       -0.06278965 -0.034996543

exp_avg_sq f4 [6]
000000 bd 7c 5a 3a 08 b6 49 39 63 dc 8c 34 90 26 21 35
       0.00083346275 0.00019236666 2.6237385e-07 6.003329e-07
000010 b8 e4 16 3b d7 71 33 3a
       0.002302451 0.00068452716

exp_avg f4 [5, 2]
000000 87 c9 c7 3e 2c 30 2f bf c8 db cf bd b3 27 37 3e
       0.3902094 -0.6843288 -0.10149342 0.17886238
000010 4d f0 8c bd ee 73 02 3e a0 dd 34 be f8 66 98 3e
       -0.06881771 0.12739536 -0.17662668 0.2976606
000020 f8 3d 31 bd ad ae a4 3d
       -0.04327199 0.08041129

exp_avg_sq f4 [5, 2]
000000 a9 e4 b9 3d 85 e1 88 3e 12 2f ca 3b 7b 2d 96 3c
       0.090768166 0.26734558 0.006170162 0.018332234
000010 78 17 39 3b 3a 1a 17 3c 3f 05 98 3c 6e a7 4f 3d
       0.0028242748 0.0092225615 0.018557189 0.050696783
000020 dc 51 92 3a de de 6f 3b
       0.0011163312 0.0036601345

exp_avg f4 [5]
000000 69 11 5b bf 87 53 65 3e f4 72 25 3e b4 7e bc 3e
       -0.8557344 0.22395144 0.16157132 0.36815417
000010 85 03 d1 3d
       0.102057494

exp_avg_sq f4 [5]
000000 87 b8 d7 3e 76 44 ed 3c 72 14 75 3c fd 0f a0 3d
       0.4213297 0.028963309 0.014958488 0.078155495
000010 3d a7 c2 3b
       0.0059403465
