aa2_models/model8.pt (torch_old, 5176 bytes, 24 tensors)

lin1.weight f4 [2, 7]
00000000: bd2a 12bd 3486 ab3d 8e7a 553e b95b ed3c
00000010: 36d7 4b3e 787e 9cbd e7b2 acbc 0d9b 5ebe
00000020: 5ec9 91be 3f10 3f3e b671 1d3e c1ab 89be
00000030: 98a6 dbbd 1dd8 3cbe
-0.03568529 0.083752066 0.20847532 0.0289744 0.19906315 -0.076413095 -0.021081401 -0.21738835
-0.28473943 0.18658541 0.15375409 -0.2688885 -0.107251346 -0.18441816

lin1.bias f4 [2]
00000000: 3ce2 85be c9cd 893d
-0.26149166 0.067287035

GRU.weight_ih_l0 f4 [6, 2]
00000000: 3d8b c6bc 33e8 f03e f646 f43e 7e7f a03e
00000010: b54e 753e 66c8 8c3e ef7d c6be d3de bf3e
00000020: 45fb 6dbe e8d0 053f 7a8e d0be 0cbd 343f
-0.024236316 0.47052154 0.4771039 0.3134727 0.23955806 0.27496642 -0.38767955 0.3747469
-0.23240383 0.5227189 -0.407337 0.7060096

GRU.weight_hh_l0 f4 [6, 2]
00000000: be27 c63e 9aa4 b43b 125f 9bbe efe5 c23e
00000010: 1b2c 90be 7c9e de3e 1adc 99bb d4cf 133e
00000020: f81f ee3e 8096 f73e b27c 0d3e 1c2a e03e
0.38702196 0.005512786 -0.3034597 0.3806605 -0.2815865 0.4348029 -0.0046954276 0.14434749
0.46508765 0.4835701 0.13817099 0.43782127

GRU.bias_ih_l0 f4 [6]
00000000: cca9 18bf 6172 103f 2ef1 193f 2c2a 2abf
00000010: 5b00 07bf fefa 243f
-0.5963409 0.5642453 0.60133636 -0.664706 -0.5273492 0.64445484

GRU.bias_hh_l0 f4 [6]
00000000: 2aa5 f53e f667 fb3e 5416 b7be cf16 193f
00000010: 8cbf 2bbf 1b43 7dbd
0.47977573 0.49102753 -0.35759223 0.5980043 -0.6708915 -0.061831575

lin3.weight f4 [6, 2]
00000000: 69bb 4abe 3274 bebd b593 68bd 6bec 7a3e
00000010: cb3f babd 5b9f 2bbf a7e7 b03e e683 eabe
00000020: e60d c13d e5cb d23d ac8a 8e3e 7389 ce3d
-0.19798054 -0.09299506 -0.05678149 0.24504249 -0.09094199 -0.6704003 0.34551737 -0.45803756
0.09426479 0.10292796 0.27840173 0.1008481

lin3.bias f4 [6]
00000000: dd82 9e3e 67d7 07be ef31 16bf b987 09bf
00000010: a58c 03bf 1b6a a23e
0.30959216 -0.13265763 -0.5866994 -0.5372272 -0.5138648 0.31721577

exp_avg f4 [2, 7]
00000000: ca8e e034 0000 0000 5c78 24bb c754 c738
00000010: 2d6f ceba 0000 0000 a63f bdba 820c d9b4
00000020: 0000 0000 b87a 643c e969 973b 6ca2 c73b
00000030: 0000 0000 1d9b d93b
4.1827144e-07 0.0 -0.0025096154 9.5048505e-05 -0.0015749686 0.0 -0.0014438524 -4.04285e-07
0.0 0.013945274 0.00462078 0.0060923602 0.0 0.0066408054

exp_avg_sq f4 [2, 7]
00000000: 0c60 842d 0000 0000 7891 1c3b c79c 2439
00000010: 82da b535 0000 0000 cc34 d835 4066 752d
00000020: 0000 0000 af3f 0d3b 46a2 1839 7ff9 6537
00000030: 0000 0000 98fd be37
1.5049316e-11 0.0 0.0023890417 0.00015698663 1.3549145e-06 0.0 1.610862e-06 1.3949342e-11
0.0 0.002155285 0.00014556301 1.3707554e-05 0.0 2.2767854e-05

exp_avg f4 [2]
00000000: 87d2 6d3d 9202 e7bd
0.058062103 -0.11279787

exp_avg_sq f4 [2]
00000000: 0b6f fe3a af02 f23b
0.0019411755 0.007385574

exp_avg f4 [6, 2]
00000000: 0d68 afbb 38b5 b03a 40db 043a 4895 06b9
00000010: 2a24 263b 504e 83ba 1379 86bb 294b 9dbb
00000020: b68d 1e3d 997b 19bc ee46 c03c 34b1 8bba
-0.00535298 0.0013481742 0.0005068071 -0.00012834847 0.0025351145 -0.0010017846 -0.0041037886 -0.0048002196
0.038709365 -0.009367847 0.023471322 -0.0010657669

exp_avg_sq f4 [6, 2]
00000000: ab7e 9337 a019 8935 7515 0a34 b2b4 0232
00000010: 6085 a436 8507 7d35 f2ac 473a 5736 593a
00000020: 357b 623a 319b 4238 ed6e 7639 4e19 b436
1.758275e-05 1.0214753e-06 1.2860058e-07 7.608081e-09 4.9031078e-06 9.4260787e-07 0.00076170184 0.00082859903
0.0008639575 4.6397738e-05 0.00023501711 5.367364e-06

exp_avg f4 [6, 2]
00000000: ef85 3fbc 5557 763c ef80 8b3a f049 bbba
00000010: 1938 3d3a 442c 06bb d734 1639 2cbd f6b9
00000020: d8d8 0e3d f60a 3cbd 95d6 f43c f0a6 1dbd
-0.011689647 0.01503547 0.0010643284 -0.0014289003 0.0007218137 -0.0020473162 0.00014324799 -0.0004706172
0.034874767 -0.04590889 0.029887477 -0.038489282

exp_avg_sq f4 [6, 2]
00000000: 6f14 bc38 7cf9 1139 be31 2035 5846 8935
00000010: 9e7f bc34 b9b2 3736 a5a5 5b32 59fe 1034
00000020: 51bd 453a ca29 a13a b14a 0e3a bee9 5f3a
8.9683446e-05 0.00013921218 5.967703e-07 1.0227768e-06 3.5110583e-07 2.7373155e-06 1.2785141e-08 1.3503576e-07
0.0007543164 0.0012295779 0.0005428 0.0008541605

exp_avg f4 [6]
00000000: fcda a53c a68f f9ba d87f 12bb a0d2 10ba
00000010: db7e 13be 9a62 84bd
0.020246021 -0.0019040003 -0.0022354033 -0.00055245496 -0.1440386 -0.06464119

exp_avg_sq f4 [6]
00000000: 22f5 8739 db09 f935 2714 6436 f9fe 4a34
00000010: 2cad 493c bd51 223b
0.00025931845 1.8554814e-06 3.3986378e-06 1.8905475e-07 0.012309354 0.0024767958

exp_avg f4 [6]
00000000: fcda a53c a68f f9ba d87f 12bb a0d2 10ba
00000010: 1ccb 7bbd a75c 54bd
0.020246021 -0.0019040003 -0.0022354033 -0.00055245496 -0.061472997 -0.051846173

exp_avg_sq f4 [6]
00000000: 22f5 8739 db09 f935 2714 6436 f9fe 4a34
00000010: 7132 143b 7cf2 cf3a
0.00025931845 1.8554814e-06 3.3986378e-06 1.8905475e-07 0.0022613073 0.0015865113

exp_avg f4 [6, 2]
00000000: 83c1 00be 7f3e 683d 8e53 cdbd 1260 233e
00000010: 3b62 07bd 9642 513d 17b4 ffbc ec3b 353d
00000020: b045 67bd a20d bf3d e685 b13e 114b cfbe
-0.12573819 0.056700226 -0.100257024 0.15954617 -0.033052664 0.051088892 -0.031213803 0.0442466
-0.056462944 0.09328772 0.3467247 -0.4048696

exp_avg_sq f4 [6, 2]
00000000: 73a4 1f3c 33c7 e83a d2a3 c83b e6c4 733c
00000010: 54ac 313a f239 cc3a f902 1c3a 4830 933a
00000020: d49b fe3a a5c3 a83b 12e3 963d 2108 bf3d
0.009743798 0.0017759561 0.0061230445 0.014878487 0.0006777693 0.0015581234 0.00059513707 0.0011229599
0.0019425103 0.005150276 0.07367529 0.09327722

exp_avg f4 [6]
00000000: 5a8c db3d b43c 523e f0d5 893d 0a41 6b3d
00000010: e7cb f43d 0489 0ebf
0.10720129 0.20530969 0.067302585 0.057435073 0.11952954 -0.5567782

exp_avg_sq f4 [6]
00000000: 82e3 de3b a66a cc3c ac9b 323b 8f1d fe3a
00000010: a4b2 0b3c b7cc 3a3e
0.0068020234 0.024953198 0.0027253432 0.0019387471 0.008526478 0.18242155
