aa2_models/model6.pt (torch_old, 22389 bytes, 102 tensors)

lin1.weight f4 [3, 7]
000000 ef cc 64 be 38 80 43 bd 30 8c 24 be d4 9a 2b 3e
       -0.22343801 -0.0477297 -0.16069102 0.16758281
000010 e1 b6 bd 3d 2a 90 22 3e 44 ee 87 3e 39 5e 8e 3d
       0.09263397 0.15875307 0.2654897 0.06951565
000020 81 e6 a9 be 8b 17 8f be c3 bf 6f be 5f c9 9f 3e
       -0.33183673 -0.2794765 -0.23412995 0.3120832
000030 0c 08 b7 bd e7 63 47 3e e2 2e 5a 3d 06 ef 10 3e
       -0.08937082 0.19471703 0.053267367 0.1415368
000040 2f 0c 95 3e 65 fb ad 3e af ad d6 be c0 f3 e9 bc
       0.29110858 0.3398086 -0.41929385 -0.028558612
000050 cb 11 c5 be
       -0.38490137

lin1.bias f4 [3]
000000 3c 0a c8 be 04 e7 8e be 68 b9 76 bd
       -0.39070308 -0.27910626 -0.06023541

lin2.weight f4 [3, 3]
000000 f1 b5 f4 3e 2d 44 a5 bd 83 00 ca 3e 38 13 ef bd
       0.4779506 -0.08069644 0.39453515 -0.116735876
000010 90 bc 3e 3e 0f 74 6c bd df 27 8c be d9 c9 72 3e
       0.18626618 -0.05772787 -0.2737417 0.23709811
000020 12 8a 80 bd
       -0.06276335

lin2.bias f4 [3]
000000 1a a0 fe bd 8c 72 dd 3e fb 04 b0 bd
       -0.12432881 0.43251455 -0.085947

GRU.weight_ih_l0 f4 [9, 3]
000000 9d 1c af 3d 84 65 54 3e 5f 7c dc be 21 2e 1a be
       0.085503794 0.2074185 -0.43063638 -0.1505666
000010 69 fe 8f bd 9d cf 3d be 6c b7 ef 3e 82 a4 c9 be
       -0.07030947 -0.1853623 0.46819627 -0.39383322
000020 19 3e 48 3d 45 bf 9a be c7 37 cf bd d2 c9 e0 3e
       0.048887346 -0.30224052 -0.101180606 0.43903977
000030 84 3d 2c 3f ac 79 61 be d5 2a 9d 3d 62 14 bf 3e
       0.67281365 -0.2201907 0.07674185 0.37320238
000040 5a 27 a2 3e 7e 65 fd be 71 27 48 3b af 6a 77 be
       0.31670648 -0.49491495 0.0030541087 -0.2416179
000050 cb db bb 3e b6 f3 1f bf 71 d7 98 3d fc a9 81 3d
       0.36691126 -0.6248125 0.07462967 0.0633125
000060 64 7f 8f be ec c8 11 3c 6a 87 5f 3e
       -0.2802688 0.008898001 0.21829

GRU.weight_hh_l0 f4 [9, 3]
000000 d5 d5 b6 be 83 fd 23 3e 79 e8 b5 be 52 c9 54 be
       -0.35710016 0.16014676 -0.35528925 -0.20779923
000010 0d ec f3 be b2 96 b5 be 68 b3 cb be db 30 8f bc
       -0.4764103 -0.35466534 -0.39785314 -0.01747935
000020 a1 eb de bd 7a 31 67 3e d2 59 2d be fa c8 c3 3e
       -0.108847864 0.22577468 -0.16928795 0.3823927
000030 23 53 ba 3e a1 c7 2b 3e e0 15 5b be a7 cc 8e bd
       0.36391553 0.16775371 -0.21395063 -0.06972628
000040 a3 27 8e be d4 e3 be 3e d8 75 11 3f 3a 26 0e bf
       -0.27764615 0.37283194 0.5682044 -0.5552708
000050 66 b0 dd be 05 76 0e bf 48 23 9e be 0c 0a dc bb
       -0.43298644 -0.55648834 -0.30886292 -0.006715065
000060 f9 bd b3 be 2e d1 24 3f b1 8c 2f 3e
       -0.35105875 0.6438168 0.17143513

GRU.bias_ih_l0 f4 [9]
000000 30 0f 96 3d 55 e9 be be a1 47 33 3e 7f b5 61 3e
       0.073271155 -0.37287393 0.17507793 0.22041892
000010 33 8a e7 3d 0d 71 a8 bc f8 15 b6 3e 7f 24 21 3f
       0.11305656 -0.02056172 0.35563636 0.62946314
000020 f9 ed de be
       -0.43540934

GRU.bias_hh_l0 f4 [9]
000000 b1 05 0b 3f 7f 44 ef 3d 90 1b 89 be a0 b1 e5 3e
       0.5430556 0.116829865 -0.2677884 0.4486208
000010 7a 6e c9 be c7 9b 05 3f a7 d7 f8 be e2 99 bb bd
       -0.393421 0.5219082 -0.4860203 -0.0916021
000020 f9 dc 5b be
       -0.21471013

GRU.weight_ih_l1 f4 [9, 3]
000000 3c 23 8d 3e c3 c7 f0 3e 0c 4f 68 3e 00 f0 19 bc
       0.27565944 0.47027406 0.22686404 -0.009395599
000010 fb e0 d6 be 0f a0 8f 3d ff fa 43 be 25 44 e0 3e
       -0.4196852 0.07012951 -0.19138716 0.4380199
000020 a6 bc 4a be 12 b8 21 3e d2 70 b0 be 33 f3 4c 3e
       -0.19798526 0.15792874 -0.34461075 0.20014648
000030 51 93 37 3d bd 3d 93 3e 20 99 c4 be 71 5b 71 be
       0.044818226 0.2875804 -0.38398075 -0.23570038
000040 09 f2 28 3f 22 5b a6 3d 41 c8 ab 3e 43 df b3 be
       0.65994316 0.08122851 0.3355122 -0.35131273
000050 7b 08 a1 bd 89 dd 00 3f e5 fa d0 be eb 03 a0 be
       -0.07862946 0.50338036 -0.40816417 -0.3125299
000060 95 a3 2e bf 27 3d 68 bd b4 fd 28 bf
       -0.68218356 -0.056698944 -0.6601212

GRU.weight_hh_l1 f4 [9, 3]
000000 23 ba 92 3e 27 55 28 3e 26 38 56 3d 47 dc 7e 3e
       0.28657636 0.16438733 0.05229964 0.24888717
000010 a1 ed aa 3e 30 fe 1e 3e 7b 1a 03 3f 74 d4 0c 3f
       0.3338442 0.15526652 0.5121228 0.5501168
000020 88 0e b9 3e bf 2d 46 be b2 3c fe 3e 89 11 58 be
       0.361439 -0.19353388 0.49655682 -0.21100439
000030 d9 e9 d7 3e c7 42 ae be bd 4c d5 3e 81 92 bf 3e
       0.421706 -0.34035322 0.4166011 0.3741646
000040 f0 89 be be 91 97 01 bf 37 cb e6 3e 89 0d 34 3e
       -0.37214613 -0.50621897 0.45076916 0.17583288
000050 90 3c 45 be d8 58 9e be 7a ad e6 3e f3 37 9d 3e
       -0.19261384 -0.30927157 0.45054227 0.30706748
000060 f3 0f 30 3e 11 ff f1 be 59 c4 1b be
       0.17193584 -0.47264913 -0.1521162

GRU.bias_ih_l1 f4 [9]
000000 1b 68 82 3e 07 97 73 3d 74 ff 09 bf 95 c8 32 bf
       0.2547005 0.059470203 -0.53905416 -0.69837314
000010 89 10 d3 be 6f 12 37 be 0c 36 91 be 4e 67 1f bf
       -0.41223553 -0.17878126 -0.28361547 -0.62267005
000020 83 26 1c 3f
       0.60996264

GRU.bias_hh_l1 f4 [9]
000000 c8 09 c0 3e d4 ff 1f 3e 20 37 cc 3e b8 bf 8b be
       0.37507463 0.15624934 0.39885807 -0.27294707
000010 f2 bf 20 bf 57 18 8e be cb 53 ef be 25 e2 0a 3e
       -0.62792885 -0.27752945 -0.46743616 0.1356283
000020 1c 72 d4 be
       -0.4149331

GRU.weight_ih_l2 f4 [9, 3]
000000 f8 73 39 3f f8 4a a0 bd b2 3c aa 3d d8 75 09 3f
       0.7244258 -0.07826799 0.08312358 0.5369544
000010 fc b2 02 3d 41 30 0c bf c4 16 17 3f a9 5c 04 3f
       0.031908974 -0.5476113 0.5901911 0.5170389
000020 8b a5 00 bf 7f 73 f2 3d 5b b9 38 3e 38 06 2d be
       -0.502526 0.118384354 0.18039457 -0.16896904
000030 ee b1 d4 be 51 54 32 3f 4c 57 36 bf a8 44 97 be
       -0.41542 0.69659907 -0.71226954 -0.29544568
000040 f0 97 e7 3e 0d ec 05 be 07 af 97 3e 8e d7 0a 3f
       0.45233107 -0.13078327 0.29625723 0.5423516
000050 c9 88 a8 be c0 47 0e bf 6d 30 2e bf 92 b3 1b 3f
       -0.3291686 -0.5557823 -0.6804264 0.6082088
000060 d6 81 d0 3d 6b a5 0b 3f ce 5f bd 3e
       0.10181014 0.5454928 0.36987156

GRU.weight_hh_l2 f4 [9, 3]
000000 7a 41 3f 3e 08 d6 9d 3e d4 0b ce 3e 06 db fa 3e
       0.18677321 0.30827355 0.402434 0.48995227
000010 a1 38 ab be 66 b8 02 bf 52 b0 9f 3e 55 c4 cc 3e
       -0.33441642 -0.5106262 0.3118921 0.3999354
000020 22 66 3f be 96 66 11 3f 99 81 8d be 6e 0f d9 3e
       -0.18691304 0.5679716 -0.27637938 0.42394584
000030 cf 6b 80 be ed b1 c0 3e 06 6b bf bd 90 a5 b6 3e
       -0.2508225 0.37635747 -0.09346585 0.3567319
000040 f7 f8 4a bc ba 8d 2d 3e 3e e8 36 3e c1 50 c5 3d
       -0.012388459 0.16948596 0.17862031 0.09634543
000050 19 83 92 be 42 8b 25 bf aa 8d 0f be 8a a6 8b 3d
       -0.28615645 -0.64665616 -0.14018884 0.06818874
000060 ef 6c 6e be b5 d2 02 3f f9 ff 59 be
       -0.23283742 0.51102763 -0.21289052

GRU.bias_ih_l2 f4 [9]
000000 b8 16 05 bf bc 23 ed 3e a1 a0 02 bf 19 33 02 bf
       -0.5198779 0.46316326 -0.5102635 -0.5085922
000010 a6 a7 73 be 30 fc 96 3e 6f f5 fb bd 04 d6 c4 be
       -0.23794422 0.2948928 -0.12302672 -0.3844453
000020 c1 3a 8f 3e
       0.27974513

GRU.bias_hh_l2 f4 [9]
000000 7d d8 10 be f5 23 3e 3d eb 26 d9 bd 76 a9 9c 3e
       -0.14145084 0.04642101 -0.10603126 0.30598038
000010 56 94 b7 be 0e 96 9d be 18 08 49 3e ee 5d f3 be
       -0.3585536 -0.30778545 0.19631994 -0.475326
000020 36 c0 e5 3e
       0.44873208

GRU.weight_ih_l3 f4 [9, 3]
000000 66 8d a8 3e 4b b9 a1 be 2b aa b5 3e a5 16 be be
       0.32920378 -0.3158668 0.3548139 -0.3712665
000010 24 29 1b bf 9c e0 0d 3e a4 a0 8b 3e 31 12 f2 3d
       -0.6060965 0.13855213 0.27270997 0.11819876
000020 c8 dc 16 3f 73 be 06 3e 44 23 c9 bd ce c9 83 be
       0.58930635 0.13158588 -0.098211795 -0.25739902
000030 90 dd 98 3d b6 14 13 bc e5 fc 06 bf ee 1b 48 3f
       0.07464135 -0.008977106 -0.52729636 0.7816762
000040 1d ee 04 be 2d 53 de be 13 cd e0 3c bd 29 9a be
       -0.12981458 -0.43422833 0.027441537 -0.3010997
000050 b2 b7 ac 3c df c7 be 3e c3 6c 00 bf 63 e5 8e 3e
       0.021083687 0.37261865 -0.5016596 0.27909383
000060 b5 21 d3 be 4d e9 00 3f 44 91 a5 3e
       -0.41236654 0.5035599 0.3233739

GRU.weight_hh_l3 f4 [9, 3]
000000 29 3e 32 bf 76 3a 00 3f b9 3f ff 3e 28 01 3e 3e
       -0.696261 0.50089204 0.49853304 0.18555129
000010 3b ae 28 3e 36 0c cc 3d c6 4a 7c be bb fa 45 be
       0.16472714 0.099632666 -0.24637899 -0.19333927
000020 14 35 05 3f 83 41 95 be 31 3d a8 3e 8c ce 47 bd
       0.52034116 -0.29151544 0.32859185 -0.048780963
000030 f2 07 46 be df f7 02 be 4f 42 0b bf 8a 9e f9 3e
       -0.19338968 -0.12789868 -0.54398054 0.48753768
000040 17 2f 67 3e 12 c4 00 bf 3c 5e 88 be 9d 9e b0 bd
       0.22576557 -0.5029918 -0.26634395 -0.08624003
000050 22 f5 a2 be 95 4f dd 3e e8 d5 5c be dc ea 98 3e
       -0.31827646 0.4322478 -0.21565974 0.29866683
000060 49 58 c8 3d 42 a8 f3 be fa 47 19 be
       0.09782464 -0.47589308 -0.14968863

GRU.bias_ih_l3 f4 [9]
000000 aa 65 3b 3d 7b 21 00 3f 9d b0 b0 3d 00 66 ec be
       0.04575125 0.5005109 0.08627436 -0.4617157
000010 29 68 bf 3d 75 e2 1b bf 0f fd bb be 66 53 75 3e
       0.09346039 -0.6089242 -0.36716506 0.23957595
000020 24 79 08 be
       -0.13327461

GRU.bias_hh_l3 f4 [9]
000000 84 36 e5 3e 2d cc f2 3d 54 88 e7 3e 15 38 8c be
       0.44768155 0.1185535 0.45221198 -0.27386537
000010 d4 e8 58 be 1c bc 97 be 2f 39 cd be e1 c5 b2 bb
       -0.21182567 -0.29635704 -0.4008269 -0.005455718
000020 fb 14 0c 3f
       0.54719514

GRU.weight_ih_l4 f4 [9, 3]
000000 5e d4 ba be fe 11 9c be 6b a2 11 3f 81 e7 65 3e
       -0.36490148 -0.30482477 0.56888455 0.22451593
000010 18 8e 01 3f 37 5e 8c 3e 90 be b8 3e c9 2e 39 3e
       0.5060744 0.2741563 0.36082888 0.18084253
000020 37 54 a2 3e 92 64 c4 3c fe 93 6f 3e 78 6f 0c be
       0.31704876 0.023973737 0.23396298 -0.13714397
000030 bd 7d 1f 3f c7 b6 96 be 55 d7 be be ab ab 78 be
       0.62301236 -0.29436323 -0.3727366 -0.24284236
000040 1f a1 26 bf d4 9a 13 3e 03 6e 1c bf 1c 03 f7 be
       -0.650896 0.14414531 -0.61105365 -0.4824456
000050 ea 5c 14 3f 6a 82 fb 3e 9c 42 02 3e f4 c9 42 3d
       0.57954276 0.49122936 0.12720722 0.04755588
000060 e4 33 1c 3f 43 02 6e 3e 05 74 2d 3d
       0.6101668 0.2324305 0.042346973

GRU.weight_hh_l4 f4 [9, 3]
000000 ab 10 3e bd 4b dd 6f be 7b 29 18 bf 3b 12 3b 3e
       -0.046402615 -0.2342426 -0.59438294 0.18268673
000010 4a 0a e6 3d ab de d1 3d d5 0b 0f 3e 09 ce 01 be
       0.11232431 0.10247549 0.13969357 -0.12676252
000020 98 72 43 be 01 f7 3a 3c c5 ba 3d be 3b fc 8d be
       -0.19086683 0.011411429 -0.18528278 -0.277315
000030 a4 f4 8e 3e 55 75 97 3e 75 57 32 3e 3f c4 ba bc
       0.2792102 0.29581705 0.17416175 -0.022798656
000040 52 60 d4 3c e2 ea 2d 3f e6 bb 00 be e6 4a 4d be
       0.025924835 0.6793653 -0.12571678 -0.20048103
000050 13 af 2f bf 29 ce 3d 3e cc a1 15 3f 13 b0 d1 3d
       -0.6862652 0.18535675 0.5845001 0.102386616
000060 0a 0f 1f 3e 74 31 8f 3e ef ef 8d 3e
       0.1553308 0.27967417 0.27722117

GRU.bias_ih_l4 f4 [9]
000000 9f 0f be bd 55 0f b3 3e d1 56 e6 3c 7f 21 be 3e
       -0.09280323 0.34972635 0.02811757 0.3713493
000010 68 52 09 bf 78 4b 7f 3e 9c 08 a8 be 35 8d 5d bb
       -0.53641367 0.24931133 -0.32819068 -0.003380609
000020 36 8d ee be
       -0.4659211

GRU.bias_hh_l4 f4 [9]
000000 39 3e bb be 54 ed 09 3f 9c d5 37 3f 6d e0 26 3e
       -0.3657091 0.5387776 0.7181032 0.16296549
000010 d1 43 9d 3e 26 d2 27 bf ca 9f 98 bd 47 f1 2d be
       0.30715802 -0.65555036 -0.07452352 -0.16986571
000020 56 25 c4 be
       -0.38309735

GRU.weight_ih_l5 f4 [9, 3]
000000 51 59 c5 3e 8c ae 3d 3f 7d 47 42 bd 36 62 cf 3e
       0.38544706 0.7409446 -0.047431458 0.40504616
000010 86 15 ba 3e ab 91 50 be 14 13 d2 3e 01 71 97 3d
       0.36344546 -0.20368068 0.4103018 0.07394601
000020 d5 be f7 3c e7 eb fc 3e 84 34 71 be 5d f3 f9 3e
       0.030242363 0.4939873 -0.2355519 0.48818484
000030 e7 f0 2d bc 3d 93 66 be 25 58 15 bc 2a 1a 0b bf
       -0.010616518 -0.22517104 -0.009115254 -0.543368
000040 69 c2 60 3d 76 12 83 3e 9d 52 aa 3e 0d 2a a3 be
       0.054872904 0.25600022 0.33266154 -0.3186802
000050 75 30 1b bf 68 6e bd 3e 85 d0 9d 3e 66 3b a5 be
       -0.60620815 0.36998296 0.3082315 -0.3227188
000060 cf 0f 12 3f 16 7c 1b bf 68 0e 1b be
       0.5705537 -0.60736215 -0.15142214

GRU.weight_hh_l5 f4 [9, 3]
000000 85 5f 41 bf e2 de 0b bf 49 2c e7 be 0e ad 9a be
       -0.75536376 -0.5463697 -0.45150974 -0.30210155
000010 3c c3 c2 be db 96 3c 3e dc 94 85 3e 0b ff 7e 3e
       -0.38039577 0.18416922 0.26090133 0.24901979
000020 26 ff 69 3d c7 5d 87 3e b0 71 95 3e 9a 5e f0 bd
       0.057128094 0.26438734 0.291883 -0.11736794
000030 ab 72 33 bf 39 20 97 3d d1 5c d3 bd 63 1c db be
       -0.70096844 0.07379193 -0.10320438 -0.42795095
000040 9a 69 00 3e ff 71 84 3e eb 10 a7 be 06 b4 38 be
       0.12540284 0.25868222 -0.32630095 -0.18037423
000050 7a 8e 00 bf de 78 d5 be 0c 4a 55 be 5e fb 9f bd
       -0.502174 -0.41693777 -0.20829028 -0.07811616
000060 8c 15 d9 be 48 73 af 3e 80 c5 dd be
       -0.4239925 0.3426764 -0.43314743

GRU.bias_ih_l5 f4 [9]
000000 d9 a9 66 3e 66 3c 99 3e 28 d4 51 be 9c 67 65 be
       0.22525729 0.29928893 -0.20491087 -0.22402805
000010 c2 65 00 bf ce 29 cf 3d 8a 94 17 3f fb 7c de 3e
       -0.5015527 0.101153955 0.5921103 0.43454728
000020 0e 95 ae be
       -0.34098095

GRU.bias_hh_l5 f4 [9]
000000 79 6c 8b 3b a5 59 11 3f b0 41 83 3e a7 4c 47 bf
       0.0042548743 0.5677741 0.25636053 -0.7785134
000010 5b d4 2e be d3 a7 c1 be 75 58 b9 be 56 fa 1f 3f
       -0.17073195 -0.37823352 -0.362003 0.6249136
000020 2b 0e ec bd
       -0.1152614

GRU.weight_ih_l6 f4 [9, 3]
000000 72 83 ad 3e 4e f0 08 be e9 d2 ed be d6 1a 24 3f
       0.33889347 -0.13372919 -0.46449974 0.6410345
000010 2b 6c 8d be dd 2e b8 be 63 78 0c be 71 3e 73 be
       -0.27621588 -0.35973254 -0.13717799 -0.23754288
000020 b2 6b 09 be 1b 00 c6 be 65 3c 16 be 6c 40 1a 3f
       -0.13419989 -0.38671955 -0.14671476 0.6025455
000030 04 5a cf be 3a 11 77 be 0a bd 27 be ee cb d8 3d
       -0.40498364 -0.24127665 -0.16380706 0.105857715
000040 6b 5a 8b bd fa 5f 95 3e f4 65 8c 3e dc 0f 21 3f
       -0.06804355 0.29174787 0.27421534 0.62914824
000050 ca 75 01 3f 34 ba ea 3e 00 0a 4c bd f8 56 08 3f
       0.50570357 0.45845187 -0.049814224 0.53257704
000060 68 18 22 3f 34 71 04 3f 8c 51 09 be
       0.6331849 0.51735234 -0.13410014

GRU.weight_hh_l6 f4 [9, 3]
000000 0a 3c 2c 3f ba cf 43 3e 3f 8a 35 3f 7d 21 83 be
       0.6727911 0.1912221 0.7091407 -0.25611487
000010 4e ed 80 bd a3 f5 15 3e f8 3a 0b 3f 67 55 dd 3e
       -0.06295262 0.14644484 0.54386854 0.4322922
000020 b8 25 e3 bc c3 e5 a4 be 48 7a 0a 3d bb 81 ab 3e
       -0.027727947 -0.32206544 0.033808023 0.33497414
000030 10 de cf be cb 4b 60 3e e0 55 4f bd ce 3f 1b bf
       -0.40599108 0.21903913 -0.050619006 -0.60644233
000040 2c df 3d bf 7a 0d 77 3e 1c 26 d8 3e 9b 73 9a 3c
       -0.7416866 0.24126235 0.42216575 0.018853953
000050 ac 77 23 3f 92 07 20 3f ea 05 23 3f cb ca 08 3f
       0.6385448 0.6251155 0.636809 0.5343444
000060 5a 06 3b 3f 16 28 b4 be f8 e4 96 3c
       0.73056567 -0.35186833 0.018419728

GRU.bias_ih_l6 f4 [9]
000000 7f 4f c1 bd 06 6c b2 3d c3 82 9a be 61 e4 4e 3d
       -0.09438991 0.0871201 -0.30177888 0.050510768
000010 d1 c7 28 3e 89 6b 10 be 89 7c 69 3e 61 ac 36 be
       0.16482474 -0.14103521 0.22801413 -0.17839195
000020 b7 4b f9 bd
       -0.121726446

GRU.bias_hh_l6 f4 [9]
000000 cd 51 14 3e ca 07 d4 3e 5c 6b ac 3e 9b 22 6b be
       0.1448433 0.41412193 0.3367566 -0.2296242
000010 d9 2c 91 3d 59 87 e4 be 68 9b 55 3e 79 39 df 3e
       0.07088632 -0.44634512 0.20860064 0.43598536
000020 ac 89 50 bd
       -0.050912544

lin3.weight f4 [5, 3]
000000 78 f0 c0 3d bb cf 74 3e ca 2f 9c 3d 28 b7 eb be
       0.09420866 0.23907368 0.076263025 -0.46038175
000010 f6 ef 8b bd 70 44 01 3e a2 55 cb be a5 bb 84 3e
       -0.06832878 0.12623763 -0.3971377 0.2592441
000020 1c 51 32 bf 48 8a 68 3e 62 c0 0e bf 09 5e 0e bf
       -0.69655013 0.22709 -0.557623 -0.55612236
000030 53 d8 b7 be 00 c9 2b bf 41 29 2d 3b
       -0.3590723 -0.67103577 0.0026422294

lin3.bias f4 [5]
000000 55 75 5b 3e 8e db 10 be 4b e3 2e bf 03 ea cf 3d
       0.21431477 -0.14146253 -0.6831557 0.10152056
000010 de b6 c9 3e
       0.3939733

exp_avg f4 [3, 7]
000000 04 00 00 80 00 00 00 00 77 bf 46 b8 4c 43 e4 b4
       -6e-45 0.0 -4.7385194e-05 -4.2517274e-07
000010 d5 8e 73 36 00 00 00 00 34 44 5e 36 04 00 00 00
       3.629296e-06 0.0 3.3120277e-06 6e-45
000020 00 00 00 00 58 84 a0 37 89 a3 86 35 55 b4 76 b4
       0.0 1.9135114e-05 1.0031373e-06 -2.297614e-07
000030 00 00 00 00 a1 11 ef b3 04 00 00 80 00 00 00 00
       0.0 -1.11325114e-07 -6e-45 0.0
000040 1d 2e c3 b7 3b 30 9d 35 e3 9d 86 36 00 00 00 00
       -2.3267285e-05 1.1711448e-06 4.0118916e-06 0.0
000050 4f 80 7e 36
       3.7923635e-06

exp_avg_sq f4 [3, 7]
000000 72 57 2b 2a 00 00 00 00 c9 32 ef 37 69 f2 48 32
       1.521819e-13 0.0 2.8514669e-05 1.169665e-08
000010 94 98 49 31 00 00 00 00 29 35 83 31 49 65 14 29
       2.933608e-09 0.0 3.8186454e-09 3.2950452e-14
000020 00 00 00 00 cd c2 cb 36 f7 b1 fa 30 0d 70 d8 2f
       0.0 6.0725492e-06 1.8240475e-09 3.9369788e-10
000030 00 00 00 00 22 d6 0b 30 c6 38 88 27 00 00 00 00
       0.0 5.0872206e-10 3.7809137e-15 0.0
000040 9e 63 5b 35 7f a8 a7 30 34 37 32 31 00 00 00 00
       8.172882e-07 1.2198739e-09 2.5933788e-09 0.0
000050 32 36 53 31
       3.0735348e-09

exp_avg f4 [3]
000000 bb 2b 7b 38 cf 78 6d 36 32 35 af 38
       5.988379e-05 3.5386072e-06 8.354559e-05

exp_avg_sq f4 [3]
000000 03 08 32 35 c4 6d 9b 33 c8 3d 71 35
       6.6321826e-07 7.237716e-08 8.98694e-07

exp_avg f4 [3, 3]
000000 e5 c0 9b b8 0b 6d 36 b8 ee 48 12 b8 96 0a be 38
       -7.426905e-05 -4.3493736e-05 -3.4877034e-05 9.061878e-05
000010 38 83 9e 38 7d 4a f7 b5 0d c6 f0 b8 25 91 d6 b8
       7.5584685e-05 -1.8424613e-06 -0.000114809816 -0.000102313505
000020 a5 08 6e 37
       1.4187918e-05

exp_avg_sq f4 [3, 3]
000000 b8 e2 27 35 3f 0c e9 34 9e 1b 35 34 c3 f3 7d 36
       6.254227e-07 4.3408542e-07 1.6866986e-07 3.7841826e-06
000010 70 a8 1b 37 05 83 12 37 7d eb 48 37 d7 22 00 38
       9.277937e-06 8.7327835e-06 1.1975758e-05 3.0550025e-05
000020 29 46 f7 37
       2.9477365e-05

exp_avg f4 [3]
000000 06 58 68 39 94 63 62 b9 83 57 88 39
       0.00022158035 -0.00021590135 0.00026005143

exp_avg_sq f4 [3]
000000 3a 4d eb 36 96 cc 2b 36 af cf 40 36
       7.012536e-06 2.560007e-06 2.8731117e-06

exp_avg f4 [9, 3]
000000 fb b0 38 38 fe 74 80 b8 c8 2f df 36 a3 42 33 b5
       4.4033844e-05 -6.125307e-05 6.6514804e-06 -6.6779666e-07
000010 2d 8d b3 34 cc ca 0a 35 3a d3 94 36 81 31 cd b6
       3.3444067e-07 5.1704114e-07 4.4353337e-06 -6.115239e-06
000020 a6 66 21 35 ce f8 01 36 1b 5b 50 b6 ee 7d 55 35
       6.0126547e-07 1.9367321e-06 -3.1047446e-06 7.9531935e-07
000030 29 65 29 b7 6f 11 da 36 be 22 e3 36 67 55 4d b6
       -1.0096738e-05 6.498936e-06 6.7691717e-06 -3.0597091e-06
000040 80 fe e6 35 86 65 28 36 75 a2 4e b9 93 cb 94 39
       1.7210405e-06 2.5093045e-06 -0.00019706211 0.00028380434
000050 b6 e2 2e b8 d5 6b bf 38 b6 f9 08 b9 88 36 91 37
       -4.1695974e-05 9.127675e-05 -0.00013062995 1.731074e-05
000060 c4 e7 43 38 79 c8 87 b8 44 df e1 36
       4.670747e-05 -6.4746426e-05 6.731514e-06

exp_avg_sq f4 [9, 3]
000000 d6 f8 29 33 1e 3e d2 33 eb ef 70 2f c7 99 75 31
       3.9574694e-08 9.790186e-08 2.1913109e-10 3.5739605e-09
000010 79 f0 5f 32 e5 3c 91 2f b3 0f f5 2f 36 b1 18 31
       1.30349855e-08 2.6418615e-10 4.4576395e-10 2.2219644e-09
000020 60 78 5c 2e 80 a5 c8 2f e8 2a e1 30 62 81 3c 2d
       5.0129123e-11 3.6497383e-10 1.6383099e-09 1.07152915e-11
000030 10 bf 09 32 17 06 53 31 59 ff 39 31 a8 b0 9b 32
       8.017892e-09 3.0708003e-09 2.7066192e-09 1.8124709e-08
000040 9e 2e d7 31 6b fa b9 31 42 61 92 37 1a 54 7e 37
       6.2626233e-09 5.412678e-09 1.7449845e-05 1.5159161e-05
000050 75 70 18 36 dc 3b 09 35 20 68 ec 35 d4 ba d7 31
       2.2715224e-06 5.1123584e-07 1.7613675e-06 6.2785634e-09
000060 24 52 a1 34 e4 80 8b 35 0b 36 af 31
       3.0048352e-07 1.0393819e-06 5.0993143e-09

exp_avg f4 [9, 3]
000000 aa 02 a1 38 90 0e ce b8 a1 07 d4 37 30 22 ec 34
       7.6775745e-05 -9.825558e-05 2.5275922e-05 4.39833e-07
000010 d9 ea 15 35 69 4c 01 b4 29 95 fe 36 ae 0c 24 b7
       5.5848574e-07 -1.2041859e-07 7.5871544e-06 -9.778114e-06
000020 81 b1 27 36 30 16 de 36 0a df 58 b6 41 5a 73 35
       2.498826e-06 6.6186985e-06 -3.2316334e-06 9.065589e-07
000030 bd 96 56 33 05 10 90 33 0c e6 67 b3 f1 02 b4 35
       4.9962853e-08 6.7084365e-08 -5.3993105e-08 1.3411901e-06
000040 6a 28 ab b3 1f 1e 87 33 24 07 90 b9 3d 20 b7 39
       -7.970159e-08 6.2919064e-08 -0.0002747114 0.000349285
000050 07 de bc b8 cc b3 8e 38 c9 a8 b1 b8 44 b3 b7 37
       -9.0058944e-05 6.8045774e-05 -8.4714564e-05 2.1898777e-05
000060 7a 84 1a 38 37 d1 42 b8 b6 92 48 37
       3.683984e-05 -4.644805e-05 1.1955088e-05

exp_avg_sq f4 [9, 3]
000000 99 a8 2f 33 ec bd 78 34 f1 8f b0 33 99 39 47 32
       4.08987e-08 2.3165893e-07 8.2218214e-08 1.1596421e-08
000010 7f 1e d4 32 4c aa 19 33 92 10 8a 31 d7 f1 7c 31
       2.4693916e-08 3.5777973e-08 4.0182124e-09 3.6808296e-09
000020 9d 47 0f 32 97 7e a4 31 ea b5 1f 31 4a ed a9 30
       8.3399785e-09 4.78742e-09 2.3240951e-09 1.236381e-09
000030 91 59 65 2e 87 c3 cd 2c a0 31 82 2c 66 73 10 31
       5.2148123e-11 5.8481583e-12 3.7003317e-12 2.1020354e-09
000040 fd 32 c3 2e c7 14 c9 2e 8e 50 6b 35 2c bf bf 36
       8.876631e-11 9.1441126e-11 8.7661545e-07 5.714499e-06
000050 da c2 60 36 e1 a0 1d 34 bd fe 3a 35 f1 c8 2c 35
       3.349202e-06 1.4680292e-07 6.966109e-07 6.43674e-07
000060 95 48 93 33 24 6a c3 34 d7 91 bb 34
       6.8584235e-08 3.6398808e-07 3.4937577e-07

exp_avg f4 [9]
000000 8b 4a 17 b9 22 cc 80 32 5c 23 6f b7 a6 fe 09 b7
       -0.00014428252 1.499399e-08 -1.4253743e-05 -8.225126e-06
000010 a9 d0 00 32 1d 7c bb b5 b2 c8 35 3a 30 ee a2 b9
       7.498024e-09 -1.3968707e-06 0.0006934508 -0.0003107651
000020 93 d1 1e b9
       -0.00015146127

exp_avg_sq f4 [9]
000000 16 b0 40 35 b3 5f 0f 34 73 10 e6 32 d2 ea a1 32
       7.178181e-07 1.3352728e-07 2.6783004e-08 1.884965e-08
000010 29 ec 5a 2e 1a 5d 89 31 cb 1e 50 38 f0 5e 89 37
       4.9777214e-11 3.997809e-09 4.9619743e-05 1.6375881e-05
000020 da e8 26 37
       9.948586e-06

exp_avg f4 [9]
000000 8b 4a 17 b9 22 cc 80 32 5c 23 6f b7 a6 fe 09 b7
       -0.00014428252 1.499399e-08 -1.4253743e-05 -8.225126e-06
000010 a9 d0 00 32 1d 7c bb b5 fc 03 07 3a 84 6b 04 b9
       7.498024e-09 -1.3968707e-06 0.0005150435 -0.00012628554
000020 bb e7 8f b8
       -6.8619345e-05

exp_avg_sq f4 [9]
000000 16 b0 40 35 b3 5f 0f 34 73 10 e6 32 d2 ea a1 32
       7.178181e-07 1.3352728e-07 2.6783004e-08 1.884965e-08
000010 29 ec 5a 2e 1a 5d 89 31 6d 18 b1 37 83 ac 56 36
       4.9777214e-11 3.997809e-09 2.1111418e-05 3.19889e-06
000020 a2 31 e7 35
       1.7225286e-06

exp_avg f4 [9, 3]
000000 cd 61 4a 38 2a 86 00 b8 85 83 0d 37 ad 7b 05 b8
       4.8251637e-05 -3.0642528e-05 8.434877e-06 -3.1824853e-05
000010 81 56 d1 37 c2 ce e5 b6 f2 8d ca b7 07 22 90 37
       2.4955023e-05 -6.8488016e-06 -2.4146375e-05 1.7181983e-05
000020 70 ae 98 b6 de 36 ed b7 85 86 39 33 ab 19 97 b2
       -4.55026e-06 -2.8278151e-05 4.3196014e-08 -1.7590386e-08
000030 da 25 31 b8 93 7c 97 33 e9 49 a3 b2 05 6a 8b b8
       -4.223534e-05 7.0541454e-08 -1.9009308e-08 -6.647784e-05
000040 a0 05 f6 b4 f2 8b 84 33 90 1b 68 b9 45 93 ec 38
       -4.5825163e-07 6.172185e-08 -0.00022135512 0.00011280788
000050 14 1c 02 b8 d0 d7 02 ba 9c 87 bf 39 cb 4c d0 b8
       -3.1020565e-05 -0.0004991265 0.00036531396 -9.932517e-05
000060 da 55 99 39 b9 f4 68 b9 ca 54 76 38
       0.00029246398 -0.0002221641 5.8729936e-05

exp_avg_sq f4 [9, 3]
000000 94 6f 89 32 6d db 1e 33 35 f2 dd 32 0e 15 85 32
       1.5999639e-08 3.698681e-08 2.583793e-08 1.5492812e-08
000010 9f 8e c0 33 59 47 d7 33 f9 35 ad 31 ee 09 8e 32
       8.966639e-08 1.0024696e-07 5.0410986e-09 1.6535491e-08
000020 4b f2 1b 32 0f 33 60 30 2e 8d d0 2a 1c 66 4f 2b
       9.0772785e-09 8.1563284e-10 3.7046185e-13 7.368288e-13
000030 5f 87 45 31 77 6d e2 2e f2 51 cd 2e f3 b9 84 31
       2.8744223e-09 1.0296735e-10 9.336877e-11 3.8628456e-09
000040 44 56 ba 2d 43 df be 2c 18 52 ab 34 c6 aa 7f 35
       2.1184061e-11 5.424912e-12 3.1910963e-07 9.524341e-07
000050 63 0f 79 35 54 d1 14 36 10 ba 28 37 b8 8e 28 37
       9.278212e-07 2.2175564e-06 1.0056901e-05 1.004681e-05
000060 19 8a d9 34 b6 02 8a 35 4a c4 f4 34
       4.051988e-07 1.028259e-06 4.559136e-07

exp_avg f4 [9, 3]
000000 da 01 5a 38 ef 2d 40 38 07 12 3b b8 d4 33 28 b8
       5.1976975e-05 4.5819146e-05 -4.4601064e-05 -4.010259e-05
000010 8e 51 13 b8 90 da 0f 38 e6 d5 d5 b7 f1 57 bb b7
       -3.5123485e-05 3.429741e-05 -2.5491183e-05 -2.2333088e-05
000020 05 f1 b3 37 72 c9 b1 b5 12 f5 bb b5 45 49 95 35
       2.1450696e-05 -1.3246156e-06 -1.400391e-06 1.1122689e-06
000030 8f 46 07 b6 79 23 10 b6 03 5f e5 35 6d 6c 98 b6
       -2.0157638e-06 -2.147832e-06 1.7089482e-06 -4.5425754e-06
000040 97 df a4 b6 ee f4 7b 36 03 f3 e9 b8 00 1f ce b8
       -4.91361e-06 3.7544482e-06 -0.0001115557 -9.82862e-05
000050 0e 64 c7 38 9d 23 78 b9 ee 2f 5a b9 90 8a 54 39
       9.507696e-05 -0.0002366439 -0.00020807955 0.00020269514
000060 3f b7 10 39 57 8e fd 38 ff 0b f3 b8
       0.00013801175 0.00012090493 -0.000115893774

exp_avg_sq f4 [9, 3]
000000 3b 03 cb 33 39 2b 51 33 ca de 49 33 15 4e 64 34
       9.453512e-08 4.8700915e-08 4.7001585e-08 2.1262561e-07
000010 bf 22 b7 33 38 78 bc 33 66 1a 17 33 d7 dd 9c 32
       8.527922e-08 8.7763e-08 3.5181436e-08 1.8261671e-08
000020 ed 96 90 32 ec bc 07 2d 42 c5 35 2d 09 f6 d5 2c
       1.683244e-08 7.715811e-12 1.0332459e-11 6.0811395e-12
000030 05 2e 10 2f 42 84 8c 2e 70 d0 ab 2e 49 3f 58 2e
       1.3113073e-10 6.3899566e-11 7.8132056e-11 4.9168922e-11
000040 0d 45 8e 2e 76 e3 04 2e f3 bc 43 35 b3 fe ab 34
       6.469678e-11 3.021535e-11 7.291812e-07 3.203655e-07
000050 d1 66 a9 34 37 fc bb 36 e1 f2 18 36 03 30 1d 36
       3.1553512e-07 5.602396e-06 2.279114e-06 2.342277e-06
000060 ab 30 06 35 33 72 92 34 39 eb 85 34
       4.998971e-07 2.727771e-07 2.4944327e-07

exp_avg f4 [9]
000000 7d eb 91 b8 4c 47 4e 38 5d 1a 17 38 cd 79 ed 37
       -6.958002e-05 4.9180628e-05 3.6025758e-05 2.830932e-05
000010 9b f2 30 38 6b 1b 8b 38 81 44 9d 39 30 67 45 3a
       4.2187614e-05 6.6331435e-05 0.00029996413 0.000753033
000020 07 d9 e9 b9
       -0.0004460292

exp_avg_sq f4 [9]
000000 a1 da 6e 34 01 bf 23 35 e7 b3 a3 33 cb 0b 52 30
       2.2245014e-07 6.100018e-07 7.623003e-08 7.6414314e-10
000010 30 73 ea 30 f9 09 77 31 84 06 e2 36 bb e3 85 38
       1.7058479e-09 3.59489e-09 6.7360834e-06 6.384352e-05
000020 7d 84 94 36
       4.4261674e-06

exp_avg f4 [9]
000000 7d eb 91 b8 4c 47 4e 38 5d 1a 17 38 cd 79 ed 37
       -6.958002e-05 4.9180628e-05 3.6025758e-05 2.830932e-05
000010 9b f2 30 38 6b 1b 8b 38 7c 02 37 39 71 b4 a7 39
       4.2187614e-05 6.6331435e-05 0.00017453165 0.00031987161
000020 dc 61 49 b9
       -0.00019205309

exp_avg_sq f4 [9]
000000 a1 da 6e 34 01 bf 23 35 e7 b3 a3 33 cb 0b 52 30
       2.2245014e-07 6.100018e-07 7.623003e-08 7.6414314e-10
000010 30 73 ea 30 f9 09 77 31 4a eb 05 36 50 9a 89 37
       1.7058479e-09 3.59489e-09 1.99555e-06 1.640353e-05
000020 f1 17 8c 35
       1.0437781e-06

exp_avg f4 [9, 3]
000000 8a bd 5a b7 1e f5 46 b7 94 0a 39 37 be 7e 18 b8
       -1.3037943e-05 -1.18587905e-05 1.1029322e-05 -3.6357662e-05
000010 9f 1b 16 b8 db c6 ff 37 89 90 73 b7 af eb 49 b7
       -3.578851e-05 3.0490968e-05 -1.4517581e-05 -1.2035408e-05
000020 1a 4c 4f 37 cd c8 db b7 06 9e e6 b7 c3 3d b9 37
       1.235588e-05 -2.620034e-05 -2.7491722e-05 2.2082479e-05
000030 0d 21 ed b7 4e f3 f1 b7 b4 6e cd 37 d6 a9 41 b6
       -2.8267992e-05 -2.8842736e-05 2.4489455e-05 -2.8858099e-06
000040 f4 5f 4e b6 9c 56 20 36 dc 86 39 ba 6b 43 25 ba
       -3.0752244e-06 2.3892271e-06 -0.00070772856 -0.00063042965
000050 74 b8 1d 3a d7 b8 a3 3a 62 8e 93 3a 0b f2 8a ba
       0.00060165604 0.0012491 0.0011257643 -0.0010600699
000060 ac 82 e1 b8 94 4e b2 b8 5e ab c0 38
       -0.000107531756 -8.502338e-05 9.187193e-05

exp_avg_sq f4 [9, 3]
000000 00 c3 15 32 47 c7 a7 31 f8 dc 9c 31 c6 c5 45 34
       8.717279e-09 4.882995e-09 4.565319e-09 1.8419004e-07
000010 66 c8 99 33 4f 08 a3 33 f5 e9 d6 32 19 83 50 32
       7.16107e-08 7.59179e-08 2.501927e-08 1.2137002e-08
000020 72 36 53 32 d7 d8 16 30 02 a2 25 30 58 bf d9 2f
       1.2294196e-08 5.487783e-10 6.025688e-10 3.9608028e-10
000030 c7 78 7c 30 38 1d 79 30 0c 42 40 30 c5 6e 0d 2e
       9.18487e-10 9.0627195e-10 6.994305e-10 3.215807e-11
000040 19 e1 3d 2e 43 53 cd 2d 7e 53 af 36 d3 34 4e 36
       4.317355e-11 2.3342777e-11 5.225126e-06 3.072714e-06
000050 3f 28 3f 36 5c de 07 38 fb bb 86 37 bc 59 83 37
       2.8484644e-06 3.2393596e-05 1.606158e-05 1.5658203e-05
000060 61 99 57 36 e9 28 94 35 85 b6 a9 35
       3.2126775e-06 1.1038766e-06 1.2644601e-06

exp_avg f4 [9, 3]
000000 f1 89 1d b7 0d 38 1e 37 24 0e 14 36 3f 19 7c b7
       -9.390046e-06 9.430584e-06 2.206195e-06 -1.5026249e-05
000010 28 89 76 37 88 74 6c 36 c1 29 80 b7 20 e3 83 37
       1.4694677e-05 3.523457e-06 -1.5278232e-05 1.572218e-05
000020 eb a2 74 36 bc a4 85 b6 92 cf 48 36 ce fc 6e 35
       3.6453664e-06 -3.9828865e-06 2.9923144e-06 8.902979e-07
000030 3f f0 04 b7 81 88 cc 36 b6 83 ed 35 77 0b 74 b4
       -7.92375e-06 6.095565e-06 1.7696209e-06 -2.2728442e-07
000040 b8 66 34 34 18 23 5f 33 d5 48 1f b9 43 b0 20 39
       1.6801175e-07 5.195315e-08 -0.00015190554 0.00015324452
000050 a4 f7 16 38 ea d3 77 39 9c 59 78 b9 69 c8 69 b8
       3.599342e-05 0.000236347 -0.00023684505 -5.5738175e-05
000060 9b 30 93 b7 be 69 98 37 ce ac 8c 36
       -1.75464e-05 1.8169052e-05 4.1924422e-06

exp_avg_sq f4 [9, 3]
000000 0c 4c 7f 31 25 c0 41 31 ee 9d e5 30 e6 81 3a 33
       3.7150611e-09 2.8194418e-09 1.6706829e-09 4.342464e-08
000010 a3 2d 39 33 c9 81 a2 33 59 b4 0a 32 54 a4 bb 31
       4.3115175e-08 7.5673206e-08 8.0736635e-09 5.4610982e-09
000020 cb 93 06 32 da ad 07 2e d8 ff 7e 2d 3b d7 83 2c
       7.833431e-09 3.0849857e-11 1.4495037e-11 3.7471393e-12
000030 92 82 0f 2f 55 54 98 2e 03 2c a0 2e 13 3c b2 2b
       1.3052162e-10 6.92714e-11 7.283776e-11 1.2664335e-12
000040 3e c5 1a 2b d0 aa 41 2c 49 00 86 34 29 f6 58 34
       5.498552e-13 2.752177e-12 2.4959652e-07 2.020612e-07
000050 90 25 d0 33 61 4e c2 35 53 11 ca 35 1a ec 02 36
       9.692587e-08 1.4476938e-06 1.5055215e-06 1.9508939e-06
000060 e3 d4 f3 32 cb ae a6 33 9e 3d de 33
       2.8385733e-08 7.761772e-08 1.0348889e-07

exp_avg f4 [9]
000000 f0 af 8a 37 73 89 66 38 c2 a9 77 37 56 84 3b 38
       1.653281e-05 5.4964283e-05 1.4761872e-05 4.470752e-05
000010 33 da 3b 38 fb f1 ab 36 37 0c 60 3a 67 4a cb ba
       4.4787488e-05 5.1243674e-06 0.0008546742 -0.0015509845
000020 fe f1 c9 38
       9.6295014e-05

exp_avg_sq f4 [9]
000000 e3 2a 9b 32 50 a5 1d 35 33 45 8d 33 0c 29 da 30
       1.8063878e-08 5.872762e-07 6.5784114e-08 1.5873254e-09
000010 13 4d 27 31 91 70 33 2f cf 26 29 37 8b 78 a9 38
       2.434551e-09 1.6319947e-10 1.0082221e-05 8.081001e-05
000020 ef d0 42 37
       1.1611947e-05

exp_avg f4 [9]
000000 f0 af 8a 37 73 89 66 38 c2 a9 77 37 56 84 3b 38
       1.653281e-05 5.4964283e-05 1.4761872e-05 4.470752e-05
000010 33 da 3b 38 fb f1 ab 36 c4 37 71 39 d7 ab f0 b9
       4.4787488e-05 5.1243674e-06 0.00023004325 -0.00045904398
000020 11 68 1e 37
       9.441764e-06

exp_avg_sq f4 [9]
000000 e3 2a 9b 32 50 a5 1d 35 33 45 8d 33 0c 29 da 30
       1.8063878e-08 5.872762e-07 6.5784114e-08 1.5873254e-09
000010 13 4d 27 31 91 70 33 2f 63 15 93 35 0e 26 84 37
       2.434551e-09 1.6319947e-10 1.0958578e-06 1.5753347e-05
000020 eb 9b 3c 35
       7.026235e-07

exp_avg f4 [9, 3]
000000 4c 92 a5 39 4d 62 a4 b9 c8 a5 9b b8 82 66 72 36
       0.00031580252 -0.00031353757 -7.421855e-05 3.6120477e-06
000010 cf b8 6d b6 4c 9c 5b b5 41 cb e3 38 ba 32 df b8
       -3.5423325e-06 -8.18113e-07 0.000108620625 -0.00010642917
000020 37 09 d5 b7 22 47 a9 b8 18 ff 80 38 20 1b 96 37
       -2.539587e-05 -8.0717975e-05 6.1510305e-05 1.7894024e-05
000030 e0 3f 56 b7 5e 24 4d 37 a6 27 36 36 72 27 82 b7
       -1.2770266e-05 1.222742e-05 2.7143192e-06 -1.5515576e-05
000040 04 84 45 37 bb 78 66 36 99 e3 5f bb 06 88 5e 3b
       1.1772852e-05 3.4342945e-06 -0.0034162758 0.0033955588
000050 69 87 52 3a b7 e3 17 bb 0c c1 18 3b 7c 5a 0f 3a
       0.0008031042 -0.00231765 0.0023308424 0.00054685003
000060 a6 a1 90 3a 79 c7 8e ba b6 79 87 b9
       0.0011034503 -0.0010893188 -0.00025839888

exp_avg_sq f4 [9, 3]
000000 90 72 19 35 31 e8 08 35 34 05 93 34 a5 a4 4b 31
       5.716365e-07 5.100183e-07 2.738467e-07 2.9633977e-09
000010 11 af 16 32 0c 4e 60 32 20 0d f9 32 e9 04 ec 32
       8.770955e-09 1.3056262e-08 2.8993384e-08 2.7476249e-08
000020 a7 ac 9f 31 92 82 b6 31 83 44 36 31 14 08 31 30
       4.6471373e-09 5.3117413e-09 2.652343e-09 6.4403705e-10
000030 ea 75 2f 2f 94 a3 71 2f d6 0f e0 2e 48 fc f2 2e
       1.5958049e-10 2.1976937e-10 1.0189154e-10 1.10497e-10
000040 77 31 8d 2e 43 b2 08 2d ff d0 f4 38 27 6e f7 38
       6.4207244e-11 7.770287e-12 0.00011673755 0.00011798395
000050 bb 76 d2 38 5d 7d f5 37 d7 9b eb 37 31 4f 95 37
       0.000100356956 2.9264653e-05 2.8086752e-05 1.779906e-05
000060 d5 87 a5 36 4f 6b 99 36 33 47 92 35
       4.933196e-06 4.5722477e-06 1.0898569e-06

exp_avg f4 [9, 3]
000000 41 96 8f 39 c5 b4 0d 39 39 52 9a b9 3a 86 47 36
       0.00027387033 0.0001351415 -0.0002943443 2.973144e-06
000010 af 4e 8b 35 86 3b 4c b6 90 13 bd 38 b6 26 37 38
       1.0379207e-06 -3.0433016e-06 9.015866e-05 4.3666652e-05
000020 e8 93 ca b8 01 2f 8e b7 4d de bf b5 9d 85 83 37
       -9.65966e-05 -1.6949607e-05 -1.4295307e-06 1.5678635e-05
000030 9a 65 1e b7 01 34 b6 b5 6f a8 16 37 66 2f 51 b6
       -9.44119e-06 -1.3575192e-06 8.979913e-06 -3.1171016e-06
000040 4f b5 5a b4 08 bd 3f 36 14 a3 04 bb f4 16 83 ba
       -2.0368792e-07 2.8571249e-06 -0.0020238804 -0.0010001347
000050 0b 97 0e 3b c0 94 a0 ba b7 90 1f ba c2 cc ac 3a
       0.002175751 -0.0012251362 -0.0006086933 0.0013183581
000060 32 35 3b 3a 68 1f b6 39 24 bc 48 ba
       0.00071414106 0.00034737145 -0.00076574297

exp_avg_sq f4 [9, 3]
000000 fc 5b 2c 35 00 3e 29 34 8c 15 b8 34 ec 20 28 32
       6.420885e-07 1.5761907e-07 3.4288348e-07 9.786373e-09
000010 08 40 71 32 c5 3a 78 31 de 52 db 32 e6 e2 3b 31
       1.4042605e-08 3.6122156e-09 2.553264e-08 2.7341058e-09
000020 3c 85 b0 32 00 f3 41 30 41 ef 25 2e 13 06 b6 2f
       2.0549685e-08 7.0558315e-10 3.7729157e-11 3.3109923e-10
000030 4b 1b 1f 2f 7c 63 1a 2e cc e0 b8 2e f4 58 81 2d
       1.4470662e-10 3.5103906e-11 8.407283e-11 1.4705105e-11
000040 03 5c a9 2a 5e 70 15 2d 2f 0f 8e 38 6e 7e 13 38
       3.0084277e-13 8.49462e-12 6.773916e-05 3.5165278e-05
000050 33 b4 00 38 ea 51 69 37 40 a8 bb 36 c4 94 ef 36
       3.06854e-05 1.3906954e-05 5.592621e-06 7.1400736e-06
000060 d3 9b 0c 36 a2 9f 73 34 fd ce d3 35
       2.0952327e-06 2.2689213e-07 1.5780967e-06

exp_avg f4 [9]
000000 a0 3e e9 b9 f5 8d af b6 bc ca 26 b9 98 77 4b 39
       -0.00044487882 -5.2319324e-06 -0.00015906518 0.00019404141
000010 24 79 a4 37 53 64 1d 38 32 29 9d 3b 64 87 4d 3b
       1.9606734e-05 3.752515e-05 0.0047961706 0.0031361217
000020 7f 2a cf ba
       -0.0015805512

exp_avg_sq f4 [9]
000000 a2 c3 3b 36 95 b3 bb 33 9b 61 aa 33 72 64 38 33
       2.7979045e-06 8.740532e-08 7.933996e-08 4.2932193e-08
000010 b3 dd c4 30 f6 e7 37 30 56 96 5f 3a 1d 23 2b 39
       1.4323888e-09 6.690465e-10 0.00085291767 0.00016320912
000020 24 39 80 37
       1.5285397e-05

exp_avg f4 [9]
000000 a0 3e e9 b9 f5 8d af b6 bc ca 26 b9 98 77 4b 39
       -0.00044487882 -5.2319324e-06 -0.00015906518 0.00019404141
000010 24 79 a4 37 53 64 1d 38 02 12 52 3b f9 13 f2 3a
       1.9606734e-05 3.752515e-05 0.003205419 0.0018469087
000020 56 2f 99 ba
       -0.0011687081

exp_avg_sq f4 [9]
000000 a2 c3 3b 36 95 b3 bb 33 9b 61 aa 33 72 64 38 33
       2.7979045e-06 8.740532e-08 7.933996e-08 4.2932193e-08
000010 b3 dd c4 30 f6 e7 37 30 27 88 c4 39 14 0f 8e 38
       1.4323888e-09 6.690465e-10 0.00037485475 6.773896e-05
000020 c7 37 db 36
       6.533202e-06

exp_avg f4 [9, 3]
000000 4a de b7 39 fc 3c 3c 39 31 fd c6 b9 0e 5d fe 39
       0.00035070098 0.00017951796 -0.00037954145 0.00048515986
000010 3b 0c 7a 39 31 ad 08 ba 4c 29 e2 39 d5 aa 57 39
       0.00023846414 -0.0005213796 0.00043136848 0.00020567638
000020 f3 c5 f1 b9 21 e6 63 b9 cd 53 a4 b8 b3 21 6d 39
       -0.00046114586 -0.00021734137 -7.8357385e-05 0.00022614635
000030 71 be 8e b8 d3 5e 29 b7 5d 2c 88 38 22 70 9a b9
       -6.80656e-05 -1.0095263e-05 6.493249e-05 -0.00029456714
000040 a7 93 0e b8 01 fb 90 39 e8 b8 6c 3b 31 3d da 3a
       -3.399295e-05 0.00027652833 0.0036120955 0.0016650317
000050 3a b9 7b bb 3f 2a a9 bb 99 ab 1e bb 65 64 b4 3b
       -0.0038409964 -0.005162507 -0.0024211167 0.005505132
000060 8e e1 5f bb ff 76 cf ba a9 32 6e 3b
       -0.003416154 -0.001582831 0.0036346114

exp_avg_sq f4 [9, 3]
000000 b7 4a 1f 35 77 93 02 34 e6 40 bf 34 31 c4 41 36
       5.934084e-07 1.2160841e-07 3.5623742e-07 2.887344e-06
000010 6e 0d ce 35 12 96 af 35 8d bf 98 35 9f 41 9d 34
       1.5352105e-06 1.3082192e-06 1.1380631e-06 2.9291274e-07
000020 f1 6c 30 35 b6 22 54 33 ab b0 0d 32 3a 52 40 33
       6.572364e-07 4.9391666e-08 8.24745e-09 4.4778268e-08
000030 2a 02 b8 31 d5 0b f0 2f 9d f1 47 31 7b fd 92 33
       5.355351e-09 4.3664153e-10 2.9095653e-09 6.8447626e-08
000040 39 c3 dc 30 f2 16 3d 33 e9 88 c0 38 70 f5 e4 37
       1.6062592e-09 4.402586e-08 9.180775e-05 2.7294009e-05
000050 6e 55 48 38 eb fa 03 3a 31 0c b9 39 f4 99 73 39
       4.776328e-05 0.0005034643 0.00035295033 0.00023231638
000060 90 2c ad 38 a7 22 b1 37 76 4d 44 38
       8.257583e-05 2.111618e-05 4.6802183e-05

exp_avg f4 [9, 3]
000000 54 fb c7 b9 4a b6 94 39 a5 fa e3 39 a0 36 04 ba
       -0.00038143492 0.00028364576 0.0004348356 -0.000504354
000010 50 52 c5 39 c0 6a 17 3a 50 fe e3 b9 9e 22 aa 39
       0.00037636096 0.00057761 -0.00043486292 0.0003245072
000020 fa 9b 02 3a fc 34 a8 38 75 1b eb b8 ec 0a 49 b9
       0.0004982349 8.0207334e-05 -0.000112107875 -0.00019172922
000030 02 22 a9 36 58 31 59 b7 ae be d2 b7 73 33 9b 37
       5.0405515e-06 -1.2945697e-05 -2.5122743e-05 1.8501398e-05
000040 d7 40 38 b8 b4 e6 b0 b8 34 a4 26 bb b6 48 f9 3a
       -4.3929405e-05 -8.435306e-05 -0.0025427463 0.0019018862
000050 97 95 3f 3b 95 bf 61 3b 0b 44 29 bb d4 39 82 bb
       0.002923345 0.0034446467 -0.002582791 -0.003974179
000060 2c 08 21 3b 8b 2d f0 ba 0d 6a 38 bb
       0.0024571521 -0.001832412 -0.0028139383

exp_avg_sq f4 [9, 3]
000000 d2 da b5 34 e1 6c a8 34 83 ae a4 35 0d 3d 0b 36
       3.387309e-07 3.1371658e-07 1.2269742e-06 2.074815e-06
000010 1c 37 c0 35 18 a5 f4 36 7f c9 30 35 d0 68 18 35
       1.4321154e-06 7.290986e-06 6.5858325e-07 5.6776935e-07
000020 80 41 1d 36 3d dc 07 32 f0 40 95 32 f7 a9 82 33
       2.343295e-06 7.908111e-09 1.7375413e-08 6.084513e-08
000030 c9 2d 3d 2f c1 e8 d2 2f 6d f2 23 31 a0 cb a7 2f
       1.7205716e-10 3.836416e-10 2.3857425e-09 3.0521807e-10
000040 e4 c6 2e 31 a7 e0 4e 32 d5 64 81 37 08 ce 6a 37
       2.5433389e-09 1.2041858e-08 1.5424952e-05 1.3995457e-05
000050 6a bd 63 38 2e ae 3f 39 a1 88 d3 38 c8 a1 11 3a
       5.4297423e-05 0.00018280066 0.00010086713 0.00055554183
000060 22 88 ac 37 01 5a 95 37 e0 64 96 38
       2.056739e-05 1.7804095e-05 7.171347e-05

exp_avg f4 [9]
000000 61 73 fe b9 ae 1f 35 ba fc 64 24 ba 5a 57 b6 39
       -0.0004853262 -0.00069093227 -0.00062711514 0.00034778827
000010 cf 98 12 39 d4 1f 25 3a cd 94 af bb 1d 45 f8 3b
       0.0001398057 0.0006298993 -0.0053583146 0.0075765983
000020 4e be a5 3b
       0.0050580865

exp_avg_sq f4 [9]
000000 80 98 13 36 0f e6 82 37 43 b3 9a 36 4a 04 22 34
       2.1993474e-06 1.5604337e-05 4.6104265e-06 1.5088986e-07
000010 de d5 ee 32 69 75 bf 34 c8 3a d3 39 dc d9 47 3b
       2.7804102e-08 3.566195e-07 0.00040288852 0.0030494845
000020 96 d7 b1 39
       0.00033920695

exp_avg f4 [9]
000000 61 73 fe b9 ae 1f 35 ba fc 64 24 ba 5a 57 b6 39
       -0.0004853262 -0.00069093227 -0.00062711514 0.00034778827
000010 cf 98 12 39 d4 1f 25 3a 2d 45 72 bb 9a 0c a9 3b
       0.0001398057 0.0006298993 -0.0036967502 0.005158973
000020 0b 48 70 3b
       0.0036664035

exp_avg_sq f4 [9]
000000 80 98 13 36 0f e6 82 37 43 b3 9a 36 4a 04 22 34
       2.1993474e-06 1.5604337e-05 4.6104265e-06 1.5088986e-07
000010 de d5 ee 32 69 75 bf 34 ed f6 d7 38 3c 86 a6 3a
       2.7804102e-08 3.566195e-07 0.000102979924 0.00127048
000020 6e c2 14 39
       0.0001418681

exp_avg f4 [9, 3]
000000 1f 39 2a 3b 65 4a 00 bb 43 6a 45 bb d6 71 9c b9
       0.0025973988 -0.0019575593 -0.0030123151 -0.00029839453
000010 7a b8 80 39 60 98 cb 39 27 4d d6 39 b1 b0 a1 b9
       0.00024551508 0.00038832705 0.00040874744 -0.00030839958
000020 4f c7 f8 b9 5b f2 e0 38 76 fe 61 b9 7b b6 d1 b9
       -0.00047450743 0.000107262946 -0.00021552466 -0.00039999545
000030 a8 6f 15 38 98 00 ea b8 14 fd 6c b9 3d 80 6c 37
       3.5628356e-05 -0.000111581 -0.00022600993 1.4096554e-05
000040 5d d3 10 b7 b7 ac d2 b6 42 91 6c bc 9e 39 36 3c
       -8.632281e-06 -6.2785944e-06 -0.014438929 0.011122135
000050 b9 4b 8d 3c 21 52 78 bc 5a 9c 39 3c b7 6b 8e 3c
       0.017248021 -0.0151563 0.011328781 0.017385347
000060 9e 79 a4 bb 2b d6 83 3b 43 73 ce 3b
       -0.0050193807 0.0040233335 0.0063003614

exp_avg_sq f4 [9, 3]
000000 dc c3 77 37 9a fb 39 37 36 11 24 38 bf 8b dd 34
       1.4767949e-05 1.108544e-05 3.9116676e-05 4.1266136e-07
000010 fc e3 22 33 eb 22 d2 34 fc a8 0b 35 08 27 29 35
       3.7925915e-08 3.9140954e-07 5.202744e-07 6.3014204e-07
000020 9a 58 2d 36 7a 68 a6 31 22 22 f5 32 05 e5 ec 33
       2.5830582e-06 4.8431135e-09 2.8537276e-08 1.1031265e-07
000030 4a 1f c3 2f 02 bc ab 31 28 6b c7 32 22 0f db 30
       3.5492526e-10 4.998129e-09 2.3215378e-08 1.5938648e-09
000040 e3 c9 38 2f 5a 79 6c 31 59 48 01 3a 5a 82 b8 39
       1.6806427e-10 3.44115e-09 0.000493174 0.00035192334
000050 20 45 b3 3a 2b 9a 8d 39 27 11 13 39 5c b4 e8 39
       0.0013677217 0.0002700848 0.00014025402 0.00044384866
000060 f7 1f b4 39 e2 c1 64 39 e1 d8 9a 3a
       0.0003435609 0.00021816001 0.0011813903

exp_avg f4 [9, 3]
000000 1a c8 39 3b 06 22 19 3b f3 29 88 3a 17 ca ad b9
       0.002834803 0.0023366227 0.0010388478 -0.000331477
000010 c5 e6 90 b9 d3 77 e9 b8 a0 ec e9 39 a3 bb c0 39
       -0.00027637757 -0.00011132625 0.00044617523 0.00036760894
000020 fc a6 2b 39 2f dc 24 39 c6 85 1e 39 bc 72 3e b7
       0.00016370037 0.00015722284 0.00015117889 -1.1351596e-05
000030 1b 0f 15 38 36 ac 12 38 cb 3d 96 b6 cc d4 01 38
       3.5538436e-05 3.4969496e-05 -4.477542e-06 3.095418e-05
000040 bc af fb 37 18 ee 3e b6 e1 81 88 bb 07 4e 62 bb
       3.0003364e-05 -2.8450795e-06 -0.0041658734 -0.0034531371
000050 10 31 c0 ba 68 bd 33 bc 54 ea 13 bc ab 34 85 bb
       -0.0014663059 -0.010970451 -0.009028036 -0.0040651164
000060 1d 29 75 bb 3f d8 4b bb 81 6e a8 ba
       -0.0037408539 -0.0031104235 -0.0012850316

exp_avg_sq f4 [9, 3]
000000 38 52 f6 37 10 f8 81 37 b6 75 9b 36 b5 28 1b 34
       2.9363771e-05 1.5493511e-05 4.6330633e-06 1.4450309e-07
000010 45 0a 81 34 0b 7c d1 34 90 a7 f2 35 b1 82 66 35
       2.4035594e-07 3.9019537e-07 1.8079172e-06 8.587186e-07
000020 65 29 a4 34 9f ca cb 32 c7 72 ac 32 39 3a cb 30
       3.05775e-07 2.3724452e-08 2.007563e-08 1.4786742e-09
000030 a2 ac 45 30 45 2d 3a 30 b6 e9 25 2e e7 1a 9b 30
       7.191351e-10 6.773074e-10 3.7724233e-11 1.128538e-09
000040 7a 84 ba 30 d3 83 51 30 ec 54 29 39 8a 6f c5 38
       1.3570933e-09 7.622109e-10 0.00016148732 9.414468e-05
000050 a4 a5 85 38 68 6f 14 39 08 03 b5 38 71 59 f3 37
       6.372787e-05 0.00014155882 8.631317e-05 2.9009507e-05
000060 3a 3b 91 39 cd 6b 30 39 02 e7 1e 39
       0.00027700682 0.00016824827 0.00015154111

exp_avg f4 [9]
000000 52 0c 65 3b 2d d1 01 ba 38 65 10 3a ae 4e 45 3a
       0.003494997 -0.0004952129 0.0005508247 0.0007526678
000010 85 c3 01 3a bf 6b d2 b7 b6 91 a8 bc 9c a7 a3 bc
       0.0004950094 -2.5084124e-05 -0.020577293 -0.019977383
000020 6f 68 fe bb
       -0.0077639143

exp_avg_sq f4 [9]
000000 65 5c 8e 38 90 7e a3 35 e9 84 a0 36 90 19 d2 34
       6.7882975e-05 1.2181281e-06 4.7838444e-06 3.9134147e-07
000010 cf ae 03 34 21 e8 f3 32 42 c7 28 3b 53 e6 44 3a
       1.2263921e-07 2.8394483e-08 0.0025753533 0.00075111276
000020 b1 99 2a 3b
       0.0026031549

exp_avg f4 [9]
000000 52 0c 65 3b 2d d1 01 ba 38 65 10 3a ae 4e 45 3a
       0.003494997 -0.0004952129 0.0005508247 0.0007526678
000010 85 c3 01 3a bf 6b d2 b7 aa 47 c4 bb 3c f6 59 bc
       0.0004950094 -2.5084124e-05 -0.0059899883 -0.013303336
000020 b8 35 a4 bb
       -0.0050112866

exp_avg_sq f4 [9]
000000 65 5c 8e 38 90 7e a3 35 e9 84 a0 36 90 19 d2 34
       6.7882975e-05 1.2181281e-06 4.7838444e-06 3.9134147e-07
000010 cf ae 03 34 21 e8 f3 32 78 ea 07 3a 7e 64 9a 39
       1.2263921e-07 2.8394483e-08 0.000518478 0.00029448041
000020 d7 61 85 3a
       0.0010176253

exp_avg f4 [9, 3]
000000 bd 3f 23 bb 62 e8 06 bb 5c ca 69 ba 60 82 86 bc
       -0.0024909817 -0.0020585288 -0.00089183985 -0.01641959
000010 14 35 5d bc 3e 1b c8 bb f7 d0 9f bb 0d e4 82 bb
       -0.013501424 -0.006106763 -0.0048772055 -0.003994471
000020 13 c3 f4 ba 69 f8 79 3a d5 76 6a 3a 98 21 53 b7
       -0.0018673859 0.0009535612 0.0008944099 -1.2584402e-05
000030 01 12 a0 3a 85 03 8f 3a 4b 87 fd 38 ab 8b b5 39
       0.0012212397 0.0010911083 0.000120891804 0.0003462707
000040 de dd ab 39 90 f2 53 b7 4f ed 7c bc 53 94 53 bc
       0.00032780966 -1.2633056e-05 -0.015437438 -0.012913781
000050 d7 9b a5 bb 7c c0 17 bd 46 23 fc bc d8 5a 51 bc
       -0.005053978 -0.0370488 -0.030778538 -0.0127780065
000060 9e 88 84 bd f4 09 5a bd 15 34 c5 bc
       -0.0647137 -0.05323215 -0.024072686

exp_avg_sq f4 [9, 3]
000000 fe c2 51 37 a8 92 df 36 c0 ca 42 35 e3 3d 0d 3a
       1.2502771e-05 6.662991e-06 7.256567e-07 0.0005387945
000010 a8 de 92 39 0c 2a 67 38 72 2f e9 36 f6 f5 8f 36
       0.00028013182 5.511385e-05 6.9494645e-06 4.2903657e-06
000020 c4 07 5a 35 24 cc 03 35 37 87 d3 34 c5 58 01 32
       8.122263e-07 4.9098367e-07 3.9400194e-07 7.528972e-09
000030 11 d9 9b 35 5a 9c 5b 35 ac c6 b0 33 30 48 3f 33
       1.1611575e-06 8.181138e-07 8.231777e-08 4.4536307e-08
000040 96 ca 20 33 71 cb 1e 30 bd 22 61 3a 6b e3 e7 39
       3.7437154e-08 5.7769173e-10 0.0008588245 0.00044229193
000050 02 db 9c 38 6e e6 03 3c 4e 95 a9 3b f5 9f 93 3b
       7.479453e-05 0.008050544 0.005175269 0.0045051523
000060 0c e9 69 3b 02 1c 05 3b 54 28 9a 39
       0.0035691885 0.0020310883 0.00029403216

exp_avg f4 [9, 3]
000000 29 e0 2c bb 56 79 23 bb d4 04 06 bb 5a 56 91 bc
       -0.0026378727 -0.0024944148 -0.0020449655 -0.017741371
000010 d6 66 8a bc ba 94 61 bc a0 6b af bb 36 df a7 bb
       -0.01689474 -0.013768369 -0.005353406 -0.0051230444
000020 99 3c 88 bb dd a2 ed 39 68 ed 8a 39 84 f8 ae 39
       -0.0041576144 0.00045325505 0.00026498293 0.00033373025
000030 df dd 5d 3a 87 f5 0a 3a 8d b9 25 3a be ac 1e 39
       0.00084635423 0.00053008687 0.00063219 0.00015132406
000040 bc b4 a4 38 d2 64 e5 38 2e cf 4c bc 2a 63 41 bc
       7.853794e-05 0.0001093835 -0.012500567 -0.011803428
000050 e2 b8 1e bc c4 57 c7 bc cb cd bb bc d3 6e 9a bc
       -0.009687634 -0.024333842 -0.022925278 -0.018851673
000060 a1 b2 37 bd b8 ba 2f bd c5 a3 0e bd
       -0.04484809 -0.04290268 -0.03482415

exp_avg_sq f4 [9, 3]
000000 b8 7c 60 37 5c 77 3e 37 b6 82 8d 36 7a f9 08 3a
       1.3380479e-05 1.1352673e-05 4.217344e-06 0.0005225163
000010 83 ff e5 39 87 52 23 39 76 f2 0a 37 40 0e f9 36
       0.00043868655 0.00015575635 8.281893e-06 7.422437e-06
000020 81 16 8a 36 36 6c 0c 34 72 9a 30 33 3a cc 59 33
       4.1153403e-06 1.3077883e-07 4.111866e-08 5.0709993e-08
000030 fa 5c 27 35 12 53 81 34 cc 52 74 34 fc be 2a 32
       6.2347647e-07 2.4088564e-07 2.2754392e-07 9.938727e-09
000040 50 be 1e 31 79 66 89 31 27 f7 ba 39 fb 7f 9b 39
       2.3100206e-09 3.9988746e-09 0.00035660827 0.00029659257
000050 3d b0 d3 38 c3 fb d2 3a d1 86 d0 3a 13 e2 cc 39
       0.00010094091 0.0016096759 0.0015909319 0.0003907835
000060 24 38 9e 3a 35 6b 8b 3a e0 ac 01 3a
       0.0012071175 0.0010636809 0.000494672

exp_avg f4 [9]
000000 9f 82 40 bb 74 50 9c bc 40 83 b7 bb fd 8c ce 3a
       -0.0029374731 -0.019081332 -0.005600363 0.001575857
000010 3a ee e7 3a 3e 7e 18 3a 3f ce 9a bc e5 ce 35 bd
       0.0017694898 0.00058171514 -0.018897174 -0.044386763
000020 c7 46 9a bd
       -0.07533031

exp_avg_sq f4 [9]
000000 bf 69 b8 37 76 e1 8c 3a de 17 27 37 53 45 c8 35
       2.1983751e-05 0.0010748345 9.959533e-06 1.4921337e-06
000010 21 18 45 36 15 1c 10 34 85 89 f0 3a 62 96 e3 3c
       2.9369332e-06 1.3421261e-07 0.0018351531 0.027781669
000020 cd 25 be 3b
       0.005802846

exp_avg f4 [9]
000000 9f 82 40 bb 74 50 9c bc 40 83 b7 bb fd 8c ce 3a
       -0.0029374731 -0.019081332 -0.005600363 0.001575857
000010 3a ee e7 3a 3e 7e 18 3a 74 01 6f bc 23 92 e7 bc
       0.0017694898 0.00058171514 -0.014587749 -0.028267926
000020 62 73 44 bd
       -0.0479616

exp_avg_sq f4 [9]
000000 bf 69 b8 37 76 e1 8c 3a de 17 27 37 53 45 c8 35
       2.1983751e-05 0.0010748345 9.959533e-06 1.4921337e-06
000010 21 18 45 36 15 1c 10 34 4c 27 40 3a c5 80 1c 3c
       2.9369332e-06 1.3421261e-07 0.00073300744 0.009552185
000020 c2 55 db 3a
       0.0016733932

exp_avg f4 [5, 3]
000000 95 a7 f3 be 19 11 e9 be 02 35 bd be d1 9f 0d 3e
       -0.47588792 -0.45520857 -0.36954504 0.13830496
000010 0b b3 07 3e 9c fb db 3d 79 32 87 3d 32 4d 81 3d
       0.13251893 0.1074135 0.06601424 0.06313552
000020 1b f9 51 3d 9d 53 03 3e 01 88 fb 3d 4a fb cb 3d
       0.051262956 0.12824865 0.122818 0.09960039
000030 82 c2 12 3e 86 04 0c 3e b3 e0 e3 3d
       0.14332011 0.136736 0.11126842

exp_avg_sq f4 [5, 3]
000000 ee 05 30 3e 2c 18 1c 3e 54 a3 7f 3d bf fe 4d 3c
       0.17189762 0.15243596 0.06241162 0.012572943
000010 d1 fb 35 3c 8a 7f 9d 3b c8 80 6d 3b 70 3d 4e 3b
       0.011107401 0.0048064636 0.003624009 0.0031469725
000020 c9 36 a8 3a d6 ad 66 3c 7b ba 4c 3c 42 21 a2 3b
       0.001283371 0.014079532 0.012495632 0.0049478123
000030 3f 8b 7c 3c 49 0d 65 3c 0d 4a b6 3b
       0.015414058 0.013980218 0.0055630268

exp_avg f4 [5]
000000 52 14 00 bf 1b 7b 14 3e ec 2d 8e 3d fe cc 09 3e
       -0.50031006 0.14500086 0.06942353 0.13457105
000010 3a f2 1a 3e
       0.15131465

exp_avg_sq f4 [5]
000000 04 b7 b0 3e 40 1b b0 3c b4 ed d8 3b 60 98 ee 3c
       0.3451463 0.021497369 0.0066201333 0.029125392
000010 fc d0 17 3d
       0.037064537
