aa2_models/model7.pt (torch_old, 22389 bytes, 102 tensors)

lin1.weight f4 [3, 7]
0	0xbea4b64e	-0.32170337
1	0x3e787d68	0.24266589
2	0x3e9396fd	0.28826132
3	0xbdb72489	-0.089425154
4	0x3e82d220	0.25550938
5	0xbdb7f458	-0.08982152
6	0x3e06e843	0.13174538
7	0xbc058c8f	-0.008151188
8	0x3da5a9f5	0.08089057
9	0x3eaec950	0.34137964
10	0x3d9dfcc3	0.07714226
11	0xbe733d21	-0.23753788
12	0x3eaced43	0.33774766
13	0x3e30e1fc	0.17273706
14	0x3ea1152d	0.31461468
15	0xbd9d3be2	-0.07677437
16	0xbe2873f9	-0.1645049
17	0x3def961f	0.11698555
18	0x3ea54a9f	0.32283494
19	0xbe33273f	-0.1749544
20	0x3ecb31a8	0.39686322

lin1.bias f4 [3]
0	0xbce870c7	-0.028374089
1	0xbe15e21c	-0.14637035
2	0x3e432f12	0.19060925

lin2.weight f4 [3, 3]
0	0x3e0c22b1	0.13685109
1	0x3e0bff2c	0.13671559
2	0xbe177db1	-0.14794041
3	0x3e78ea98	0.2430824
4	0x3efb976d	0.49138966
5	0xbd9ed89f	-0.07756161
6	0x3ebce868	0.36896062
7	0xbeba2d4f	-0.36362693
8	0xbde642b6	-0.11243193

lin2.bias f4 [3]
0	0x3d6f31d4	0.05839713
1	0x3eea7610	0.457932
2	0x3f1c6d8a	0.61104643

GRU.weight_ih_l0 f4 [9, 3]
0	0xbecac76a	-0.39605266
1	0x3e7f78a1	0.2494836
2	0x3eff9de4	0.49925148
3	0x3e432b14	0.19059402
4	0x3e13fae5	0.14451177
5	0x3db9aaa0	0.09065747
6	0xbe040c34	-0.1289528
7	0xbe9e6da7	-0.30943033
8	0xbe9c781d	-0.3056039
9	0xbee556a3	-0.4479266
10	0xbf13d3f0	-0.57745266
11	0xbec0a5e9	-0.3762658
12	0x3ea15f44	0.31517994
13	0xbe31e299	-0.17371596
14	0xbe31c30a	-0.17359558
15	0xbe9be0ef	-0.30445048
16	0xbd933894	-0.07188526
17	0xbea52b93	-0.32259807
18	0x3e84601b	0.25854573
19	0xbe1107fa	-0.14163199
20	0xbb04b083	-0.002024681
21	0xbec63bc5	-0.38717476
22	0x3e976b88	0.29574227
23	0xbe862fcd	-0.26208344
24	0xbe58464f	-0.2112057
25	0x3e784aed	0.24247332
26	0x3f07289a	0.5279633

GRU.weight_hh_l0 f4 [9, 3]
0	0x3eecb3a9	0.4623082
1	0x3eb8605a	0.3601101
2	0x3e788883	0.24270825
3	0xbe834319	-0.2563713
4	0xbf035b6e	-0.51311386
5	0x3da574e1	0.080789335
6	0x3f22d281	0.63602453
7	0xbeda2140	-0.42603493
8	0xbea7db7e	-0.32784647
9	0x3ee3b022	0.44470316
10	0x3f0144d9	0.5049568
11	0x3d4642a2	0.04840339
12	0xbc83472b	-0.016025146
13	0xbeaf881b	-0.34283528
14	0xbe39106d	-0.18072672
15	0xbeafecaa	-0.34360248
16	0x3cdd4a6a	0.027013022
17	0xbe9f29d0	-0.31086588
18	0x3dade265	0.08490447
19	0xbf15c842	-0.58508694
20	0xbdeb7f86	-0.114989325
21	0xbe925635	-0.28581396
22	0x3e19e981	0.15030481
23	0x3e793afa	0.24338904
24	0x3f20226b	0.6255252
25	0xbf107596	-0.5642942
26	0x3f0f04f4	0.5586693

GRU.bias_ih_l0 f4 [9]
0	0x3ea1ed8d	0.3162655
1	0x3e3403d1	0.17579581
2	0xbeb7eea1	-0.35924247
3	0xbf1cefb4	-0.6130326
4	0x3eec743b	0.46182427
5	0xbd30ce31	-0.04316539
6	0x3efcc72f	0.49370715
7	0xbef8a53d	-0.48563567
8	0x3e8a86cc	0.27055967

GRU.bias_hh_l0 f4 [9]
0	0xbe8c9a26	-0.27461356
1	0x3e83ee77	0.25767872
2	0xbe9545bf	-0.29154775
3	0x3c7155cb	0.014729927
4	0x3a7bb6bc	0.00096021197
5	0xbe5237b6	-0.20529065
6	0xbea0f053	-0.31433353
7	0xbec02b63	-0.375331
8	0x3edae532	0.42752987

GRU.weight_ih_l1 f4 [9, 3]
0	0xbe3bb1ce	-0.18329546
1	0x3e51d379	0.20490827
2	0xbe343796	-0.1759933
3	0xbe6f72a3	-0.23383574
4	0x3d6a4a20	0.057199597
5	0x3e717089	0.23578085
6	0x3ed42f2d	0.41442242
7	0x3d37bd5b	0.044858318
8	0xbe48a555	-0.19594319
9	0x3ea719dd	0.3263692
10	0x3e20c091	0.15698458
11	0x3d9aa9bc	0.075519055
12	0x3ee65a53	0.44990787
13	0x3ee30756	0.44341534
14	0xbdc5f29b	-0.09665414
15	0x3e209caa	0.15684763
16	0x3b580181	0.003295988
17	0xbeb310d9	-0.3497379
18	0xbec0a4ee	-0.3762583
19	0xbf017972	-0.50575936
20	0xbf1ecbec	-0.6202991
21	0xbeb890fd	-0.36048117
22	0xbed7047d	-0.41995612
23	0xbe0acdb7	-0.13555036
24	0xbed191c6	-0.4093153
25	0xbed61354	-0.4181162
26	0x3e89036a	0.26760417

GRU.weight_hh_l1 f4 [9, 3]
0	0xbe98e34c	-0.29860914
1	0xbea1d2a2	-0.31606013
2	0xbefca8ff	-0.49347684
3	0xbe8a19a8	-0.269727
4	0xbdc2953f	-0.09501123
5	0xbf108a6c	-0.56461215
6	0x3dc8ab3b	0.097982846
7	0x3ea395b5	0.31950155
8	0x3e1516d8	0.14559495
9	0x3ef7879b	0.48345646
10	0x3cfdd220	0.030983984
11	0xbee62c52	-0.4495569
12	0xbeb7cd2d	-0.35898724
13	0xbdb2c58d	-0.08729086
14	0x3e432f3e	0.1906099
15	0xbf05d46a	-0.52277243
16	0x3e16618e	0.14685652
17	0x3eb9a4f5	0.36258665
18	0x3daeac33	0.08528938
19	0xbeed3e6d	-0.4633669
20	0xbdf6e31a	-0.12055035
21	0x3ed1a896	0.40948933
22	0x3eb354a8	0.35025525
23	0xbe5cf718	-0.21578634
24	0x3e78ab95	0.24284203
25	0x3ef00b25	0.46883503
26	0x3d9c16cc	0.07621536

GRU.bias_ih_l1 f4 [9]
0	0xbd1fc158	-0.039002746
1	0x3ebdeb86	0.37093753
2	0x3ed3751c	0.41300285
3	0xbe1ae9b0	-0.15128207
4	0x3d9bf917	0.076158695
5	0xbefff154	-0.49988806
6	0xbdcb7f10	-0.099363446
7	0xbf15cf20	-0.5851917
8	0x3ea85551	0.3287759

GRU.bias_hh_l1 f4 [9]
0	0xbe38291e	-0.17984435
1	0x3e8a2fd6	0.2698962
2	0xbf07b3a9	-0.53008515
3	0xbf0f8aa3	-0.5607092
4	0xbebbda14	-0.36689818
5	0xbeafce29	-0.34336975
6	0x3e1b2d2d	0.15153952
7	0x3ebaeeae	0.36510223
8	0x3de762fe	0.11298178

GRU.weight_ih_l2 f4 [9, 3]
0	0xbe1eb6b8	-0.15499389
1	0xbef105f4	-0.47074854
2	0xbe956eaf	-0.29186007
3	0xbf0164e3	-0.50544566
4	0x3e02c2c4	0.1276961
5	0x3e2aad5f	0.16667698
6	0xbf260928	-0.6485772
7	0xbea43754	-0.32073462
8	0xbea8f317	-0.32997963
9	0x3ef39d80	0.475811
10	0xbe0437da	-0.1291193
11	0x3ee3a321	0.44460395
12	0x3f128fc4	0.5725062
13	0x3f0c4006	0.5478519
14	0x3ea4da6b	0.3219789
15	0x3edd1b31	0.43184808
16	0xbd003af9	-0.03130624
17	0x3e9709d7	0.29499695
18	0xbe13b71c	-0.1442532
19	0xbe918191	-0.28419164
20	0x3ecf4574	0.40482676
21	0xbebd7ae1	-0.37007812
22	0xbf1e8e41	-0.6193581
23	0x3e12ce1c	0.14336437
24	0x3df3c731	0.11903227
25	0xbe98f03f	-0.29870793
26	0xbeac97bb	-0.3370951

GRU.weight_hh_l2 f4 [9, 3]
0	0xbd60e58c	-0.054906413
1	0xbe9856cf	-0.2975373
2	0xbec12bbf	-0.37728688
3	0x3e908f16	0.28234166
4	0xbead0f88	-0.33800912
5	0x3ef4e194	0.47828352
6	0xbe9f9b35	-0.311731
7	0xbd891977	-0.0669431
8	0x3ec32c27	0.38119623
9	0xbea76eb8	-0.3270166
10	0x3eb1c283	0.34718713
11	0xbec446e1	-0.38335326
12	0xbe947813	-0.2899786
13	0x3e673fc7	0.22582923
14	0x3d9d6154	0.076845795
15	0x3d4f4eb5	0.05061217
16	0x3ece8c77	0.4034154
17	0x3debbf25	0.11511067
18	0x3eabff85	0.33593383
19	0x3eff1df9	0.49827555
20	0xbf205dce	-0.62643135
21	0x3d06973a	0.032859065
22	0x3e66dd64	0.22545391
23	0x3e8b5f97	0.27221367
24	0x3e9fc243	0.31202897
25	0xbf12ae91	-0.5729762
26	0x3eaa1d93	0.33225688

GRU.bias_ih_l2 f4 [9]
0	0xbeb20444	-0.3476888
1	0x3e64a233	0.22327499
2	0x3ece79b5	0.4032723
3	0xbe83ac2a	-0.25717288
4	0x3e634d44	0.22197443
5	0xbeebfb2e	-0.46090072
6	0xbee38bed	-0.44442692
7	0x3f136b9b	0.5758607
8	0x3e307bc2	0.1723471

GRU.bias_hh_l2 f4 [9]
0	0x3ed276ac	0.41106164
1	0xbea93782	-0.33050162
2	0xbeb03552	-0.3441568
3	0xbe46fc81	-0.1943226
4	0xbf076389	-0.52886254
5	0x3c1e730b	0.009670983
6	0x3eb32267	0.34987184
7	0x3f0ea483	0.55719775
8	0xbeaf9cc6	-0.34299296

GRU.weight_ih_l3 f4 [9, 3]
0	0x3f0ff684	0.5623553
1	0xbcf973d2	-0.030450735
2	0xbd4572d5	-0.048205215
3	0xbebfe421	-0.37478736
4	0xbf0ee352	-0.55815613
5	0x3d65fa70	0.05614704
6	0x3e9b6111	0.30347493
7	0x3e1729f8	0.14762104
8	0x3e8faa38	0.28059554
9	0xbf1f8b21	-0.6232167
10	0xbef22d91	-0.4730039
11	0x3e996a19	0.2996376
12	0x3e2f41c5	0.17114933
13	0x3d4160f5	0.047211606
14	0x3e526fac	0.20550412
15	0xbeb3fb70	-0.3515277
16	0xbe8f3f4a	-0.27977973
17	0x3ebda59d	0.37040415
18	0xbea91370	-0.33022642
19	0x3e519d49	0.20470156
20	0xbece6030	-0.4030776
21	0xbedd74b3	-0.43253097
22	0xbf14f65c	-0.58188415
23	0x3dfdb13f	0.12387323
24	0x3ea47bc1	0.32125667
25	0x3e180637	0.14846121
26	0xbf1f776f	-0.62291616

GRU.weight_hh_l3 f4 [9, 3]
0	0x3ddb1c60	0.106987715
1	0xbf174e7b	-0.59104127
2	0xbd53e3cc	-0.051730916
3	0x3eaa122b	0.33216986
4	0x3ea700dc	0.32617843
5	0xbefbb6a5	-0.49162784
6	0xbe0fda95	-0.14048226
7	0xbf256919	-0.6461349
8	0xbef6ae0e	-0.48179668
9	0xbe6faaa7	-0.23404942
10	0xbebe2258	-0.37135577
11	0xbf27e187	-0.655785
12	0xbe284e4f	-0.16436122
13	0x3f0f2c75	0.5592721
14	0xbeb33725	-0.3500301
15	0x3e929eb5	0.2863671
16	0xbeec115f	-0.46107003
17	0x3c121274	0.008915532
18	0x3f22b428	0.63556147
19	0x3e932dfb	0.28746018
20	0x3de5d2e2	0.11221863
21	0xbf02ed3b	-0.51143235
22	0xbee400a9	-0.44531754
23	0x3c9c95e1	0.019114437
24	0xbef74adf	-0.4829931
25	0xbec341de	-0.3813619
26	0xbcfcb610	-0.030848533

GRU.bias_ih_l3 f4 [9]
0	0x3d64b699	0.0558382
1	0x3ea6d325	0.32582965
2	0x3ea849b4	0.3286873
3	0x3dfed67b	0.12443253
4	0xbf103d13	-0.5634319
5	0x3eacadb0	0.33726263
6	0xbf146a9d	-0.5797518
7	0xbec74634	-0.38920748
8	0xbe8410db	-0.2579411

GRU.bias_hh_l3 f4 [9]
0	0xbcbcf54d	-0.023066187
1	0xbda42870	-0.08015525
2	0x3f1b8509	0.6074987
3	0xbf217703	-0.6307222
4	0x3ec2bdfd	0.38035575
5	0x3e9221d4	0.28541434
6	0xbea0d849	-0.31415012
7	0x3edd6be8	0.43246388
8	0x3f0a2bfb	0.5397336

GRU.weight_ih_l4 f4 [9, 3]
0	0xbe48feef	-0.196285
1	0x3e9109cd	0.2832779
2	0xbeea16f1	-0.45720628
3	0x3e7f4b50	0.24931073
4	0xbd80ebee	-0.06295
5	0xbe9ab973	-0.30219612
6	0x3f14aac4	0.5807307
7	0xbd7bc39d	-0.06146585
8	0x3ddf405d	0.10900948
9	0x3ef164b9	0.47147158
10	0x3ebe0bf9	0.3711851
11	0xbef2d387	-0.47427008
12	0xbed56174	-0.41675913
13	0x3f014761	0.5049954
14	0xbeae572e	-0.34050888
15	0x3f147282	0.57987225
16	0x3e17a604	0.14809424
17	0xbc0f5c6a	-0.008750061
18	0x3dc9d11c	0.098543376
19	0xbec0ad74	-0.37632334
20	0x3eeeffd3	0.46679553
21	0xbcbe100b	-0.02320101
22	0xbee44da9	-0.445905
23	0x3e7c7d6a	0.24657217
24	0xbe5571ac	-0.20844144
25	0xbf17bd3b	-0.5927312
26	0x3f26bcf8	0.65132093

GRU.weight_hh_l4 f4 [9, 3]
0	0x3f079064	0.529547
1	0x3f2ca715	0.67442447
2	0x3ee64d6e	0.4498095
3	0xbe4834f2	-0.19551447
4	0x3ee794ba	0.45230657
5	0x3db8ad76	0.0901746
6	0xbedec93f	-0.43512914
7	0xbeb55bce	-0.35421604
8	0x3e12f39f	0.14350747
9	0xbf2bca5c	-0.6710565
10	0x3eb0f6d5	0.34563318
11	0x3e919e94	0.28441298
12	0x3e384520	0.17995119
13	0x3ed9fa90	0.42573977
14	0xbecfe745	-0.40606132
15	0xbe968d12	-0.29404503
16	0x3eb52a33	0.35383758
17	0x3e199f64	0.15002209
18	0xbe1a6030	-0.15075755
19	0x3ed8d30c	0.42348516
20	0xbddd72e3	-0.108129285
21	0x3d243d15	0.040097315
22	0x3d342451	0.043979947
23	0xbde0e7e6	-0.10981731
24	0xbe6b3fc6	-0.22973546
25	0x3dea7b77	0.1144933
26	0x3f0eee25	0.5583213

GRU.bias_ih_l4 f4 [9]
0	0x3e009b77	0.12559305
1	0xbef52db1	-0.47886422
2	0xbe79bae7	-0.24387704
3	0x3e5d16e2	0.2159076
4	0x3db9cd91	0.09072412
5	0x3dd4443e	0.10364579
6	0x3c94693a	0.018116582
7	0x3de5aed2	0.11214985
8	0x3e5d1779	0.21590985

GRU.bias_hh_l4 f4 [9]
0	0x3e890956	0.26764935
1	0xbf167055	-0.58765155
2	0x3e869a36	0.2628953
3	0x3d9d9cdf	0.076959364
4	0xbebdc5ce	-0.37064976
5	0xbf07ad78	-0.5299907
6	0x3e7a4c2c	0.2444312
7	0xbee33e8c	-0.44383657
8	0xbedc2fff	-0.43005368

GRU.weight_ih_l5 f4 [9, 3]
0	0xbebdd13a	-0.3707369
1	0xbe542361	-0.20716621
2	0x3e9b2ebc	0.30309093
3	0xbbad632d	-0.0052913637
4	0xbf289cb6	-0.6586412
5	0xbe045bb7	-0.12925611
6	0xbef780eb	-0.48340544
7	0x3e838eef	0.25694987
8	0x3e712dd1	0.23552634
9	0x3edcfb55	0.431605
10	0xbdc691fe	-0.096958145
11	0xbe852682	-0.26005942
12	0x3dd7f08e	0.10543929
13	0xbe5c4e6e	-0.21514294
14	0x3ede994e	0.43476337
15	0xbeb4c2ba	-0.35304815
16	0x3e4a6f33	0.19768982
17	0x3e207a9f	0.15671776
18	0xbeeabcf1	-0.45847276
19	0xbf26bb25	-0.6512931
20	0xbea3762a	-0.3192609
21	0x3dea333d	0.11435554
22	0x3e6ee3a0	0.2332902
23	0xbebc9272	-0.3683048
24	0xbe204f03	-0.1565514
25	0x3ea40849	0.3203757
26	0x3e1dbb1a	0.15403405

GRU.weight_hh_l5 f4 [9, 3]
0	0x3efaea95	0.49007097
1	0xbe864063	-0.26220998
2	0xbd397cee	-0.045285158
3	0x3f1bb9e6	0.60830534
4	0x3eedca9a	0.46443635
5	0xbec48d6a	-0.3838914
6	0x3dc7fd1d	0.097650744
7	0x3eb0d006	0.3453371
8	0xbda18448	-0.07886559
9	0x3f098d68	0.53731394
10	0xbf319126	-0.69362104
11	0x3f2485f5	0.642669
12	0x3e3457d8	0.17611635
13	0x3e5d0c64	0.21586758
14	0x3ed3593f	0.41279027
15	0x3e24885b	0.1606764
16	0xbec28c62	-0.3799773
17	0x3d930f29	0.07180626
18	0x3ede9088	0.43469644
19	0xbee06632	-0.4382797
20	0xbe8cd2fd	-0.2750472
21	0x3ef708af	0.48248813
22	0xbeb32703	-0.349907
23	0x3e9bbca3	0.30417356
24	0xbd97a640	-0.074047565
25	0x3e5d4a93	0.21610479
26	0xbe2fec7b	-0.17180054

GRU.bias_ih_l5 f4 [9]
0	0x3f28b5f6	0.6590265
1	0xbe0ae937	-0.13565527
2	0x3f08d7b8	0.5345416
3	0xbca135c3	-0.019678956
4	0xbf10d3ca	-0.56573164
5	0xbd4447d8	-0.047920078
6	0x3ef2d15b	0.4742535
7	0x3f194f35	0.59886485
8	0x3d2de886	0.04245808

GRU.bias_hh_l5 f4 [9]
0	0xbec65228	-0.38734555
1	0x3e462360	0.19349432
2	0x3d090fef	0.03346246
3	0xbf0f762e	-0.560397
4	0x3ed1ba19	0.40962294
5	0x3e16a2d6	0.14710554
6	0xbeda2bfe	-0.42611688
7	0xbe86021c	-0.26173484
8	0xbeabe0c9	-0.33569935

GRU.weight_ih_l6 f4 [9, 3]
0	0xbe6abb8e	-0.22923109
1	0x3ee2adf8	0.44273353
2	0x3e265934	0.16244966
3	0xbec3cff9	-0.38244608
4	0x3f0f45aa	0.55965674
5	0xbf1c6df4	-0.61105275
6	0x3e9d63f8	0.30740333
7	0x3e110c7b	0.14164917
8	0x3eb24b46	0.34823054
9	0xbea753c6	-0.32681102
10	0xbdb0c873	-0.08631983
11	0xbccff44d	-0.025385046
12	0x3ef78faa	0.48351794
13	0xbe93a1bb	-0.28834328
14	0x3e05bb15	0.13059647
15	0x3e6e06eb	0.23244826
16	0xbf1faa60	-0.62369347
17	0xbed16938	-0.40900588
18	0xbe41f3a2	-0.18940595
19	0x3ec37013	0.38171443
20	0xbe4444ed	-0.19166918
21	0x3f1aa791	0.60411936
22	0x3e9543b9	0.2915323
23	0x3d8f08ab	0.06984075
24	0x3ef4ec0d	0.47836342
25	0xbda3749a	-0.07981224
26	0xbe9ed4be	-0.31021684

GRU.weight_hh_l6 f4 [9, 3]
0	0x3e610f94	0.21978599
1	0x3d141eb0	0.03616208
2	0x3c969c64	0.01838512
3	0xbe83c743	-0.25737962
4	0xbeed278f	-0.46319243
5	0x3d8a5352	0.06754173
6	0x3e9e237a	0.3088644
7	0xbeb524b4	-0.35379565
8	0x3e799d98	0.24376523
9	0xbf1bbc96	-0.60834634
10	0x3dfee7c1	0.12446547
11	0xbede065e	-0.43364233
12	0xbcc30636	-0.023806673
13	0xbde05cac	-0.10955176
14	0x3ed690ca	0.4190734
15	0x3f05bf99	0.5224548
16	0x3f0fa0e1	0.56104857
17	0xbed3f75d	-0.4139966
18	0x3dd0ae54	0.101895005
19	0x3e4b24cd	0.19838257
20	0xbe1e4c8f	-0.15458892
21	0x3f0cb8b0	0.5496931
22	0x3e75ad77	0.23991953
23	0x3eb20dc5	0.3477613
24	0x3e48170e	0.19540045
25	0x3ed6c428	0.4194653
26	0x3d5be8d2	0.05368883

GRU.bias_ih_l6 f4 [9]
0	0x3d878112	0.06616415
1	0x3f0a20c9	0.53956276
2	0xbe926c09	-0.2859805
3	0x3ea60960	0.32429028
4	0xbf1b8e07	-0.6076359
5	0xbf257b85	-0.646416
6	0xbdf8a3ce	-0.12140618
7	0x3e4624b0	0.19349933
8	0xbeb4fd26	-0.35349387

GRU.bias_hh_l6 f4 [9]
0	0x3eee9445	0.46597496
1	0x3ea11a25	0.3146526
2	0xbed32076	-0.41235703
3	0x3f2262a2	0.6343175
4	0xbee3c8f9	-0.44489267
5	0xbee54be7	-0.4478447
6	0xbe53cc1a	-0.20683327
7	0xbf241ed9	-0.6410957
8	0xbf0e9762	-0.5569974

lin3.weight f4 [5, 3]
0	0x3e0cc7f2	0.13748148
1	0xbf098772	-0.537223
2	0x3d4a5215	0.049394686
3	0xbda93974	-0.082629114
4	0x3ef858f5	0.4850537
5	0x3f1ed8eb	0.6204974
6	0x3d6e1317	0.058123674
7	0xbe84db90	-0.25948763
8	0x3f205dc1	0.6264306
9	0x3e0905fc	0.13381189
10	0xbd864a2d	-0.06557117
11	0x3f2ca419	0.67437893
12	0xbee4278f	-0.4456143
13	0xbdbd1ab4	-0.09233609
14	0xbee96a07	-0.45588705

lin3.bias f4 [5]
0	0x3d476ac0	0.04868579
1	0xbf05e353	-0.52299994
2	0x3e748eb7	0.23882566
3	0x3e8136bf	0.2523708
4	0xbf0dbfb1	-0.5537062

exp_avg f4 [3, 7]
0	0xa437bb3c	-3.9840393e-17
1	0x314ef118	3.0113991e-09
2	0xba0581c6	-0.0005092885
3	0x38995965	7.3122595e-05
4	0xb76bcb14	-1.4054374e-05
5	0x00000000	0.0
6	0xb77e09b5	-1.514184e-05
7	0x23b20915	1.9302645e-17
8	0xb033684f	-6.526805e-10
9	0x39f7a3c2	0.0004723352
10	0x39e29700	0.00043218583
11	0x371c8dd7	9.331349e-06
12	0x00000000	0.0
13	0x3759bdc6	1.2978393e-05
14	0x2316dcc7	8.178268e-18
15	0xb0d2ad50	-1.5328769e-09
16	0xb95528d9	-0.0002032848
17	0xba1a9c6b	-0.0005897942
18	0xb657c9cd	-3.215496e-06
19	0x00000000	0.0
20	0xb6e10caf	-6.706999e-06

exp_avg_sq f4 [3, 7]
0	0x2a3d0766	1.6789139e-13
1	0x27379251	2.547567e-15
2	0x38ebdc03	0.000112466536
3	0x373d24cf	1.1273848e-05
4	0x31aa266a	4.9520184e-09
5	0x00000000	0.0
6	0x323b2629	1.0893509e-08
7	0x29c73476	8.846476e-14
8	0x25c4b3af	3.4122338e-16
9	0x387bb64d	6.0012844e-05
10	0x36c118ed	5.75475e-06
11	0x31123ae3	2.127927e-09
12	0x00000000	0.0
13	0x31b24eb8	5.189431e-09
14	0x27a8d641	4.686166e-15
15	0x25ca0d80	3.5050562e-16
16	0x362b24b8	2.5502359e-06
17	0x35d0146c	1.5503151e-06
18	0x2fc44d55	3.570714e-10
19	0x00000000	0.0
20	0x2fcebb79	3.760439e-10

exp_avg f4 [3]
0	0xb93be0ce	-0.00017917456
1	0x39174d91	0.00014429378
2	0x38134d6f	3.5119647e-05

exp_avg_sq f4 [3]
0	0x3400230e	1.1933682e-07
1	0x33ed4e0b	1.10503684e-07
2	0x30d1dfa5	1.5270315e-09

exp_avg f4 [3, 3]
0	0x3a0b5065	0.0005314409
1	0x3acc465e	0.0015584936
2	0x392f0fdc	0.00016695209
3	0xb98e6e33	-0.00027166455
4	0xba0ba9b0	-0.00053277146
5	0x37604a72	1.3368774e-05
6	0xb9e410a1	-0.00043499938
7	0xba200fbe	-0.00061058614
8	0x38722f38	5.7741272e-05

exp_avg_sq f4 [3, 3]
0	0x37a8822a	2.0087773e-05
1	0x3867f4f7	5.5302833e-05
2	0x36b022e9	5.249273e-06
3	0x374e0cc9	1.2281534e-05
4	0x37e73e85	2.7566459e-05
5	0x3661927a	3.3612873e-06
6	0x3864f110	5.4583943e-05
7	0x38fc1ddf	0.0001202186
8	0x37808921	1.5322645e-05

exp_avg f4 [3]
0	0x39445d05	0.00018726669
1	0xb8eed74d	-0.00011388827
2	0xb9fbbe5f	-0.00048016288

exp_avg_sq f4 [3]
0	0x34fc2c68	4.6970968e-07
1	0x34034106	1.2223981e-07
2	0x358f04b8	1.0655704e-06

exp_avg f4 [9, 3]
0	0xb6121ff2	-2.177429e-06
1	0xb6ef5c86	-7.133526e-06
2	0x3600fa95	1.9219344e-06
3	0x337703bb	5.7512562e-08
4	0x3642cb5f	2.902663e-06
5	0x36a9c095	5.059012e-06
6	0xb61ea589	-2.3640189e-06
7	0xb90d24b4	-0.00013460481
8	0xb975b4c8	-0.00023432367
9	0x34acce19	3.2187452e-07
10	0x34b43e5f	3.3572994e-07
11	0x3655015e	3.174027e-06
12	0x361b040b	2.3099153e-06
13	0x370002a4	7.630009e-06
14	0xb67555b2	-3.6557726e-06
15	0xb9eaf13a	-0.00044811686
16	0xbad3f7e5	-0.0016171901
17	0x3a55ee10	0.0008160779
18	0x379445c8	1.767547e-05
19	0xb9261f52	-0.00015842661
20	0xb9d16e9c	-0.00039945997
21	0x3300f0ac	3.0021212e-08
22	0xb80fcc32	-3.428403e-05
23	0xb87da4ba	-6.0473314e-05
24	0xba208168	-0.00061227987
25	0xbb149032	-0.0022668955
26	0xb90055df	-0.0001223902

exp_avg_sq f4 [9, 3]
0	0x304a70c1	7.3647405e-10
1	0x31802f12	3.7306416e-09
2	0x2f2fb27e	1.597957e-10
3	0x2c147c79	2.1101161e-12
4	0x2f374029	1.6666547e-10
5	0x2fa83e4e	3.0603292e-10
6	0x2f7616a0	2.2381608e-10
7	0x336bcc2b	5.490089e-08
8	0x34248b12	1.5324284e-07
9	0x2f28ceb6	1.535295e-10
10	0x320bb9d2	8.1331155e-09
11	0x32c2caa3	2.2676721e-08
12	0x36194544	2.2839095e-06
13	0x372e1d57	1.0378039e-05
14	0x33faa6e7	1.16718915e-07
15	0x34c3b2a0	3.6451547e-07
16	0x3695d014	4.4647695e-06
17	0x3617c4da	2.2615336e-06
18	0x3783b8b5	1.5702428e-05
19	0x386eb39b	5.6910892e-05
20	0x363b0527	2.786817e-06
21	0x31084597	1.9830162e-09
22	0x33473a41	4.638628e-08
23	0x331fd107	3.721018e-08
24	0x383e7c39	4.541522e-05
25	0x394b8879	0.00019410429
26	0x367fc304	3.8111475e-06

exp_avg f4 [9, 3]
0	0xb5c985b7	-1.5014583e-06
1	0x35dc46fa	1.6411934e-06
2	0xb3c24d2a	-9.047865e-08
3	0x36604262	3.341724e-06
4	0xb6b33a54	-5.341406e-06
5	0x36e131f0	6.711336e-06
6	0xb91f54bf	-0.00015194992
7	0x397f852a	0.00024368303
8	0xb9a13a19	-0.000307516
9	0xb53e144b	-7.0810046e-07
10	0x34822f0a	2.4248612e-07
11	0x3611af66	2.170878e-06
12	0xb5618776	-8.4016153e-07
13	0x35653ab1	8.5394555e-07
14	0x34d42561	3.9515274e-07
15	0x3801145d	3.077496e-05
16	0xb8035b42	-3.1317824e-05
17	0xb7f4b6e2	-2.9172228e-05
18	0xb92708db	-0.0001592966
19	0x3986b1f3	0.00025691054
20	0xb9abb183	-0.00032747918
21	0xb7f3da69	-2.9069563e-05
22	0x38408857	4.5903344e-05
23	0xb86a51b9	-5.5866058e-05
24	0xb91719f3	-0.00014410149
25	0x39770a53	0.00023559602
26	0xb9a2ff62	-0.00031089323

exp_avg_sq f4 [9, 3]
0	0x2e37b79f	4.177247e-11
1	0x2f06d7c0	1.2263879e-10
2	0x2eaa156d	7.734511e-11
3	0x2ee569d8	1.0432516e-10
4	0x301a2f7f	5.609237e-10
5	0x3010ce79	5.268031e-10
6	0x335116ef	4.8682463e-08
7	0x3474db26	2.2803997e-07
8	0x3493082a	2.7386824e-07
9	0x2c69f08b	3.324482e-12
10	0x2bb8440b	1.3092872e-12
11	0x2c82129f	3.6968896e-12
12	0x2fd5e268	3.8905346e-10
13	0x2d2847f4	9.565671e-12
14	0x2e9aaeb0	7.03414e-11
15	0x3107a318	1.9737794e-09
16	0x3085996b	9.720628e-10
17	0x311a9837	2.2496474e-09
18	0x32ca0a1e	2.3520496e-08
19	0x33caec7e	9.449376e-08
20	0x33f06a21	1.11951756e-07
21	0x31abb655	4.9974838e-09
22	0x3318f334	3.561145e-08
23	0x33200d6d	3.7265114e-08
24	0x335ba88f	5.1143214e-08
25	0x3486dcb2	2.5120022e-07
26	0x34a64f94	3.097781e-07

exp_avg f4 [9]
0	0x33a22cc6	7.551857e-08
1	0x3706f379	8.04371e-06
2	0xb9c25186	-0.00037063303
3	0x363ac718	2.7832048e-06
4	0x34b8ec0f	3.4444426e-07
5	0xb7ea9534	-2.7964452e-05
6	0xba2052f3	-0.0006115876
7	0xb8c895e5	-9.564663e-05
8	0xba9c1b0e	-0.0011909918

exp_avg_sq f4 [9]
0	0x2f0fce33	1.3079031e-10
1	0x3099eeb9	1.1200064e-09
2	0x34fbc0b3	4.68926e-07
3	0x2cafce3b	4.9966953e-12
4	0x2fbb5900	3.407834e-10
5	0x311b1ea8	2.2572895e-09
6	0x34e5b064	4.2782915e-07
7	0x3419426d	1.4273401e-07
8	0x36e382b7	6.7803444e-06

exp_avg f4 [9]
0	0x33a22cc6	7.551857e-08
1	0x3706f379	8.04371e-06
2	0xb9c25186	-0.00037063303
3	0x363ac718	2.7832048e-06
4	0x34b8ec0f	3.4444426e-07
5	0xb7ea9534	-2.7964452e-05
6	0xb9ceeaf4	-0.00039466436
7	0xb88ca726	-6.706854e-05
8	0xb9c4bacd	-0.0003752321

exp_avg_sq f4 [9]
0	0x2f0fce33	1.3079031e-10
1	0x3099eeb9	1.1200064e-09
2	0x34fbc0b3	4.68926e-07
3	0x2cafce3b	4.9966953e-12
4	0x2fbb5900	3.407834e-10
5	0x311b1ea8	2.2572895e-09
6	0x344416aa	1.8262168e-07
7	0x33a66102	7.747623e-08
8	0x3512404f	5.448282e-07

exp_avg f4 [9, 3]
0	0x38338c9a	4.280787e-05
1	0xb8eafbce	-0.00011204892
2	0x399666f3	0.00028686933
3	0xb7918a67	-1.7349796e-05
4	0x37b45efa	2.1501899e-05
5	0xb6c61265	-5.9030012e-06
6	0x37c04085	2.2918228e-05
7	0xb8867d64	-6.412974e-05
8	0x39362b5e	0.00017373028
9	0xb8af5eec	-8.362331e-05
10	0x38b0e375	8.434701e-05
11	0x38f6c5ca	0.00011767035
12	0xb8549d81	-5.0691426e-05
13	0x38573a39	5.131422e-05
14	0x386a1b56	5.5815406e-05
15	0xb815d7e6	-3.572544e-05
16	0x3811a47c	3.4723882e-05
17	0x3893c3d2	7.0459806e-05
18	0x3a1ca0bc	0.0005974879
19	0xbaca6b22	-0.0015443305
20	0x3b817a38	0.003951337
21	0x3906f8d5	0.00012871933
22	0xb9d4c72d	-0.00040584189
23	0x3a989e67	0.0011643887
24	0xb986bcfd	-0.0002569928
25	0x3a9c3092	0.001191633
26	0xbb887645	-0.0041644895

exp_avg_sq f4 [9, 3]
0	0x321b11ba	9.026218e-09
1	0x33ad7c85	8.07859e-08
2	0x343077f7	1.643492e-07
3	0x31231cb3	2.3735935e-09
4	0x31bb1e9c	5.445896e-09
5	0x31996232	4.4640496e-09
6	0x31595fa6	3.1632026e-09
7	0x32124fba	8.516446e-09
8	0x332040c7	3.7311818e-08
9	0x31ecf954	6.8968493e-09
10	0x31690a51	3.3911827e-09
11	0x3327637b	3.8973194e-08
12	0x30dfcf54	1.6284312e-09
13	0x306282d6	8.240425e-10
14	0x31153a62	2.171554e-09
15	0x31cb43a1	5.915766e-09
16	0x2fab05da	3.1108877e-10
17	0x32234dcd	9.505539e-09
18	0x35db82f5	1.6354885e-06
19	0x3796195d	1.7893204e-05
20	0x380d948c	3.3755365e-05
21	0x345e8366	2.0723164e-07
22	0x36108c3d	2.1539302e-06
23	0x366b2750	3.5040612e-06
24	0x35f8b389	1.8529691e-06
25	0x37bab953	2.2259226e-05
26	0x382e5c31	4.1570693e-05

exp_avg f4 [9, 3]
0	0xb8f16cb0	-0.0001151202
1	0xb94cba20	-0.00019524293
2	0x3935aea0	0.00017326558
3	0x37096823	8.190083e-06
4	0x3720b2fc	9.578416e-06
5	0xb722740d	-9.682973e-06
6	0xb8aa2a02	-8.114056e-05
7	0xb9077240	-0.00012917165
8	0x38ea508e	0.00011172994
9	0x374410f8	1.1686461e-05
10	0x350ccd72	5.2453026e-07
11	0xb5d6270e	-1.5955609e-06
12	0xb70bb052	-8.326098e-06
13	0xb61b960c	-2.3184139e-06
14	0x36d431d0	6.3238913e-06
15	0x370f7511	8.550721e-06
16	0x36dfe41e	6.6724742e-06
17	0xb6a9954c	-5.053973e-06
18	0xba213e73	-0.0006150968
19	0xba84bdd7	-0.0010127377
20	0x3a6c0272	0.000900305
21	0xb9863df9	-0.00025604645
22	0xb9ee74ab	-0.00045481822
23	0x39daa77d	0.0004170499
24	0x3a296c2a	0.0006462956
25	0x3a90ce01	0.0011047722
26	0xba8259dc	-0.0009944993

exp_avg_sq f4 [9, 3]
0	0x322c6e14	1.00367465e-08
1	0x3336828a	4.24939e-08
2	0x33a7cc18	7.813668e-08
3	0x3017b06d	5.5184196e-10
4	0x30331482	6.5148964e-10
5	0x31fba8e7	7.3242634e-09
6	0x31d5cf3b	6.2226753e-09
7	0x327906dc	1.4495267e-08
8	0x3276d0f3	1.4366594e-08
9	0x31712ded	3.5096221e-09
10	0x2f351c3f	1.6471889e-10
11	0x300bd14d	5.086534e-10
12	0x2eac4f42	7.8357335e-11
13	0x2d6c60bf	1.3436529e-11
14	0x2e905c15	6.564719e-11
15	0x302bd8af	6.2517364e-10
16	0x2f947498	2.7003888e-10
17	0x301718f0	5.496892e-10
18	0x349353a8	2.7441752e-07
19	0x359ce00f	1.1688115e-06
20	0x362f4da7	2.6122232e-06
21	0x334dff84	4.7962672e-08
22	0x349e55f6	2.9492338e-07
23	0x358390ba	9.802382e-07
24	0x34f1164b	4.4905968e-07
25	0x3616672f	2.2411803e-06
26	0x36c0e40f	5.7485954e-06

exp_avg f4 [9]
0	0x39ba68eb	0.00035554855
1	0xb6d2d05a	-6.282743e-06
2	0x3962d879	0.00021633682
3	0x38ac0a8c	8.2035636e-05
4	0x384cb22f	4.8803337e-05
5	0x381f4cc9	3.7980066e-05
6	0x3b9e9fb5	0.004840816
7	0x3abef918	0.0014570085
8	0xbba89966	-0.0051452396

exp_avg_sq f4 [9]
0	0x34b7dd55	3.4247446e-07
1	0x330cb6ab	3.2762426e-08
2	0x337a2db9	5.8249245e-08
3	0x31a54548	4.8100084e-09
4	0x305e9240	8.0970963e-10
5	0x2fe88e8c	4.230184e-10
6	0x38965aaa	7.169445e-05
7	0x372c5e5d	1.027397e-05
8	0x38d1ee16	0.000100102436

exp_avg f4 [9]
0	0x39ba68eb	0.00035554855
1	0xb6d2d05a	-6.282743e-06
2	0x3962d879	0.00021633682
3	0x38ac0a8c	8.2035636e-05
4	0x384cb22f	4.8803337e-05
5	0x381f4cc9	3.7980066e-05
6	0x3afbe74c	0.0019218712
7	0x3a7afa23	0.00095740164
8	0xbb0848a0	-0.002079524

exp_avg_sq f4 [9]
0	0x34b7dd55	3.4247446e-07
1	0x330cb6ab	3.2762426e-08
2	0x337a2db9	5.8249245e-08
3	0x31a54548	4.8100084e-09
4	0x305e9240	8.0970963e-10
5	0x2fe88e8c	4.230184e-10
6	0x373f7158	1.1410877e-05
7	0x368bc561	4.1655007e-06
8	0x37d11c6a	2.4927973e-05

exp_avg f4 [9, 3]
0	0x3a5b6bf6	0.00083702744
1	0x3ab55b5a	0.0013836429
2	0xbaa336f1	-0.0012452287
3	0x394a589d	0.00019297232
4	0x39aaa391	0.00032546793
5	0xb99ad30d	-0.00029530414
6	0x3a2812be	0.0006411484
7	0x3a889232	0.0010419546
8	0xba7435d4	-0.00093158823
9	0xb89d4588	-7.4992946e-05
10	0xb85268d9	-5.016555e-05
11	0x386313b8	5.4139382e-05
12	0xb919c93e	-0.00014666186
13	0xb8c6c93c	-9.4788586e-05
14	0x390ca610	0.00013413304
15	0xb8466abf	-4.7306294e-05
16	0xb7ce9959	-2.4628522e-05
17	0x381befda	3.717826e-05
18	0x3b59adc7	0.0033215152
19	0x3baab37d	0.005209385
20	0xbb9cf27c	-0.0047896486
21	0x3a937c27	0.001125221
22	0x3af71008	0.0018849382
23	0xbae11599	-0.0017172574
24	0xbb630f5a	-0.0034646601
25	0xbbb2b4b9	-0.0054536727
26	0x3ba20a82	0.0049451003

exp_avg_sq f4 [9, 3]
0	0x34fbf0bd	4.6927553e-07
1	0x3604d2cb	1.979223e-06
2	0x3683aba6	3.9240867e-06
3	0x333d21cf	4.403574e-08
4	0x348ce764	2.624539e-07
5	0x356f7e68	8.9218383e-07
6	0x34a2db69	3.0334493e-07
7	0x35ab0416	1.2741682e-06
8	0x363a0ae6	2.7722504e-06
9	0x31b7dbea	5.3510023e-09
10	0x308a0450	1.0042047e-09
11	0x311ce44a	2.2830755e-09
12	0x328cd43c	1.6394658e-08
13	0x31a6a455	4.8499182e-09
14	0x32f4d8b3	2.8503882e-08
15	0x30db1e1b	1.5942904e-09
16	0x2f8b0faf	2.5295097e-10
17	0x30fbe028	1.8326363e-09
18	0x371b7e2e	9.268098e-06
19	0x382bd5f9	4.0968855e-05
20	0x38da5862	0.000104115126
21	0x35e58432	1.7100303e-06
22	0x3735a236	1.0826208e-05
23	0x382ef3ca	4.171188e-05
24	0x371abac9	9.222605e-06
25	0x3821b25f	3.8551512e-05
26	0x38c03986	9.165988e-05

exp_avg f4 [9, 3]
0	0xba94552b	-0.0011316886
1	0xbb0bf3c2	-0.0021355008
2	0x3a1b13a5	0.0005915708
3	0xb98aacb3	-0.00026450082
4	0xba032c2b	-0.0005003835
5	0x3910995f	0.00013790045
6	0xba5d906f	-0.0008452003
7	0xbad11f88	-0.0015954832
8	0x39e78afd	0.00044163308
9	0x36f2d93d	7.237452e-06
10	0x385e9d58	5.3075462e-05
11	0xb75bd0d6	-1.3102041e-05
12	0x35e5ebe5	1.7130484e-06
13	0x381c0ca7	3.720508e-05
14	0xb6dfb29c	-6.6667108e-06
15	0xb5fd694e	-1.8880617e-06
16	0x3795ae48	1.784334e-05
17	0xb60cf49f	-2.1004014e-06
18	0xbb080f51	-0.0020761082
19	0xbb82159b	-0.0039698607
20	0x3a8f199d	0.0010917668
21	0xba316765	-0.0006767421
22	0xbaa826c4	-0.0012828936
23	0x39b98497	0.00035384737
24	0x3b0cbba9	0.002147416
25	0x3b85b728	0.004080672
26	0xba936a73	-0.0011246934

exp_avg_sq f4 [9, 3]
0	0x354ba1ca	7.5858827e-07
1	0x37218bf0	9.62893e-06
2	0x34ec7167	4.4040937e-07
3	0x33ae0524	8.1034415e-08
4	0x360846f4	2.030688e-06
5	0x33ab5d14	7.979739e-08
6	0x34f38de4	4.5365516e-07
7	0x36e2b007	6.755817e-06
8	0x349cc5eb	2.920127e-07
9	0x2e25b13d	3.7674076e-11
10	0x3107ad1f	1.9743494e-09
11	0x2f1863a5	1.385972e-10
12	0x2f50de07	1.899637e-10
13	0x3152c54a	3.0671168e-09
14	0x2f3f3a1b	1.7391992e-10
15	0x2ed6bb95	9.7649146e-11
16	0x30022192	4.734143e-10
17	0x2c8dd8a2	4.031512e-12
18	0x3647cba3	2.9771843e-06
19	0x383eccbd	4.5490207e-05
20	0x360346f6	1.9561826e-06
21	0x350d39b8	5.2610585e-07
22	0x37698c18	1.39205e-05
23	0x3514d321	5.544153e-07
24	0x3642a795	2.9005798e-06
25	0x3831c765	4.238579e-05
26	0x35f35251	1.8128868e-06

exp_avg f4 [9]
0	0xbb23454f	-0.0024913137
1	0xba1c71b8	-0.0005967873
2	0xbaf4c3bc	-0.0018674056
3	0x38d116a6	9.970115e-05
4	0x3999884e	0.0002928399
5	0x388ec29b	6.807336e-05
6	0xbc1e7189	-0.009670624
7	0xbb64094b	-0.0034795578
8	0x3c234fb8	0.009967737

exp_avg_sq f4 [9]
0	0x3783c87f	1.570978e-05
1	0x367da322	3.7794894e-06
2	0x373f3965	1.139785e-05
3	0x317fb0a7	3.72078e-09
4	0x33c73496	9.276225e-08
5	0x314f2d62	3.0148262e-09
6	0x39df3887	0.0004257599
7	0x393a7ff4	0.00017786009
8	0x39c6325a	0.00037803018

exp_avg f4 [9]
0	0xbb23454f	-0.0024913137
1	0xba1c71b8	-0.0005967873
2	0xbaf4c3bc	-0.0018674056
3	0x38d116a6	9.970115e-05
4	0x3999884e	0.0002928399
5	0x388ec29b	6.807336e-05
6	0xbba1db1b	-0.0049394495
7	0xbacd99da	-0.001568611
8	0x3ba4ac0e	0.0050253933

exp_avg_sq f4 [9]
0	0x3783c87f	1.570978e-05
1	0x367da322	3.7794894e-06
2	0x373f3965	1.139785e-05
3	0x317fb0a7	3.72078e-09
4	0x33c73496	9.276225e-08
5	0x314f2d62	3.0148262e-09
6	0x38a77ee3	7.986815e-05
7	0x37dd4856	2.6378937e-05
8	0x389afe3f	7.390649e-05

exp_avg f4 [9, 3]
0	0xb94d9051	-0.00019604086
1	0xb9c74b1e	-0.00038012204
2	0x38dc48ab	0.00010503953
3	0x3abf5663	0.0014597889
4	0x3b37a704	0.0028023133
5	0xba4b0bce	-0.00077455945
6	0xba499bc3	-0.0007690752
7	0xbac3c1d3	-0.0014935083
8	0x39d75bec	0.00041076483
9	0x36dcb43f	6.5774943e-06
10	0x383e91f0	4.5435445e-05
11	0xb7183cdc	-9.074076e-06
12	0x38833b7f	6.257649e-05
13	0x39a52959	0.0003150206
14	0xb896e57a	-7.195301e-05
15	0x38e3ef9e	0.00010868836
16	0x39c3eb4d	0.0003736861
17	0xb8ccb6f5	-9.7615564e-05
18	0x3a761388	0.00093870657
19	0x3af9d331	0.0019060132
20	0xba07a3e4	-0.0005174263
21	0x3bf8fd7c	0.007598577
22	0x3c728053	0.014801103
23	0xbb853f9a	-0.00406642
24	0xbb848ba4	-0.004044967
25	0xbc046ae4	-0.008082125
26	0x3b10264d	0.0021995485

exp_avg_sq f4 [9, 3]
0	0x328f1dd5	1.6660957e-08
1	0x340d383d	1.3152108e-07
2	0x31e4bf32	6.6574097e-09
3	0x35f225e0	1.8041428e-06
4	0x38130a37	3.5057044e-05
5	0x35c515d7	1.4684e-06
6	0x350670b7	5.008291e-07
7	0x371f96e9	9.512275e-06
8	0x34d68dbb	3.996373e-07
9	0x2d0aedde	7.897209e-12
10	0x303a2d6c	6.7730954e-10
11	0x2dac6df8	1.9602972e-11
12	0x30886b81	9.925857e-10
13	0x33480c1a	4.6577135e-08
14	0x310d832b	2.059276e-09
15	0x31884dcb	3.966965e-09
16	0x33c1e6f3	9.029272e-08
17	0x31a4cb93	4.796172e-09
18	0x35017308	4.822364e-07
19	0x36a10194	4.7983576e-06
20	0x34726458	2.2574511e-07
21	0x382ca9dc	4.116619e-05
22	0x3a47ee5d	0.00076267665
23	0x3806dcc9	3.215371e-05
24	0x3783254e	1.5633788e-05
25	0x39b89215	0.00035204054
26	0x37709c18	1.4341458e-05

exp_avg f4 [9, 3]
0	0x39a5b80c	0.00031608378
1	0x3996e700	0.00028782338
2	0xb9a50ebb	-0.00031482227
3	0xbb1a81fc	-0.0023576012
4	0xbb0ce12b	-0.0021496515
5	0x3b1aab6b	0.0023600708
6	0x3aa270b5	0.0012393208
7	0x3a940f42	0.0011296051
8	0xbaa260d9	-0.0012388482
9	0xb70c4a2a	-8.361918e-06
10	0xb6d20afb	-6.259766e-06
11	0x366d57b6	3.5366807e-06
12	0xb8be8b9d	-9.085911e-05
13	0xb891a683	-6.945154e-05
14	0x38363e2b	4.345008e-05
15	0xb9394cf8	-0.00017671648
16	0xb9131e01	-0.0001403019
17	0x38cfcf95	9.909194e-05
18	0xba7c27af	-0.00096189504
19	0xba656024	-0.0008749983
20	0x3a7a3261	0.000954425
21	0xbb2b8480	-0.0026171505
22	0xbb1ba23c	-0.0023747822
23	0x3b293dba	0.0025824145
24	0x3ba86e78	0.005140122
25	0x3b99475e	0.004677697
26	0xbba776b8	-0.005110588

exp_avg_sq f4 [9, 3]
0	0x3399f077	7.168358e-08
1	0x33816cf3	6.026848e-08
2	0x33981c45	7.083194e-08
3	0x377e6b5b	1.5164575e-05
4	0x3745bf9d	1.17867285e-05
5	0x3761cb03	1.3458312e-05
6	0x368a058f	4.1133676e-06
7	0x36571a4c	3.2052803e-06
8	0x36757ba1	3.6579806e-06
9	0x2e073ce9	3.0749545e-11
10	0x2d901efd	1.6384666e-11
11	0x2cab4599	4.867839e-12
12	0x31c463f5	5.7157146e-09
13	0x314a2a03	2.941875e-09
14	0x30bf7796	1.3931067e-09
15	0x32d5855d	2.485711e-08
16	0x326f7d77	1.3940158e-08
17	0x32047f2c	7.712327e-09
18	0x3545e60e	7.372299e-07
19	0x3525ca97	6.1762097e-07
20	0x354187e8	7.209587e-07
21	0x38201751	3.8168688e-05
22	0x37e51396	2.7308048e-05
23	0x38002467	3.055148e-05
24	0x38a6335b	7.9250625e-05
25	0x387efdad	6.0794573e-05
26	0x38906f6f	6.887211e-05

exp_avg f4 [9]
0	0xb9e4c788	-0.0004363621
1	0x3b51de17	0.0032023245
2	0xbae158ed	-0.001719264
3	0x389ba9be	7.422593e-05
4	0x39fadb05	0.00047846898
5	0x3a0368c8	0.0005012867
6	0x3b1341d4	0.0022469657
7	0x3c8be7e9	0.017078357
8	0xbc1ae196	-0.009453198

exp_avg_sq f4 [9]
0	0x344e56ce	1.9216824e-07
1	0x387bba54	6.0016595e-05
2	0x3788942f	1.6281467e-05
3	0x3105affc	1.9454083e-09
4	0x33f2ac4a	1.1300342e-07
5	0x343e37fe	1.7715499e-07
6	0x36f93ced	7.427871e-06
7	0x3aabfd0f	0.0013121682
8	0x3a22899e	0.0006200316

exp_avg f4 [9]
0	0xb9e4c788	-0.0004363621
1	0x3b51de17	0.0032023245
2	0xbae158ed	-0.001719264
3	0x389ba9be	7.422593e-05
4	0x39fadb05	0.00047846898
5	0x3a0368c8	0.0005012867
6	0x3ab74261	0.0013981574
7	0x3b821e86	0.003970924
8	0xbbf3164b	-0.007418429

exp_avg_sq f4 [9]
0	0x344e56ce	1.9216824e-07
1	0x387bba54	6.0016595e-05
2	0x3788942f	1.6281467e-05
3	0x3105affc	1.9454083e-09
4	0x33f2ac4a	1.1300342e-07
5	0x343e37fe	1.7715499e-07
6	0x36106e21	2.1521776e-06
7	0x39371ba4	0.00017462537
8	0x39abecaa	0.0003279199

exp_avg f4 [9, 3]
0	0x3a3a1ef8	0.00070999516
1	0x3a291a3e	0.0006450749
2	0xba376d65	-0.0006997197
3	0xbb439c19	-0.002984768
4	0xbb325eba	-0.0027217106
5	0x3b4329df	0.0029779596
6	0xb8c72af9	-9.497064e-05
7	0xb8a38265	-7.7967336e-05
8	0x3887329e	6.44673e-05
9	0xb9178e35	-0.00014453458
10	0xb8f385b6	-0.000116120485
11	0x38b08944	8.417902e-05
12	0xb94255fd	-0.00018533315
13	0xb91f1d84	-0.00015174417
14	0x38f1b3e9	0.000115252864
15	0xb8eb1cde	-0.0001121105
16	0xb8bc0344	-8.965147e-05
17	0x388631d7	6.398901e-05
18	0x3c65fdc0	0.0140375495
19	0x3c513cde	0.0127708595
20	0xbc63b3cc	-0.013897847
21	0x3d12179f	0.035667058
22	0x3d052ced	0.032513548
23	0xbd119aba	-0.03554795
24	0x3b955c19	0.004558098
25	0x3b85f5f6	0.0040881587
26	0xbb8d2f04	-0.004308583

exp_avg_sq f4 [9, 3]
0	0x34922120	2.721872e-07
1	0x346f481b	2.2284841e-07
2	0x348a3b74	2.574776e-07
3	0x37707d46	1.4334282e-05
4	0x373f7b2e	1.1413167e-05
5	0x375bd64f	1.3103315e-05
6	0x34601575	2.0869432e-07
7	0x34064f65	1.2508606e-07
8	0x340dc0d5	1.32018e-07
9	0x3204e3d0	7.73521e-09
10	0x31aa1b95	4.950787e-09
11	0x31402697	2.7961613e-09
12	0x323971fa	1.07943325e-08
13	0x31fd2a9d	7.3681137e-09
14	0x319a82ba	4.496852e-09
15	0x31c668d4	5.774476e-09
16	0x31772d0e	3.5968841e-09
17	0x310aed38	2.0216486e-09
18	0x39833f1b	0.00025033284
19	0x39522244	0.00020039926
20	0x39710549	0.0002298552
21	0x3aaa9c23	0.0013016503
22	0x3a8896fb	0.0010420972
23	0x3a9d7258	0.0012012227
24	0x387dd520	6.051839e-05
25	0x383b9765	4.472527e-05
26	0x384fab20	4.951202e-05

exp_avg f4 [9, 3]
0	0xba1137c5	-0.00055396213
1	0xb9dbae1a	-0.0004190065
2	0xba429659	-0.0007422916
3	0x3b1b806e	0.0023727673
4	0x3aeb5323	0.0017953854
5	0x3b5021c8	0.0031758416
6	0x3825ac7b	3.94997e-05
7	0x37f65a74	2.9367606e-05
8	0x386620d6	5.4866854e-05
9	0x382c1549	4.102782e-05
10	0x37f96573	2.9730354e-05
11	0x38840704	6.295557e-05
12	0x387b1e4e	5.9871287e-05
13	0x38367062	4.3496846e-05
14	0x38c0ac53	9.187371e-05
15	0x37fa71eb	2.985537e-05
16	0x37b33d4d	2.1367008e-05
17	0x38424e65	4.6326215e-05
18	0xbc04d9b7	-0.008108548
19	0xbbc90842	-0.0061350176
20	0xbc31dba1	-0.010855586
21	0xbbc9abba	-0.0061545046
22	0xbb989639	-0.00465658
23	0xbc06fc25	-0.008238827
24	0xba98c84b	-0.0011656372
25	0xba669484	-0.0008795934
26	0xbacdc122	-0.0015697817

exp_avg_sq f4 [9, 3]
0	0x340d8bba	1.318248e-07
1	0x338c1df3	6.524706e-08
2	0x34b50cff	3.3723333e-07
3	0x36c27569	5.795319e-06
4	0x3627c07b	2.4996978e-06
5	0x379d2979	1.873517e-05
6	0x332581b4	3.853502e-08
7	0x322caf35	1.0051555e-08
8	0x3455bf99	1.9906874e-07
9	0x30426df2	7.073303e-10
10	0x2fa8a247	3.0674327e-10
11	0x31111776	2.1113613e-09
12	0x30a9f351	1.2365523e-09
13	0x30186bbf	5.5450394e-10
14	0x317788a0	3.6020893e-09
15	0x30050cf5	4.840353e-10
16	0x2f5573a1	1.9413317e-10
17	0x30cfdf9d	1.5124787e-09
18	0x383ce4b3	4.5035686e-05
19	0x37adc69d	2.0715694e-05
20	0x390a26ac	0.00013175112
21	0x380a01ee	3.290356e-05
22	0x37713df8	1.4379148e-05
23	0x38db025c	0.00010443173
24	0x366ae964	3.5004568e-06
25	0x35a89ae9	1.256206e-06
26	0x376b6288	1.4030033e-05

exp_avg f4 [9]
0	0xba78be0d	-0.0009488769
1	0x3b80e3d3	0.0039334088
2	0x3936bfba	0.00017428296
3	0x39921bb5	0.00027867933
4	0x39b27857	0.00034040466
5	0x39625c27	0.00021587369
6	0xbc98de0f	-0.018660573
7	0xbd40c07c	-0.047058567
8	0xbbd1280c	-0.006382948

exp_avg_sq f4 [9]
0	0x354c74f8	7.6166134e-07
1	0x385af32d	5.2201725e-05
2	0x358e5642	1.0604929e-06
3	0x330e1782	3.308333e-08
4	0x332dc13a	4.045544e-08
5	0x32d4ec5e	2.4787536e-08
6	0x3a653af6	0.00087444426
7	0x3b91b87e	0.004447042
8	0x3985630d	0.00025441535

exp_avg f4 [9]
0	0xba78be0d	-0.0009488769
1	0x3b80e3d3	0.0039334088
2	0x3936bfba	0.00017428296
3	0x39921bb5	0.00027867933
4	0x39b27857	0.00034040466
5	0x39625c27	0.00021587369
6	0xbc5d5baa	-0.013510624
7	0xbc284af2	-0.010271775
8	0xbb19854e	-0.0023425403

exp_avg_sq f4 [9]
0	0x354c74f8	7.6166134e-07
1	0x385af32d	5.2201725e-05
2	0x358e5642	1.0604929e-06
3	0x330e1782	3.308333e-08
4	0x332dc13a	4.045544e-08
5	0x32d4ec5e	2.4787536e-08
6	0x39ac1048	0.00032818527
7	0x3998d297	0.000291486
8	0x385f732d	5.327461e-05

exp_avg f4 [9, 3]
0	0xbc24e017	-0.010063193
1	0xbbf98fa9	-0.0076160026
2	0xbc5cac44	-0.013468806
3	0x3b035299	0.0020038246
4	0x3ac6eb89	0.0015176396
5	0x3b2f742a	0.002677212
6	0x390a30b8	0.00013178855
7	0x38d09a0a	9.946905e-05
8	0x3938e933	0.00017634481
9	0x394eecea	0.00019733948
10	0x391bacb8	0.00014846295
11	0x399c9e43	0.00029872553
12	0x377ec65e	1.5185766e-05
13	0x372af73a	1.01903515e-05
14	0x37cafb73	2.4197367e-05
15	0xb60d9049	-2.1094622e-06
16	0xb5bc8f1e	-1.4048744e-06
17	0xb653794f	-3.151206e-06
18	0x3d4a4d56	0.04939016
19	0x3d18fed3	0.037352394
20	0x3d87c05b	0.06628486
21	0xbc663167	-0.014049864
22	0xbc2e4751	-0.01063712
23	0xbc99fb00	-0.018796444
24	0xbb17fdb0	-0.002319198
25	0xbae593f4	-0.0017515407
26	0xbb4b2db3	-0.003100258

exp_avg_sq f4 [9, 3]
0	0x38208e25	3.8279355e-05
1	0x37a01bc8	1.9086423e-05
2	0x38cab554	9.6658856e-05
3	0x357043d5	8.9505676e-07
4	0x34fd50ff	4.7183855e-07
5	0x3606a4d0	2.006349e-06
6	0x32cf3952	2.4124038e-08
7	0x3202bc84	7.609859e-09
8	0x33eddfd9	1.107689e-07
9	0x32354cf3	1.0553083e-08
10	0x31c203b5	5.6465645e-09
11	0x32fd3d1d	2.9480868e-08
12	0x2dd54d20	2.4249547e-11
13	0x2d6510f5	1.3020908e-11
14	0x2eb876f3	8.388481e-11
15	0x2c44ac30	2.7948859e-12
16	0x2bae3825	1.2379027e-12
17	0x2cf08789	6.8362577e-12
18	0x3adb80d1	0.0016746764
19	0x3a45c568	0.00075443694
20	0x3ba68d33	0.00508275
21	0x3846bb5d	4.7381374e-05
22	0x37cc4775	2.435197e-05
23	0x38eca825	0.00011284676
24	0x36b19088	5.2918367e-06
25	0x35e93b44	1.7377101e-06
26	0x37c553d8	2.3523273e-05

exp_avg f4 [9, 3]
0	0x3c234f91	0.009967701
1	0xbb7bf331	-0.0038444514
2	0xba8359b9	-0.0010021246
3	0xbb034218	-0.0020028409
4	0x3a47f9f9	0.00076284964
5	0x3956013d	0.00020409092
6	0xb908242e	-0.00012983449
7	0x384ea23f	4.926533e-05
8	0x37621c04	1.3477173e-05
9	0xb8ac48ae	-8.215137e-05
10	0x38fbb74f	0.000120027566
11	0xb7ae226c	-2.0758445e-05
12	0x367055da	3.581276e-06
13	0x363c6324	2.807189e-06
14	0xb5b73b81	-1.365188e-06
15	0x34819bb7	2.414142e-07
16	0x3432234a	1.659038e-07
17	0xb3da39cc	-1.0161929e-07
18	0xbcb1bd20	-0.021696627
19	0x3c0d2ee6	0.0086171385
20	0x3b09d3b9	0.0021030738
21	0x3b994e28	0.0046785064
22	0xbaeeabf8	-0.001820921
23	0xb9f34f4d	-0.00046407655
24	0x3ac290a8	0.0014844136
25	0xba137165	-0.0005624502
26	0xb921dbb5	-0.00015436004

exp_avg_sq f4 [9, 3]
0	0x37ecb856	2.821923e-05
1	0x3669ad0b	3.482043e-06
2	0x35d7e3d8	1.608506e-06
3	0x354a3f44	7.534293e-07
4	0x33b94744	8.627697e-08
5	0x329dfbc0	1.8391688e-08
6	0x32c912d7	2.3408047e-08
7	0x3210e29d	8.433429e-09
8	0x327dc553	1.47714045e-08
9	0x30b9531c	1.3484143e-09
10	0x318cb192	4.0947237e-09
11	0x301bd5dc	5.6692584e-10
12	0x2daf7abc	1.9949702e-11
13	0x2c907849	4.1060805e-12
14	0x2c496662	2.8620652e-12
15	0x2c45969e	2.8078993e-12
16	0x2bddaf54	1.5751658e-12
17	0x2b6c9756	8.4054064e-13
18	0x39855935	0.000254342
19	0x3857364a	5.1310555e-05
20	0x38842616	6.3013445e-05
21	0x36c899f5	5.9783874e-06
22	0x357a6e65	9.32929e-07
23	0x3540af54	7.178071e-07
24	0x361bd2bf	2.321947e-06
25	0x355d38fe	8.241185e-07
26	0x35bf0701	1.4232647e-06

exp_avg f4 [9]
0	0xbc836541	-0.016039493
1	0x3b4e0d54	0.003144105
2	0x3966c1ec	0.00022006751
3	0x39e8bf96	0.0004439323
4	0x38e4e280	0.00010914076
5	0xb7845329	-1.577435e-05
6	0x3da517ce	0.08061181
7	0xbcb6d9a0	-0.022320569
8	0xbb792784	-0.0038017938

exp_avg_sq f4 [9]
0	0x39475913	0.00019011302
1	0x36640d4f	3.3982394e-06
2	0x35082936	5.072392e-07
3	0x336d63b8	5.5271556e-08
4	0x30d5664a	1.5526862e-09
5	0x30654e74	8.3421203e-10
6	0x3c599fb2	0.013282703
7	0x3967494f	0.00022057186
8	0x38dbba83	0.00010477474

exp_avg f4 [9]
0	0xbc836541	-0.016039493
1	0x3b4e0d54	0.003144105
2	0x3966c1ec	0.00022006751
3	0x39e8bf96	0.0004439323
4	0x38e4e280	0.00010914076
5	0xb7845329	-1.577435e-05
6	0x3d178215	0.03698929
7	0xbbfa9ce6	-0.0076480983
8	0xbb20e6eb	-0.00245517

exp_avg_sq f4 [9]
0	0x39475913	0.00019011302
1	0x36640d4f	3.3982394e-06
2	0x35082936	5.072392e-07
3	0x336d63b8	5.5271556e-08
4	0x30d5664a	1.5526862e-09
5	0x30654e74	8.3421203e-10
6	0x3b61ad73	0.003443566
7	0x384b8b9d	4.8528997e-05
8	0x384ba185	4.85494e-05

exp_avg f4 [9, 3]
0	0xbb52e6e4	-0.0032181079
1	0x3a9fd018	0.0012192754
2	0x39acf553	0.00032989177
3	0x3c5313c8	0.012883134
4	0xbba3d28d	-0.004999465
5	0xbaa840a5	-0.0012836648
6	0x3c2c963a	0.010533864
7	0xbb8444e6	-0.0040365336
8	0xba8bf567	-0.0010677994
9	0x3884f65a	6.340137e-05
10	0xb8745bc0	-5.8259582e-05
11	0x3699a264	4.57866e-06
12	0xb9010382	-0.00012303705
13	0x39105a19	0.00013766474
14	0xb79e4c9d	-1.8870744e-05
15	0xb8466ec8	-4.731005e-05
16	0x38dc7aa6	0.000105132625
17	0xb7b7cb62	-2.1910007e-05
18	0x3d6b63db	0.057468276
19	0xbcb34971	-0.021885606
20	0xbbbfdfd9	-0.005855542
21	0xbd9e3600	-0.077251434
22	0x3cf7654d	0.030199671
23	0x3bfa19ac	0.007632455
24	0xbd552a58	-0.052042335
25	0x3ca5cd20	0.020239413
26	0x3ba9b3a7	0.005178887

exp_avg_sq f4 [9, 3]
0	0x36a043dd	4.776272e-06
1	0x35411ae1	7.1937217e-07
2	0x3541b83c	7.21662e-07
3	0x386fa28b	5.713342e-05
4	0x3710149e	8.587869e-06
5	0x36f695ad	7.348796e-06
6	0x37dddd37	2.6448264e-05
7	0x365bdb17	3.276107e-06
8	0x35c129df	1.4391807e-06
9	0x32c1c1d9	2.2556309e-08
10	0x3282bc33	1.5219575e-08
11	0x32133e42	8.570682e-09
12	0x315818e5	3.1446288e-09
13	0x31b289a9	5.196132e-09
14	0x306c7b9f	8.6031976e-10
15	0x30154e63	5.431728e-10
16	0x314f261d	3.014413e-09
17	0x3005220f	4.843352e-10
18	0x3a7e2cda	0.00096960145
19	0x39114872	0.00013855266
20	0x38dd7e5e	0.00010561639
21	0x3af3f10f	0.001861127
22	0x39984e11	0.00029049863
23	0x397e3399	0.00024242549
24	0x3a576238	0.0008216235
25	0x39001076	0.00012213163
26	0x38bfef10	9.1521186e-05

exp_avg f4 [9, 3]
0	0xb9ebdbaf	-0.0004498637
1	0xbb7b9992	-0.0038391096
2	0xbb751071	-0.0037393833
3	0x3aeda877	0.0018131871
4	0x3c7be05a	0.015373314
5	0x3c768464	0.015046213
6	0x3ac1b146	0.0014777563
7	0x3c4df6ac	0.012571018
8	0x3c48f46a	0.012265304
9	0x372fe8fe	1.0485061e-05
10	0x38a2cddd	7.763107e-05
11	0x38bc98d5	8.993006e-05
12	0xb7cc7738	-2.437421e-05
13	0xb917935a	-0.00014455375
14	0xb955af20	-0.00020378502
15	0xb7391003	-1.1030587e-05
16	0xb8840ced	-6.296658e-05
17	0xb8c02339	-9.161834e-05
18	0x3bb25e48	0.005443368
19	0x3d3e412e	0.04644888
20	0x3d398907	0.045296695
21	0xbc126053	-0.008934098
22	0xbd9b2bba	-0.075766996
23	0xbd97e224	-0.0741618
24	0xbb1674cd	-0.0022957802
25	0xbc9f947a	-0.019479979
26	0xbc9c157f	-0.019053219

exp_avg_sq f4 [9, 3]
0	0x36892b28	4.087942e-06
1	0x374fa57e	1.2376693e-05
2	0x37418daf	1.1536685e-05
3	0x383c940a	4.4960565e-05
4	0x391d2ab9	0.00014988602
5	0x3912b9b9	0.00013992832
6	0x37373eee	1.0922302e-05
7	0x38766dc9	5.8753216e-05
8	0x386011af	5.342223e-05
9	0x3272ca2f	1.4132225e-08
10	0x3321f19f	3.7705487e-08
11	0x337c331b	5.8719802e-08
12	0x30ff3dd3	1.8571263e-09
13	0x321396b0	8.5907885e-09
14	0x329606e9	1.746544e-08
15	0x2f359e3f	1.6518074e-10
16	0x3094e8e6	1.0834611e-09
17	0x312f9464	2.5550202e-09
18	0x3984e6e7	0.00025349038
19	0x3a7fd313	0.00097589305
20	0x3a6e3146	0.0009086322
21	0x3a507b62	0.0007952956
22	0x3b3ec53d	0.0029109262
23	0x3b32180c	0.0027174978
24	0x3823ad62	3.9023704e-05
25	0x392617e9	0.00015839901
26	0x391b2acd	0.00014797896

exp_avg f4 [9]
0	0x3ba3664c	0.00498656
1	0xbca779a0	-0.020443738
2	0xbc874111	-0.016510518
3	0xb981317d	-0.0002464167
4	0x3a11a9c9	0.0005556611
5	0x39eefd9d	0.00045583854
6	0xbdb73599	-0.0894577
7	0x3dfd0c14	0.12355819
8	0x3da9a46c	0.08283314

exp_avg_sq f4 [9]
0	0x383c693d	4.4920704e-05
1	0x3a0866b9	0.0005203295
2	0x39257654	0.00015779707
3	0x350ebe5d	5.317614e-07
4	0x340c0ae9	1.3042485e-07
5	0x33a82073	7.829012e-08
6	0x3beebef4	0.007285947
7	0x3c88db10	0.01670602
8	0x3bd9a6ce	0.006642199

exp_avg f4 [9]
0	0x3ba3664c	0.00498656
1	0xbca779a0	-0.020443738
2	0xbc874111	-0.016510518
3	0xb981317d	-0.0002464167
4	0x3a11a9c9	0.0005556611
5	0x39eefd9d	0.00045583854
6	0xbd781b7b	-0.060573082
7	0x3dcf099f	0.10109257
8	0x3cd51e97	0.026015563

exp_avg_sq f4 [9]
0	0x383c693d	4.4920704e-05
1	0x3a0866b9	0.0005203295
2	0x39257654	0.00015779707
3	0x350ebe5d	5.317614e-07
4	0x340c0ae9	1.3042485e-07
5	0x33a82073	7.829012e-08
6	0x3b4f064b	0.0031589444
7	0x3c1f4b20	0.009722501
8	0x3a05e605	0.0005107823

exp_avg f4 [5, 3]
0	0x3d6cdc7c	0.057827458
1	0x3efc6b12	0.49300438
2	0x3ef5f71c	0.48040092
3	0xbb93638a	-0.00449795
4	0xbd1c6cc0	-0.03818965
5	0xbd185dd1	-0.037198845
6	0xbca07a27	-0.019589497
7	0xbe2b07ae	-0.16702148
8	0xbe26d88f	-0.16293548
9	0xbc7bdd27	-0.015372551
10	0xbe061b2e	-0.13096306
11	0xbe029d0a	-0.12755218
12	0xbc96775a	-0.018367458
13	0xbe20981c	-0.15683025
14	0xbe1c6137	-0.1527146

exp_avg_sq f4 [5, 3]
0	0x3cb4f5be	0.022089835
1	0x3dccfac3	0.100087665
2	0x3dbbb575	0.091654696
3	0x3983d132	0.0002514213
4	0x3a478e10	0.00076124165
5	0x3a3c2403	0.0007176997
6	0x3b23869c	0.002495206
7	0x3c3af121	0.011410029
8	0x3c2bd4bd	0.0104877325
9	0x3ae87d93	0.0017737619
10	0x3bf12d5c	0.0073601436
11	0x3bddeea3	0.0067728325
12	0x3ade89af	0.0016978289
13	0x3c18d574	0.009328235
14	0x3c0a116b	0.008427004

exp_avg f4 [5]
0	0xbf22e8f9	-0.6363674
1	0x3d49b2b2	0.049242683
2	0x3e5d6e41	0.2162409
3	0x3e2ce182	0.168829
4	0x3e4ee775	0.20205481

exp_avg_sq f4 [5]
0	0x3e92ab8f	0.28646514
1	0x3b34fe63	0.0027617447
2	0x3d065098	0.032791704
3	0x3cb4d7be	0.02207553
4	0x3cc4a494	0.024004258
