aa2_models/model2.pt (torch_old, 6810 bytes, 24 tensors)

lin1.weight f4 [4, 7]
0	0xbe8f50ab	-0.27991232
1	0xbe9ffdc6	-0.312483
2	0xbd901152	-0.070345536
3	0x3eaaba67	0.3334534
4	0x3e0ea1e1	0.1392894
5	0x3e921c0d	0.28537026
6	0x3e1ccfcd	0.15313645
7	0xbd74c640	-0.05975938
8	0xbe60ca27	-0.21952115
9	0xbcf1c92e	-0.029514875
10	0xbdfc2d8d	-0.123133756
11	0x3e3daf83	0.18523984
12	0x3e59954a	0.21248356
13	0xbe8f2eac	-0.27965295
14	0xbdc912f4	-0.09818068
15	0xbd4a9788	-0.049460918
16	0xbb47c7ed	-0.0030484155
17	0xbd9f1b48	-0.07768875
18	0xbe0e3e9e	-0.13891074
19	0x3e03ce9e	0.12871787
20	0x3e942c8b	0.28940234
21	0xbeb43538	-0.35196853
22	0x3ebb140b	0.3653873
23	0xbea2d238	-0.3180101
24	0x3e61f7f9	0.2206725
25	0xbea017b3	-0.3126808
26	0x3e90e14b	0.28296885
27	0xbe5d8aaf	-0.21634935

lin1.bias f4 [4]
0	0x3dd9f17c	0.106417626
1	0xbe8b19f9	-0.27168253
2	0xbeaaa232	-0.3332687
3	0xbea4081d	-0.3203744

GRU.weight_ih_l0 f4 [12, 4]
0	0xbe96345f	-0.2933683
1	0xbe24a955	-0.1608022
2	0x3ee9a701	0.45635226
3	0xbeb4f26a	-0.35341197
4	0x3cef8854	0.029239811
5	0xbe6761cc	-0.225959
6	0x3e6cea29	0.231362
7	0xbec2f536	-0.38077706
8	0xbe80c2f2	-0.2514873
9	0x3c44ec03	0.01201916
10	0x3e2d104d	0.1690075
11	0x3ef319cc	0.4748062
12	0x3da181d4	0.07886091
13	0xbec49080	-0.38391495
14	0xbe9a4e96	-0.3013808
15	0xbea72e0e	-0.32652324
16	0x3ed55be4	0.4167167
17	0x3d0f922c	0.03505151
18	0x3e5c26ed	0.21499224
19	0xbefedd4e	-0.49778217
20	0x3c6d9421	0.014500649
21	0xbe0dab65	-0.13834913
22	0x3e14ab58	0.14518487
23	0x3ecfbb07	0.40572378
24	0xbe9aa03a	-0.30200368
25	0x3e6eca7a	0.23319426
26	0x3eeb6dae	0.45982116
27	0x3eb5f490	0.3553815
28	0x3e5602ad	0.20899458
29	0xbd4c6786	-0.049903415
30	0xbde3b7f7	-0.11119073
31	0xbd6db1ad	-0.058030773
32	0x3da1c3db	0.078986846
33	0x3bdf3e79	0.0068128672
34	0x3df2ebd0	0.11861384
35	0xbe080c33	-0.13285904
36	0xbeec0bc4	-0.46102726
37	0x3eb201c6	0.34766978
38	0x3e80ef62	0.25182635
39	0x3efacf4e	0.48986286
40	0xbed504a4	-0.41605103
41	0xbd214382	-0.03937102
42	0x3edcd144	0.43128407
43	0x3e2f98a9	0.17148079
44	0x3dc5b91c	0.096544474
45	0xbef88d04	-0.48545086
46	0xbeba8da3	-0.36436185
47	0x3ed31ba3	0.41232023

GRU.weight_hh_l0 f4 [12, 4]
0	0x3d8de687	0.06928735
1	0xbed52e05	-0.41636673
2	0x3dea1d5b	0.1143138
3	0xbe61f7e3	-0.22067218
4	0xbe4d8136	-0.20068821
5	0x3e5232c6	0.20527181
6	0xbee467ec	-0.44610536
7	0xbe079110	-0.1323893
8	0xbe1fa784	-0.15591246
9	0xbcbdc6ae	-0.023166027
10	0x3e97ae26	0.29625052
11	0x3e95e97a	0.2927969
12	0x3ce4bc39	0.027921783
13	0x3efe51ce	0.49671787
14	0x3e95b7c1	0.29241756
15	0xbed7b224	-0.42128098
16	0xbe57fbfd	-0.2109222
17	0x3ef81f38	0.48461318
18	0xbede7398	-0.43447566
19	0xbe739512	-0.23787335
20	0xbec07c82	-0.37594992
21	0xbe26e27e	-0.16297337
22	0xbe8763b0	-0.26443243
23	0xbe9db1d7	-0.30799744
24	0xbab940b4	-0.0014133663
25	0xbe9b674f	-0.30352256
26	0xbec65c1a	-0.38742143
27	0xbed5a612	-0.41728264
28	0xbe9b32f4	-0.30312312
29	0xbe51d6f4	-0.20492154
30	0x3ed28fd5	0.4112536
31	0xbe8b9596	-0.27262563
32	0x3df415b1	0.119182
33	0x3e002bd9	0.12516727
34	0xbe17e2f6	-0.14832672
35	0xbd2af81f	-0.041740533
36	0xbef2d6f8	-0.47429633
37	0xbefc9a5d	-0.4933652
38	0x3d67bb0f	0.056574877
39	0x3e484216	0.1955646
40	0xbab95b3a	-0.0014141568
41	0xbce2cf96	-0.027686875
42	0xbe076f39	-0.13226022
43	0xbe29d0a7	-0.16583501
44	0xbdf5ee87	-0.12008386
45	0x3e477985	0.1947995
46	0x3ed6c24b	0.4194511
47	0x3dfbeb96	0.12300794

GRU.bias_ih_l0 f4 [12]
0	0x3ef54410	0.4790349
1	0xbe7b7392	-0.24555805
2	0xbd912f20	-0.070890665
3	0xbef23ab4	-0.47310412
4	0xbeb91c6c	-0.36154497
5	0x3ef5d45c	0.4801358
6	0x3ee1e141	0.44117168
7	0xbe2da4ca	-0.16957393
8	0xbd66745c	-0.056263313
9	0x3c1a4b8d	0.009417427
10	0xbd8d79c8	-0.069079936
11	0xbe72d63b	-0.23714535

GRU.bias_hh_l0 f4 [12]
0	0x3c48f19b	0.0122646345
1	0x3efde294	0.49586928
2	0x3e3be0c1	0.18347456
3	0x3ecc3dec	0.39890993
4	0x3dfb0e75	0.12258617
5	0xbef0fd5c	-0.47068298
6	0x3cf95ef5	0.030440787
7	0xbef442d4	-0.47707236
8	0xbe9157de	-0.2838735
9	0x3ed68d39	0.4190462
10	0x3e906d89	0.2820857
11	0xbbff01d2	-0.0077821994

GRU.weight_ih_l1 f4 [12, 4]
0	0xbeaab076	-0.33337754
1	0x3ebc2e6d	0.3675417
2	0xbdb8f73c	-0.09031531
3	0xbe785df5	-0.24254592
4	0x3ed7a7ec	0.42120302
5	0xbd260d89	-0.040540252
6	0x3e386f3b	0.18011181
7	0x3ee58d4b	0.4483436
8	0x3dffee82	0.12496664
9	0x3eb319fd	0.34980765
10	0x3e89d778	0.26922202
11	0xbedf76c9	-0.43645313
12	0xbee05f77	-0.43822834
13	0x3e20c165	0.15698774
14	0x3e20dbd2	0.15708855
15	0x3d961ff8	0.07330316
16	0x3ead5667	0.33854982
17	0x3c1f22be	0.009712873
18	0x3ea9d023	0.33166608
19	0x3d3260b3	0.04354925
20	0xbdb8a019	-0.09014911
21	0x3d352610	0.044225752
22	0xbe2a32cf	-0.16620944
23	0x3dc04d6e	0.093897685
24	0xbef0cbd9	-0.47030523
25	0xbec0737f	-0.37588117
26	0xbeccd4ba	-0.40006047
27	0xbda88023	-0.08227565
28	0x3da7b88c	0.081894964
29	0xbec146d3	-0.37749347
30	0xbed54ca7	-0.41660044
31	0x3eb0c7bc	0.34527385
32	0xbe4c97ca	-0.19979778
33	0xbdd0b62d	-0.10190997
34	0xbec185d3	-0.37797412
35	0xbe3bad66	-0.18327865
36	0x3ecab217	0.39588997
37	0x3eeb56a8	0.4596455
38	0xbdfecf5f	-0.12441897
39	0x3eafa93b	0.343088
40	0xbd9a056c	-0.075205654
41	0x3dac029d	0.08398936
42	0x3efbf6ba	0.49211675
43	0x3e29b1e0	0.1657176
44	0x3c60519d	0.013691333
45	0xbe3556fc	-0.17708963
46	0x3dbfa467	0.09357529
47	0x3e29e5b1	0.16591527

GRU.weight_hh_l1 f4 [12, 4]
0	0xbe707e87	-0.23485766
1	0xbe66f82a	-0.22555605
2	0x3e8bde31	0.27317956
3	0x3e9ba041	0.30395702
4	0x3ecd8cb1	0.40146402
5	0x3ec1862a	0.37797672
6	0x3ea8d85d	0.32977572
7	0xbef61f56	-0.48070782
8	0xbe3e2894	-0.18570167
9	0xbe3e7ba0	-0.18601847
10	0xbd8a38cf	-0.06749117
11	0xbe78a2a3	-0.24280791
12	0x3dcbc900	0.09950447
13	0x3eb51f97	0.35375664
14	0xbb6c26cf	-0.0036033874
15	0xbec50350	-0.3847909
16	0x3eb1f855	0.34759775
17	0xbe8c7773	-0.27434883
18	0x3e851ffe	0.2600097
19	0x3c8b26ee	0.016986337
20	0xbe70df07	-0.23522578
21	0xbe0da6a2	-0.13833097
22	0x3ed07baf	0.40719363
23	0xbeb94d98	-0.36192012
24	0xbe5b6474	-0.21425039
25	0xbe00c4be	-0.12575051
26	0xbd0f426a	-0.034975447
27	0xbe01a45a	-0.12660351
28	0xbea23c13	-0.31686458
29	0xbebb42d5	-0.36574426
30	0x3cf72cd2	0.03017274
31	0x3d9b31ef	0.075778835
32	0xbeabc255	-0.335467
33	0x3e4646d9	0.19362964
34	0x3e836588	0.256634
35	0xbd838235	-0.064213194
36	0x3ee8af86	0.45446414
37	0x3eb18f36	0.34679574
38	0xbe5435de	-0.20723674
39	0xbee9c32c	-0.45656717
40	0x3e13d1f1	0.14435555
41	0xbe711f6e	-0.23547146
42	0xbdf46930	-0.119341254
43	0xbdd8f056	-0.105927154
44	0xbdcf7b04	-0.10130885
45	0x3e9c98b7	0.30585262
46	0xbc76c94f	-0.015062644
47	0xbe07e4ca	-0.1327087

GRU.bias_ih_l1 f4 [12]
0	0x3ddbfbd3	0.10741391
1	0xbe9ebea8	-0.31004834
2	0x3dfece83	0.12441733
3	0x3e920659	0.28520468
4	0xbede749b	-0.43448338
5	0x3e0fe076	0.14050469
6	0x3e96802a	0.29394656
7	0xbec74efe	-0.38927454
8	0x3e9ece81	0.31016925
9	0xbea4af1e	-0.32164854
10	0x3eebb3e4	0.46035683
11	0xbdd47b05	-0.103750266

GRU.bias_hh_l1 f4 [12]
0	0x3d96a8bb	0.073564015
1	0x3db2f0c7	0.08737331
2	0x3c9c4973	0.019077992
3	0xbeb941cf	-0.3618302
4	0x3ec09f71	0.37621644
5	0x3e899b01	0.2687607
6	0x3e4bc15e	0.19897982
7	0x3eee13e0	0.46499538
8	0x3ea3d5b5	0.31998983
9	0xbde0d53b	-0.109781705
10	0x3e7ff71a	0.24996606
11	0xbefa07af	-0.48833987

GRU.weight_ih_l2 f4 [12, 4]
0	0x3e0506fd	0.12990947
1	0xbdf2b66d	-0.11851201
2	0xbe69f510	-0.2284739
3	0xbe7a8aa3	-0.24466948
4	0x3e86aeea	0.26305324
5	0x3ebb2d31	0.36557916
6	0x3e7bfdca	0.24608532
7	0xbeefaa6c	-0.4680971
8	0xbe9043e6	-0.28176802
9	0x3e872f07	0.26403067
10	0x3eb5e9b0	0.35529852
11	0x3e847ed6	0.25878018
12	0xbd8e93c2	-0.06961776
13	0x3e42a4f8	0.19008243
14	0x3eb6e394	0.35720503
15	0xbee8c24b	-0.45460734
16	0x3c8e2f6e	0.0173566
17	0x3d612332	0.054965205
18	0x3d064025	0.032776017
19	0xbd0896f2	-0.033347078
20	0x3ea66259	0.32496908
21	0xbd225bcc	-0.039638326
22	0x3ef2b66f	0.4740481
23	0x3e138a5d	0.1440825
24	0x3ea3c603	0.31987008
25	0x3eb59ec3	0.35472688
26	0x3ea37999	0.3192871
27	0x3e208916	0.15677294
28	0xbe592f7c	-0.2120952
29	0x3e4fd43e	0.20295808
30	0xbd626575	-0.05527254
31	0xbe52b8a6	-0.2057825
32	0x3e9ae5c6	0.30253428
33	0x3e575993	0.21030264
34	0xbea944f7	-0.33060429
35	0xbeea25ae	-0.45731872
36	0x3ee10669	0.43950203
37	0x3e7b26ae	0.24526474
38	0x3e1358bd	0.1438932
39	0x3ee1f04d	0.44128647
40	0x3eac3ace	0.33638614
41	0x3ee5c921	0.44880012
42	0xbe887654	-0.26652777
43	0x3e8fb284	0.28065884
44	0x3ebd62ae	0.3698935
45	0x3e50f0dd	0.20404382
46	0xbd98d5e0	-0.074626684
47	0x3ebedcaa	0.37277728

GRU.weight_hh_l2 f4 [12, 4]
0	0x3e8b7eb2	0.27245098
1	0xbd529737	-0.05141374
2	0x3e9cfcc0	0.30661583
3	0xbed42acc	-0.414389
4	0x3bbdca3f	0.005791932
5	0xbee74826	-0.45172232
6	0xbb9b2d8b	-0.0047356538
7	0xbec174d4	-0.37784445
8	0x3da6d1d8	0.08145493
9	0xbedc67e4	-0.43048012
10	0x3e32d0dd	0.17462488
11	0xbecb8e6f	-0.39757106
12	0x3edfdc8b	0.43722948
13	0xbe92153c	-0.28531826
14	0xbe3be562	-0.18349221
15	0xbe64e987	-0.22354709
16	0xbe74a693	-0.23891668
17	0x3e7ff9b7	0.24997602
18	0x3ed26910	0.4109578
19	0x3e8464b0	0.25858068
20	0x3eb579ff	0.35444638
21	0xbd8f4a91	-0.06996644
22	0x3e34513c	0.17609113
23	0x3d6ba525	0.05753054
24	0x3e9dad2b	0.3079618
25	0xbe2f6a76	-0.17130455
26	0x3e990778	0.2988851
27	0xbef0f2e5	-0.47060314
28	0x3ed08c5c	0.40732086
29	0x3e7b1a01	0.24521638
30	0xbd2ee45e	-0.042698257
31	0xbd17c1ff	-0.037050243
32	0x3e64147a	0.22273436
33	0x3e88679f	0.26641557
34	0x3de514ed	0.11185632
35	0x3e94586b	0.28973708
36	0xbdd7894c	-0.10524234
37	0x3dc9fe85	0.09862999
38	0xbd8bbd7f	-0.06823253
39	0xbe9f18d4	-0.3107363
40	0x3c093925	0.008375441
41	0x3d086ab2	0.033304878
42	0xbefbfa92	-0.49214607
43	0xbe866ff0	-0.26257277
44	0x3d0297df	0.031883117
45	0xbd30084c	-0.042976663
46	0xbe2c6395	-0.16834863
47	0xbdb702e7	-0.089361005

GRU.bias_ih_l2 f4 [12]
0	0x3eef864f	0.46782157
1	0xbe3ce0cc	-0.18445128
2	0x3d89a875	0.06721584
3	0xbe8c4ea5	-0.2740375
4	0x3dd70c19	0.10500354
5	0x3e9a460c	0.30131567
6	0xbe8d6d4e	-0.27622455
7	0x3e8b7c7f	0.2724342
8	0xbe01044d	-0.12599297
9	0xbe222444	-0.15834147
10	0xbef365aa	-0.475385
11	0xbeee6f97	-0.4656951

GRU.bias_hh_l2 f4 [12]
0	0x3e7aee7e	0.2450504
1	0x3edbb237	0.42909405
2	0x3e0fa9af	0.14029573
3	0x3e7b0695	0.2451423
4	0xbee645ec	-0.4497522
5	0x3e995980	0.29951096
6	0x3e3d9fe7	0.18518029
7	0xbd0b3d4a	-0.033993997
8	0x3c647e1b	0.0139460815
9	0x3e995e09	0.29954556
10	0x3d49dbdd	0.049281944
11	0xbef14302	-0.47121435

GRU.weight_ih_l3 f4 [12, 4]
0	0xbd16fa4d	-0.0368598
1	0xbe85e308	-0.26149774
2	0xbeabc427	-0.3354809
3	0xbe82fc7a	-0.2558325
4	0x3e0a62b7	0.13514219
5	0xbe258f06	-0.1616784
6	0xbd7620e1	-0.06008995
7	0x3eca61b2	0.3952766
8	0xbe2f2afd	-0.17106242
9	0x3dc57477	0.096413545
10	0xbe59ef41	-0.21282674
11	0xbe1c729d	-0.15278096
12	0xbeae2fbd	-0.34020796
13	0xbe2ea4df	-0.17055081
14	0x3e117eb0	0.14208484
15	0x3e220cb9	0.15825166
16	0x3c6821d3	0.014168221
17	0xbef5616f	-0.47925898
18	0x3dd83bbb	0.10558268
19	0x3e9ef245	0.31044212
20	0x3dad12df	0.08450865
21	0xbde1d1fc	-0.110263795
22	0xbe98304f	-0.29724357
23	0xbe3c659e	-0.18398139
24	0xbe791b79	-0.24326886
25	0xbd19741e	-0.037464254
26	0xbeb5cad3	-0.35506305
27	0xbe20de6a	-0.15709844
28	0xbd575368	-0.052569777
29	0xbddf6542	-0.10907985
30	0x3eb3a57e	0.35087198
31	0x3ea86e3a	0.32896596
32	0xbe70528a	-0.23468986
33	0xbe620b82	-0.22074702
34	0x3e921888	0.2853434
35	0xbec6b564	-0.38810265
36	0xbe81dd4d	-0.25364152
37	0x3e3c4817	0.18386875
38	0xbee4df2a	-0.4470151
39	0xbe8ca91a	-0.27472764
40	0x3e672d62	0.22575906
41	0xbdb0026f	-0.08594214
42	0x3e574e22	0.21025899
43	0x3ea9b4f5	0.33145872
44	0x3d9638e3	0.07335069
45	0xbe97e1a5	-0.2966434
46	0xbd9c1de0	-0.07622886
47	0xbea1afbe	-0.31579393

GRU.weight_hh_l3 f4 [12, 4]
0	0xbe70d850	-0.23520017
1	0xbec99dfa	-0.3937834
2	0x3eec5b92	0.46163613
3	0xbe0922da	-0.13392201
4	0x3e94516d	0.28968373
5	0xbd9373ee	-0.07199846
6	0xbe0a66d5	-0.1351579
7	0x3ceda804	0.02901078
8	0xbe665cda	-0.22496358
9	0xbeb18d44	-0.3467809
10	0x3db27352	0.08713402
11	0xbafdc5dc	-0.0019361335
12	0x3e3f9a75	0.18711264
13	0x3db690e5	0.08914355
14	0x3e44084a	0.19143787
15	0x3f0035d7	0.50082153
16	0xbedd4249	-0.43214634
17	0xbeedec9a	-0.46469575
18	0x3e98b6ce	0.2982697
19	0x3e67c87b	0.22635071
20	0x3e984400	0.2973938
21	0x3ec8197b	0.3908194
22	0xbdd59b96	-0.10430066
23	0x3e8580c6	0.2607481
24	0x3e8ee19b	0.27906498
25	0xbed4cd13	-0.4156271
26	0x3e38193d	0.17978378
27	0x3e86bcac	0.2631582
28	0xbe4a9d73	-0.19786625
29	0xbe7df920	-0.24802065
30	0x3ed4d676	0.4156987
31	0x3ed0f7cb	0.4081405
32	0x3e36b11f	0.17841004
33	0x3df5f438	0.12009472
34	0xbee30425	-0.443391
35	0xbe10d596	-0.14143977
36	0x3e089341	0.13337423
37	0xbe27fdd3	-0.1640542
38	0xbed8b5b4	-0.42326128
39	0x3eecda43	0.4626027
40	0xbeb9a696	-0.36259907
41	0x3ea13010	0.3148198
42	0x3ed34c0b	0.41268954
43	0xbef382e7	-0.47560808
44	0x3e5eecb8	0.21769989
45	0xbe113e86	-0.14184007
46	0x3eb8108d	0.35950127
47	0x3cd7e062	0.026352111

GRU.bias_ih_l3 f4 [12]
0	0x3c270252	0.010193424
1	0x3dd88eb7	0.10574096
2	0xbe2c13da	-0.16804448
3	0xbe9fe81b	-0.3123177
4	0x3cade206	0.02122594
5	0x3ea1e7cf	0.31622168
6	0xbdecd6ae	-0.115643844
7	0xbd91c9a2	-0.071185365
8	0x3ea45b64	0.32100976
9	0x3ebd23ac	0.36941278
10	0xbe134835	-0.14383014
11	0x3e86ba3f	0.2631397

GRU.bias_hh_l3 f4 [12]
0	0x3dfc8d9b	0.123316966
1	0xbead77a0	-0.3388033
2	0x3eda9c8d	0.42697564
3	0xbb7c1d41	-0.0038469585
4	0x3ea8d14a	0.32972175
5	0xbef63a59	-0.4809139
6	0x3ee3c390	0.4448514
7	0x3ea8b6e7	0.32952043
8	0xbea1d28e	-0.31605953
9	0xbd4c8669	-0.04993287
10	0xbe1bea17	-0.15226017
11	0x3ec5823e	0.3857593

GRU.weight_ih_l4 f4 [12, 4]
0	0xbee7f13d	-0.45301238
1	0x3e0a009f	0.134768
2	0xbe885252	-0.26625305
3	0xbe79833b	-0.24366467
4	0x3e9646c1	0.29350856
5	0xbe8b2e1e	-0.27183622
6	0xbe8d4a37	-0.27595684
7	0x3ed46de1	0.4149008
8	0x3cfb696b	0.030689916
9	0xbec7641f	-0.38943574
10	0xbeffa6f7	-0.49932072
11	0x3ed26443	0.4109212
12	0xbecb2b75	-0.39681593
13	0x3db95f39	0.090513654
14	0x3eb7284e	0.35772938
15	0x3d2baa2d	0.04191034
16	0x3e22e0bf	0.15906046
17	0x3ec70663	0.3887206
18	0x3de7efa9	0.113250084
19	0xbec19b14	-0.37813628
20	0xbe025bc5	-0.1273032
21	0xbef2bfa5	-0.47411838
22	0x3e8987c6	0.268614
23	0xbde718cc	-0.112840265
24	0xbcad835f	-0.021180807
25	0xbdc500ef	-0.09619319
26	0xbd031cdb	-0.03200994
27	0xbef2e9a2	-0.47443873
28	0x3e94ecb3	0.29086837
29	0x3e363466	0.17793426
30	0x3ea88df6	0.32920808
31	0xbe6f554e	-0.23372385
32	0x3ac5fcf7	0.0015105297
33	0x3e9ccf16	0.30626744
34	0x3d8589fd	0.0652046
35	0x3eebbe5f	0.4604368
36	0xbeb44333	-0.3520752
37	0x3f09b985	0.53798705
38	0xbe2009f2	-0.15628794
39	0xbd81760a	-0.06321342
40	0x3edf3753	0.43596897
41	0x3f181a3d	0.59415036
42	0xbec9109c	-0.39270484
43	0x3ece4775	0.40288892
44	0x3e45297a	0.19254103
45	0x3dc0261a	0.09382267
46	0xbee809ef	-0.4532008
47	0x3e0f4d36	0.13994297

GRU.weight_hh_l4 f4 [12, 4]
0	0x3f001b97	0.500421
1	0xbd9da934	-0.076982886
2	0xbee676eb	-0.45012602
3	0x3e4cec37	0.20011984
4	0x3e8cd168	0.27503514
5	0x3e9016df	0.2814245
6	0x3e134eb2	0.14385489
7	0xbe28d0ab	-0.1648585
8	0xbda12675	-0.07868663
9	0x3e83eb5f	0.2576551
10	0xbd60d925	-0.054894585
11	0x3eacb24e	0.33729786
12	0xbeabcce0	-0.33554745
13	0x3edca100	0.43091583
14	0xbd51a61d	-0.05118381
15	0xbecaf553	-0.39640293
16	0x3e045938	0.12924659
17	0x3e17b2c7	0.14814292
18	0x3dbf7d4d	0.09350071
19	0xbe2e2932	-0.17007902
20	0x3d901710	0.07035649
21	0xbe35dfa2	-0.1776109
22	0x3edc3d32	0.43015438
23	0x3ea2070d	0.31646004
24	0xbea862ba	-0.32887822
25	0x3e34ccdf	0.17656277
26	0x3ee09593	0.43864116
27	0x3e86e9bd	0.26350203
28	0xbe9996c7	-0.29997846
29	0x3e792355	0.24329884
30	0x3e82655d	0.2546796
31	0x3e70b725	0.23507364
32	0x3e079f0d	0.13244267
33	0x3ebb63bf	0.36599538
34	0x3ee8b61f	0.45451447
35	0x3df01b8f	0.117240064
36	0x3dd5c2a6	0.10437517
37	0x3e8bd98f	0.27314422
38	0x3ef13913	0.47113857
39	0x3ee29551	0.44254544
40	0x3e611bca	0.21983257
41	0x3e508d45	0.2036639
42	0x3eb439f5	0.35200468
43	0xbdfc0fa5	-0.123076715
44	0x3edb5559	0.42838553
45	0xbeb53148	-0.3538916
46	0xbee44b12	-0.44588524
47	0xbe9a4df5	-0.30137601

GRU.bias_ih_l4 f4 [12]
0	0xbebdfe14	-0.3710791
1	0xbe91fb96	-0.28512257
2	0x3ee59693	0.44841442
3	0x3da8b5d1	0.08237804
4	0x3e9798d1	0.29608777
5	0x3c915810	0.017742187
6	0xbdb177bf	-0.08665418
7	0xbe9dbe15	-0.30809084
8	0xbd43f196	-0.047837816
9	0xbe455ce2	-0.19273713
10	0x3e0149e1	0.12625839
11	0x3ee51422	0.44741923

GRU.bias_hh_l4 f4 [12]
0	0x3dff8898	0.12477225
1	0x3db8114f	0.08987676
2	0x3eb978e5	0.36225048
3	0xbdec360f	-0.11533748
4	0xbe8ebc93	-0.27878246
5	0xbca92750	-0.020648628
6	0xbeb1d6bd	-0.34734145
7	0xbeafe1b7	-0.34351894
8	0x3ebd94ef	0.3702769
9	0x3e934f14	0.2877127
10	0xbb4e370f	-0.0031465923
11	0x3ec94a8a	0.3931468

lin3.weight f4 [6, 4]
0	0x3cdc2c5e	0.026876625
1	0x3ed8ac40	0.42318916
2	0xbdc82548	-0.09772736
3	0xbdd34456	-0.103157684
4	0xbeb10b97	-0.34579155
5	0xbde5606a	-0.1120003
6	0xbd9dc058	-0.07702702
7	0x3ebe17fd	0.37127677
8	0x3de502f3	0.11182203
9	0xbf08754b	-0.53303975
10	0xbf0d2e1c	-0.5514848
11	0xbec1945f	-0.3780851
12	0xbe1b9d4f	-0.15196727
13	0xbd25ba57	-0.04046091
14	0x3e85f425	0.2616283
15	0xbec15d30	-0.3776641
16	0x3e4aa9a3	0.19791274
17	0xbeca1078	-0.3946569
18	0xbefd371e	-0.49456114
19	0xbe1de4c3	-0.15419297
20	0x3e642226	0.22278652
21	0x3df1a515	0.11799065
22	0x3f68591f	0.9076099
23	0x3eca8bac	0.39559686

lin3.bias f4 [6]
0	0x3e50c33d	0.20386977
1	0xbf223656	-0.6336416
2	0xbe94b635	-0.29045263
3	0xbeb15777	-0.34637043
4	0xbac60b86	-0.0015109635
5	0x3f85e66f	1.0460948
